#loc = loc("./local_cache/5c/c5c3dyzot3z75ffv2rgpknn5id3oqk635hti77j23bckhoi55elb.py":18:0)
#loc1 = loc(unknown)
#loc29 = loc("./local_cache/5c/c5c3dyzot3z75ffv2rgpknn5id3oqk635hti77j23bckhoi55elb.py":44:25)
#loc56 = loc(callsite(#loc1 at #loc29))
module {
  tt.func public @triton_red_fused__to_copy_add_mean_mul_pow_rsqrt_9(%arg0: !tt.ptr<f16> {tt.divisibility = 16 : i32} loc("./local_cache/5c/c5c3dyzot3z75ffv2rgpknn5id3oqk635hti77j23bckhoi55elb.py":18:0), %arg1: !tt.ptr<f32> {tt.divisibility = 16 : i32} loc("./local_cache/5c/c5c3dyzot3z75ffv2rgpknn5id3oqk635hti77j23bckhoi55elb.py":18:0), %arg2: !tt.ptr<f16> {tt.divisibility = 16 : i32} loc("./local_cache/5c/c5c3dyzot3z75ffv2rgpknn5id3oqk635hti77j23bckhoi55elb.py":18:0), %arg3: !tt.ptr<f16> {tt.divisibility = 16 : i32} loc("./local_cache/5c/c5c3dyzot3z75ffv2rgpknn5id3oqk635hti77j23bckhoi55elb.py":18:0), %arg4: !tt.ptr<f16> {tt.divisibility = 16 : i32} loc("./local_cache/5c/c5c3dyzot3z75ffv2rgpknn5id3oqk635hti77j23bckhoi55elb.py":18:0), %arg5: i32 loc("./local_cache/5c/c5c3dyzot3z75ffv2rgpknn5id3oqk635hti77j23bckhoi55elb.py":18:0), %arg6: i32 {tt.divisibility = 16 : i32} loc("./local_cache/5c/c5c3dyzot3z75ffv2rgpknn5id3oqk635hti77j23bckhoi55elb.py":18:0)) attributes {noinline = false} {
    %cst = arith.constant dense<0.000000e+00> : tensor<1x4xf16> loc(#loc1)
    %cst_0 = arith.constant dense<0.000000e+00> : tensor<16x4xf16> loc(#loc1)
    %c4_i32 = arith.constant 4 : i32 loc(#loc1)
    %c4096_i32 = arith.constant 4096 : i32 loc(#loc1)
    %c0_i32 = arith.constant 0 : i32 loc(#loc1)
    %cst_1 = arith.constant dense<9.99999974E-6> : tensor<16x1xf32> loc(#loc1)
    %cst_2 = arith.constant dense<4.096000e+03> : tensor<16x1xf32> loc(#loc1)
    %cst_3 = arith.constant dense<4096> : tensor<16x1xi32> loc(#loc1)
    %cst_4 = arith.constant dense<4096> : tensor<1x4xi32> loc(#loc1)
    %cst_5 = arith.constant dense<0.000000e+00> : tensor<16x4xf32> loc(#loc1)
    %c16_i32 = arith.constant 16 : i32 loc(#loc1)
    %0 = tt.get_program_id x : i32 loc(#loc2)
    %1 = arith.muli %0, %c16_i32 : i32 loc(#loc3)
    %2 = tt.make_range {end = 16 : i32, start = 0 : i32} : tensor<16xi32> loc(#loc4)
    %3 = tt.expand_dims %2 {axis = 1 : i32} : tensor<16xi32> -> tensor<16x1xi32> loc(#loc5)
    %4 = tt.splat %1 : i32 -> tensor<16x1xi32> loc(#loc6)
    %5 = arith.addi %4, %3 : tensor<16x1xi32> loc(#loc6)
    %6 = tt.splat %arg5 : i32 -> tensor<16x1xi32> loc(#loc7)
    %7 = arith.cmpi slt, %5, %6 : tensor<16x1xi32> loc(#loc7)
    %8 = tt.make_range {end = 4 : i32, start = 0 : i32} : tensor<4xi32> loc(#loc8)
    %9 = tt.expand_dims %8 {axis = 0 : i32} : tensor<4xi32> -> tensor<1x4xi32> loc(#loc9)
    %10 = scf.for %arg7 = %c0_i32 to %c4096_i32 step %c4_i32 iter_args(%arg8 = %cst_5) -> (tensor<16x4xf32>)  : i32 {
      %18 = tt.splat %arg7 : i32 -> tensor<1x4xi32> loc(#loc11)
      %19 = arith.addi %18, %9 : tensor<1x4xi32> loc(#loc11)
      %20 = arith.cmpi slt, %19, %cst_4 : tensor<1x4xi32> loc(#loc12)
      %21 = arith.muli %5, %cst_3 : tensor<16x1xi32> loc(#loc13)
      %22 = tt.broadcast %19 : tensor<1x4xi32> -> tensor<16x4xi32> loc(#loc14)
      %23 = tt.broadcast %21 : tensor<16x1xi32> -> tensor<16x4xi32> loc(#loc14)
      %24 = arith.addi %22, %23 : tensor<16x4xi32> loc(#loc14)
      %25 = tt.splat %arg2 : !tt.ptr<f16> -> tensor<16x4x!tt.ptr<f16>> loc(#loc15)
      %26 = tt.addptr %25, %24 : tensor<16x4x!tt.ptr<f16>>, tensor<16x4xi32> loc(#loc15)
      %27 = tt.broadcast %20 : tensor<1x4xi1> -> tensor<16x4xi1> loc(#loc16)
      %28 = tt.broadcast %7 : tensor<16x1xi1> -> tensor<16x4xi1> loc(#loc16)
      %29 = arith.andi %27, %28 : tensor<16x4xi1> loc(#loc16)
      %30 = tt.load %26, %29, %cst_0 evictionPolicy = evict_first : tensor<16x4x!tt.ptr<f16>> loc(#loc17)
      %31 = arith.extf %30 : tensor<16x4xf16> to tensor<16x4xf32> loc(#loc18)
      %32 = tt.splat %arg0 : !tt.ptr<f16> -> tensor<16x4x!tt.ptr<f16>> loc(#loc19)
      %33 = tt.addptr %32, %24 : tensor<16x4x!tt.ptr<f16>>, tensor<16x4xi32> loc(#loc19)
      %34 = tt.load %33, %29, %cst_0 evictionPolicy = evict_first : tensor<16x4x!tt.ptr<f16>> loc(#loc20)
      %35 = arith.extf %34 : tensor<16x4xf16> to tensor<16x4xf32> loc(#loc21)
      %36 = arith.addf %31, %35 : tensor<16x4xf32> loc(#loc22)
      %37 = arith.mulf %36, %36 : tensor<16x4xf32> loc(#loc23)
      %38 = arith.addf %arg8, %37 : tensor<16x4xf32> loc(#loc24)
      %39 = arith.select %29, %38, %arg8 : tensor<16x4xi1>, tensor<16x4xf32> loc(#loc25)
      %40 = arith.truncf %36 : tensor<16x4xf32> to tensor<16x4xf16> loc(#loc26)
      tt.store %33, %40, %29 : tensor<16x4x!tt.ptr<f16>> loc(#loc26)
      scf.yield %39 : tensor<16x4xf32> loc(#loc27)
    } loc(#loc10)
    %11 = "tt.reduce"(%10) <{axis = 1 : i32}> ({
    ^bb0(%arg7: f32 loc(callsite(#loc1 at #loc29)), %arg8: f32 loc(callsite(#loc1 at #loc29))):
      %18 = arith.addf %arg7, %arg8 : f32 loc(#loc58)
      tt.reduce.return %18 : f32 loc(#loc55)
    }) : (tensor<16x4xf32>) -> tensor<16xf32> loc(#loc55)
    %12 = tt.expand_dims %11 {axis = 1 : i32} : tensor<16xf32> -> tensor<16x1xf32> loc(#loc31)
    %13 = arith.divf %12, %cst_2 : tensor<16x1xf32> loc(#loc32)
    %14 = arith.addf %13, %cst_1 : tensor<16x1xf32> loc(#loc33)
    %15 = tt.extern_elementwise %14 {libname = "", libpath = "", pure = true, symbol = "__nv_rsqrtf"} : (tensor<16x1xf32>) -> tensor<16x1xf32> loc(#loc34)
    gpu.barrier loc(#loc35)
    %16 = tt.splat %arg1 : !tt.ptr<f32> -> tensor<16x1x!tt.ptr<f32>> loc(#loc36)
    %17 = tt.addptr %16, %5 : tensor<16x1x!tt.ptr<f32>>, tensor<16x1xi32> loc(#loc36)
    tt.store %17, %15, %7 : tensor<16x1x!tt.ptr<f32>> loc(#loc37)
    scf.for %arg7 = %c0_i32 to %c4096_i32 step %c4_i32  : i32 {
      %18 = tt.splat %arg7 : i32 -> tensor<1x4xi32> loc(#loc39)
      %19 = arith.addi %18, %9 : tensor<1x4xi32> loc(#loc39)
      %20 = arith.cmpi slt, %19, %cst_4 : tensor<1x4xi32> loc(#loc40)
      %21 = tt.splat %arg3 : !tt.ptr<f16> -> tensor<1x4x!tt.ptr<f16>> loc(#loc41)
      %22 = tt.addptr %21, %19 : tensor<1x4x!tt.ptr<f16>>, tensor<1x4xi32> loc(#loc41)
      %23 = tt.load %22, %20, %cst evictionPolicy = evict_last : tensor<1x4x!tt.ptr<f16>> loc(#loc42)
      %24 = arith.extf %23 : tensor<1x4xf16> to tensor<1x4xf32> loc(#loc43)
      %25 = arith.muli %5, %cst_3 : tensor<16x1xi32> loc(#loc44)
      %26 = tt.broadcast %19 : tensor<1x4xi32> -> tensor<16x4xi32> loc(#loc45)
      %27 = tt.broadcast %25 : tensor<16x1xi32> -> tensor<16x4xi32> loc(#loc45)
      %28 = arith.addi %26, %27 : tensor<16x4xi32> loc(#loc45)
      %29 = tt.splat %arg0 : !tt.ptr<f16> -> tensor<16x4x!tt.ptr<f16>> loc(#loc46)
      %30 = tt.addptr %29, %28 : tensor<16x4x!tt.ptr<f16>>, tensor<16x4xi32> loc(#loc46)
      %31 = tt.broadcast %20 : tensor<1x4xi1> -> tensor<16x4xi1> loc(#loc47)
      %32 = tt.broadcast %7 : tensor<16x1xi1> -> tensor<16x4xi1> loc(#loc47)
      %33 = arith.andi %31, %32 : tensor<16x4xi1> loc(#loc47)
      %34 = tt.load %30, %33, %cst_0 evictionPolicy = evict_first : tensor<16x4x!tt.ptr<f16>> loc(#loc48)
      %35 = arith.extf %34 : tensor<16x4xf16> to tensor<16x4xf32> loc(#loc49)
      %36 = tt.broadcast %15 : tensor<16x1xf32> -> tensor<16x4xf32> loc(#loc50)
      %37 = arith.mulf %35, %36 : tensor<16x4xf32> loc(#loc50)
      %38 = tt.broadcast %24 : tensor<1x4xf32> -> tensor<16x4xf32> loc(#loc51)
      %39 = arith.mulf %38, %37 : tensor<16x4xf32> loc(#loc51)
      %40 = tt.splat %arg4 : !tt.ptr<f16> -> tensor<16x4x!tt.ptr<f16>> loc(#loc52)
      %41 = tt.addptr %40, %28 : tensor<16x4x!tt.ptr<f16>>, tensor<16x4xi32> loc(#loc52)
      %42 = arith.truncf %39 : tensor<16x4xf32> to tensor<16x4xf16> loc(#loc53)
      tt.store %41, %42, %33 : tensor<16x4x!tt.ptr<f16>> loc(#loc53)
    } loc(#loc38)
    tt.return loc(#loc54)
  } loc(#loc)
} loc(#loc)
#loc2 = loc("./local_cache/5c/c5c3dyzot3z75ffv2rgpknn5id3oqk635hti77j23bckhoi55elb.py":22:28)
#loc3 = loc("./local_cache/5c/c5c3dyzot3z75ffv2rgpknn5id3oqk635hti77j23bckhoi55elb.py":22:33)
#loc4 = loc("./local_cache/5c/c5c3dyzot3z75ffv2rgpknn5id3oqk635hti77j23bckhoi55elb.py":23:36)
#loc5 = loc("./local_cache/5c/c5c3dyzot3z75ffv2rgpknn5id3oqk635hti77j23bckhoi55elb.py":23:44)
#loc6 = loc("./local_cache/5c/c5c3dyzot3z75ffv2rgpknn5id3oqk635hti77j23bckhoi55elb.py":23:23)
#loc7 = loc("./local_cache/5c/c5c3dyzot3z75ffv2rgpknn5id3oqk635hti77j23bckhoi55elb.py":24:21)
#loc8 = loc("./local_cache/5c/c5c3dyzot3z75ffv2rgpknn5id3oqk635hti77j23bckhoi55elb.py":25:27)
#loc9 = loc("./local_cache/5c/c5c3dyzot3z75ffv2rgpknn5id3oqk635hti77j23bckhoi55elb.py":25:37)
#loc10 = loc("./local_cache/5c/c5c3dyzot3z75ffv2rgpknn5id3oqk635hti77j23bckhoi55elb.py":29:40)
#loc11 = loc("./local_cache/5c/c5c3dyzot3z75ffv2rgpknn5id3oqk635hti77j23bckhoi55elb.py":30:31)
#loc12 = loc("./local_cache/5c/c5c3dyzot3z75ffv2rgpknn5id3oqk635hti77j23bckhoi55elb.py":31:29)
#loc13 = loc("./local_cache/5c/c5c3dyzot3z75ffv2rgpknn5id3oqk635hti77j23bckhoi55elb.py":35:46)
#loc14 = loc("./local_cache/5c/c5c3dyzot3z75ffv2rgpknn5id3oqk635hti77j23bckhoi55elb.py":35:41)
#loc15 = loc("./local_cache/5c/c5c3dyzot3z75ffv2rgpknn5id3oqk635hti77j23bckhoi55elb.py":35:34)
#loc16 = loc("./local_cache/5c/c5c3dyzot3z75ffv2rgpknn5id3oqk635hti77j23bckhoi55elb.py":35:61)
#loc17 = loc("./local_cache/5c/c5c3dyzot3z75ffv2rgpknn5id3oqk635hti77j23bckhoi55elb.py":35:51)
#loc18 = loc("./local_cache/5c/c5c3dyzot3z75ffv2rgpknn5id3oqk635hti77j23bckhoi55elb.py":35:113)
#loc19 = loc("./local_cache/5c/c5c3dyzot3z75ffv2rgpknn5id3oqk635hti77j23bckhoi55elb.py":36:38)
#loc20 = loc("./local_cache/5c/c5c3dyzot3z75ffv2rgpknn5id3oqk635hti77j23bckhoi55elb.py":36:55)
#loc21 = loc("./local_cache/5c/c5c3dyzot3z75ffv2rgpknn5id3oqk635hti77j23bckhoi55elb.py":36:117)
#loc22 = loc("./local_cache/5c/c5c3dyzot3z75ffv2rgpknn5id3oqk635hti77j23bckhoi55elb.py":37:22)
#loc23 = loc("./local_cache/5c/c5c3dyzot3z75ffv2rgpknn5id3oqk635hti77j23bckhoi55elb.py":39:22)
#loc24 = loc("./local_cache/5c/c5c3dyzot3z75ffv2rgpknn5id3oqk635hti77j23bckhoi55elb.py":41:23)
#loc25 = loc("./local_cache/5c/c5c3dyzot3z75ffv2rgpknn5id3oqk635hti77j23bckhoi55elb.py":42:48)
#loc26 = loc("./local_cache/5c/c5c3dyzot3z75ffv2rgpknn5id3oqk635hti77j23bckhoi55elb.py":43:55)
#loc27 = loc("./local_cache/5c/c5c3dyzot3z75ffv2rgpknn5id3oqk635hti77j23bckhoi55elb.py":43:8)
#loc28 = loc("/workspace/torch-compile-caching/.venv/lib/python3.11/site-packages/triton/language/standard.py":286:36)
#loc30 = loc("/workspace/torch-compile-caching/.venv/lib/python3.11/site-packages/triton/language/standard.py":256:15)
#loc31 = loc("./local_cache/5c/c5c3dyzot3z75ffv2rgpknn5id3oqk635hti77j23bckhoi55elb.py":44:28)
#loc32 = loc("./local_cache/5c/c5c3dyzot3z75ffv2rgpknn5id3oqk635hti77j23bckhoi55elb.py":46:19)
#loc33 = loc("./local_cache/5c/c5c3dyzot3z75ffv2rgpknn5id3oqk635hti77j23bckhoi55elb.py":48:19)
#loc34 = loc("./local_cache/5c/c5c3dyzot3z75ffv2rgpknn5id3oqk635hti77j23bckhoi55elb.py":49:28)
#loc35 = loc("./local_cache/5c/c5c3dyzot3z75ffv2rgpknn5id3oqk635hti77j23bckhoi55elb.py":50:4)
#loc36 = loc("./local_cache/5c/c5c3dyzot3z75ffv2rgpknn5id3oqk635hti77j23bckhoi55elb.py":51:28)
#loc37 = loc("./local_cache/5c/c5c3dyzot3z75ffv2rgpknn5id3oqk635hti77j23bckhoi55elb.py":51:40)
#loc38 = loc("./local_cache/5c/c5c3dyzot3z75ffv2rgpknn5id3oqk635hti77j23bckhoi55elb.py":52:40)
#loc39 = loc("./local_cache/5c/c5c3dyzot3z75ffv2rgpknn5id3oqk635hti77j23bckhoi55elb.py":53:31)
#loc40 = loc("./local_cache/5c/c5c3dyzot3z75ffv2rgpknn5id3oqk635hti77j23bckhoi55elb.py":54:29)
#loc41 = loc("./local_cache/5c/c5c3dyzot3z75ffv2rgpknn5id3oqk635hti77j23bckhoi55elb.py":58:35)
#loc42 = loc("./local_cache/5c/c5c3dyzot3z75ffv2rgpknn5id3oqk635hti77j23bckhoi55elb.py":58:42)
#loc43 = loc("./local_cache/5c/c5c3dyzot3z75ffv2rgpknn5id3oqk635hti77j23bckhoi55elb.py":58:95)
#loc44 = loc("./local_cache/5c/c5c3dyzot3z75ffv2rgpknn5id3oqk635hti77j23bckhoi55elb.py":59:51)
#loc45 = loc("./local_cache/5c/c5c3dyzot3z75ffv2rgpknn5id3oqk635hti77j23bckhoi55elb.py":59:46)
#loc46 = loc("./local_cache/5c/c5c3dyzot3z75ffv2rgpknn5id3oqk635hti77j23bckhoi55elb.py":59:39)
#loc47 = loc("./local_cache/5c/c5c3dyzot3z75ffv2rgpknn5id3oqk635hti77j23bckhoi55elb.py":59:66)
#loc48 = loc("./local_cache/5c/c5c3dyzot3z75ffv2rgpknn5id3oqk635hti77j23bckhoi55elb.py":59:56)
#loc49 = loc("./local_cache/5c/c5c3dyzot3z75ffv2rgpknn5id3oqk635hti77j23bckhoi55elb.py":59:118)
#loc50 = loc("./local_cache/5c/c5c3dyzot3z75ffv2rgpknn5id3oqk635hti77j23bckhoi55elb.py":61:24)
#loc51 = loc("./local_cache/5c/c5c3dyzot3z75ffv2rgpknn5id3oqk635hti77j23bckhoi55elb.py":63:24)
#loc52 = loc("./local_cache/5c/c5c3dyzot3z75ffv2rgpknn5id3oqk635hti77j23bckhoi55elb.py":64:29)
#loc53 = loc("./local_cache/5c/c5c3dyzot3z75ffv2rgpknn5id3oqk635hti77j23bckhoi55elb.py":64:53)
#loc54 = loc("./local_cache/5c/c5c3dyzot3z75ffv2rgpknn5id3oqk635hti77j23bckhoi55elb.py":52:4)
#loc55 = loc(callsite(#loc28 at #loc29))
#loc57 = loc(callsite(#loc30 at #loc28))
#loc58 = loc(callsite(#loc57 at #loc29))
