#loc = loc("./local_cache/b6/cb6vgngmgusaq42w5g3gqwky4pfaktesyo3iqr644b5byz4ctmzl.py":18:0)
#loc1 = loc(unknown)
#loc29 = loc("./local_cache/b6/cb6vgngmgusaq42w5g3gqwky4pfaktesyo3iqr644b5byz4ctmzl.py":47:27)
#loc37 = loc(callsite(#loc1 at #loc29))
module {
  tt.func public @triton_red_fused__to_copy_add_mul_sum_5(%arg0: !tt.ptr<f16> {tt.divisibility = 16 : i32} loc("./local_cache/b6/cb6vgngmgusaq42w5g3gqwky4pfaktesyo3iqr644b5byz4ctmzl.py":18:0), %arg1: !tt.ptr<f16> {tt.divisibility = 16 : i32} loc("./local_cache/b6/cb6vgngmgusaq42w5g3gqwky4pfaktesyo3iqr644b5byz4ctmzl.py":18:0), %arg2: !tt.ptr<f16> {tt.divisibility = 16 : i32} loc("./local_cache/b6/cb6vgngmgusaq42w5g3gqwky4pfaktesyo3iqr644b5byz4ctmzl.py":18:0), %arg3: !tt.ptr<f32> {tt.divisibility = 16 : i32} loc("./local_cache/b6/cb6vgngmgusaq42w5g3gqwky4pfaktesyo3iqr644b5byz4ctmzl.py":18:0), %arg4: !tt.ptr<f16> {tt.divisibility = 16 : i32} loc("./local_cache/b6/cb6vgngmgusaq42w5g3gqwky4pfaktesyo3iqr644b5byz4ctmzl.py":18:0), %arg5: i32 {tt.divisibility = 16 : i32} loc("./local_cache/b6/cb6vgngmgusaq42w5g3gqwky4pfaktesyo3iqr644b5byz4ctmzl.py":18:0), %arg6: i32 loc("./local_cache/b6/cb6vgngmgusaq42w5g3gqwky4pfaktesyo3iqr644b5byz4ctmzl.py":18:0)) attributes {noinline = false} {
    %cst = arith.constant dense<0.000000e+00> : tensor<1x16xf16> loc(#loc1)
    %c16_i32 = arith.constant 16 : i32 loc(#loc1)
    %c0_i32 = arith.constant 0 : i32 loc(#loc1)
    %cst_0 = arith.constant dense<4096> : tensor<1x16xi32> loc(#loc1)
    %cst_1 = arith.constant dense<0.000000e+00> : tensor<1x16xf32> loc(#loc1)
    %0 = tt.get_program_id x : i32 loc(#loc2)
    %1 = tt.make_range {end = 16 : i32, start = 0 : i32} : tensor<16xi32> loc(#loc3)
    %2 = tt.expand_dims %1 {axis = 0 : i32} : tensor<16xi32> -> tensor<1x16xi32> loc(#loc4)
    %3 = scf.for %arg7 = %c0_i32 to %arg6 step %c16_i32 iter_args(%arg8 = %cst_1) -> (tensor<1x16xf32>)  : i32 {
      %9 = tt.splat %arg7 : i32 -> tensor<1x16xi32> loc(#loc6)
      %10 = arith.addi %9, %2 : tensor<1x16xi32> loc(#loc6)
      %11 = tt.splat %arg6 : i32 -> tensor<1x16xi32> loc(#loc7)
      %12 = arith.cmpi slt, %10, %11 : tensor<1x16xi32> loc(#loc7)
      %13 = arith.muli %10, %cst_0 : tensor<1x16xi32> loc(#loc8)
      %14 = tt.splat %0 : i32 -> tensor<1x16xi32> loc(#loc35)
      %15 = arith.addi %14, %13 : tensor<1x16xi32> loc(#loc9)
      %16 = tt.splat %arg0 : !tt.ptr<f16> -> tensor<1x16x!tt.ptr<f16>> loc(#loc11)
      %17 = tt.addptr %16, %15 : tensor<1x16x!tt.ptr<f16>>, tensor<1x16xi32> loc(#loc11)
      %18 = tt.load %17, %12, %cst evictionPolicy = evict_first : tensor<1x16x!tt.ptr<f16>> loc(#loc12)
      %19 = arith.extf %18 : tensor<1x16xf16> to tensor<1x16xf32> loc(#loc13)
      %20 = tt.splat %arg1 : !tt.ptr<f16> -> tensor<1x16x!tt.ptr<f16>> loc(#loc14)
      %21 = tt.addptr %20, %15 : tensor<1x16x!tt.ptr<f16>>, tensor<1x16xi32> loc(#loc14)
      %22 = tt.load %21, %12, %cst evictionPolicy = evict_first : tensor<1x16x!tt.ptr<f16>> loc(#loc15)
      %23 = arith.extf %22 : tensor<1x16xf16> to tensor<1x16xf32> loc(#loc16)
      %24 = tt.splat %arg2 : !tt.ptr<f16> -> tensor<1x16x!tt.ptr<f16>> loc(#loc17)
      %25 = tt.addptr %24, %15 : tensor<1x16x!tt.ptr<f16>>, tensor<1x16xi32> loc(#loc17)
      %26 = tt.load %25, %12, %cst evictionPolicy = evict_first : tensor<1x16x!tt.ptr<f16>> loc(#loc18)
      %27 = arith.extf %26 : tensor<1x16xf16> to tensor<1x16xf32> loc(#loc19)
      %28 = tt.splat %arg3 : !tt.ptr<f32> -> tensor<1x16x!tt.ptr<f32>> loc(#loc20)
      %29 = tt.addptr %28, %10 : tensor<1x16x!tt.ptr<f32>>, tensor<1x16xi32> loc(#loc20)
      %30 = tt.load %29, %12, %cst_1 evictionPolicy = evict_last : tensor<1x16x!tt.ptr<f32>> loc(#loc21)
      %31 = arith.addf %19, %23 : tensor<1x16xf32> loc(#loc22)
      %32 = arith.mulf %27, %30 : tensor<1x16xf32> loc(#loc23)
      %33 = arith.mulf %31, %32 : tensor<1x16xf32> loc(#loc24)
      %34 = arith.addf %arg8, %33 : tensor<1x16xf32> loc(#loc25)
      %35 = arith.select %12, %34, %arg8 : tensor<1x16xi1>, tensor<1x16xf32> loc(#loc26)
      scf.yield %35 : tensor<1x16xf32> loc(#loc27)
    } loc(#loc5)
    %4 = "tt.reduce"(%3) <{axis = 1 : i32}> ({
    ^bb0(%arg7: f32 loc(callsite(#loc1 at #loc29)), %arg8: f32 loc(callsite(#loc1 at #loc29))):
      %9 = arith.addf %arg7, %arg8 : f32 loc(#loc39)
      tt.reduce.return %9 : f32 loc(#loc36)
    }) : (tensor<1x16xf32>) -> tensor<1xf32> loc(#loc36)
    %5 = tt.expand_dims %4 {axis = 1 : i32} : tensor<1xf32> -> tensor<1x1xf32> loc(#loc31)
    %6 = tt.addptr %arg4, %0 : !tt.ptr<f16>, i32 loc(#loc32)
    %7 = tt.splat %6 : !tt.ptr<f16> -> tensor<1x1x!tt.ptr<f16>> loc(#loc32)
    %8 = arith.truncf %5 : tensor<1x1xf32> to tensor<1x1xf16> loc(#loc33)
    tt.store %7, %8 : tensor<1x1x!tt.ptr<f16>> loc(#loc33)
    tt.return loc(#loc34)
  } loc(#loc)
} loc(#loc)
#loc2 = loc("./local_cache/b6/cb6vgngmgusaq42w5g3gqwky4pfaktesyo3iqr644b5byz4ctmzl.py":22:28)
#loc3 = loc("./local_cache/b6/cb6vgngmgusaq42w5g3gqwky4pfaktesyo3iqr644b5byz4ctmzl.py":25:27)
#loc4 = loc("./local_cache/b6/cb6vgngmgusaq42w5g3gqwky4pfaktesyo3iqr644b5byz4ctmzl.py":25:37)
#loc5 = loc("./local_cache/b6/cb6vgngmgusaq42w5g3gqwky4pfaktesyo3iqr644b5byz4ctmzl.py":29:40)
#loc6 = loc("./local_cache/b6/cb6vgngmgusaq42w5g3gqwky4pfaktesyo3iqr644b5byz4ctmzl.py":30:31)
#loc7 = loc("./local_cache/b6/cb6vgngmgusaq42w5g3gqwky4pfaktesyo3iqr644b5byz4ctmzl.py":31:29)
#loc8 = loc("./local_cache/b6/cb6vgngmgusaq42w5g3gqwky4pfaktesyo3iqr644b5byz4ctmzl.py":35:44)
#loc9 = loc("./local_cache/b6/cb6vgngmgusaq42w5g3gqwky4pfaktesyo3iqr644b5byz4ctmzl.py":35:39)
#loc10 = loc("./local_cache/b6/cb6vgngmgusaq42w5g3gqwky4pfaktesyo3iqr644b5byz4ctmzl.py":23:23)
#loc11 = loc("./local_cache/b6/cb6vgngmgusaq42w5g3gqwky4pfaktesyo3iqr644b5byz4ctmzl.py":35:34)
#loc12 = loc("./local_cache/b6/cb6vgngmgusaq42w5g3gqwky4pfaktesyo3iqr644b5byz4ctmzl.py":35:51)
#loc13 = loc("./local_cache/b6/cb6vgngmgusaq42w5g3gqwky4pfaktesyo3iqr644b5byz4ctmzl.py":35:105)
#loc14 = loc("./local_cache/b6/cb6vgngmgusaq42w5g3gqwky4pfaktesyo3iqr644b5byz4ctmzl.py":36:34)
#loc15 = loc("./local_cache/b6/cb6vgngmgusaq42w5g3gqwky4pfaktesyo3iqr644b5byz4ctmzl.py":36:51)
#loc16 = loc("./local_cache/b6/cb6vgngmgusaq42w5g3gqwky4pfaktesyo3iqr644b5byz4ctmzl.py":36:105)
#loc17 = loc("./local_cache/b6/cb6vgngmgusaq42w5g3gqwky4pfaktesyo3iqr644b5byz4ctmzl.py":37:34)
#loc18 = loc("./local_cache/b6/cb6vgngmgusaq42w5g3gqwky4pfaktesyo3iqr644b5byz4ctmzl.py":37:51)
#loc19 = loc("./local_cache/b6/cb6vgngmgusaq42w5g3gqwky4pfaktesyo3iqr644b5byz4ctmzl.py":37:105)
#loc20 = loc("./local_cache/b6/cb6vgngmgusaq42w5g3gqwky4pfaktesyo3iqr644b5byz4ctmzl.py":38:34)
#loc21 = loc("./local_cache/b6/cb6vgngmgusaq42w5g3gqwky4pfaktesyo3iqr644b5byz4ctmzl.py":38:41)
#loc22 = loc("./local_cache/b6/cb6vgngmgusaq42w5g3gqwky4pfaktesyo3iqr644b5byz4ctmzl.py":39:22)
#loc23 = loc("./local_cache/b6/cb6vgngmgusaq42w5g3gqwky4pfaktesyo3iqr644b5byz4ctmzl.py":41:22)
#loc24 = loc("./local_cache/b6/cb6vgngmgusaq42w5g3gqwky4pfaktesyo3iqr644b5byz4ctmzl.py":43:22)
#loc25 = loc("./local_cache/b6/cb6vgngmgusaq42w5g3gqwky4pfaktesyo3iqr644b5byz4ctmzl.py":45:25)
#loc26 = loc("./local_cache/b6/cb6vgngmgusaq42w5g3gqwky4pfaktesyo3iqr644b5byz4ctmzl.py":46:42)
#loc27 = loc("./local_cache/b6/cb6vgngmgusaq42w5g3gqwky4pfaktesyo3iqr644b5byz4ctmzl.py":46:8)
#loc28 = loc("/workspace/torch-compile-caching/.venv/lib/python3.11/site-packages/triton/language/standard.py":286:36)
#loc30 = loc("/workspace/torch-compile-caching/.venv/lib/python3.11/site-packages/triton/language/standard.py":256:15)
#loc31 = loc("./local_cache/b6/cb6vgngmgusaq42w5g3gqwky4pfaktesyo3iqr644b5byz4ctmzl.py":47:30)
#loc32 = loc("./local_cache/b6/cb6vgngmgusaq42w5g3gqwky4pfaktesyo3iqr644b5byz4ctmzl.py":48:25)
#loc33 = loc("./local_cache/b6/cb6vgngmgusaq42w5g3gqwky4pfaktesyo3iqr644b5byz4ctmzl.py":48:37)
#loc34 = loc("./local_cache/b6/cb6vgngmgusaq42w5g3gqwky4pfaktesyo3iqr644b5byz4ctmzl.py":48:4)
#loc35 = loc(fused[#loc9, #loc10])
#loc36 = loc(callsite(#loc28 at #loc29))
#loc38 = loc(callsite(#loc30 at #loc28))
#loc39 = loc(callsite(#loc38 at #loc29))
