#loc = loc("/tmp/torchinductor_root/6d/c6dfi5krguusrox3zkmtwd6w5h4h7dbj756re5gbfvoizvxxionr.py":18:0)
#loc1 = loc(unknown)
#loc30 = loc("/tmp/torchinductor_root/6d/c6dfi5krguusrox3zkmtwd6w5h4h7dbj756re5gbfvoizvxxionr.py":45:25)
#loc63 = loc(callsite(#loc1 at #loc30))
module {
  tt.func public @triton_red_fused__to_copy_add_div_mul_pow_sum_2(%arg0: !tt.ptr<f16> {tt.divisibility = 16 : i32} loc("/tmp/torchinductor_root/6d/c6dfi5krguusrox3zkmtwd6w5h4h7dbj756re5gbfvoizvxxionr.py":18:0), %arg1: !tt.ptr<f16> {tt.divisibility = 16 : i32} loc("/tmp/torchinductor_root/6d/c6dfi5krguusrox3zkmtwd6w5h4h7dbj756re5gbfvoizvxxionr.py":18:0), %arg2: !tt.ptr<f16> {tt.divisibility = 16 : i32} loc("/tmp/torchinductor_root/6d/c6dfi5krguusrox3zkmtwd6w5h4h7dbj756re5gbfvoizvxxionr.py":18:0), %arg3: !tt.ptr<f32> {tt.divisibility = 16 : i32} loc("/tmp/torchinductor_root/6d/c6dfi5krguusrox3zkmtwd6w5h4h7dbj756re5gbfvoizvxxionr.py":18:0), %arg4: i32 loc("/tmp/torchinductor_root/6d/c6dfi5krguusrox3zkmtwd6w5h4h7dbj756re5gbfvoizvxxionr.py":18:0), %arg5: i32 {tt.divisibility = 16 : i32} loc("/tmp/torchinductor_root/6d/c6dfi5krguusrox3zkmtwd6w5h4h7dbj756re5gbfvoizvxxionr.py":18:0)) attributes {noinline = false} {
    %cst = arith.constant dense<0.000000e+00> : tensor<1x4xf16> loc(#loc1)
    %cst_0 = arith.constant dense<0.000000e+00> : tensor<4x4xf16> loc(#loc1)
    %c4096_i32 = arith.constant 4096 : i32 loc(#loc1)
    %c0_i32 = arith.constant 0 : i32 loc(#loc1)
    %cst_1 = arith.constant dense<2.000000e+00> : tensor<4x4xf32> loc(#loc1)
    %cst_2 = arith.constant dense<2.44140625E-4> : tensor<4x1xf32> loc(#loc1)
    %cst_3 = arith.constant dense<-5.000000e-01> : tensor<4x1xf32> loc(#loc1)
    %cst_4 = arith.constant dense<4096> : tensor<4x1xi32> loc(#loc1)
    %cst_5 = arith.constant dense<4096> : tensor<1x4xi32> loc(#loc1)
    %cst_6 = arith.constant dense<0.000000e+00> : tensor<4x4xf32> loc(#loc1)
    %c4_i32 = arith.constant 4 : i32 loc(#loc1)
    %0 = tt.get_program_id x : i32 loc(#loc2)
    %1 = arith.muli %0, %c4_i32 : i32 loc(#loc3)
    %2 = tt.make_range {end = 4 : i32, start = 0 : i32} : tensor<4xi32> loc(#loc4)
    %3 = tt.expand_dims %2 {axis = 1 : i32} : tensor<4xi32> -> tensor<4x1xi32> loc(#loc5)
    %4 = tt.splat %1 : i32 -> tensor<4x1xi32> loc(#loc6)
    %5 = arith.addi %4, %3 : tensor<4x1xi32> loc(#loc6)
    %6 = tt.splat %arg4 : i32 -> tensor<4x1xi32> loc(#loc7)
    %7 = arith.cmpi slt, %5, %6 : tensor<4x1xi32> loc(#loc7)
    %8 = tt.expand_dims %2 {axis = 0 : i32} : tensor<4xi32> -> tensor<1x4xi32> loc(#loc8)
    %9 = scf.for %arg6 = %c0_i32 to %c4096_i32 step %c4_i32 iter_args(%arg7 = %cst_6) -> (tensor<4x4xf32>)  : i32 {
      %15 = tt.splat %arg6 : i32 -> tensor<1x4xi32> loc(#loc10)
      %16 = arith.addi %15, %8 : tensor<1x4xi32> loc(#loc10)
      %17 = arith.cmpi slt, %16, %cst_5 : tensor<1x4xi32> loc(#loc11)
      %18 = arith.muli %5, %cst_4 : tensor<4x1xi32> loc(#loc12)
      %19 = tt.broadcast %16 : tensor<1x4xi32> -> tensor<4x4xi32> loc(#loc13)
      %20 = tt.broadcast %18 : tensor<4x1xi32> -> tensor<4x4xi32> loc(#loc13)
      %21 = arith.addi %19, %20 : tensor<4x4xi32> loc(#loc13)
      %22 = tt.splat %arg0 : !tt.ptr<f16> -> tensor<4x4x!tt.ptr<f16>> loc(#loc14)
      %23 = tt.addptr %22, %21 : tensor<4x4x!tt.ptr<f16>>, tensor<4x4xi32> loc(#loc14)
      %24 = tt.broadcast %7 : tensor<4x1xi1> -> tensor<4x4xi1> loc(#loc15)
      %25 = tt.broadcast %17 : tensor<1x4xi1> -> tensor<4x4xi1> loc(#loc15)
      %26 = arith.andi %24, %25 : tensor<4x4xi1> loc(#loc15)
      %27 = tt.load %23, %26, %cst_0 evictionPolicy = evict_last : tensor<4x4x!tt.ptr<f16>> loc(#loc16)
      %28 = arith.extf %27 : tensor<4x4xf16> to tensor<4x4xf32> loc(#loc17)
      %29 = tt.splat %arg1 : !tt.ptr<f16> -> tensor<1x4x!tt.ptr<f16>> loc(#loc18)
      %30 = tt.addptr %29, %16 : tensor<1x4x!tt.ptr<f16>>, tensor<1x4xi32> loc(#loc18)
      %31 = tt.load %30, %17, %cst evictionPolicy = evict_last : tensor<1x4x!tt.ptr<f16>> loc(#loc19)
      %32 = arith.extf %31 : tensor<1x4xf16> to tensor<1x4xf32> loc(#loc20)
      %33 = tt.splat %arg2 : !tt.ptr<f16> -> tensor<4x4x!tt.ptr<f16>> loc(#loc21)
      %34 = tt.addptr %33, %21 : tensor<4x4x!tt.ptr<f16>>, tensor<4x4xi32> loc(#loc21)
      %35 = tt.load %34, %26, %cst_0 evictionPolicy = evict_last : tensor<4x4x!tt.ptr<f16>> loc(#loc22)
      %36 = arith.extf %35 : tensor<4x4xf16> to tensor<4x4xf32> loc(#loc23)
      %37 = tt.broadcast %32 : tensor<1x4xf32> -> tensor<4x4xf32> loc(#loc24)
      %38 = arith.mulf %28, %37 : tensor<4x4xf32> loc(#loc24)
      %39 = arith.mulf %38, %36 : tensor<4x4xf32> loc(#loc25)
      %40 = arith.addf %arg7, %39 : tensor<4x4xf32> loc(#loc26)
      %41 = arith.select %26, %40, %arg7 : tensor<4x4xi1>, tensor<4x4xf32> loc(#loc27)
      scf.yield %41 : tensor<4x4xf32> loc(#loc28)
    } loc(#loc9)
    %10 = "tt.reduce"(%9) <{axis = 1 : i32}> ({
    ^bb0(%arg6: f32 loc(callsite(#loc1 at #loc30)), %arg7: f32 loc(callsite(#loc1 at #loc30))):
      %15 = arith.addf %arg6, %arg7 : f32 loc(#loc65)
      tt.reduce.return %15 : f32 loc(#loc62)
    }) : (tensor<4x4xf32>) -> tensor<4xf32> loc(#loc62)
    %11 = tt.expand_dims %10 {axis = 1 : i32} : tensor<4xf32> -> tensor<4x1xf32> loc(#loc32)
    %12 = tt.splat %arg3 : !tt.ptr<f32> -> tensor<4x1x!tt.ptr<f32>> loc(#loc33)
    %13 = tt.addptr %12, %5 : tensor<4x1x!tt.ptr<f32>>, tensor<4x1xi32> loc(#loc33)
    %14 = tt.load %13, %7 evictionPolicy = evict_last : tensor<4x1x!tt.ptr<f32>> loc(#loc34)
    scf.for %arg6 = %c0_i32 to %c4096_i32 step %c4_i32  : i32 {
      %15 = tt.splat %arg6 : i32 -> tensor<1x4xi32> loc(#loc36)
      %16 = arith.addi %15, %8 : tensor<1x4xi32> loc(#loc36)
      %17 = arith.cmpi slt, %16, %cst_5 : tensor<1x4xi32> loc(#loc37)
      %18 = arith.muli %5, %cst_4 : tensor<4x1xi32> loc(#loc38)
      %19 = tt.broadcast %16 : tensor<1x4xi32> -> tensor<4x4xi32> loc(#loc39)
      %20 = tt.broadcast %18 : tensor<4x1xi32> -> tensor<4x4xi32> loc(#loc39)
      %21 = arith.addi %19, %20 : tensor<4x4xi32> loc(#loc39)
      %22 = tt.splat %arg0 : !tt.ptr<f16> -> tensor<4x4x!tt.ptr<f16>> loc(#loc40)
      %23 = tt.addptr %22, %21 : tensor<4x4x!tt.ptr<f16>>, tensor<4x4xi32> loc(#loc40)
      %24 = tt.broadcast %7 : tensor<4x1xi1> -> tensor<4x4xi1> loc(#loc41)
      %25 = tt.broadcast %17 : tensor<1x4xi1> -> tensor<4x4xi1> loc(#loc41)
      %26 = arith.andi %24, %25 : tensor<4x4xi1> loc(#loc41)
      %27 = tt.load %23, %26, %cst_0 evictionPolicy = evict_first : tensor<4x4x!tt.ptr<f16>> loc(#loc42)
      %28 = arith.extf %27 : tensor<4x4xf16> to tensor<4x4xf32> loc(#loc43)
      %29 = tt.splat %arg1 : !tt.ptr<f16> -> tensor<1x4x!tt.ptr<f16>> loc(#loc44)
      %30 = tt.addptr %29, %16 : tensor<1x4x!tt.ptr<f16>>, tensor<1x4xi32> loc(#loc44)
      %31 = tt.load %30, %17, %cst evictionPolicy = evict_last : tensor<1x4x!tt.ptr<f16>> loc(#loc45)
      %32 = arith.extf %31 : tensor<1x4xf16> to tensor<1x4xf32> loc(#loc46)
      %33 = tt.splat %arg2 : !tt.ptr<f16> -> tensor<4x4x!tt.ptr<f16>> loc(#loc47)
      %34 = tt.addptr %33, %21 : tensor<4x4x!tt.ptr<f16>>, tensor<4x4xi32> loc(#loc47)
      %35 = tt.load %34, %26, %cst_0 evictionPolicy = evict_first : tensor<4x4x!tt.ptr<f16>> loc(#loc48)
      %36 = arith.extf %35 : tensor<4x4xf16> to tensor<4x4xf32> loc(#loc49)
      %37 = tt.broadcast %32 : tensor<1x4xf32> -> tensor<4x4xf32> loc(#loc50)
      %38 = arith.mulf %28, %37 : tensor<4x4xf32> loc(#loc50)
      %39 = tt.broadcast %14 : tensor<4x1xf32> -> tensor<4x4xf32> loc(#loc51)
      %40 = arith.mulf %38, %39 : tensor<4x4xf32> loc(#loc51)
      %41 = arith.mulf %11, %cst_3 : tensor<4x1xf32> loc(#loc52)
      %42 = arith.mulf %14, %14 : tensor<4x1xf32> loc(#loc53)
      %43 = arith.mulf %42, %14 : tensor<4x1xf32> loc(#loc54)
      %44 = arith.mulf %41, %43 : tensor<4x1xf32> loc(#loc55)
      %45 = arith.mulf %44, %cst_2 : tensor<4x1xf32> loc(#loc56)
      %46 = arith.mulf %36, %cst_1 : tensor<4x4xf32> loc(#loc57)
      %47 = tt.broadcast %45 : tensor<4x1xf32> -> tensor<4x4xf32> loc(#loc58)
      %48 = arith.mulf %47, %46 : tensor<4x4xf32> loc(#loc58)
      %49 = arith.addf %40, %48 : tensor<4x4xf32> loc(#loc59)
      %50 = arith.truncf %49 : tensor<4x4xf32> to tensor<4x4xf16> loc(#loc60)
      tt.store %23, %50, %26 : tensor<4x4x!tt.ptr<f16>> loc(#loc60)
    } loc(#loc35)
    tt.return loc(#loc61)
  } loc(#loc)
} loc(#loc)
#loc2 = loc("/tmp/torchinductor_root/6d/c6dfi5krguusrox3zkmtwd6w5h4h7dbj756re5gbfvoizvxxionr.py":22:28)
#loc3 = loc("/tmp/torchinductor_root/6d/c6dfi5krguusrox3zkmtwd6w5h4h7dbj756re5gbfvoizvxxionr.py":22:33)
#loc4 = loc("/tmp/torchinductor_root/6d/c6dfi5krguusrox3zkmtwd6w5h4h7dbj756re5gbfvoizvxxionr.py":23:36)
#loc5 = loc("/tmp/torchinductor_root/6d/c6dfi5krguusrox3zkmtwd6w5h4h7dbj756re5gbfvoizvxxionr.py":23:44)
#loc6 = loc("/tmp/torchinductor_root/6d/c6dfi5krguusrox3zkmtwd6w5h4h7dbj756re5gbfvoizvxxionr.py":23:23)
#loc7 = loc("/tmp/torchinductor_root/6d/c6dfi5krguusrox3zkmtwd6w5h4h7dbj756re5gbfvoizvxxionr.py":24:21)
#loc8 = loc("/tmp/torchinductor_root/6d/c6dfi5krguusrox3zkmtwd6w5h4h7dbj756re5gbfvoizvxxionr.py":25:37)
#loc9 = loc("/tmp/torchinductor_root/6d/c6dfi5krguusrox3zkmtwd6w5h4h7dbj756re5gbfvoizvxxionr.py":29:40)
#loc10 = loc("/tmp/torchinductor_root/6d/c6dfi5krguusrox3zkmtwd6w5h4h7dbj756re5gbfvoizvxxionr.py":30:31)
#loc11 = loc("/tmp/torchinductor_root/6d/c6dfi5krguusrox3zkmtwd6w5h4h7dbj756re5gbfvoizvxxionr.py":31:29)
#loc12 = loc("/tmp/torchinductor_root/6d/c6dfi5krguusrox3zkmtwd6w5h4h7dbj756re5gbfvoizvxxionr.py":35:50)
#loc13 = loc("/tmp/torchinductor_root/6d/c6dfi5krguusrox3zkmtwd6w5h4h7dbj756re5gbfvoizvxxionr.py":35:45)
#loc14 = loc("/tmp/torchinductor_root/6d/c6dfi5krguusrox3zkmtwd6w5h4h7dbj756re5gbfvoizvxxionr.py":35:38)
#loc15 = loc("/tmp/torchinductor_root/6d/c6dfi5krguusrox3zkmtwd6w5h4h7dbj756re5gbfvoizvxxionr.py":35:63)
#loc16 = loc("/tmp/torchinductor_root/6d/c6dfi5krguusrox3zkmtwd6w5h4h7dbj756re5gbfvoizvxxionr.py":35:55)
#loc17 = loc("/tmp/torchinductor_root/6d/c6dfi5krguusrox3zkmtwd6w5h4h7dbj756re5gbfvoizvxxionr.py":35:116)
#loc18 = loc("/tmp/torchinductor_root/6d/c6dfi5krguusrox3zkmtwd6w5h4h7dbj756re5gbfvoizvxxionr.py":36:34)
#loc19 = loc("/tmp/torchinductor_root/6d/c6dfi5krguusrox3zkmtwd6w5h4h7dbj756re5gbfvoizvxxionr.py":36:41)
#loc20 = loc("/tmp/torchinductor_root/6d/c6dfi5krguusrox3zkmtwd6w5h4h7dbj756re5gbfvoizvxxionr.py":36:94)
#loc21 = loc("/tmp/torchinductor_root/6d/c6dfi5krguusrox3zkmtwd6w5h4h7dbj756re5gbfvoizvxxionr.py":37:34)
#loc22 = loc("/tmp/torchinductor_root/6d/c6dfi5krguusrox3zkmtwd6w5h4h7dbj756re5gbfvoizvxxionr.py":37:51)
#loc23 = loc("/tmp/torchinductor_root/6d/c6dfi5krguusrox3zkmtwd6w5h4h7dbj756re5gbfvoizvxxionr.py":37:112)
#loc24 = loc("/tmp/torchinductor_root/6d/c6dfi5krguusrox3zkmtwd6w5h4h7dbj756re5gbfvoizvxxionr.py":38:22)
#loc25 = loc("/tmp/torchinductor_root/6d/c6dfi5krguusrox3zkmtwd6w5h4h7dbj756re5gbfvoizvxxionr.py":41:22)
#loc26 = loc("/tmp/torchinductor_root/6d/c6dfi5krguusrox3zkmtwd6w5h4h7dbj756re5gbfvoizvxxionr.py":43:23)
#loc27 = loc("/tmp/torchinductor_root/6d/c6dfi5krguusrox3zkmtwd6w5h4h7dbj756re5gbfvoizvxxionr.py":44:48)
#loc28 = loc("/tmp/torchinductor_root/6d/c6dfi5krguusrox3zkmtwd6w5h4h7dbj756re5gbfvoizvxxionr.py":44:8)
#loc29 = loc("/workspace/torch-compile-caching/.venv/lib/python3.11/site-packages/triton/language/standard.py":286:36)
#loc31 = loc("/workspace/torch-compile-caching/.venv/lib/python3.11/site-packages/triton/language/standard.py":256:15)
#loc32 = loc("/tmp/torchinductor_root/6d/c6dfi5krguusrox3zkmtwd6w5h4h7dbj756re5gbfvoizvxxionr.py":45:28)
#loc33 = loc("/tmp/torchinductor_root/6d/c6dfi5krguusrox3zkmtwd6w5h4h7dbj756re5gbfvoizvxxionr.py":46:31)
#loc34 = loc("/tmp/torchinductor_root/6d/c6dfi5krguusrox3zkmtwd6w5h4h7dbj756re5gbfvoizvxxionr.py":46:36)
#loc35 = loc("/tmp/torchinductor_root/6d/c6dfi5krguusrox3zkmtwd6w5h4h7dbj756re5gbfvoizvxxionr.py":47:40)
#loc36 = loc("/tmp/torchinductor_root/6d/c6dfi5krguusrox3zkmtwd6w5h4h7dbj756re5gbfvoizvxxionr.py":48:31)
#loc37 = loc("/tmp/torchinductor_root/6d/c6dfi5krguusrox3zkmtwd6w5h4h7dbj756re5gbfvoizvxxionr.py":49:29)
#loc38 = loc("/tmp/torchinductor_root/6d/c6dfi5krguusrox3zkmtwd6w5h4h7dbj756re5gbfvoizvxxionr.py":53:51)
#loc39 = loc("/tmp/torchinductor_root/6d/c6dfi5krguusrox3zkmtwd6w5h4h7dbj756re5gbfvoizvxxionr.py":53:46)
#loc40 = loc("/tmp/torchinductor_root/6d/c6dfi5krguusrox3zkmtwd6w5h4h7dbj756re5gbfvoizvxxionr.py":53:39)
#loc41 = loc("/tmp/torchinductor_root/6d/c6dfi5krguusrox3zkmtwd6w5h4h7dbj756re5gbfvoizvxxionr.py":53:64)
#loc42 = loc("/tmp/torchinductor_root/6d/c6dfi5krguusrox3zkmtwd6w5h4h7dbj756re5gbfvoizvxxionr.py":53:56)
#loc43 = loc("/tmp/torchinductor_root/6d/c6dfi5krguusrox3zkmtwd6w5h4h7dbj756re5gbfvoizvxxionr.py":53:118)
#loc44 = loc("/tmp/torchinductor_root/6d/c6dfi5krguusrox3zkmtwd6w5h4h7dbj756re5gbfvoizvxxionr.py":54:35)
#loc45 = loc("/tmp/torchinductor_root/6d/c6dfi5krguusrox3zkmtwd6w5h4h7dbj756re5gbfvoizvxxionr.py":54:42)
#loc46 = loc("/tmp/torchinductor_root/6d/c6dfi5krguusrox3zkmtwd6w5h4h7dbj756re5gbfvoizvxxionr.py":54:95)
#loc47 = loc("/tmp/torchinductor_root/6d/c6dfi5krguusrox3zkmtwd6w5h4h7dbj756re5gbfvoizvxxionr.py":55:35)
#loc48 = loc("/tmp/torchinductor_root/6d/c6dfi5krguusrox3zkmtwd6w5h4h7dbj756re5gbfvoizvxxionr.py":55:52)
#loc49 = loc("/tmp/torchinductor_root/6d/c6dfi5krguusrox3zkmtwd6w5h4h7dbj756re5gbfvoizvxxionr.py":55:114)
#loc50 = loc("/tmp/torchinductor_root/6d/c6dfi5krguusrox3zkmtwd6w5h4h7dbj756re5gbfvoizvxxionr.py":56:24)
#loc51 = loc("/tmp/torchinductor_root/6d/c6dfi5krguusrox3zkmtwd6w5h4h7dbj756re5gbfvoizvxxionr.py":58:24)
#loc52 = loc("/tmp/torchinductor_root/6d/c6dfi5krguusrox3zkmtwd6w5h4h7dbj756re5gbfvoizvxxionr.py":60:23)
#loc53 = loc("/tmp/torchinductor_root/6d/c6dfi5krguusrox3zkmtwd6w5h4h7dbj756re5gbfvoizvxxionr.py":61:24)
#loc54 = loc("/tmp/torchinductor_root/6d/c6dfi5krguusrox3zkmtwd6w5h4h7dbj756re5gbfvoizvxxionr.py":62:24)
#loc55 = loc("/tmp/torchinductor_root/6d/c6dfi5krguusrox3zkmtwd6w5h4h7dbj756re5gbfvoizvxxionr.py":63:24)
#loc56 = loc("/tmp/torchinductor_root/6d/c6dfi5krguusrox3zkmtwd6w5h4h7dbj756re5gbfvoizvxxionr.py":65:24)
#loc57 = loc("/tmp/torchinductor_root/6d/c6dfi5krguusrox3zkmtwd6w5h4h7dbj756re5gbfvoizvxxionr.py":68:24)
#loc58 = loc("/tmp/torchinductor_root/6d/c6dfi5krguusrox3zkmtwd6w5h4h7dbj756re5gbfvoizvxxionr.py":69:24)
#loc59 = loc("/tmp/torchinductor_root/6d/c6dfi5krguusrox3zkmtwd6w5h4h7dbj756re5gbfvoizvxxionr.py":70:24)
#loc60 = loc("/tmp/torchinductor_root/6d/c6dfi5krguusrox3zkmtwd6w5h4h7dbj756re5gbfvoizvxxionr.py":72:56)
#loc61 = loc("/tmp/torchinductor_root/6d/c6dfi5krguusrox3zkmtwd6w5h4h7dbj756re5gbfvoizvxxionr.py":47:4)
#loc62 = loc(callsite(#loc29 at #loc30))
#loc64 = loc(callsite(#loc31 at #loc29))
#loc65 = loc(callsite(#loc64 at #loc30))
