#loc = loc("/tmp/torchinductor_root/xd/cxdna3iuiarg5df5zltn5jik5bvuuyvpn2rygiz2q4ninczsg7t7.py":18:0)
#loc1 = loc(unknown)
#loc24 = loc("/tmp/torchinductor_root/xd/cxdna3iuiarg5df5zltn5jik5bvuuyvpn2rygiz2q4ninczsg7t7.py":43:25)
#loc57 = loc(callsite(#loc1 at #loc24))
module {
  tt.func public @triton_red_fused__to_copy_add_mean_mul_pow_rsqrt_6(%arg0: !tt.ptr<f32> {tt.divisibility = 16 : i32} loc("/tmp/torchinductor_root/xd/cxdna3iuiarg5df5zltn5jik5bvuuyvpn2rygiz2q4ninczsg7t7.py":18:0), %arg1: !tt.ptr<f16> {tt.divisibility = 16 : i32} loc("/tmp/torchinductor_root/xd/cxdna3iuiarg5df5zltn5jik5bvuuyvpn2rygiz2q4ninczsg7t7.py":18:0), %arg2: !tt.ptr<f16> {tt.divisibility = 16 : i32} loc("/tmp/torchinductor_root/xd/cxdna3iuiarg5df5zltn5jik5bvuuyvpn2rygiz2q4ninczsg7t7.py":18:0), %arg3: !tt.ptr<f16> {tt.divisibility = 16 : i32} loc("/tmp/torchinductor_root/xd/cxdna3iuiarg5df5zltn5jik5bvuuyvpn2rygiz2q4ninczsg7t7.py":18:0), %arg4: !tt.ptr<f16> {tt.divisibility = 16 : i32} loc("/tmp/torchinductor_root/xd/cxdna3iuiarg5df5zltn5jik5bvuuyvpn2rygiz2q4ninczsg7t7.py":18:0), %arg5: i32 loc("/tmp/torchinductor_root/xd/cxdna3iuiarg5df5zltn5jik5bvuuyvpn2rygiz2q4ninczsg7t7.py":18:0), %arg6: i32 {tt.divisibility = 16 : i32} loc("/tmp/torchinductor_root/xd/cxdna3iuiarg5df5zltn5jik5bvuuyvpn2rygiz2q4ninczsg7t7.py":18:0)) attributes {noinline = false} {
    %cst = arith.constant dense<0.000000e+00> : tensor<1x1024xf16> loc(#loc1)
    %c1024_i32 = arith.constant 1024 : i32 loc(#loc1)
    %c4096_i32 = arith.constant 4096 : i32 loc(#loc1)
    %c0_i32 = arith.constant 0 : i32 loc(#loc1)
    %cst_0 = arith.constant dense<9.99999974E-6> : tensor<1x1xf32> loc(#loc1)
    %cst_1 = arith.constant dense<4.096000e+03> : tensor<1x1xf32> loc(#loc1)
    %cst_2 = arith.constant dense<4096> : tensor<1x1024xi32> loc(#loc1)
    %cst_3 = arith.constant dense<0.000000e+00> : tensor<1x1024xf32> loc(#loc1)
    %0 = tt.get_program_id x : i32 loc(#loc2)
    %1 = arith.cmpi slt, %0, %arg5 : i32 loc(#loc3)
    %2 = tt.splat %1 : i1 -> tensor<1x1xi1> loc(#loc3)
    %3 = tt.make_range {end = 1024 : i32, start = 0 : i32} : tensor<1024xi32> loc(#loc4)
    %4 = tt.expand_dims %3 {axis = 0 : i32} : tensor<1024xi32> -> tensor<1x1024xi32> loc(#loc5)
    %5 = scf.for %arg7 = %c0_i32 to %c4096_i32 step %c1024_i32 iter_args(%arg8 = %cst_3) -> (tensor<1x1024xf32>)  : i32 {
      %13 = tt.splat %arg7 : i32 -> tensor<1x1024xi32> loc(#loc7)
      %14 = arith.addi %13, %4 : tensor<1x1024xi32> loc(#loc7)
      %15 = arith.cmpi slt, %14, %cst_2 : tensor<1x1024xi32> loc(#loc8)
      %16 = arith.muli %0, %c4096_i32 : i32 loc(#loc9)
      %17 = tt.splat %16 : i32 -> tensor<1x1024xi32> loc(#loc54)
      %18 = arith.addi %14, %17 : tensor<1x1024xi32> loc(#loc10)
      %19 = tt.splat %arg1 : !tt.ptr<f16> -> tensor<1x1024x!tt.ptr<f16>> loc(#loc11)
      %20 = tt.addptr %19, %18 : tensor<1x1024x!tt.ptr<f16>>, tensor<1x1024xi32> loc(#loc11)
      %21 = tt.splat %1 : i1 -> tensor<1x1024xi1> loc(#loc55)
      %22 = arith.andi %21, %15 : tensor<1x1024xi1> loc(#loc12)
      %23 = tt.load %20, %22, %cst evictionPolicy = evict_last : tensor<1x1024x!tt.ptr<f16>> loc(#loc13)
      %24 = arith.extf %23 : tensor<1x1024xf16> to tensor<1x1024xf32> loc(#loc14)
      %25 = tt.splat %arg2 : !tt.ptr<f16> -> tensor<1x1024x!tt.ptr<f16>> loc(#loc15)
      %26 = tt.addptr %25, %18 : tensor<1x1024x!tt.ptr<f16>>, tensor<1x1024xi32> loc(#loc15)
      %27 = tt.load %26, %22, %cst evictionPolicy = evict_last : tensor<1x1024x!tt.ptr<f16>> loc(#loc16)
      %28 = arith.extf %27 : tensor<1x1024xf16> to tensor<1x1024xf32> loc(#loc17)
      %29 = arith.addf %24, %28 : tensor<1x1024xf32> loc(#loc18)
      %30 = arith.mulf %29, %29 : tensor<1x1024xf32> loc(#loc19)
      %31 = arith.addf %arg8, %30 : tensor<1x1024xf32> loc(#loc20)
      %32 = arith.select %22, %31, %arg8 : tensor<1x1024xi1>, tensor<1x1024xf32> loc(#loc21)
      scf.yield %32 : tensor<1x1024xf32> loc(#loc22)
    } loc(#loc6)
    %6 = "tt.reduce"(%5) <{axis = 1 : i32}> ({
    ^bb0(%arg7: f32 loc(callsite(#loc1 at #loc24)), %arg8: f32 loc(callsite(#loc1 at #loc24))):
      %13 = arith.addf %arg7, %arg8 : f32 loc(#loc61)
      tt.reduce.return %13 : f32 loc(#loc56)
    }) : (tensor<1x1024xf32>) -> tensor<1xf32> loc(#loc56)
    %7 = tt.expand_dims %6 {axis = 1 : i32} : tensor<1xf32> -> tensor<1x1xf32> loc(#loc26)
    %8 = arith.divf %7, %cst_1 : tensor<1x1xf32> loc(#loc27)
    %9 = arith.addf %8, %cst_0 : tensor<1x1xf32> loc(#loc28)
    %10 = tt.extern_elementwise %9 {libname = "", libpath = "", pure = true, symbol = "__nv_rsqrtf"} : (tensor<1x1xf32>) -> tensor<1x1xf32> loc(#loc29)
    gpu.barrier loc(#loc30)
    %11 = tt.addptr %arg0, %0 : !tt.ptr<f32>, i32 loc(#loc31)
    %12 = tt.splat %11 : !tt.ptr<f32> -> tensor<1x1x!tt.ptr<f32>> loc(#loc31)
    tt.store %12, %10, %2 : tensor<1x1x!tt.ptr<f32>> loc(#loc32)
    scf.for %arg7 = %c0_i32 to %c4096_i32 step %c1024_i32  : i32 {
      %13 = tt.splat %arg7 : i32 -> tensor<1x1024xi32> loc(#loc34)
      %14 = arith.addi %13, %4 : tensor<1x1024xi32> loc(#loc34)
      %15 = arith.cmpi slt, %14, %cst_2 : tensor<1x1024xi32> loc(#loc35)
      %16 = tt.splat %arg3 : !tt.ptr<f16> -> tensor<1x1024x!tt.ptr<f16>> loc(#loc36)
      %17 = tt.addptr %16, %14 : tensor<1x1024x!tt.ptr<f16>>, tensor<1x1024xi32> loc(#loc36)
      %18 = tt.load %17, %15, %cst evictionPolicy = evict_last : tensor<1x1024x!tt.ptr<f16>> loc(#loc37)
      %19 = arith.extf %18 : tensor<1x1024xf16> to tensor<1x1024xf32> loc(#loc38)
      %20 = arith.muli %0, %c4096_i32 : i32 loc(#loc39)
      %21 = tt.splat %20 : i32 -> tensor<1x1024xi32> loc(#loc59)
      %22 = arith.addi %14, %21 : tensor<1x1024xi32> loc(#loc40)
      %23 = tt.splat %arg1 : !tt.ptr<f16> -> tensor<1x1024x!tt.ptr<f16>> loc(#loc41)
      %24 = tt.addptr %23, %22 : tensor<1x1024x!tt.ptr<f16>>, tensor<1x1024xi32> loc(#loc41)
      %25 = tt.splat %1 : i1 -> tensor<1x1024xi1> loc(#loc60)
      %26 = arith.andi %25, %15 : tensor<1x1024xi1> loc(#loc42)
      %27 = tt.load %24, %26, %cst evictionPolicy = evict_first : tensor<1x1024x!tt.ptr<f16>> loc(#loc43)
      %28 = arith.extf %27 : tensor<1x1024xf16> to tensor<1x1024xf32> loc(#loc44)
      %29 = tt.splat %arg2 : !tt.ptr<f16> -> tensor<1x1024x!tt.ptr<f16>> loc(#loc45)
      %30 = tt.addptr %29, %22 : tensor<1x1024x!tt.ptr<f16>>, tensor<1x1024xi32> loc(#loc45)
      %31 = tt.load %30, %26, %cst evictionPolicy = evict_first : tensor<1x1024x!tt.ptr<f16>> loc(#loc46)
      %32 = arith.extf %31 : tensor<1x1024xf16> to tensor<1x1024xf32> loc(#loc47)
      %33 = arith.addf %28, %32 : tensor<1x1024xf32> loc(#loc48)
      %34 = tt.broadcast %10 : tensor<1x1xf32> -> tensor<1x1024xf32> loc(#loc49)
      %35 = arith.mulf %33, %34 : tensor<1x1024xf32> loc(#loc49)
      %36 = arith.mulf %19, %35 : tensor<1x1024xf32> loc(#loc50)
      %37 = tt.splat %arg4 : !tt.ptr<f16> -> tensor<1x1024x!tt.ptr<f16>> loc(#loc51)
      %38 = tt.addptr %37, %22 : tensor<1x1024x!tt.ptr<f16>>, tensor<1x1024xi32> loc(#loc51)
      %39 = arith.truncf %36 : tensor<1x1024xf32> to tensor<1x1024xf16> loc(#loc52)
      tt.store %38, %39, %26 : tensor<1x1024x!tt.ptr<f16>> loc(#loc52)
    } loc(#loc33)
    tt.return loc(#loc53)
  } loc(#loc)
} loc(#loc)
#loc2 = loc("/tmp/torchinductor_root/xd/cxdna3iuiarg5df5zltn5jik5bvuuyvpn2rygiz2q4ninczsg7t7.py":22:28)
#loc3 = loc("/tmp/torchinductor_root/xd/cxdna3iuiarg5df5zltn5jik5bvuuyvpn2rygiz2q4ninczsg7t7.py":24:21)
#loc4 = loc("/tmp/torchinductor_root/xd/cxdna3iuiarg5df5zltn5jik5bvuuyvpn2rygiz2q4ninczsg7t7.py":25:27)
#loc5 = loc("/tmp/torchinductor_root/xd/cxdna3iuiarg5df5zltn5jik5bvuuyvpn2rygiz2q4ninczsg7t7.py":25:37)
#loc6 = loc("/tmp/torchinductor_root/xd/cxdna3iuiarg5df5zltn5jik5bvuuyvpn2rygiz2q4ninczsg7t7.py":29:40)
#loc7 = loc("/tmp/torchinductor_root/xd/cxdna3iuiarg5df5zltn5jik5bvuuyvpn2rygiz2q4ninczsg7t7.py":30:31)
#loc8 = loc("/tmp/torchinductor_root/xd/cxdna3iuiarg5df5zltn5jik5bvuuyvpn2rygiz2q4ninczsg7t7.py":31:29)
#loc9 = loc("/tmp/torchinductor_root/xd/cxdna3iuiarg5df5zltn5jik5bvuuyvpn2rygiz2q4ninczsg7t7.py":35:46)
#loc10 = loc("/tmp/torchinductor_root/xd/cxdna3iuiarg5df5zltn5jik5bvuuyvpn2rygiz2q4ninczsg7t7.py":35:41)
#loc11 = loc("/tmp/torchinductor_root/xd/cxdna3iuiarg5df5zltn5jik5bvuuyvpn2rygiz2q4ninczsg7t7.py":35:34)
#loc12 = loc("/tmp/torchinductor_root/xd/cxdna3iuiarg5df5zltn5jik5bvuuyvpn2rygiz2q4ninczsg7t7.py":35:59)
#loc13 = loc("/tmp/torchinductor_root/xd/cxdna3iuiarg5df5zltn5jik5bvuuyvpn2rygiz2q4ninczsg7t7.py":35:51)
#loc14 = loc("/tmp/torchinductor_root/xd/cxdna3iuiarg5df5zltn5jik5bvuuyvpn2rygiz2q4ninczsg7t7.py":35:112)
#loc15 = loc("/tmp/torchinductor_root/xd/cxdna3iuiarg5df5zltn5jik5bvuuyvpn2rygiz2q4ninczsg7t7.py":36:34)
#loc16 = loc("/tmp/torchinductor_root/xd/cxdna3iuiarg5df5zltn5jik5bvuuyvpn2rygiz2q4ninczsg7t7.py":36:51)
#loc17 = loc("/tmp/torchinductor_root/xd/cxdna3iuiarg5df5zltn5jik5bvuuyvpn2rygiz2q4ninczsg7t7.py":36:112)
#loc18 = loc("/tmp/torchinductor_root/xd/cxdna3iuiarg5df5zltn5jik5bvuuyvpn2rygiz2q4ninczsg7t7.py":37:22)
#loc19 = loc("/tmp/torchinductor_root/xd/cxdna3iuiarg5df5zltn5jik5bvuuyvpn2rygiz2q4ninczsg7t7.py":39:22)
#loc20 = loc("/tmp/torchinductor_root/xd/cxdna3iuiarg5df5zltn5jik5bvuuyvpn2rygiz2q4ninczsg7t7.py":41:23)
#loc21 = loc("/tmp/torchinductor_root/xd/cxdna3iuiarg5df5zltn5jik5bvuuyvpn2rygiz2q4ninczsg7t7.py":42:48)
#loc22 = loc("/tmp/torchinductor_root/xd/cxdna3iuiarg5df5zltn5jik5bvuuyvpn2rygiz2q4ninczsg7t7.py":42:8)
#loc23 = loc("/workspace/torch-compile-caching/.venv/lib/python3.11/site-packages/triton/language/standard.py":286:36)
#loc25 = loc("/workspace/torch-compile-caching/.venv/lib/python3.11/site-packages/triton/language/standard.py":256:15)
#loc26 = loc("/tmp/torchinductor_root/xd/cxdna3iuiarg5df5zltn5jik5bvuuyvpn2rygiz2q4ninczsg7t7.py":43:28)
#loc27 = loc("/tmp/torchinductor_root/xd/cxdna3iuiarg5df5zltn5jik5bvuuyvpn2rygiz2q4ninczsg7t7.py":45:19)
#loc28 = loc("/tmp/torchinductor_root/xd/cxdna3iuiarg5df5zltn5jik5bvuuyvpn2rygiz2q4ninczsg7t7.py":47:19)
#loc29 = loc("/tmp/torchinductor_root/xd/cxdna3iuiarg5df5zltn5jik5bvuuyvpn2rygiz2q4ninczsg7t7.py":48:28)
#loc30 = loc("/tmp/torchinductor_root/xd/cxdna3iuiarg5df5zltn5jik5bvuuyvpn2rygiz2q4ninczsg7t7.py":49:4)
#loc31 = loc("/tmp/torchinductor_root/xd/cxdna3iuiarg5df5zltn5jik5bvuuyvpn2rygiz2q4ninczsg7t7.py":50:28)
#loc32 = loc("/tmp/torchinductor_root/xd/cxdna3iuiarg5df5zltn5jik5bvuuyvpn2rygiz2q4ninczsg7t7.py":50:40)
#loc33 = loc("/tmp/torchinductor_root/xd/cxdna3iuiarg5df5zltn5jik5bvuuyvpn2rygiz2q4ninczsg7t7.py":51:40)
#loc34 = loc("/tmp/torchinductor_root/xd/cxdna3iuiarg5df5zltn5jik5bvuuyvpn2rygiz2q4ninczsg7t7.py":52:31)
#loc35 = loc("/tmp/torchinductor_root/xd/cxdna3iuiarg5df5zltn5jik5bvuuyvpn2rygiz2q4ninczsg7t7.py":53:29)
#loc36 = loc("/tmp/torchinductor_root/xd/cxdna3iuiarg5df5zltn5jik5bvuuyvpn2rygiz2q4ninczsg7t7.py":57:35)
#loc37 = loc("/tmp/torchinductor_root/xd/cxdna3iuiarg5df5zltn5jik5bvuuyvpn2rygiz2q4ninczsg7t7.py":57:42)
#loc38 = loc("/tmp/torchinductor_root/xd/cxdna3iuiarg5df5zltn5jik5bvuuyvpn2rygiz2q4ninczsg7t7.py":57:95)
#loc39 = loc("/tmp/torchinductor_root/xd/cxdna3iuiarg5df5zltn5jik5bvuuyvpn2rygiz2q4ninczsg7t7.py":58:47)
#loc40 = loc("/tmp/torchinductor_root/xd/cxdna3iuiarg5df5zltn5jik5bvuuyvpn2rygiz2q4ninczsg7t7.py":58:42)
#loc41 = loc("/tmp/torchinductor_root/xd/cxdna3iuiarg5df5zltn5jik5bvuuyvpn2rygiz2q4ninczsg7t7.py":58:35)
#loc42 = loc("/tmp/torchinductor_root/xd/cxdna3iuiarg5df5zltn5jik5bvuuyvpn2rygiz2q4ninczsg7t7.py":58:60)
#loc43 = loc("/tmp/torchinductor_root/xd/cxdna3iuiarg5df5zltn5jik5bvuuyvpn2rygiz2q4ninczsg7t7.py":58:52)
#loc44 = loc("/tmp/torchinductor_root/xd/cxdna3iuiarg5df5zltn5jik5bvuuyvpn2rygiz2q4ninczsg7t7.py":58:114)
#loc45 = loc("/tmp/torchinductor_root/xd/cxdna3iuiarg5df5zltn5jik5bvuuyvpn2rygiz2q4ninczsg7t7.py":59:35)
#loc46 = loc("/tmp/torchinductor_root/xd/cxdna3iuiarg5df5zltn5jik5bvuuyvpn2rygiz2q4ninczsg7t7.py":59:52)
#loc47 = loc("/tmp/torchinductor_root/xd/cxdna3iuiarg5df5zltn5jik5bvuuyvpn2rygiz2q4ninczsg7t7.py":59:114)
#loc48 = loc("/tmp/torchinductor_root/xd/cxdna3iuiarg5df5zltn5jik5bvuuyvpn2rygiz2q4ninczsg7t7.py":60:24)
#loc49 = loc("/tmp/torchinductor_root/xd/cxdna3iuiarg5df5zltn5jik5bvuuyvpn2rygiz2q4ninczsg7t7.py":62:24)
#loc50 = loc("/tmp/torchinductor_root/xd/cxdna3iuiarg5df5zltn5jik5bvuuyvpn2rygiz2q4ninczsg7t7.py":64:24)
#loc51 = loc("/tmp/torchinductor_root/xd/cxdna3iuiarg5df5zltn5jik5bvuuyvpn2rygiz2q4ninczsg7t7.py":65:29)
#loc52 = loc("/tmp/torchinductor_root/xd/cxdna3iuiarg5df5zltn5jik5bvuuyvpn2rygiz2q4ninczsg7t7.py":65:53)
#loc53 = loc("/tmp/torchinductor_root/xd/cxdna3iuiarg5df5zltn5jik5bvuuyvpn2rygiz2q4ninczsg7t7.py":51:4)
#loc54 = loc(fused[#loc10, #loc9])
#loc55 = loc(fused[#loc12, #loc3])
#loc56 = loc(callsite(#loc23 at #loc24))
#loc58 = loc(callsite(#loc25 at #loc23))
#loc59 = loc(fused[#loc40, #loc39])
#loc60 = loc(fused[#loc42, #loc3])
#loc61 = loc(callsite(#loc58 at #loc24))
