#loc = loc("/tmp/torchinductor_root/o4/co4nmxvvabannmoyltgvv474a5vyv6vjk2hrq3xz5okm532j7cpu.py":18:0)
#loc1 = loc(unknown)
#loc27 = loc("/tmp/torchinductor_root/o4/co4nmxvvabannmoyltgvv474a5vyv6vjk2hrq3xz5okm532j7cpu.py":45:25)
#loc34 = loc(callsite(#loc1 at #loc27))
module {
  tt.func public @triton_red_fused__to_copy_mul_sum_1(%arg0: !tt.ptr<f16> {tt.divisibility = 16 : i32} loc("/tmp/torchinductor_root/o4/co4nmxvvabannmoyltgvv474a5vyv6vjk2hrq3xz5okm532j7cpu.py":18:0), %arg1: !tt.ptr<f16> {tt.divisibility = 16 : i32} loc("/tmp/torchinductor_root/o4/co4nmxvvabannmoyltgvv474a5vyv6vjk2hrq3xz5okm532j7cpu.py":18:0), %arg2: !tt.ptr<f32> {tt.divisibility = 16 : i32} loc("/tmp/torchinductor_root/o4/co4nmxvvabannmoyltgvv474a5vyv6vjk2hrq3xz5okm532j7cpu.py":18:0), %arg3: !tt.ptr<f16> {tt.divisibility = 16 : i32} loc("/tmp/torchinductor_root/o4/co4nmxvvabannmoyltgvv474a5vyv6vjk2hrq3xz5okm532j7cpu.py":18:0), %arg4: i32 {tt.divisibility = 16 : i32} loc("/tmp/torchinductor_root/o4/co4nmxvvabannmoyltgvv474a5vyv6vjk2hrq3xz5okm532j7cpu.py":18:0), %arg5: i32 loc("/tmp/torchinductor_root/o4/co4nmxvvabannmoyltgvv474a5vyv6vjk2hrq3xz5okm532j7cpu.py":18:0)) attributes {noinline = false} {
    %cst = arith.constant dense<0.000000e+00> : tensor<64x64xf16> loc(#loc1)
    %c0_i32 = arith.constant 0 : i32 loc(#loc1)
    %cst_0 = arith.constant dense<0.000000e+00> : tensor<1x64xf32> loc(#loc1)
    %cst_1 = arith.constant dense<4096> : tensor<1x64xi32> loc(#loc1)
    %cst_2 = arith.constant dense<0.000000e+00> : tensor<64x64xf32> loc(#loc1)
    %c64_i32 = arith.constant 64 : i32 loc(#loc1)
    %0 = tt.get_program_id x : i32 loc(#loc2)
    %1 = arith.muli %0, %c64_i32 : i32 loc(#loc3)
    %2 = tt.make_range {end = 64 : i32, start = 0 : i32} : tensor<64xi32> loc(#loc4)
    %3 = tt.expand_dims %2 {axis = 1 : i32} : tensor<64xi32> -> tensor<64x1xi32> loc(#loc5)
    %4 = tt.splat %1 : i32 -> tensor<64x1xi32> loc(#loc6)
    %5 = arith.addi %4, %3 : tensor<64x1xi32> loc(#loc6)
    %6 = tt.expand_dims %2 {axis = 0 : i32} : tensor<64xi32> -> tensor<1x64xi32> loc(#loc7)
    %7 = scf.for %arg6 = %c0_i32 to %arg5 step %c64_i32 iter_args(%arg7 = %cst_2) -> (tensor<64x64xf32>)  : i32 {
      %13 = tt.splat %arg6 : i32 -> tensor<1x64xi32> loc(#loc9)
      %14 = arith.addi %13, %6 : tensor<1x64xi32> loc(#loc9)
      %15 = tt.splat %arg5 : i32 -> tensor<1x64xi32> loc(#loc10)
      %16 = arith.cmpi slt, %14, %15 : tensor<1x64xi32> loc(#loc10)
      %17 = arith.muli %14, %cst_1 : tensor<1x64xi32> loc(#loc11)
      %18 = tt.broadcast %5 : tensor<64x1xi32> -> tensor<64x64xi32> loc(#loc12)
      %19 = tt.broadcast %17 : tensor<1x64xi32> -> tensor<64x64xi32> loc(#loc12)
      %20 = arith.addi %18, %19 : tensor<64x64xi32> loc(#loc12)
      %21 = tt.splat %arg0 : !tt.ptr<f16> -> tensor<64x64x!tt.ptr<f16>> loc(#loc13)
      %22 = tt.addptr %21, %20 : tensor<64x64x!tt.ptr<f16>>, tensor<64x64xi32> loc(#loc13)
      %23 = tt.broadcast %16 : tensor<1x64xi1> -> tensor<64x64xi1> loc(#loc14)
      %24 = tt.load %22, %23, %cst evictionPolicy = evict_first : tensor<64x64x!tt.ptr<f16>> loc(#loc14)
      %25 = arith.extf %24 : tensor<64x64xf16> to tensor<64x64xf32> loc(#loc15)
      %26 = tt.splat %arg1 : !tt.ptr<f16> -> tensor<64x64x!tt.ptr<f16>> loc(#loc16)
      %27 = tt.addptr %26, %20 : tensor<64x64x!tt.ptr<f16>>, tensor<64x64xi32> loc(#loc16)
      %28 = tt.load %27, %23, %cst evictionPolicy = evict_first : tensor<64x64x!tt.ptr<f16>> loc(#loc17)
      %29 = arith.extf %28 : tensor<64x64xf16> to tensor<64x64xf32> loc(#loc18)
      %30 = tt.splat %arg2 : !tt.ptr<f32> -> tensor<1x64x!tt.ptr<f32>> loc(#loc19)
      %31 = tt.addptr %30, %14 : tensor<1x64x!tt.ptr<f32>>, tensor<1x64xi32> loc(#loc19)
      %32 = tt.load %31, %16, %cst_0 evictionPolicy = evict_last : tensor<1x64x!tt.ptr<f32>> loc(#loc20)
      %33 = tt.broadcast %32 : tensor<1x64xf32> -> tensor<64x64xf32> loc(#loc21)
      %34 = arith.mulf %29, %33 : tensor<64x64xf32> loc(#loc21)
      %35 = arith.mulf %25, %34 : tensor<64x64xf32> loc(#loc22)
      %36 = arith.addf %arg7, %35 : tensor<64x64xf32> loc(#loc23)
      %37 = arith.select %23, %36, %arg7 : tensor<64x64xi1>, tensor<64x64xf32> loc(#loc24)
      scf.yield %37 : tensor<64x64xf32> loc(#loc25)
    } loc(#loc8)
    %8 = "tt.reduce"(%7) <{axis = 1 : i32}> ({
    ^bb0(%arg6: f32 loc(callsite(#loc1 at #loc27)), %arg7: f32 loc(callsite(#loc1 at #loc27))):
      %13 = arith.addf %arg6, %arg7 : f32 loc(#loc36)
      tt.reduce.return %13 : f32 loc(#loc33)
    }) : (tensor<64x64xf32>) -> tensor<64xf32> loc(#loc33)
    %9 = tt.expand_dims %8 {axis = 1 : i32} : tensor<64xf32> -> tensor<64x1xf32> loc(#loc29)
    %10 = tt.splat %arg3 : !tt.ptr<f16> -> tensor<64x1x!tt.ptr<f16>> loc(#loc30)
    %11 = tt.addptr %10, %5 : tensor<64x1x!tt.ptr<f16>>, tensor<64x1xi32> loc(#loc30)
    %12 = arith.truncf %9 : tensor<64x1xf32> to tensor<64x1xf16> loc(#loc31)
    tt.store %11, %12 : tensor<64x1x!tt.ptr<f16>> loc(#loc31)
    tt.return loc(#loc32)
  } loc(#loc)
} loc(#loc)
#loc2 = loc("/tmp/torchinductor_root/o4/co4nmxvvabannmoyltgvv474a5vyv6vjk2hrq3xz5okm532j7cpu.py":22:28)
#loc3 = loc("/tmp/torchinductor_root/o4/co4nmxvvabannmoyltgvv474a5vyv6vjk2hrq3xz5okm532j7cpu.py":22:33)
#loc4 = loc("/tmp/torchinductor_root/o4/co4nmxvvabannmoyltgvv474a5vyv6vjk2hrq3xz5okm532j7cpu.py":23:36)
#loc5 = loc("/tmp/torchinductor_root/o4/co4nmxvvabannmoyltgvv474a5vyv6vjk2hrq3xz5okm532j7cpu.py":23:44)
#loc6 = loc("/tmp/torchinductor_root/o4/co4nmxvvabannmoyltgvv474a5vyv6vjk2hrq3xz5okm532j7cpu.py":23:23)
#loc7 = loc("/tmp/torchinductor_root/o4/co4nmxvvabannmoyltgvv474a5vyv6vjk2hrq3xz5okm532j7cpu.py":25:37)
#loc8 = loc("/tmp/torchinductor_root/o4/co4nmxvvabannmoyltgvv474a5vyv6vjk2hrq3xz5okm532j7cpu.py":29:40)
#loc9 = loc("/tmp/torchinductor_root/o4/co4nmxvvabannmoyltgvv474a5vyv6vjk2hrq3xz5okm532j7cpu.py":30:31)
#loc10 = loc("/tmp/torchinductor_root/o4/co4nmxvvabannmoyltgvv474a5vyv6vjk2hrq3xz5okm532j7cpu.py":31:29)
#loc11 = loc("/tmp/torchinductor_root/o4/co4nmxvvabannmoyltgvv474a5vyv6vjk2hrq3xz5okm532j7cpu.py":35:44)
#loc12 = loc("/tmp/torchinductor_root/o4/co4nmxvvabannmoyltgvv474a5vyv6vjk2hrq3xz5okm532j7cpu.py":35:39)
#loc13 = loc("/tmp/torchinductor_root/o4/co4nmxvvabannmoyltgvv474a5vyv6vjk2hrq3xz5okm532j7cpu.py":35:34)
#loc14 = loc("/tmp/torchinductor_root/o4/co4nmxvvabannmoyltgvv474a5vyv6vjk2hrq3xz5okm532j7cpu.py":35:51)
#loc15 = loc("/tmp/torchinductor_root/o4/co4nmxvvabannmoyltgvv474a5vyv6vjk2hrq3xz5okm532j7cpu.py":35:105)
#loc16 = loc("/tmp/torchinductor_root/o4/co4nmxvvabannmoyltgvv474a5vyv6vjk2hrq3xz5okm532j7cpu.py":36:34)
#loc17 = loc("/tmp/torchinductor_root/o4/co4nmxvvabannmoyltgvv474a5vyv6vjk2hrq3xz5okm532j7cpu.py":36:51)
#loc18 = loc("/tmp/torchinductor_root/o4/co4nmxvvabannmoyltgvv474a5vyv6vjk2hrq3xz5okm532j7cpu.py":36:105)
#loc19 = loc("/tmp/torchinductor_root/o4/co4nmxvvabannmoyltgvv474a5vyv6vjk2hrq3xz5okm532j7cpu.py":37:34)
#loc20 = loc("/tmp/torchinductor_root/o4/co4nmxvvabannmoyltgvv474a5vyv6vjk2hrq3xz5okm532j7cpu.py":37:41)
#loc21 = loc("/tmp/torchinductor_root/o4/co4nmxvvabannmoyltgvv474a5vyv6vjk2hrq3xz5okm532j7cpu.py":39:22)
#loc22 = loc("/tmp/torchinductor_root/o4/co4nmxvvabannmoyltgvv474a5vyv6vjk2hrq3xz5okm532j7cpu.py":41:22)
#loc23 = loc("/tmp/torchinductor_root/o4/co4nmxvvabannmoyltgvv474a5vyv6vjk2hrq3xz5okm532j7cpu.py":43:23)
#loc24 = loc("/tmp/torchinductor_root/o4/co4nmxvvabannmoyltgvv474a5vyv6vjk2hrq3xz5okm532j7cpu.py":44:40)
#loc25 = loc("/tmp/torchinductor_root/o4/co4nmxvvabannmoyltgvv474a5vyv6vjk2hrq3xz5okm532j7cpu.py":44:8)
#loc26 = loc("/workspace/torch-compile-caching/.venv/lib/python3.11/site-packages/triton/language/standard.py":286:36)
#loc28 = loc("/workspace/torch-compile-caching/.venv/lib/python3.11/site-packages/triton/language/standard.py":256:15)
#loc29 = loc("/tmp/torchinductor_root/o4/co4nmxvvabannmoyltgvv474a5vyv6vjk2hrq3xz5okm532j7cpu.py":45:28)
#loc30 = loc("/tmp/torchinductor_root/o4/co4nmxvvabannmoyltgvv474a5vyv6vjk2hrq3xz5okm532j7cpu.py":46:25)
#loc31 = loc("/tmp/torchinductor_root/o4/co4nmxvvabannmoyltgvv474a5vyv6vjk2hrq3xz5okm532j7cpu.py":46:36)
#loc32 = loc("/tmp/torchinductor_root/o4/co4nmxvvabannmoyltgvv474a5vyv6vjk2hrq3xz5okm532j7cpu.py":46:4)
#loc33 = loc(callsite(#loc26 at #loc27))
#loc35 = loc(callsite(#loc28 at #loc26))
#loc36 = loc(callsite(#loc35 at #loc27))
