#loc = loc("./local_cache/ye/cyebsf3anhyuxewgys2gminc36tn6uo6fybpryty274aelqwsxrt.py":18:0)
#loc1 = loc(unknown)
#loc35 = loc("./local_cache/ye/cyebsf3anhyuxewgys2gminc36tn6uo6fybpryty274aelqwsxrt.py":47:27)
#loc76 = loc(callsite(#loc1 at #loc35))
module {
  tt.func public @triton_red_fused__to_copy_add_div_mul_pow_sum_4(%arg0: !tt.ptr<f16> {tt.divisibility = 16 : i32} loc("./local_cache/ye/cyebsf3anhyuxewgys2gminc36tn6uo6fybpryty274aelqwsxrt.py":18:0), %arg1: !tt.ptr<f16> {tt.divisibility = 16 : i32} loc("./local_cache/ye/cyebsf3anhyuxewgys2gminc36tn6uo6fybpryty274aelqwsxrt.py":18:0), %arg2: !tt.ptr<f16> {tt.divisibility = 16 : i32} loc("./local_cache/ye/cyebsf3anhyuxewgys2gminc36tn6uo6fybpryty274aelqwsxrt.py":18:0), %arg3: !tt.ptr<f16> {tt.divisibility = 16 : i32} loc("./local_cache/ye/cyebsf3anhyuxewgys2gminc36tn6uo6fybpryty274aelqwsxrt.py":18:0), %arg4: !tt.ptr<f16> {tt.divisibility = 16 : i32} loc("./local_cache/ye/cyebsf3anhyuxewgys2gminc36tn6uo6fybpryty274aelqwsxrt.py":18:0), %arg5: !tt.ptr<f32> {tt.divisibility = 16 : i32} loc("./local_cache/ye/cyebsf3anhyuxewgys2gminc36tn6uo6fybpryty274aelqwsxrt.py":18:0), %arg6: i32 loc("./local_cache/ye/cyebsf3anhyuxewgys2gminc36tn6uo6fybpryty274aelqwsxrt.py":18:0), %arg7: i32 {tt.divisibility = 16 : i32} loc("./local_cache/ye/cyebsf3anhyuxewgys2gminc36tn6uo6fybpryty274aelqwsxrt.py":18:0)) attributes {noinline = false} {
    %cst = arith.constant dense<0.000000e+00> : tensor<1x8xf16> loc(#loc1)
    %cst_0 = arith.constant dense<0.000000e+00> : tensor<16x8xf16> loc(#loc1)
    %c8_i32 = arith.constant 8 : i32 loc(#loc1)
    %c4096_i32 = arith.constant 4096 : i32 loc(#loc1)
    %c0_i32 = arith.constant 0 : i32 loc(#loc1)
    %cst_1 = arith.constant dense<2.000000e+00> : tensor<16x8xf32> loc(#loc1)
    %cst_2 = arith.constant dense<2.44140625E-4> : tensor<16x1xf32> loc(#loc1)
    %cst_3 = arith.constant dense<-5.000000e-01> : tensor<16x1xf32> loc(#loc1)
    %cst_4 = arith.constant dense<4096> : tensor<16x1xi32> loc(#loc1)
    %cst_5 = arith.constant dense<4096> : tensor<1x8xi32> loc(#loc1)
    %cst_6 = arith.constant dense<0.000000e+00> : tensor<16x8xf32> loc(#loc1)
    %c16_i32 = arith.constant 16 : i32 loc(#loc1)
    %0 = tt.get_program_id x : i32 loc(#loc2)
    %1 = arith.muli %0, %c16_i32 : i32 loc(#loc3)
    %2 = tt.make_range {end = 16 : i32, start = 0 : i32} : tensor<16xi32> loc(#loc4)
    %3 = tt.expand_dims %2 {axis = 1 : i32} : tensor<16xi32> -> tensor<16x1xi32> loc(#loc5)
    %4 = tt.splat %1 : i32 -> tensor<16x1xi32> loc(#loc6)
    %5 = arith.addi %4, %3 : tensor<16x1xi32> loc(#loc6)
    %6 = tt.splat %arg6 : i32 -> tensor<16x1xi32> loc(#loc7)
    %7 = arith.cmpi slt, %5, %6 : tensor<16x1xi32> loc(#loc7)
    %8 = tt.make_range {end = 8 : i32, start = 0 : i32} : tensor<8xi32> loc(#loc8)
    %9 = tt.expand_dims %8 {axis = 0 : i32} : tensor<8xi32> -> tensor<1x8xi32> loc(#loc9)
    %10 = scf.for %arg8 = %c0_i32 to %c4096_i32 step %c8_i32 iter_args(%arg9 = %cst_6) -> (tensor<16x8xf32>)  : i32 {
      %16 = tt.splat %arg8 : i32 -> tensor<1x8xi32> loc(#loc11)
      %17 = arith.addi %16, %9 : tensor<1x8xi32> loc(#loc11)
      %18 = arith.cmpi slt, %17, %cst_5 : tensor<1x8xi32> loc(#loc12)
      %19 = arith.muli %5, %cst_4 : tensor<16x1xi32> loc(#loc13)
      %20 = tt.broadcast %17 : tensor<1x8xi32> -> tensor<16x8xi32> loc(#loc14)
      %21 = tt.broadcast %19 : tensor<16x1xi32> -> tensor<16x8xi32> loc(#loc14)
      %22 = arith.addi %20, %21 : tensor<16x8xi32> loc(#loc14)
      %23 = tt.splat %arg1 : !tt.ptr<f16> -> tensor<16x8x!tt.ptr<f16>> loc(#loc15)
      %24 = tt.addptr %23, %22 : tensor<16x8x!tt.ptr<f16>>, tensor<16x8xi32> loc(#loc15)
      %25 = tt.broadcast %18 : tensor<1x8xi1> -> tensor<16x8xi1> loc(#loc16)
      %26 = tt.broadcast %7 : tensor<16x1xi1> -> tensor<16x8xi1> loc(#loc16)
      %27 = arith.andi %25, %26 : tensor<16x8xi1> loc(#loc16)
      %28 = tt.load %24, %27, %cst_0 evictionPolicy = evict_last : tensor<16x8x!tt.ptr<f16>> loc(#loc17)
      %29 = arith.extf %28 : tensor<16x8xf16> to tensor<16x8xf32> loc(#loc18)
      %30 = tt.splat %arg2 : !tt.ptr<f16> -> tensor<16x8x!tt.ptr<f16>> loc(#loc19)
      %31 = tt.addptr %30, %22 : tensor<16x8x!tt.ptr<f16>>, tensor<16x8xi32> loc(#loc19)
      %32 = tt.load %31, %27, %cst_0 evictionPolicy = evict_last : tensor<16x8x!tt.ptr<f16>> loc(#loc20)
      %33 = arith.extf %32 : tensor<16x8xf16> to tensor<16x8xf32> loc(#loc21)
      %34 = tt.splat %arg3 : !tt.ptr<f16> -> tensor<1x8x!tt.ptr<f16>> loc(#loc22)
      %35 = tt.addptr %34, %17 : tensor<1x8x!tt.ptr<f16>>, tensor<1x8xi32> loc(#loc22)
      %36 = tt.load %35, %18, %cst evictionPolicy = evict_last : tensor<1x8x!tt.ptr<f16>> loc(#loc23)
      %37 = arith.extf %36 : tensor<1x8xf16> to tensor<1x8xf32> loc(#loc24)
      %38 = tt.splat %arg4 : !tt.ptr<f16> -> tensor<16x8x!tt.ptr<f16>> loc(#loc25)
      %39 = tt.addptr %38, %22 : tensor<16x8x!tt.ptr<f16>>, tensor<16x8xi32> loc(#loc25)
      %40 = tt.load %39, %27, %cst_0 evictionPolicy = evict_last : tensor<16x8x!tt.ptr<f16>> loc(#loc26)
      %41 = arith.extf %40 : tensor<16x8xf16> to tensor<16x8xf32> loc(#loc27)
      %42 = arith.addf %29, %33 : tensor<16x8xf32> loc(#loc28)
      %43 = tt.broadcast %37 : tensor<1x8xf32> -> tensor<16x8xf32> loc(#loc29)
      %44 = arith.mulf %42, %43 : tensor<16x8xf32> loc(#loc29)
      %45 = arith.mulf %44, %41 : tensor<16x8xf32> loc(#loc30)
      %46 = arith.addf %arg9, %45 : tensor<16x8xf32> loc(#loc31)
      %47 = arith.select %27, %46, %arg9 : tensor<16x8xi1>, tensor<16x8xf32> loc(#loc32)
      scf.yield %47 : tensor<16x8xf32> loc(#loc33)
    } loc(#loc10)
    %11 = "tt.reduce"(%10) <{axis = 1 : i32}> ({
    ^bb0(%arg8: f32 loc(callsite(#loc1 at #loc35)), %arg9: f32 loc(callsite(#loc1 at #loc35))):
      %16 = arith.addf %arg8, %arg9 : f32 loc(#loc78)
      tt.reduce.return %16 : f32 loc(#loc75)
    }) : (tensor<16x8xf32>) -> tensor<16xf32> loc(#loc75)
    %12 = tt.expand_dims %11 {axis = 1 : i32} : tensor<16xf32> -> tensor<16x1xf32> loc(#loc37)
    %13 = tt.splat %arg5 : !tt.ptr<f32> -> tensor<16x1x!tt.ptr<f32>> loc(#loc38)
    %14 = tt.addptr %13, %5 : tensor<16x1x!tt.ptr<f32>>, tensor<16x1xi32> loc(#loc38)
    %15 = tt.load %14, %7 evictionPolicy = evict_last : tensor<16x1x!tt.ptr<f32>> loc(#loc39)
    scf.for %arg8 = %c0_i32 to %c4096_i32 step %c8_i32  : i32 {
      %16 = tt.splat %arg8 : i32 -> tensor<1x8xi32> loc(#loc41)
      %17 = arith.addi %16, %9 : tensor<1x8xi32> loc(#loc41)
      %18 = arith.cmpi slt, %17, %cst_5 : tensor<1x8xi32> loc(#loc42)
      %19 = arith.muli %5, %cst_4 : tensor<16x1xi32> loc(#loc43)
      %20 = tt.broadcast %17 : tensor<1x8xi32> -> tensor<16x8xi32> loc(#loc44)
      %21 = tt.broadcast %19 : tensor<16x1xi32> -> tensor<16x8xi32> loc(#loc44)
      %22 = arith.addi %20, %21 : tensor<16x8xi32> loc(#loc44)
      %23 = tt.splat %arg0 : !tt.ptr<f16> -> tensor<16x8x!tt.ptr<f16>> loc(#loc45)
      %24 = tt.addptr %23, %22 : tensor<16x8x!tt.ptr<f16>>, tensor<16x8xi32> loc(#loc45)
      %25 = tt.broadcast %18 : tensor<1x8xi1> -> tensor<16x8xi1> loc(#loc46)
      %26 = tt.broadcast %7 : tensor<16x1xi1> -> tensor<16x8xi1> loc(#loc46)
      %27 = arith.andi %25, %26 : tensor<16x8xi1> loc(#loc46)
      %28 = tt.load %24, %27, %cst_0 evictionPolicy = evict_first : tensor<16x8x!tt.ptr<f16>> loc(#loc47)
      %29 = arith.extf %28 : tensor<16x8xf16> to tensor<16x8xf32> loc(#loc48)
      %30 = tt.splat %arg1 : !tt.ptr<f16> -> tensor<16x8x!tt.ptr<f16>> loc(#loc49)
      %31 = tt.addptr %30, %22 : tensor<16x8x!tt.ptr<f16>>, tensor<16x8xi32> loc(#loc49)
      %32 = tt.load %31, %27, %cst_0 evictionPolicy = evict_first : tensor<16x8x!tt.ptr<f16>> loc(#loc50)
      %33 = arith.extf %32 : tensor<16x8xf16> to tensor<16x8xf32> loc(#loc51)
      %34 = tt.splat %arg2 : !tt.ptr<f16> -> tensor<16x8x!tt.ptr<f16>> loc(#loc52)
      %35 = tt.addptr %34, %22 : tensor<16x8x!tt.ptr<f16>>, tensor<16x8xi32> loc(#loc52)
      %36 = tt.load %35, %27, %cst_0 evictionPolicy = evict_first : tensor<16x8x!tt.ptr<f16>> loc(#loc53)
      %37 = arith.extf %36 : tensor<16x8xf16> to tensor<16x8xf32> loc(#loc54)
      %38 = tt.splat %arg3 : !tt.ptr<f16> -> tensor<1x8x!tt.ptr<f16>> loc(#loc55)
      %39 = tt.addptr %38, %17 : tensor<1x8x!tt.ptr<f16>>, tensor<1x8xi32> loc(#loc55)
      %40 = tt.load %39, %18, %cst evictionPolicy = evict_last : tensor<1x8x!tt.ptr<f16>> loc(#loc56)
      %41 = arith.extf %40 : tensor<1x8xf16> to tensor<1x8xf32> loc(#loc57)
      %42 = tt.splat %arg4 : !tt.ptr<f16> -> tensor<16x8x!tt.ptr<f16>> loc(#loc58)
      %43 = tt.addptr %42, %22 : tensor<16x8x!tt.ptr<f16>>, tensor<16x8xi32> loc(#loc58)
      %44 = tt.load %43, %27, %cst_0 evictionPolicy = evict_first : tensor<16x8x!tt.ptr<f16>> loc(#loc59)
      %45 = arith.extf %44 : tensor<16x8xf16> to tensor<16x8xf32> loc(#loc60)
      %46 = arith.addf %33, %37 : tensor<16x8xf32> loc(#loc61)
      %47 = tt.broadcast %41 : tensor<1x8xf32> -> tensor<16x8xf32> loc(#loc62)
      %48 = arith.mulf %46, %47 : tensor<16x8xf32> loc(#loc62)
      %49 = tt.broadcast %15 : tensor<16x1xf32> -> tensor<16x8xf32> loc(#loc63)
      %50 = arith.mulf %48, %49 : tensor<16x8xf32> loc(#loc63)
      %51 = arith.mulf %12, %cst_3 : tensor<16x1xf32> loc(#loc64)
      %52 = arith.mulf %15, %15 : tensor<16x1xf32> loc(#loc65)
      %53 = arith.mulf %52, %15 : tensor<16x1xf32> loc(#loc66)
      %54 = arith.mulf %51, %53 : tensor<16x1xf32> loc(#loc67)
      %55 = arith.mulf %54, %cst_2 : tensor<16x1xf32> loc(#loc68)
      %56 = arith.mulf %45, %cst_1 : tensor<16x8xf32> loc(#loc69)
      %57 = tt.broadcast %55 : tensor<16x1xf32> -> tensor<16x8xf32> loc(#loc70)
      %58 = arith.mulf %57, %56 : tensor<16x8xf32> loc(#loc70)
      %59 = arith.addf %50, %58 : tensor<16x8xf32> loc(#loc71)
      %60 = arith.addf %29, %59 : tensor<16x8xf32> loc(#loc72)
      %61 = arith.truncf %60 : tensor<16x8xf32> to tensor<16x8xf16> loc(#loc73)
      tt.store %24, %61, %27 : tensor<16x8x!tt.ptr<f16>> loc(#loc73)
    } loc(#loc40)
    tt.return loc(#loc74)
  } loc(#loc)
} loc(#loc)
#loc2 = loc("./local_cache/ye/cyebsf3anhyuxewgys2gminc36tn6uo6fybpryty274aelqwsxrt.py":22:28)
#loc3 = loc("./local_cache/ye/cyebsf3anhyuxewgys2gminc36tn6uo6fybpryty274aelqwsxrt.py":22:33)
#loc4 = loc("./local_cache/ye/cyebsf3anhyuxewgys2gminc36tn6uo6fybpryty274aelqwsxrt.py":23:36)
#loc5 = loc("./local_cache/ye/cyebsf3anhyuxewgys2gminc36tn6uo6fybpryty274aelqwsxrt.py":23:44)
#loc6 = loc("./local_cache/ye/cyebsf3anhyuxewgys2gminc36tn6uo6fybpryty274aelqwsxrt.py":23:23)
#loc7 = loc("./local_cache/ye/cyebsf3anhyuxewgys2gminc36tn6uo6fybpryty274aelqwsxrt.py":24:21)
#loc8 = loc("./local_cache/ye/cyebsf3anhyuxewgys2gminc36tn6uo6fybpryty274aelqwsxrt.py":25:27)
#loc9 = loc("./local_cache/ye/cyebsf3anhyuxewgys2gminc36tn6uo6fybpryty274aelqwsxrt.py":25:37)
#loc10 = loc("./local_cache/ye/cyebsf3anhyuxewgys2gminc36tn6uo6fybpryty274aelqwsxrt.py":29:40)
#loc11 = loc("./local_cache/ye/cyebsf3anhyuxewgys2gminc36tn6uo6fybpryty274aelqwsxrt.py":30:31)
#loc12 = loc("./local_cache/ye/cyebsf3anhyuxewgys2gminc36tn6uo6fybpryty274aelqwsxrt.py":31:29)
#loc13 = loc("./local_cache/ye/cyebsf3anhyuxewgys2gminc36tn6uo6fybpryty274aelqwsxrt.py":35:46)
#loc14 = loc("./local_cache/ye/cyebsf3anhyuxewgys2gminc36tn6uo6fybpryty274aelqwsxrt.py":35:41)
#loc15 = loc("./local_cache/ye/cyebsf3anhyuxewgys2gminc36tn6uo6fybpryty274aelqwsxrt.py":35:34)
#loc16 = loc("./local_cache/ye/cyebsf3anhyuxewgys2gminc36tn6uo6fybpryty274aelqwsxrt.py":35:61)
#loc17 = loc("./local_cache/ye/cyebsf3anhyuxewgys2gminc36tn6uo6fybpryty274aelqwsxrt.py":35:51)
#loc18 = loc("./local_cache/ye/cyebsf3anhyuxewgys2gminc36tn6uo6fybpryty274aelqwsxrt.py":35:112)
#loc19 = loc("./local_cache/ye/cyebsf3anhyuxewgys2gminc36tn6uo6fybpryty274aelqwsxrt.py":36:34)
#loc20 = loc("./local_cache/ye/cyebsf3anhyuxewgys2gminc36tn6uo6fybpryty274aelqwsxrt.py":36:51)
#loc21 = loc("./local_cache/ye/cyebsf3anhyuxewgys2gminc36tn6uo6fybpryty274aelqwsxrt.py":36:112)
#loc22 = loc("./local_cache/ye/cyebsf3anhyuxewgys2gminc36tn6uo6fybpryty274aelqwsxrt.py":37:34)
#loc23 = loc("./local_cache/ye/cyebsf3anhyuxewgys2gminc36tn6uo6fybpryty274aelqwsxrt.py":37:41)
#loc24 = loc("./local_cache/ye/cyebsf3anhyuxewgys2gminc36tn6uo6fybpryty274aelqwsxrt.py":37:94)
#loc25 = loc("./local_cache/ye/cyebsf3anhyuxewgys2gminc36tn6uo6fybpryty274aelqwsxrt.py":38:34)
#loc26 = loc("./local_cache/ye/cyebsf3anhyuxewgys2gminc36tn6uo6fybpryty274aelqwsxrt.py":38:51)
#loc27 = loc("./local_cache/ye/cyebsf3anhyuxewgys2gminc36tn6uo6fybpryty274aelqwsxrt.py":38:112)
#loc28 = loc("./local_cache/ye/cyebsf3anhyuxewgys2gminc36tn6uo6fybpryty274aelqwsxrt.py":39:22)
#loc29 = loc("./local_cache/ye/cyebsf3anhyuxewgys2gminc36tn6uo6fybpryty274aelqwsxrt.py":40:22)
#loc30 = loc("./local_cache/ye/cyebsf3anhyuxewgys2gminc36tn6uo6fybpryty274aelqwsxrt.py":43:22)
#loc31 = loc("./local_cache/ye/cyebsf3anhyuxewgys2gminc36tn6uo6fybpryty274aelqwsxrt.py":45:25)
#loc32 = loc("./local_cache/ye/cyebsf3anhyuxewgys2gminc36tn6uo6fybpryty274aelqwsxrt.py":46:50)
#loc33 = loc("./local_cache/ye/cyebsf3anhyuxewgys2gminc36tn6uo6fybpryty274aelqwsxrt.py":46:8)
#loc34 = loc("/workspace/torch-compile-caching/.venv/lib/python3.11/site-packages/triton/language/standard.py":286:36)
#loc36 = loc("/workspace/torch-compile-caching/.venv/lib/python3.11/site-packages/triton/language/standard.py":256:15)
#loc37 = loc("./local_cache/ye/cyebsf3anhyuxewgys2gminc36tn6uo6fybpryty274aelqwsxrt.py":47:30)
#loc38 = loc("./local_cache/ye/cyebsf3anhyuxewgys2gminc36tn6uo6fybpryty274aelqwsxrt.py":48:31)
#loc39 = loc("./local_cache/ye/cyebsf3anhyuxewgys2gminc36tn6uo6fybpryty274aelqwsxrt.py":48:36)
#loc40 = loc("./local_cache/ye/cyebsf3anhyuxewgys2gminc36tn6uo6fybpryty274aelqwsxrt.py":49:40)
#loc41 = loc("./local_cache/ye/cyebsf3anhyuxewgys2gminc36tn6uo6fybpryty274aelqwsxrt.py":50:31)
#loc42 = loc("./local_cache/ye/cyebsf3anhyuxewgys2gminc36tn6uo6fybpryty274aelqwsxrt.py":51:29)
#loc43 = loc("./local_cache/ye/cyebsf3anhyuxewgys2gminc36tn6uo6fybpryty274aelqwsxrt.py":55:51)
#loc44 = loc("./local_cache/ye/cyebsf3anhyuxewgys2gminc36tn6uo6fybpryty274aelqwsxrt.py":55:46)
#loc45 = loc("./local_cache/ye/cyebsf3anhyuxewgys2gminc36tn6uo6fybpryty274aelqwsxrt.py":55:39)
#loc46 = loc("./local_cache/ye/cyebsf3anhyuxewgys2gminc36tn6uo6fybpryty274aelqwsxrt.py":55:66)
#loc47 = loc("./local_cache/ye/cyebsf3anhyuxewgys2gminc36tn6uo6fybpryty274aelqwsxrt.py":55:56)
#loc48 = loc("./local_cache/ye/cyebsf3anhyuxewgys2gminc36tn6uo6fybpryty274aelqwsxrt.py":55:118)
#loc49 = loc("./local_cache/ye/cyebsf3anhyuxewgys2gminc36tn6uo6fybpryty274aelqwsxrt.py":56:35)
#loc50 = loc("./local_cache/ye/cyebsf3anhyuxewgys2gminc36tn6uo6fybpryty274aelqwsxrt.py":56:52)
#loc51 = loc("./local_cache/ye/cyebsf3anhyuxewgys2gminc36tn6uo6fybpryty274aelqwsxrt.py":56:114)
#loc52 = loc("./local_cache/ye/cyebsf3anhyuxewgys2gminc36tn6uo6fybpryty274aelqwsxrt.py":57:35)
#loc53 = loc("./local_cache/ye/cyebsf3anhyuxewgys2gminc36tn6uo6fybpryty274aelqwsxrt.py":57:52)
#loc54 = loc("./local_cache/ye/cyebsf3anhyuxewgys2gminc36tn6uo6fybpryty274aelqwsxrt.py":57:114)
#loc55 = loc("./local_cache/ye/cyebsf3anhyuxewgys2gminc36tn6uo6fybpryty274aelqwsxrt.py":58:35)
#loc56 = loc("./local_cache/ye/cyebsf3anhyuxewgys2gminc36tn6uo6fybpryty274aelqwsxrt.py":58:42)
#loc57 = loc("./local_cache/ye/cyebsf3anhyuxewgys2gminc36tn6uo6fybpryty274aelqwsxrt.py":58:95)
#loc58 = loc("./local_cache/ye/cyebsf3anhyuxewgys2gminc36tn6uo6fybpryty274aelqwsxrt.py":59:35)
#loc59 = loc("./local_cache/ye/cyebsf3anhyuxewgys2gminc36tn6uo6fybpryty274aelqwsxrt.py":59:52)
#loc60 = loc("./local_cache/ye/cyebsf3anhyuxewgys2gminc36tn6uo6fybpryty274aelqwsxrt.py":59:114)
#loc61 = loc("./local_cache/ye/cyebsf3anhyuxewgys2gminc36tn6uo6fybpryty274aelqwsxrt.py":60:24)
#loc62 = loc("./local_cache/ye/cyebsf3anhyuxewgys2gminc36tn6uo6fybpryty274aelqwsxrt.py":61:24)
#loc63 = loc("./local_cache/ye/cyebsf3anhyuxewgys2gminc36tn6uo6fybpryty274aelqwsxrt.py":63:24)
#loc64 = loc("./local_cache/ye/cyebsf3anhyuxewgys2gminc36tn6uo6fybpryty274aelqwsxrt.py":65:24)
#loc65 = loc("./local_cache/ye/cyebsf3anhyuxewgys2gminc36tn6uo6fybpryty274aelqwsxrt.py":66:24)
#loc66 = loc("./local_cache/ye/cyebsf3anhyuxewgys2gminc36tn6uo6fybpryty274aelqwsxrt.py":67:24)
#loc67 = loc("./local_cache/ye/cyebsf3anhyuxewgys2gminc36tn6uo6fybpryty274aelqwsxrt.py":68:24)
#loc68 = loc("./local_cache/ye/cyebsf3anhyuxewgys2gminc36tn6uo6fybpryty274aelqwsxrt.py":70:24)
#loc69 = loc("./local_cache/ye/cyebsf3anhyuxewgys2gminc36tn6uo6fybpryty274aelqwsxrt.py":73:24)
#loc70 = loc("./local_cache/ye/cyebsf3anhyuxewgys2gminc36tn6uo6fybpryty274aelqwsxrt.py":74:24)
#loc71 = loc("./local_cache/ye/cyebsf3anhyuxewgys2gminc36tn6uo6fybpryty274aelqwsxrt.py":75:24)
#loc72 = loc("./local_cache/ye/cyebsf3anhyuxewgys2gminc36tn6uo6fybpryty274aelqwsxrt.py":77:24)
#loc73 = loc("./local_cache/ye/cyebsf3anhyuxewgys2gminc36tn6uo6fybpryty274aelqwsxrt.py":78:56)
#loc74 = loc("./local_cache/ye/cyebsf3anhyuxewgys2gminc36tn6uo6fybpryty274aelqwsxrt.py":49:4)
#loc75 = loc(callsite(#loc34 at #loc35))
#loc77 = loc(callsite(#loc36 at #loc34))
#loc78 = loc(callsite(#loc77 at #loc35))
