#loc = loc("/tmp/torchinductor_root/tx/ctxmaw5t3t256dq7yrmhxrht563tkigfbxuljvcdxlsac2hljoin.py":18:0)
#loc1 = loc(unknown)
#loc38 = loc("/tmp/torchinductor_root/tx/ctxmaw5t3t256dq7yrmhxrht563tkigfbxuljvcdxlsac2hljoin.py":49:27)
#loc99 = loc(callsite(#loc1 at #loc38))
module {
  tt.func public @triton_red_fused__to_copy_add_div_embedding_dense_backward_mul_pow_sum_13(%arg0: !tt.ptr<f16> {tt.divisibility = 16 : i32} loc("/tmp/torchinductor_root/tx/ctxmaw5t3t256dq7yrmhxrht563tkigfbxuljvcdxlsac2hljoin.py":18:0), %arg1: !tt.ptr<f16> {tt.divisibility = 16 : i32} loc("/tmp/torchinductor_root/tx/ctxmaw5t3t256dq7yrmhxrht563tkigfbxuljvcdxlsac2hljoin.py":18:0), %arg2: !tt.ptr<f16> {tt.divisibility = 16 : i32} loc("/tmp/torchinductor_root/tx/ctxmaw5t3t256dq7yrmhxrht563tkigfbxuljvcdxlsac2hljoin.py":18:0), %arg3: !tt.ptr<f16> {tt.divisibility = 16 : i32} loc("/tmp/torchinductor_root/tx/ctxmaw5t3t256dq7yrmhxrht563tkigfbxuljvcdxlsac2hljoin.py":18:0), %arg4: !tt.ptr<f16> {tt.divisibility = 16 : i32} loc("/tmp/torchinductor_root/tx/ctxmaw5t3t256dq7yrmhxrht563tkigfbxuljvcdxlsac2hljoin.py":18:0), %arg5: !tt.ptr<i64> {tt.divisibility = 16 : i32} loc("/tmp/torchinductor_root/tx/ctxmaw5t3t256dq7yrmhxrht563tkigfbxuljvcdxlsac2hljoin.py":18:0), %arg6: !tt.ptr<f16> {tt.divisibility = 16 : i32} loc("/tmp/torchinductor_root/tx/ctxmaw5t3t256dq7yrmhxrht563tkigfbxuljvcdxlsac2hljoin.py":18:0), %arg7: !tt.ptr<f32> {tt.divisibility = 16 : i32} loc("/tmp/torchinductor_root/tx/ctxmaw5t3t256dq7yrmhxrht563tkigfbxuljvcdxlsac2hljoin.py":18:0), %arg8: !tt.ptr<f32> {tt.divisibility = 16 : i32} loc("/tmp/torchinductor_root/tx/ctxmaw5t3t256dq7yrmhxrht563tkigfbxuljvcdxlsac2hljoin.py":18:0), %arg9: i32 loc("/tmp/torchinductor_root/tx/ctxmaw5t3t256dq7yrmhxrht563tkigfbxuljvcdxlsac2hljoin.py":18:0), %arg10: i32 {tt.divisibility = 16 : i32} loc("/tmp/torchinductor_root/tx/ctxmaw5t3t256dq7yrmhxrht563tkigfbxuljvcdxlsac2hljoin.py":18:0)) attributes {noinline = false} {
    %cst = arith.constant dense<4096> : tensor<64x1xi64> loc(#loc1)
    %cst_0 = arith.constant dense<128256> : tensor<64x1xi64> loc(#loc1)
    %cst_1 = arith.constant dense<0> : tensor<64x1xi64> loc(#loc1)
    %cst_2 = arith.constant dense<0.000000e+00> : tensor<1x64xf16> loc(#loc1)
    %cst_3 = arith.constant dense<0.000000e+00> : tensor<64x64xf16> loc(#loc1)
    %c4096_i32 = arith.constant 4096 : i32 loc(#loc1)
    %c0_i32 = arith.constant 0 : i32 loc(#loc1)
    %cst_4 = arith.constant dense<true> : tensor<64x1xi1> loc(#loc1)
    %cst_5 = arith.constant dense<2.000000e+00> : tensor<64x64xf32> loc(#loc1)
    %cst_6 = arith.constant dense<2.44140625E-4> : tensor<64x1xf32> loc(#loc1)
    %cst_7 = arith.constant dense<-5.000000e-01> : tensor<64x1xf32> loc(#loc1)
    %cst_8 = arith.constant dense<-1> : tensor<64x1xi64> loc(#loc1)
    %cst_9 = arith.constant dense<4096> : tensor<64x1xi32> loc(#loc1)
    %cst_10 = arith.constant dense<4096> : tensor<1x64xi32> loc(#loc1)
    %cst_11 = arith.constant dense<0.000000e+00> : tensor<64x64xf32> loc(#loc1)
    %c64_i32 = arith.constant 64 : i32 loc(#loc1)
    %0 = tt.get_program_id x : i32 loc(#loc2)
    %1 = arith.muli %0, %c64_i32 : i32 loc(#loc3)
    %2 = tt.make_range {end = 64 : i32, start = 0 : i32} : tensor<64xi32> loc(#loc4)
    %3 = tt.expand_dims %2 {axis = 1 : i32} : tensor<64xi32> -> tensor<64x1xi32> loc(#loc5)
    %4 = tt.splat %1 : i32 -> tensor<64x1xi32> loc(#loc6)
    %5 = arith.addi %4, %3 : tensor<64x1xi32> loc(#loc6)
    %6 = tt.splat %arg9 : i32 -> tensor<64x1xi32> loc(#loc7)
    %7 = arith.cmpi slt, %5, %6 : tensor<64x1xi32> loc(#loc7)
    %8 = tt.expand_dims %2 {axis = 0 : i32} : tensor<64xi32> -> tensor<1x64xi32> loc(#loc8)
    %9 = scf.for %arg11 = %c0_i32 to %c4096_i32 step %c64_i32 iter_args(%arg12 = %cst_11) -> (tensor<64x64xf32>)  : i32 {
      %18 = tt.splat %arg11 : i32 -> tensor<1x64xi32> loc(#loc10)
      %19 = arith.addi %18, %8 : tensor<1x64xi32> loc(#loc10)
      %20 = arith.cmpi slt, %19, %cst_10 : tensor<1x64xi32> loc(#loc11)
      %21 = arith.muli %5, %cst_9 : tensor<64x1xi32> loc(#loc12)
      %22 = tt.broadcast %19 : tensor<1x64xi32> -> tensor<64x64xi32> loc(#loc13)
      %23 = tt.broadcast %21 : tensor<64x1xi32> -> tensor<64x64xi32> loc(#loc13)
      %24 = arith.addi %22, %23 : tensor<64x64xi32> loc(#loc13)
      %25 = tt.splat %arg0 : !tt.ptr<f16> -> tensor<64x64x!tt.ptr<f16>> loc(#loc14)
      %26 = tt.addptr %25, %24 : tensor<64x64x!tt.ptr<f16>>, tensor<64x64xi32> loc(#loc14)
      %27 = tt.broadcast %7 : tensor<64x1xi1> -> tensor<64x64xi1> loc(#loc15)
      %28 = tt.broadcast %20 : tensor<1x64xi1> -> tensor<64x64xi1> loc(#loc15)
      %29 = arith.andi %27, %28 : tensor<64x64xi1> loc(#loc15)
      %30 = tt.load %26, %29, %cst_3 evictionPolicy = evict_last : tensor<64x64x!tt.ptr<f16>> loc(#loc16)
      %31 = arith.extf %30 : tensor<64x64xf16> to tensor<64x64xf32> loc(#loc17)
      %32 = tt.splat %arg1 : !tt.ptr<f16> -> tensor<64x64x!tt.ptr<f16>> loc(#loc18)
      %33 = tt.addptr %32, %24 : tensor<64x64x!tt.ptr<f16>>, tensor<64x64xi32> loc(#loc18)
      %34 = tt.load %33, %29, %cst_3 evictionPolicy = evict_last : tensor<64x64x!tt.ptr<f16>> loc(#loc19)
      %35 = arith.extf %34 : tensor<64x64xf16> to tensor<64x64xf32> loc(#loc20)
      %36 = tt.splat %arg2 : !tt.ptr<f16> -> tensor<64x64x!tt.ptr<f16>> loc(#loc21)
      %37 = tt.addptr %36, %24 : tensor<64x64x!tt.ptr<f16>>, tensor<64x64xi32> loc(#loc21)
      %38 = tt.load %37, %29, %cst_3 evictionPolicy = evict_last : tensor<64x64x!tt.ptr<f16>> loc(#loc22)
      %39 = arith.extf %38 : tensor<64x64xf16> to tensor<64x64xf32> loc(#loc23)
      %40 = tt.splat %arg3 : !tt.ptr<f16> -> tensor<1x64x!tt.ptr<f16>> loc(#loc24)
      %41 = tt.addptr %40, %19 : tensor<1x64x!tt.ptr<f16>>, tensor<1x64xi32> loc(#loc24)
      %42 = tt.load %41, %20, %cst_2 evictionPolicy = evict_last : tensor<1x64x!tt.ptr<f16>> loc(#loc25)
      %43 = arith.extf %42 : tensor<1x64xf16> to tensor<1x64xf32> loc(#loc26)
      %44 = tt.splat %arg4 : !tt.ptr<f16> -> tensor<64x64x!tt.ptr<f16>> loc(#loc27)
      %45 = tt.addptr %44, %24 : tensor<64x64x!tt.ptr<f16>>, tensor<64x64xi32> loc(#loc27)
      %46 = tt.load %45, %29, %cst_3 evictionPolicy = evict_last : tensor<64x64x!tt.ptr<f16>> loc(#loc28)
      %47 = arith.extf %46 : tensor<64x64xf16> to tensor<64x64xf32> loc(#loc29)
      %48 = arith.addf %31, %35 : tensor<64x64xf32> loc(#loc30)
      %49 = arith.addf %48, %39 : tensor<64x64xf32> loc(#loc31)
      %50 = tt.broadcast %43 : tensor<1x64xf32> -> tensor<64x64xf32> loc(#loc32)
      %51 = arith.mulf %49, %50 : tensor<64x64xf32> loc(#loc32)
      %52 = arith.mulf %51, %47 : tensor<64x64xf32> loc(#loc33)
      %53 = arith.addf %arg12, %52 : tensor<64x64xf32> loc(#loc34)
      %54 = arith.select %29, %53, %arg12 : tensor<64x64xi1>, tensor<64x64xf32> loc(#loc35)
      scf.yield %54 : tensor<64x64xf32> loc(#loc36)
    } loc(#loc9)
    %10 = "tt.reduce"(%9) <{axis = 1 : i32}> ({
    ^bb0(%arg11: f32 loc(callsite(#loc1 at #loc38)), %arg12: f32 loc(callsite(#loc1 at #loc38))):
      %18 = arith.addf %arg11, %arg12 : f32 loc(#loc101)
      tt.reduce.return %18 : f32 loc(#loc98)
    }) : (tensor<64x64xf32>) -> tensor<64xf32> loc(#loc98)
    %11 = tt.expand_dims %10 {axis = 1 : i32} : tensor<64xf32> -> tensor<64x1xf32> loc(#loc40)
    %12 = tt.splat %arg5 : !tt.ptr<i64> -> tensor<64x1x!tt.ptr<i64>> loc(#loc41)
    %13 = tt.addptr %12, %5 : tensor<64x1x!tt.ptr<i64>>, tensor<64x1xi32> loc(#loc41)
    %14 = tt.load %13, %7 evictionPolicy = evict_last : tensor<64x1x!tt.ptr<i64>> loc(#loc42)
    %15 = tt.splat %arg7 : !tt.ptr<f32> -> tensor<64x1x!tt.ptr<f32>> loc(#loc43)
    %16 = tt.addptr %15, %5 : tensor<64x1x!tt.ptr<f32>>, tensor<64x1xi32> loc(#loc43)
    %17 = tt.load %16, %7 evictionPolicy = evict_last : tensor<64x1x!tt.ptr<f32>> loc(#loc44)
    scf.for %arg11 = %c0_i32 to %c4096_i32 step %c64_i32  : i32 {
      %18 = tt.splat %arg11 : i32 -> tensor<1x64xi32> loc(#loc46)
      %19 = arith.addi %18, %8 : tensor<1x64xi32> loc(#loc46)
      %20 = arith.cmpi slt, %19, %cst_10 : tensor<1x64xi32> loc(#loc47)
      %21 = arith.muli %5, %cst_9 : tensor<64x1xi32> loc(#loc48)
      %22 = tt.broadcast %19 : tensor<1x64xi32> -> tensor<64x64xi32> loc(#loc49)
      %23 = tt.broadcast %21 : tensor<64x1xi32> -> tensor<64x64xi32> loc(#loc49)
      %24 = arith.addi %22, %23 : tensor<64x64xi32> loc(#loc49)
      %25 = tt.splat %arg6 : !tt.ptr<f16> -> tensor<64x64x!tt.ptr<f16>> loc(#loc50)
      %26 = tt.addptr %25, %24 : tensor<64x64x!tt.ptr<f16>>, tensor<64x64xi32> loc(#loc50)
      %27 = tt.broadcast %7 : tensor<64x1xi1> -> tensor<64x64xi1> loc(#loc51)
      %28 = tt.broadcast %20 : tensor<1x64xi1> -> tensor<64x64xi1> loc(#loc51)
      %29 = arith.andi %27, %28 : tensor<64x64xi1> loc(#loc51)
      %30 = tt.load %26, %29, %cst_3 evictionPolicy = evict_first : tensor<64x64x!tt.ptr<f16>> loc(#loc52)
      %31 = arith.extf %30 : tensor<64x64xf16> to tensor<64x64xf32> loc(#loc53)
      %32 = tt.splat %arg0 : !tt.ptr<f16> -> tensor<64x64x!tt.ptr<f16>> loc(#loc54)
      %33 = tt.addptr %32, %24 : tensor<64x64x!tt.ptr<f16>>, tensor<64x64xi32> loc(#loc54)
      %34 = tt.load %33, %29, %cst_3 evictionPolicy = evict_first : tensor<64x64x!tt.ptr<f16>> loc(#loc55)
      %35 = arith.extf %34 : tensor<64x64xf16> to tensor<64x64xf32> loc(#loc56)
      %36 = tt.splat %arg1 : !tt.ptr<f16> -> tensor<64x64x!tt.ptr<f16>> loc(#loc57)
      %37 = tt.addptr %36, %24 : tensor<64x64x!tt.ptr<f16>>, tensor<64x64xi32> loc(#loc57)
      %38 = tt.load %37, %29, %cst_3 evictionPolicy = evict_first : tensor<64x64x!tt.ptr<f16>> loc(#loc58)
      %39 = arith.extf %38 : tensor<64x64xf16> to tensor<64x64xf32> loc(#loc59)
      %40 = tt.splat %arg2 : !tt.ptr<f16> -> tensor<64x64x!tt.ptr<f16>> loc(#loc60)
      %41 = tt.addptr %40, %24 : tensor<64x64x!tt.ptr<f16>>, tensor<64x64xi32> loc(#loc60)
      %42 = tt.load %41, %29, %cst_3 evictionPolicy = evict_first : tensor<64x64x!tt.ptr<f16>> loc(#loc61)
      %43 = arith.extf %42 : tensor<64x64xf16> to tensor<64x64xf32> loc(#loc62)
      %44 = tt.splat %arg3 : !tt.ptr<f16> -> tensor<1x64x!tt.ptr<f16>> loc(#loc63)
      %45 = tt.addptr %44, %19 : tensor<1x64x!tt.ptr<f16>>, tensor<1x64xi32> loc(#loc63)
      %46 = tt.load %45, %20, %cst_2 evictionPolicy = evict_last : tensor<1x64x!tt.ptr<f16>> loc(#loc64)
      %47 = arith.extf %46 : tensor<1x64xf16> to tensor<1x64xf32> loc(#loc65)
      %48 = tt.splat %arg4 : !tt.ptr<f16> -> tensor<64x64x!tt.ptr<f16>> loc(#loc66)
      %49 = tt.addptr %48, %24 : tensor<64x64x!tt.ptr<f16>>, tensor<64x64xi32> loc(#loc66)
      %50 = tt.load %49, %29, %cst_3 evictionPolicy = evict_first : tensor<64x64x!tt.ptr<f16>> loc(#loc67)
      %51 = arith.extf %50 : tensor<64x64xf16> to tensor<64x64xf32> loc(#loc68)
      %52 = arith.cmpi eq, %14, %cst_8 : tensor<64x1xi64> loc(#loc69)
      %53 = arith.addf %35, %39 : tensor<64x64xf32> loc(#loc70)
      %54 = arith.addf %53, %43 : tensor<64x64xf32> loc(#loc71)
      %55 = tt.broadcast %47 : tensor<1x64xf32> -> tensor<64x64xf32> loc(#loc72)
      %56 = arith.mulf %54, %55 : tensor<64x64xf32> loc(#loc72)
      %57 = tt.broadcast %17 : tensor<64x1xf32> -> tensor<64x64xf32> loc(#loc73)
      %58 = arith.mulf %56, %57 : tensor<64x64xf32> loc(#loc73)
      %59 = arith.mulf %11, %cst_7 : tensor<64x1xf32> loc(#loc74)
      %60 = arith.mulf %17, %17 : tensor<64x1xf32> loc(#loc75)
      %61 = arith.mulf %60, %17 : tensor<64x1xf32> loc(#loc76)
      %62 = arith.mulf %59, %61 : tensor<64x1xf32> loc(#loc77)
      %63 = arith.mulf %62, %cst_6 : tensor<64x1xf32> loc(#loc78)
      %64 = arith.mulf %51, %cst_5 : tensor<64x64xf32> loc(#loc79)
      %65 = tt.broadcast %63 : tensor<64x1xf32> -> tensor<64x64xf32> loc(#loc80)
      %66 = arith.mulf %65, %64 : tensor<64x64xf32> loc(#loc80)
      %67 = arith.addf %58, %66 : tensor<64x64xf32> loc(#loc81)
      %68 = arith.addf %31, %67 : tensor<64x64xf32> loc(#loc82)
      %69 = tt.broadcast %52 : tensor<64x1xi1> -> tensor<64x64xi1> loc(#loc83)
      %70 = arith.select %69, %cst_11, %68 : tensor<64x64xi1>, tensor<64x64xf32> loc(#loc83)
      %71 = arith.addi %14, %cst_0 : tensor<64x1xi64> loc(#loc84)
      %72 = arith.cmpi slt, %14, %cst_1 : tensor<64x1xi64> loc(#loc85)
      %73 = arith.select %72, %71, %14 : tensor<64x1xi1>, tensor<64x1xi64> loc(#loc86)
      %74 = arith.cmpi sge, %73, %cst_1 : tensor<64x1xi64> loc(#loc87)
      %75 = arith.cmpi slt, %73, %cst_0 : tensor<64x1xi64> loc(#loc88)
      %76 = arith.andi %74, %75 : tensor<64x1xi1> loc(#loc89)
      %77 = arith.xori %7, %cst_4 : tensor<64x1xi1> loc(#loc90)
      %78 = arith.ori %76, %77 : tensor<64x1xi1> loc(#loc91)
      %79 = tt.broadcast %78 : tensor<64x1xi1> -> tensor<64x64xi1> loc(#loc91)
      tt.assert %79, "index out of bounds: 0 <= tmp49 < 128256" : tensor<64x64xi1> loc(#loc92)
      %80 = arith.muli %73, %cst : tensor<64x1xi64> loc(#loc93)
      %81 = tt.broadcast %80 : tensor<64x1xi64> -> tensor<64x64xi64> loc(#loc93)
      %82 = arith.extsi %19 : tensor<1x64xi32> to tensor<1x64xi64> loc(#loc94)
      %83 = tt.broadcast %82 : tensor<1x64xi64> -> tensor<64x64xi64> loc(#loc94)
      %84 = arith.addi %83, %81 : tensor<64x64xi64> loc(#loc94)
      %85 = tt.splat %arg8 : !tt.ptr<f32> -> tensor<64x64x!tt.ptr<f32>> loc(#loc95)
      %86 = tt.addptr %85, %84 : tensor<64x64x!tt.ptr<f32>>, tensor<64x64xi64> loc(#loc95)
      %87 = tt.atomic_rmw fadd, relaxed, gpu, %86, %70, %29 : (tensor<64x64x!tt.ptr<f32>>, tensor<64x64xf32>, tensor<64x64xi1>) -> tensor<64x64xf32> loc(#loc96)
    } loc(#loc45)
    tt.return loc(#loc97)
  } loc(#loc)
} loc(#loc)
#loc2 = loc("/tmp/torchinductor_root/tx/ctxmaw5t3t256dq7yrmhxrht563tkigfbxuljvcdxlsac2hljoin.py":22:28)
#loc3 = loc("/tmp/torchinductor_root/tx/ctxmaw5t3t256dq7yrmhxrht563tkigfbxuljvcdxlsac2hljoin.py":22:33)
#loc4 = loc("/tmp/torchinductor_root/tx/ctxmaw5t3t256dq7yrmhxrht563tkigfbxuljvcdxlsac2hljoin.py":23:36)
#loc5 = loc("/tmp/torchinductor_root/tx/ctxmaw5t3t256dq7yrmhxrht563tkigfbxuljvcdxlsac2hljoin.py":23:44)
#loc6 = loc("/tmp/torchinductor_root/tx/ctxmaw5t3t256dq7yrmhxrht563tkigfbxuljvcdxlsac2hljoin.py":23:23)
#loc7 = loc("/tmp/torchinductor_root/tx/ctxmaw5t3t256dq7yrmhxrht563tkigfbxuljvcdxlsac2hljoin.py":24:21)
#loc8 = loc("/tmp/torchinductor_root/tx/ctxmaw5t3t256dq7yrmhxrht563tkigfbxuljvcdxlsac2hljoin.py":25:37)
#loc9 = loc("/tmp/torchinductor_root/tx/ctxmaw5t3t256dq7yrmhxrht563tkigfbxuljvcdxlsac2hljoin.py":29:40)
#loc10 = loc("/tmp/torchinductor_root/tx/ctxmaw5t3t256dq7yrmhxrht563tkigfbxuljvcdxlsac2hljoin.py":30:31)
#loc11 = loc("/tmp/torchinductor_root/tx/ctxmaw5t3t256dq7yrmhxrht563tkigfbxuljvcdxlsac2hljoin.py":31:29)
#loc12 = loc("/tmp/torchinductor_root/tx/ctxmaw5t3t256dq7yrmhxrht563tkigfbxuljvcdxlsac2hljoin.py":35:46)
#loc13 = loc("/tmp/torchinductor_root/tx/ctxmaw5t3t256dq7yrmhxrht563tkigfbxuljvcdxlsac2hljoin.py":35:41)
#loc14 = loc("/tmp/torchinductor_root/tx/ctxmaw5t3t256dq7yrmhxrht563tkigfbxuljvcdxlsac2hljoin.py":35:34)
#loc15 = loc("/tmp/torchinductor_root/tx/ctxmaw5t3t256dq7yrmhxrht563tkigfbxuljvcdxlsac2hljoin.py":35:59)
#loc16 = loc("/tmp/torchinductor_root/tx/ctxmaw5t3t256dq7yrmhxrht563tkigfbxuljvcdxlsac2hljoin.py":35:51)
#loc17 = loc("/tmp/torchinductor_root/tx/ctxmaw5t3t256dq7yrmhxrht563tkigfbxuljvcdxlsac2hljoin.py":35:112)
#loc18 = loc("/tmp/torchinductor_root/tx/ctxmaw5t3t256dq7yrmhxrht563tkigfbxuljvcdxlsac2hljoin.py":36:34)
#loc19 = loc("/tmp/torchinductor_root/tx/ctxmaw5t3t256dq7yrmhxrht563tkigfbxuljvcdxlsac2hljoin.py":36:51)
#loc20 = loc("/tmp/torchinductor_root/tx/ctxmaw5t3t256dq7yrmhxrht563tkigfbxuljvcdxlsac2hljoin.py":36:112)
#loc21 = loc("/tmp/torchinductor_root/tx/ctxmaw5t3t256dq7yrmhxrht563tkigfbxuljvcdxlsac2hljoin.py":37:34)
#loc22 = loc("/tmp/torchinductor_root/tx/ctxmaw5t3t256dq7yrmhxrht563tkigfbxuljvcdxlsac2hljoin.py":37:51)
#loc23 = loc("/tmp/torchinductor_root/tx/ctxmaw5t3t256dq7yrmhxrht563tkigfbxuljvcdxlsac2hljoin.py":37:112)
#loc24 = loc("/tmp/torchinductor_root/tx/ctxmaw5t3t256dq7yrmhxrht563tkigfbxuljvcdxlsac2hljoin.py":38:34)
#loc25 = loc("/tmp/torchinductor_root/tx/ctxmaw5t3t256dq7yrmhxrht563tkigfbxuljvcdxlsac2hljoin.py":38:41)
#loc26 = loc("/tmp/torchinductor_root/tx/ctxmaw5t3t256dq7yrmhxrht563tkigfbxuljvcdxlsac2hljoin.py":38:94)
#loc27 = loc("/tmp/torchinductor_root/tx/ctxmaw5t3t256dq7yrmhxrht563tkigfbxuljvcdxlsac2hljoin.py":39:34)
#loc28 = loc("/tmp/torchinductor_root/tx/ctxmaw5t3t256dq7yrmhxrht563tkigfbxuljvcdxlsac2hljoin.py":39:51)
#loc29 = loc("/tmp/torchinductor_root/tx/ctxmaw5t3t256dq7yrmhxrht563tkigfbxuljvcdxlsac2hljoin.py":39:112)
#loc30 = loc("/tmp/torchinductor_root/tx/ctxmaw5t3t256dq7yrmhxrht563tkigfbxuljvcdxlsac2hljoin.py":40:22)
#loc31 = loc("/tmp/torchinductor_root/tx/ctxmaw5t3t256dq7yrmhxrht563tkigfbxuljvcdxlsac2hljoin.py":41:22)
#loc32 = loc("/tmp/torchinductor_root/tx/ctxmaw5t3t256dq7yrmhxrht563tkigfbxuljvcdxlsac2hljoin.py":42:22)
#loc33 = loc("/tmp/torchinductor_root/tx/ctxmaw5t3t256dq7yrmhxrht563tkigfbxuljvcdxlsac2hljoin.py":45:23)
#loc34 = loc("/tmp/torchinductor_root/tx/ctxmaw5t3t256dq7yrmhxrht563tkigfbxuljvcdxlsac2hljoin.py":47:25)
#loc35 = loc("/tmp/torchinductor_root/tx/ctxmaw5t3t256dq7yrmhxrht563tkigfbxuljvcdxlsac2hljoin.py":48:50)
#loc36 = loc("/tmp/torchinductor_root/tx/ctxmaw5t3t256dq7yrmhxrht563tkigfbxuljvcdxlsac2hljoin.py":48:8)
#loc37 = loc("/workspace/torch-compile-caching/.venv/lib/python3.11/site-packages/triton/language/standard.py":286:36)
#loc39 = loc("/workspace/torch-compile-caching/.venv/lib/python3.11/site-packages/triton/language/standard.py":256:15)
#loc40 = loc("/tmp/torchinductor_root/tx/ctxmaw5t3t256dq7yrmhxrht563tkigfbxuljvcdxlsac2hljoin.py":49:30)
#loc41 = loc("/tmp/torchinductor_root/tx/ctxmaw5t3t256dq7yrmhxrht563tkigfbxuljvcdxlsac2hljoin.py":50:31)
#loc42 = loc("/tmp/torchinductor_root/tx/ctxmaw5t3t256dq7yrmhxrht563tkigfbxuljvcdxlsac2hljoin.py":50:36)
#loc43 = loc("/tmp/torchinductor_root/tx/ctxmaw5t3t256dq7yrmhxrht563tkigfbxuljvcdxlsac2hljoin.py":51:31)
#loc44 = loc("/tmp/torchinductor_root/tx/ctxmaw5t3t256dq7yrmhxrht563tkigfbxuljvcdxlsac2hljoin.py":51:36)
#loc45 = loc("/tmp/torchinductor_root/tx/ctxmaw5t3t256dq7yrmhxrht563tkigfbxuljvcdxlsac2hljoin.py":52:40)
#loc46 = loc("/tmp/torchinductor_root/tx/ctxmaw5t3t256dq7yrmhxrht563tkigfbxuljvcdxlsac2hljoin.py":53:31)
#loc47 = loc("/tmp/torchinductor_root/tx/ctxmaw5t3t256dq7yrmhxrht563tkigfbxuljvcdxlsac2hljoin.py":54:29)
#loc48 = loc("/tmp/torchinductor_root/tx/ctxmaw5t3t256dq7yrmhxrht563tkigfbxuljvcdxlsac2hljoin.py":58:47)
#loc49 = loc("/tmp/torchinductor_root/tx/ctxmaw5t3t256dq7yrmhxrht563tkigfbxuljvcdxlsac2hljoin.py":58:42)
#loc50 = loc("/tmp/torchinductor_root/tx/ctxmaw5t3t256dq7yrmhxrht563tkigfbxuljvcdxlsac2hljoin.py":58:35)
#loc51 = loc("/tmp/torchinductor_root/tx/ctxmaw5t3t256dq7yrmhxrht563tkigfbxuljvcdxlsac2hljoin.py":58:60)
#loc52 = loc("/tmp/torchinductor_root/tx/ctxmaw5t3t256dq7yrmhxrht563tkigfbxuljvcdxlsac2hljoin.py":58:52)
#loc53 = loc("/tmp/torchinductor_root/tx/ctxmaw5t3t256dq7yrmhxrht563tkigfbxuljvcdxlsac2hljoin.py":58:114)
#loc54 = loc("/tmp/torchinductor_root/tx/ctxmaw5t3t256dq7yrmhxrht563tkigfbxuljvcdxlsac2hljoin.py":59:35)
#loc55 = loc("/tmp/torchinductor_root/tx/ctxmaw5t3t256dq7yrmhxrht563tkigfbxuljvcdxlsac2hljoin.py":59:52)
#loc56 = loc("/tmp/torchinductor_root/tx/ctxmaw5t3t256dq7yrmhxrht563tkigfbxuljvcdxlsac2hljoin.py":59:114)
#loc57 = loc("/tmp/torchinductor_root/tx/ctxmaw5t3t256dq7yrmhxrht563tkigfbxuljvcdxlsac2hljoin.py":60:35)
#loc58 = loc("/tmp/torchinductor_root/tx/ctxmaw5t3t256dq7yrmhxrht563tkigfbxuljvcdxlsac2hljoin.py":60:52)
#loc59 = loc("/tmp/torchinductor_root/tx/ctxmaw5t3t256dq7yrmhxrht563tkigfbxuljvcdxlsac2hljoin.py":60:114)
#loc60 = loc("/tmp/torchinductor_root/tx/ctxmaw5t3t256dq7yrmhxrht563tkigfbxuljvcdxlsac2hljoin.py":61:35)
#loc61 = loc("/tmp/torchinductor_root/tx/ctxmaw5t3t256dq7yrmhxrht563tkigfbxuljvcdxlsac2hljoin.py":61:52)
#loc62 = loc("/tmp/torchinductor_root/tx/ctxmaw5t3t256dq7yrmhxrht563tkigfbxuljvcdxlsac2hljoin.py":61:114)
#loc63 = loc("/tmp/torchinductor_root/tx/ctxmaw5t3t256dq7yrmhxrht563tkigfbxuljvcdxlsac2hljoin.py":62:35)
#loc64 = loc("/tmp/torchinductor_root/tx/ctxmaw5t3t256dq7yrmhxrht563tkigfbxuljvcdxlsac2hljoin.py":62:42)
#loc65 = loc("/tmp/torchinductor_root/tx/ctxmaw5t3t256dq7yrmhxrht563tkigfbxuljvcdxlsac2hljoin.py":62:95)
#loc66 = loc("/tmp/torchinductor_root/tx/ctxmaw5t3t256dq7yrmhxrht563tkigfbxuljvcdxlsac2hljoin.py":63:35)
#loc67 = loc("/tmp/torchinductor_root/tx/ctxmaw5t3t256dq7yrmhxrht563tkigfbxuljvcdxlsac2hljoin.py":63:52)
#loc68 = loc("/tmp/torchinductor_root/tx/ctxmaw5t3t256dq7yrmhxrht563tkigfbxuljvcdxlsac2hljoin.py":63:114)
#loc69 = loc("/tmp/torchinductor_root/tx/ctxmaw5t3t256dq7yrmhxrht563tkigfbxuljvcdxlsac2hljoin.py":65:25)
#loc70 = loc("/tmp/torchinductor_root/tx/ctxmaw5t3t256dq7yrmhxrht563tkigfbxuljvcdxlsac2hljoin.py":66:24)
#loc71 = loc("/tmp/torchinductor_root/tx/ctxmaw5t3t256dq7yrmhxrht563tkigfbxuljvcdxlsac2hljoin.py":67:24)
#loc72 = loc("/tmp/torchinductor_root/tx/ctxmaw5t3t256dq7yrmhxrht563tkigfbxuljvcdxlsac2hljoin.py":68:24)
#loc73 = loc("/tmp/torchinductor_root/tx/ctxmaw5t3t256dq7yrmhxrht563tkigfbxuljvcdxlsac2hljoin.py":70:24)
#loc74 = loc("/tmp/torchinductor_root/tx/ctxmaw5t3t256dq7yrmhxrht563tkigfbxuljvcdxlsac2hljoin.py":72:24)
#loc75 = loc("/tmp/torchinductor_root/tx/ctxmaw5t3t256dq7yrmhxrht563tkigfbxuljvcdxlsac2hljoin.py":73:24)
#loc76 = loc("/tmp/torchinductor_root/tx/ctxmaw5t3t256dq7yrmhxrht563tkigfbxuljvcdxlsac2hljoin.py":74:24)
#loc77 = loc("/tmp/torchinductor_root/tx/ctxmaw5t3t256dq7yrmhxrht563tkigfbxuljvcdxlsac2hljoin.py":75:24)
#loc78 = loc("/tmp/torchinductor_root/tx/ctxmaw5t3t256dq7yrmhxrht563tkigfbxuljvcdxlsac2hljoin.py":77:24)
#loc79 = loc("/tmp/torchinductor_root/tx/ctxmaw5t3t256dq7yrmhxrht563tkigfbxuljvcdxlsac2hljoin.py":80:24)
#loc80 = loc("/tmp/torchinductor_root/tx/ctxmaw5t3t256dq7yrmhxrht563tkigfbxuljvcdxlsac2hljoin.py":81:24)
#loc81 = loc("/tmp/torchinductor_root/tx/ctxmaw5t3t256dq7yrmhxrht563tkigfbxuljvcdxlsac2hljoin.py":82:24)
#loc82 = loc("/tmp/torchinductor_root/tx/ctxmaw5t3t256dq7yrmhxrht563tkigfbxuljvcdxlsac2hljoin.py":84:24)
#loc83 = loc("/tmp/torchinductor_root/tx/ctxmaw5t3t256dq7yrmhxrht563tkigfbxuljvcdxlsac2hljoin.py":87:39)
#loc84 = loc("/tmp/torchinductor_root/tx/ctxmaw5t3t256dq7yrmhxrht563tkigfbxuljvcdxlsac2hljoin.py":89:24)
#loc85 = loc("/tmp/torchinductor_root/tx/ctxmaw5t3t256dq7yrmhxrht563tkigfbxuljvcdxlsac2hljoin.py":90:24)
#loc86 = loc("/tmp/torchinductor_root/tx/ctxmaw5t3t256dq7yrmhxrht563tkigfbxuljvcdxlsac2hljoin.py":91:39)
#loc87 = loc("/tmp/torchinductor_root/tx/ctxmaw5t3t256dq7yrmhxrht563tkigfbxuljvcdxlsac2hljoin.py":92:32)
#loc88 = loc("/tmp/torchinductor_root/tx/ctxmaw5t3t256dq7yrmhxrht563tkigfbxuljvcdxlsac2hljoin.py":92:50)
#loc89 = loc("/tmp/torchinductor_root/tx/ctxmaw5t3t256dq7yrmhxrht563tkigfbxuljvcdxlsac2hljoin.py":92:42)
#loc90 = loc("/tmp/torchinductor_root/tx/ctxmaw5t3t256dq7yrmhxrht563tkigfbxuljvcdxlsac2hljoin.py":92:63)
#loc91 = loc("/tmp/torchinductor_root/tx/ctxmaw5t3t256dq7yrmhxrht563tkigfbxuljvcdxlsac2hljoin.py":92:61)
#loc92 = loc("/tmp/torchinductor_root/tx/ctxmaw5t3t256dq7yrmhxrht563tkigfbxuljvcdxlsac2hljoin.py":92:71)
#loc93 = loc("/tmp/torchinductor_root/tx/ctxmaw5t3t256dq7yrmhxrht563tkigfbxuljvcdxlsac2hljoin.py":93:62)
#loc94 = loc("/tmp/torchinductor_root/tx/ctxmaw5t3t256dq7yrmhxrht563tkigfbxuljvcdxlsac2hljoin.py":93:57)
#loc95 = loc("/tmp/torchinductor_root/tx/ctxmaw5t3t256dq7yrmhxrht563tkigfbxuljvcdxlsac2hljoin.py":93:34)
#loc96 = loc("/tmp/torchinductor_root/tx/ctxmaw5t3t256dq7yrmhxrht563tkigfbxuljvcdxlsac2hljoin.py":93:98)
#loc97 = loc("/tmp/torchinductor_root/tx/ctxmaw5t3t256dq7yrmhxrht563tkigfbxuljvcdxlsac2hljoin.py":52:4)
#loc98 = loc(callsite(#loc37 at #loc38))
#loc100 = loc(callsite(#loc39 at #loc37))
#loc101 = loc(callsite(#loc100 at #loc38))
