#loc = loc("./local_cache/us/cusn5r4ftncl7gqsiixg3hw3ojcfuvaqdhezlxblwecnlckjkjne.py":18:0)
#loc1 = loc(unknown)
#loc32 = loc("./local_cache/us/cusn5r4ftncl7gqsiixg3hw3ojcfuvaqdhezlxblwecnlckjkjne.py":48:27)
#loc54 = loc(callsite(#loc1 at #loc32))
module {
  tt.func public @triton_red_fused__to_copy_add_embedding_mean_mul_pow_rsqrt_0(%arg0: !tt.ptr<f32> {tt.divisibility = 16 : i32} loc("./local_cache/us/cusn5r4ftncl7gqsiixg3hw3ojcfuvaqdhezlxblwecnlckjkjne.py":18:0), %arg1: !tt.ptr<i64> {tt.divisibility = 16 : i32} loc("./local_cache/us/cusn5r4ftncl7gqsiixg3hw3ojcfuvaqdhezlxblwecnlckjkjne.py":18:0), %arg2: !tt.ptr<f16> {tt.divisibility = 16 : i32} loc("./local_cache/us/cusn5r4ftncl7gqsiixg3hw3ojcfuvaqdhezlxblwecnlckjkjne.py":18:0), %arg3: !tt.ptr<f16> {tt.divisibility = 16 : i32} loc("./local_cache/us/cusn5r4ftncl7gqsiixg3hw3ojcfuvaqdhezlxblwecnlckjkjne.py":18:0), %arg4: !tt.ptr<f16> {tt.divisibility = 16 : i32} loc("./local_cache/us/cusn5r4ftncl7gqsiixg3hw3ojcfuvaqdhezlxblwecnlckjkjne.py":18:0), %arg5: !tt.ptr<f16> {tt.divisibility = 16 : i32} loc("./local_cache/us/cusn5r4ftncl7gqsiixg3hw3ojcfuvaqdhezlxblwecnlckjkjne.py":18:0), %arg6: i32 loc("./local_cache/us/cusn5r4ftncl7gqsiixg3hw3ojcfuvaqdhezlxblwecnlckjkjne.py":18:0), %arg7: i32 {tt.divisibility = 16 : i32} loc("./local_cache/us/cusn5r4ftncl7gqsiixg3hw3ojcfuvaqdhezlxblwecnlckjkjne.py":18:0)) attributes {noinline = false} {
    %c4096_i32 = arith.constant 4096 : i32 loc(#loc1)
    %cst = arith.constant dense<4096> : tensor<1x1xi64> loc(#loc1)
    %true = arith.constant true loc(#loc1)
    %cst_0 = arith.constant dense<128256> : tensor<1x1xi64> loc(#loc1)
    %cst_1 = arith.constant dense<0.000000e+00> : tensor<1x4096xf16> loc(#loc1)
    %cst_2 = arith.constant dense<0> : tensor<1x1xi64> loc(#loc1)
    %cst_3 = arith.constant dense<9.99999974E-6> : tensor<1x1xf32> loc(#loc1)
    %cst_4 = arith.constant dense<4.096000e+03> : tensor<1x1xf32> loc(#loc1)
    %cst_5 = arith.constant dense<4096> : tensor<1x4096xi32> loc(#loc1)
    %cst_6 = arith.constant dense<0.000000e+00> : tensor<1x4096xf32> loc(#loc1)
    %0 = tt.get_program_id x : i32 loc(#loc2)
    %1 = arith.cmpi slt, %0, %arg6 : i32 loc(#loc3)
    %2 = tt.splat %1 : i1 -> tensor<1x1xi1> loc(#loc3)
    %3 = tt.make_range {end = 4096 : i32, start = 0 : i32} : tensor<4096xi32> loc(#loc4)
    %4 = tt.expand_dims %3 {axis = 0 : i32} : tensor<4096xi32> -> tensor<1x4096xi32> loc(#loc5)
    %5 = tt.addptr %arg1, %0 : !tt.ptr<i64>, i32 loc(#loc6)
    %6 = tt.splat %5 : !tt.ptr<i64> -> tensor<1x1x!tt.ptr<i64>> loc(#loc6)
    %7 = tt.load %6, %2 evictionPolicy = evict_last : tensor<1x1x!tt.ptr<i64>> loc(#loc7)
    %8 = arith.cmpi slt, %4, %cst_5 : tensor<1x4096xi32> loc(#loc8)
    %9 = arith.addi %7, %cst_0 : tensor<1x1xi64> loc(#loc9)
    %10 = arith.cmpi slt, %7, %cst_2 : tensor<1x1xi64> loc(#loc10)
    %11 = arith.select %10, %9, %7 : tensor<1x1xi1>, tensor<1x1xi64> loc(#loc11)
    %12 = arith.cmpi sge, %11, %cst_2 : tensor<1x1xi64> loc(#loc12)
    %13 = arith.cmpi slt, %11, %cst_0 : tensor<1x1xi64> loc(#loc13)
    %14 = arith.andi %12, %13 : tensor<1x1xi1> loc(#loc14)
    %15 = arith.xori %1, %true : i1 loc(#loc15)
    %16 = tt.splat %15 : i1 -> tensor<1x1xi1> loc(#loc15)
    %17 = arith.ori %14, %16 : tensor<1x1xi1> loc(#loc16)
    %18 = tt.broadcast %17 : tensor<1x1xi1> -> tensor<1x4096xi1> loc(#loc16)
    tt.assert %18, "index out of bounds: 0 <= tmp4 < 128256" : tensor<1x4096xi1> loc(#loc17)
    %19 = arith.muli %11, %cst : tensor<1x1xi64> loc(#loc18)
    %20 = tt.broadcast %19 : tensor<1x1xi64> -> tensor<1x4096xi64> loc(#loc18)
    %21 = arith.extsi %4 : tensor<1x4096xi32> to tensor<1x4096xi64> loc(#loc19)
    %22 = arith.addi %21, %20 : tensor<1x4096xi64> loc(#loc19)
    %23 = tt.splat %arg2 : !tt.ptr<f16> -> tensor<1x4096x!tt.ptr<f16>> loc(#loc20)
    %24 = tt.addptr %23, %22 : tensor<1x4096x!tt.ptr<f16>>, tensor<1x4096xi64> loc(#loc20)
    %25 = tt.splat %1 : i1 -> tensor<1x4096xi1> loc(#loc51)
    %26 = arith.andi %8, %25 : tensor<1x4096xi1> loc(#loc21)
    %27 = tt.load %24, %26, %cst_1 evictionPolicy = evict_first : tensor<1x4096x!tt.ptr<f16>> loc(#loc22)
    %28 = arith.extf %27 : tensor<1x4096xf16> to tensor<1x4096xf32> loc(#loc23)
    %29 = arith.mulf %28, %28 : tensor<1x4096xf32> loc(#loc24)
    %30 = arith.addf %29, %cst_6 : tensor<1x4096xf32> loc(#loc25)
    %31 = arith.select %26, %30, %cst_6 : tensor<1x4096xi1>, tensor<1x4096xf32> loc(#loc26)
    %32 = arith.muli %0, %c4096_i32 : i32 loc(#loc27)
    %33 = tt.splat %32 : i32 -> tensor<1x4096xi32> loc(#loc52)
    %34 = arith.addi %4, %33 : tensor<1x4096xi32> loc(#loc28)
    %35 = tt.splat %arg4 : !tt.ptr<f16> -> tensor<1x4096x!tt.ptr<f16>> loc(#loc29)
    %36 = tt.addptr %35, %34 : tensor<1x4096x!tt.ptr<f16>>, tensor<1x4096xi32> loc(#loc29)
    %37 = arith.truncf %28 : tensor<1x4096xf32> to tensor<1x4096xf16> loc(#loc30)
    tt.store %36, %37, %26 : tensor<1x4096x!tt.ptr<f16>> loc(#loc30)
    %38 = "tt.reduce"(%31) <{axis = 1 : i32}> ({
    ^bb0(%arg8: f32 loc(callsite(#loc1 at #loc32)), %arg9: f32 loc(callsite(#loc1 at #loc32))):
      %57 = arith.addf %arg8, %arg9 : f32 loc(#loc56)
      tt.reduce.return %57 : f32 loc(#loc53)
    }) : (tensor<1x4096xf32>) -> tensor<1xf32> loc(#loc53)
    %39 = tt.expand_dims %38 {axis = 1 : i32} : tensor<1xf32> -> tensor<1x1xf32> loc(#loc34)
    %40 = arith.divf %39, %cst_4 : tensor<1x1xf32> loc(#loc35)
    %41 = arith.addf %40, %cst_3 : tensor<1x1xf32> loc(#loc36)
    %42 = tt.extern_elementwise %41 {libname = "", libpath = "", pure = true, symbol = "__nv_rsqrtf"} : (tensor<1x1xf32>) -> tensor<1x1xf32> loc(#loc37)
    gpu.barrier loc(#loc38)
    %43 = tt.addptr %arg0, %0 : !tt.ptr<f32>, i32 loc(#loc39)
    %44 = tt.splat %43 : !tt.ptr<f32> -> tensor<1x1x!tt.ptr<f32>> loc(#loc39)
    tt.store %44, %42, %2 : tensor<1x1x!tt.ptr<f32>> loc(#loc40)
    %45 = tt.splat %arg3 : !tt.ptr<f16> -> tensor<1x4096x!tt.ptr<f16>> loc(#loc41)
    %46 = tt.addptr %45, %4 : tensor<1x4096x!tt.ptr<f16>>, tensor<1x4096xi32> loc(#loc41)
    %47 = tt.load %46, %8, %cst_1 evictionPolicy = evict_last : tensor<1x4096x!tt.ptr<f16>> loc(#loc42)
    %48 = arith.extf %47 : tensor<1x4096xf16> to tensor<1x4096xf32> loc(#loc43)
    %49 = tt.load %36, %26, %cst_1 evictionPolicy = evict_first : tensor<1x4096x!tt.ptr<f16>> loc(#loc44)
    %50 = arith.extf %49 : tensor<1x4096xf16> to tensor<1x4096xf32> loc(#loc45)
    %51 = tt.broadcast %42 : tensor<1x1xf32> -> tensor<1x4096xf32> loc(#loc46)
    %52 = arith.mulf %50, %51 : tensor<1x4096xf32> loc(#loc46)
    %53 = arith.mulf %48, %52 : tensor<1x4096xf32> loc(#loc47)
    %54 = tt.splat %arg5 : !tt.ptr<f16> -> tensor<1x4096x!tt.ptr<f16>> loc(#loc48)
    %55 = tt.addptr %54, %34 : tensor<1x4096x!tt.ptr<f16>>, tensor<1x4096xi32> loc(#loc48)
    %56 = arith.truncf %53 : tensor<1x4096xf32> to tensor<1x4096xf16> loc(#loc49)
    tt.store %55, %56, %26 : tensor<1x4096x!tt.ptr<f16>> loc(#loc49)
    tt.return loc(#loc50)
  } loc(#loc)
} loc(#loc)
#loc2 = loc("./local_cache/us/cusn5r4ftncl7gqsiixg3hw3ojcfuvaqdhezlxblwecnlckjkjne.py":22:28)
#loc3 = loc("./local_cache/us/cusn5r4ftncl7gqsiixg3hw3ojcfuvaqdhezlxblwecnlckjkjne.py":24:21)
#loc4 = loc("./local_cache/us/cusn5r4ftncl7gqsiixg3hw3ojcfuvaqdhezlxblwecnlckjkjne.py":25:27)
#loc5 = loc("./local_cache/us/cusn5r4ftncl7gqsiixg3hw3ojcfuvaqdhezlxblwecnlckjkjne.py":25:37)
#loc6 = loc("./local_cache/us/cusn5r4ftncl7gqsiixg3hw3ojcfuvaqdhezlxblwecnlckjkjne.py":28:30)
#loc7 = loc("./local_cache/us/cusn5r4ftncl7gqsiixg3hw3ojcfuvaqdhezlxblwecnlckjkjne.py":28:35)
#loc8 = loc("./local_cache/us/cusn5r4ftncl7gqsiixg3hw3ojcfuvaqdhezlxblwecnlckjkjne.py":32:29)
#loc9 = loc("./local_cache/us/cusn5r4ftncl7gqsiixg3hw3ojcfuvaqdhezlxblwecnlckjkjne.py":37:22)
#loc10 = loc("./local_cache/us/cusn5r4ftncl7gqsiixg3hw3ojcfuvaqdhezlxblwecnlckjkjne.py":38:22)
#loc11 = loc("./local_cache/us/cusn5r4ftncl7gqsiixg3hw3ojcfuvaqdhezlxblwecnlckjkjne.py":39:36)
#loc12 = loc("./local_cache/us/cusn5r4ftncl7gqsiixg3hw3ojcfuvaqdhezlxblwecnlckjkjne.py":40:32)
#loc13 = loc("./local_cache/us/cusn5r4ftncl7gqsiixg3hw3ojcfuvaqdhezlxblwecnlckjkjne.py":40:48)
#loc14 = loc("./local_cache/us/cusn5r4ftncl7gqsiixg3hw3ojcfuvaqdhezlxblwecnlckjkjne.py":40:41)
#loc15 = loc("./local_cache/us/cusn5r4ftncl7gqsiixg3hw3ojcfuvaqdhezlxblwecnlckjkjne.py":40:61)
#loc16 = loc("./local_cache/us/cusn5r4ftncl7gqsiixg3hw3ojcfuvaqdhezlxblwecnlckjkjne.py":40:59)
#loc17 = loc("./local_cache/us/cusn5r4ftncl7gqsiixg3hw3ojcfuvaqdhezlxblwecnlckjkjne.py":40:69)
#loc18 = loc("./local_cache/us/cusn5r4ftncl7gqsiixg3hw3ojcfuvaqdhezlxblwecnlckjkjne.py":41:46)
#loc19 = loc("./local_cache/us/cusn5r4ftncl7gqsiixg3hw3ojcfuvaqdhezlxblwecnlckjkjne.py":41:41)
#loc20 = loc("./local_cache/us/cusn5r4ftncl7gqsiixg3hw3ojcfuvaqdhezlxblwecnlckjkjne.py":41:34)
#loc21 = loc("./local_cache/us/cusn5r4ftncl7gqsiixg3hw3ojcfuvaqdhezlxblwecnlckjkjne.py":41:63)
#loc22 = loc("./local_cache/us/cusn5r4ftncl7gqsiixg3hw3ojcfuvaqdhezlxblwecnlckjkjne.py":41:53)
#loc23 = loc("./local_cache/us/cusn5r4ftncl7gqsiixg3hw3ojcfuvaqdhezlxblwecnlckjkjne.py":41:115)
#loc24 = loc("./local_cache/us/cusn5r4ftncl7gqsiixg3hw3ojcfuvaqdhezlxblwecnlckjkjne.py":43:22)
#loc25 = loc("./local_cache/us/cusn5r4ftncl7gqsiixg3hw3ojcfuvaqdhezlxblwecnlckjkjne.py":45:25)
#loc26 = loc("./local_cache/us/cusn5r4ftncl7gqsiixg3hw3ojcfuvaqdhezlxblwecnlckjkjne.py":46:50)
#loc27 = loc("./local_cache/us/cusn5r4ftncl7gqsiixg3hw3ojcfuvaqdhezlxblwecnlckjkjne.py":47:41)
#loc28 = loc("./local_cache/us/cusn5r4ftncl7gqsiixg3hw3ojcfuvaqdhezlxblwecnlckjkjne.py":47:36)
#loc29 = loc("./local_cache/us/cusn5r4ftncl7gqsiixg3hw3ojcfuvaqdhezlxblwecnlckjkjne.py":47:29)
#loc30 = loc("./local_cache/us/cusn5r4ftncl7gqsiixg3hw3ojcfuvaqdhezlxblwecnlckjkjne.py":47:52)
#loc31 = loc("/workspace/torch-compile-caching/.venv/lib/python3.11/site-packages/triton/language/standard.py":286:36)
#loc33 = loc("/workspace/torch-compile-caching/.venv/lib/python3.11/site-packages/triton/language/standard.py":256:15)
#loc34 = loc("./local_cache/us/cusn5r4ftncl7gqsiixg3hw3ojcfuvaqdhezlxblwecnlckjkjne.py":48:30)
#loc35 = loc("./local_cache/us/cusn5r4ftncl7gqsiixg3hw3ojcfuvaqdhezlxblwecnlckjkjne.py":50:21)
#loc36 = loc("./local_cache/us/cusn5r4ftncl7gqsiixg3hw3ojcfuvaqdhezlxblwecnlckjkjne.py":52:20)
#loc37 = loc("./local_cache/us/cusn5r4ftncl7gqsiixg3hw3ojcfuvaqdhezlxblwecnlckjkjne.py":53:28)
#loc38 = loc("./local_cache/us/cusn5r4ftncl7gqsiixg3hw3ojcfuvaqdhezlxblwecnlckjkjne.py":54:4)
#loc39 = loc("./local_cache/us/cusn5r4ftncl7gqsiixg3hw3ojcfuvaqdhezlxblwecnlckjkjne.py":55:28)
#loc40 = loc("./local_cache/us/cusn5r4ftncl7gqsiixg3hw3ojcfuvaqdhezlxblwecnlckjkjne.py":55:40)
#loc41 = loc("./local_cache/us/cusn5r4ftncl7gqsiixg3hw3ojcfuvaqdhezlxblwecnlckjkjne.py":62:35)
#loc42 = loc("./local_cache/us/cusn5r4ftncl7gqsiixg3hw3ojcfuvaqdhezlxblwecnlckjkjne.py":62:42)
#loc43 = loc("./local_cache/us/cusn5r4ftncl7gqsiixg3hw3ojcfuvaqdhezlxblwecnlckjkjne.py":62:95)
#loc44 = loc("./local_cache/us/cusn5r4ftncl7gqsiixg3hw3ojcfuvaqdhezlxblwecnlckjkjne.py":63:53)
#loc45 = loc("./local_cache/us/cusn5r4ftncl7gqsiixg3hw3ojcfuvaqdhezlxblwecnlckjkjne.py":63:115)
#loc46 = loc("./local_cache/us/cusn5r4ftncl7gqsiixg3hw3ojcfuvaqdhezlxblwecnlckjkjne.py":65:24)
#loc47 = loc("./local_cache/us/cusn5r4ftncl7gqsiixg3hw3ojcfuvaqdhezlxblwecnlckjkjne.py":67:24)
#loc48 = loc("./local_cache/us/cusn5r4ftncl7gqsiixg3hw3ojcfuvaqdhezlxblwecnlckjkjne.py":68:29)
#loc49 = loc("./local_cache/us/cusn5r4ftncl7gqsiixg3hw3ojcfuvaqdhezlxblwecnlckjkjne.py":68:53)
#loc50 = loc("./local_cache/us/cusn5r4ftncl7gqsiixg3hw3ojcfuvaqdhezlxblwecnlckjkjne.py":56:4)
#loc51 = loc(fused[#loc21, #loc3])
#loc52 = loc(fused[#loc28, #loc27])
#loc53 = loc(callsite(#loc31 at #loc32))
#loc55 = loc(callsite(#loc33 at #loc31))
#loc56 = loc(callsite(#loc55 at #loc32))
