#loc = loc("./local_cache/ir/cirveghol7wjrq7zwkkgu3sphruzjhq4ru5zcvmudgaexdo5niag.py":18:0)
#loc1 = loc(unknown)
#loc32 = loc("./local_cache/ir/cirveghol7wjrq7zwkkgu3sphruzjhq4ru5zcvmudgaexdo5niag.py":46:25)
#loc59 = loc(callsite(#loc1 at #loc32))
module {
  tt.func public @triton_red_fused__to_copy_add_mean_mul_pow_rsqrt_8(%arg0: !tt.ptr<f16> {tt.divisibility = 16 : i32} loc("./local_cache/ir/cirveghol7wjrq7zwkkgu3sphruzjhq4ru5zcvmudgaexdo5niag.py":18:0), %arg1: !tt.ptr<f32> {tt.divisibility = 16 : i32} loc("./local_cache/ir/cirveghol7wjrq7zwkkgu3sphruzjhq4ru5zcvmudgaexdo5niag.py":18:0), %arg2: !tt.ptr<f16> {tt.divisibility = 16 : i32} loc("./local_cache/ir/cirveghol7wjrq7zwkkgu3sphruzjhq4ru5zcvmudgaexdo5niag.py":18:0), %arg3: !tt.ptr<f16> {tt.divisibility = 16 : i32} loc("./local_cache/ir/cirveghol7wjrq7zwkkgu3sphruzjhq4ru5zcvmudgaexdo5niag.py":18:0), %arg4: !tt.ptr<f16> {tt.divisibility = 16 : i32} loc("./local_cache/ir/cirveghol7wjrq7zwkkgu3sphruzjhq4ru5zcvmudgaexdo5niag.py":18:0), %arg5: !tt.ptr<f16> {tt.divisibility = 16 : i32} loc("./local_cache/ir/cirveghol7wjrq7zwkkgu3sphruzjhq4ru5zcvmudgaexdo5niag.py":18:0), %arg6: i32 loc("./local_cache/ir/cirveghol7wjrq7zwkkgu3sphruzjhq4ru5zcvmudgaexdo5niag.py":18:0), %arg7: i32 {tt.divisibility = 16 : i32} loc("./local_cache/ir/cirveghol7wjrq7zwkkgu3sphruzjhq4ru5zcvmudgaexdo5niag.py":18:0)) attributes {noinline = false} {
    %cst = arith.constant dense<0.000000e+00> : tensor<1x4xf16> loc(#loc1)
    %cst_0 = arith.constant dense<0.000000e+00> : tensor<4x4xf16> loc(#loc1)
    %c4096_i32 = arith.constant 4096 : i32 loc(#loc1)
    %c0_i32 = arith.constant 0 : i32 loc(#loc1)
    %cst_1 = arith.constant dense<9.99999974E-6> : tensor<4x1xf32> loc(#loc1)
    %cst_2 = arith.constant dense<4.096000e+03> : tensor<4x1xf32> loc(#loc1)
    %cst_3 = arith.constant dense<4096> : tensor<4x1xi32> loc(#loc1)
    %cst_4 = arith.constant dense<4096> : tensor<1x4xi32> loc(#loc1)
    %cst_5 = arith.constant dense<0.000000e+00> : tensor<4x4xf32> loc(#loc1)
    %c4_i32 = arith.constant 4 : i32 loc(#loc1)
    %0 = tt.get_program_id x : i32 loc(#loc2)
    %1 = arith.muli %0, %c4_i32 : i32 loc(#loc3)
    %2 = tt.make_range {end = 4 : i32, start = 0 : i32} : tensor<4xi32> loc(#loc4)
    %3 = tt.expand_dims %2 {axis = 1 : i32} : tensor<4xi32> -> tensor<4x1xi32> loc(#loc5)
    %4 = tt.splat %1 : i32 -> tensor<4x1xi32> loc(#loc6)
    %5 = arith.addi %4, %3 : tensor<4x1xi32> loc(#loc6)
    %6 = tt.splat %arg6 : i32 -> tensor<4x1xi32> loc(#loc7)
    %7 = arith.cmpi slt, %5, %6 : tensor<4x1xi32> loc(#loc7)
    %8 = tt.expand_dims %2 {axis = 0 : i32} : tensor<4xi32> -> tensor<1x4xi32> loc(#loc8)
    %9 = scf.for %arg8 = %c0_i32 to %c4096_i32 step %c4_i32 iter_args(%arg9 = %cst_5) -> (tensor<4x4xf32>)  : i32 {
      %17 = tt.splat %arg8 : i32 -> tensor<1x4xi32> loc(#loc10)
      %18 = arith.addi %17, %8 : tensor<1x4xi32> loc(#loc10)
      %19 = arith.cmpi slt, %18, %cst_4 : tensor<1x4xi32> loc(#loc11)
      %20 = arith.muli %5, %cst_3 : tensor<4x1xi32> loc(#loc12)
      %21 = tt.broadcast %18 : tensor<1x4xi32> -> tensor<4x4xi32> loc(#loc13)
      %22 = tt.broadcast %20 : tensor<4x1xi32> -> tensor<4x4xi32> loc(#loc13)
      %23 = arith.addi %21, %22 : tensor<4x4xi32> loc(#loc13)
      %24 = tt.splat %arg2 : !tt.ptr<f16> -> tensor<4x4x!tt.ptr<f16>> loc(#loc14)
      %25 = tt.addptr %24, %23 : tensor<4x4x!tt.ptr<f16>>, tensor<4x4xi32> loc(#loc14)
      %26 = tt.broadcast %19 : tensor<1x4xi1> -> tensor<4x4xi1> loc(#loc15)
      %27 = tt.broadcast %7 : tensor<4x1xi1> -> tensor<4x4xi1> loc(#loc15)
      %28 = arith.andi %26, %27 : tensor<4x4xi1> loc(#loc15)
      %29 = tt.load %25, %28, %cst_0 evictionPolicy = evict_first : tensor<4x4x!tt.ptr<f16>> loc(#loc16)
      %30 = arith.extf %29 : tensor<4x4xf16> to tensor<4x4xf32> loc(#loc17)
      %31 = tt.splat %arg3 : !tt.ptr<f16> -> tensor<4x4x!tt.ptr<f16>> loc(#loc18)
      %32 = tt.addptr %31, %23 : tensor<4x4x!tt.ptr<f16>>, tensor<4x4xi32> loc(#loc18)
      %33 = tt.load %32, %28, %cst_0 evictionPolicy = evict_first : tensor<4x4x!tt.ptr<f16>> loc(#loc19)
      %34 = arith.extf %33 : tensor<4x4xf16> to tensor<4x4xf32> loc(#loc20)
      %35 = tt.splat %arg0 : !tt.ptr<f16> -> tensor<4x4x!tt.ptr<f16>> loc(#loc21)
      %36 = tt.addptr %35, %23 : tensor<4x4x!tt.ptr<f16>>, tensor<4x4xi32> loc(#loc21)
      %37 = tt.load %36, %28, %cst_0 evictionPolicy = evict_first : tensor<4x4x!tt.ptr<f16>> loc(#loc22)
      %38 = arith.extf %37 : tensor<4x4xf16> to tensor<4x4xf32> loc(#loc23)
      %39 = arith.addf %30, %34 : tensor<4x4xf32> loc(#loc24)
      %40 = arith.addf %39, %38 : tensor<4x4xf32> loc(#loc25)
      %41 = arith.mulf %40, %40 : tensor<4x4xf32> loc(#loc26)
      %42 = arith.addf %arg9, %41 : tensor<4x4xf32> loc(#loc27)
      %43 = arith.select %28, %42, %arg9 : tensor<4x4xi1>, tensor<4x4xf32> loc(#loc28)
      %44 = arith.truncf %40 : tensor<4x4xf32> to tensor<4x4xf16> loc(#loc29)
      tt.store %36, %44, %28 : tensor<4x4x!tt.ptr<f16>> loc(#loc29)
      scf.yield %43 : tensor<4x4xf32> loc(#loc30)
    } loc(#loc9)
    %10 = "tt.reduce"(%9) <{axis = 1 : i32}> ({
    ^bb0(%arg8: f32 loc(callsite(#loc1 at #loc32)), %arg9: f32 loc(callsite(#loc1 at #loc32))):
      %17 = arith.addf %arg8, %arg9 : f32 loc(#loc61)
      tt.reduce.return %17 : f32 loc(#loc58)
    }) : (tensor<4x4xf32>) -> tensor<4xf32> loc(#loc58)
    %11 = tt.expand_dims %10 {axis = 1 : i32} : tensor<4xf32> -> tensor<4x1xf32> loc(#loc34)
    %12 = arith.divf %11, %cst_2 : tensor<4x1xf32> loc(#loc35)
    %13 = arith.addf %12, %cst_1 : tensor<4x1xf32> loc(#loc36)
    %14 = tt.extern_elementwise %13 {libname = "", libpath = "", pure = true, symbol = "__nv_rsqrtf"} : (tensor<4x1xf32>) -> tensor<4x1xf32> loc(#loc37)
    gpu.barrier loc(#loc38)
    %15 = tt.splat %arg1 : !tt.ptr<f32> -> tensor<4x1x!tt.ptr<f32>> loc(#loc39)
    %16 = tt.addptr %15, %5 : tensor<4x1x!tt.ptr<f32>>, tensor<4x1xi32> loc(#loc39)
    tt.store %16, %14, %7 : tensor<4x1x!tt.ptr<f32>> loc(#loc40)
    scf.for %arg8 = %c0_i32 to %c4096_i32 step %c4_i32  : i32 {
      %17 = tt.splat %arg8 : i32 -> tensor<1x4xi32> loc(#loc42)
      %18 = arith.addi %17, %8 : tensor<1x4xi32> loc(#loc42)
      %19 = arith.cmpi slt, %18, %cst_4 : tensor<1x4xi32> loc(#loc43)
      %20 = tt.splat %arg4 : !tt.ptr<f16> -> tensor<1x4x!tt.ptr<f16>> loc(#loc44)
      %21 = tt.addptr %20, %18 : tensor<1x4x!tt.ptr<f16>>, tensor<1x4xi32> loc(#loc44)
      %22 = tt.load %21, %19, %cst evictionPolicy = evict_last : tensor<1x4x!tt.ptr<f16>> loc(#loc45)
      %23 = arith.extf %22 : tensor<1x4xf16> to tensor<1x4xf32> loc(#loc46)
      %24 = arith.muli %5, %cst_3 : tensor<4x1xi32> loc(#loc47)
      %25 = tt.broadcast %18 : tensor<1x4xi32> -> tensor<4x4xi32> loc(#loc48)
      %26 = tt.broadcast %24 : tensor<4x1xi32> -> tensor<4x4xi32> loc(#loc48)
      %27 = arith.addi %25, %26 : tensor<4x4xi32> loc(#loc48)
      %28 = tt.splat %arg0 : !tt.ptr<f16> -> tensor<4x4x!tt.ptr<f16>> loc(#loc49)
      %29 = tt.addptr %28, %27 : tensor<4x4x!tt.ptr<f16>>, tensor<4x4xi32> loc(#loc49)
      %30 = tt.broadcast %19 : tensor<1x4xi1> -> tensor<4x4xi1> loc(#loc50)
      %31 = tt.broadcast %7 : tensor<4x1xi1> -> tensor<4x4xi1> loc(#loc50)
      %32 = arith.andi %30, %31 : tensor<4x4xi1> loc(#loc50)
      %33 = tt.load %29, %32, %cst_0 evictionPolicy = evict_first : tensor<4x4x!tt.ptr<f16>> loc(#loc51)
      %34 = arith.extf %33 : tensor<4x4xf16> to tensor<4x4xf32> loc(#loc52)
      %35 = tt.broadcast %14 : tensor<4x1xf32> -> tensor<4x4xf32> loc(#loc53)
      %36 = arith.mulf %34, %35 : tensor<4x4xf32> loc(#loc53)
      %37 = tt.broadcast %23 : tensor<1x4xf32> -> tensor<4x4xf32> loc(#loc54)
      %38 = arith.mulf %37, %36 : tensor<4x4xf32> loc(#loc54)
      %39 = tt.splat %arg5 : !tt.ptr<f16> -> tensor<4x4x!tt.ptr<f16>> loc(#loc55)
      %40 = tt.addptr %39, %27 : tensor<4x4x!tt.ptr<f16>>, tensor<4x4xi32> loc(#loc55)
      %41 = arith.truncf %38 : tensor<4x4xf32> to tensor<4x4xf16> loc(#loc56)
      tt.store %40, %41, %32 : tensor<4x4x!tt.ptr<f16>> loc(#loc56)
    } loc(#loc41)
    tt.return loc(#loc57)
  } loc(#loc)
} loc(#loc)
#loc2 = loc("./local_cache/ir/cirveghol7wjrq7zwkkgu3sphruzjhq4ru5zcvmudgaexdo5niag.py":22:28)
#loc3 = loc("./local_cache/ir/cirveghol7wjrq7zwkkgu3sphruzjhq4ru5zcvmudgaexdo5niag.py":22:33)
#loc4 = loc("./local_cache/ir/cirveghol7wjrq7zwkkgu3sphruzjhq4ru5zcvmudgaexdo5niag.py":23:36)
#loc5 = loc("./local_cache/ir/cirveghol7wjrq7zwkkgu3sphruzjhq4ru5zcvmudgaexdo5niag.py":23:44)
#loc6 = loc("./local_cache/ir/cirveghol7wjrq7zwkkgu3sphruzjhq4ru5zcvmudgaexdo5niag.py":23:23)
#loc7 = loc("./local_cache/ir/cirveghol7wjrq7zwkkgu3sphruzjhq4ru5zcvmudgaexdo5niag.py":24:21)
#loc8 = loc("./local_cache/ir/cirveghol7wjrq7zwkkgu3sphruzjhq4ru5zcvmudgaexdo5niag.py":25:37)
#loc9 = loc("./local_cache/ir/cirveghol7wjrq7zwkkgu3sphruzjhq4ru5zcvmudgaexdo5niag.py":29:40)
#loc10 = loc("./local_cache/ir/cirveghol7wjrq7zwkkgu3sphruzjhq4ru5zcvmudgaexdo5niag.py":30:31)
#loc11 = loc("./local_cache/ir/cirveghol7wjrq7zwkkgu3sphruzjhq4ru5zcvmudgaexdo5niag.py":31:29)
#loc12 = loc("./local_cache/ir/cirveghol7wjrq7zwkkgu3sphruzjhq4ru5zcvmudgaexdo5niag.py":35:46)
#loc13 = loc("./local_cache/ir/cirveghol7wjrq7zwkkgu3sphruzjhq4ru5zcvmudgaexdo5niag.py":35:41)
#loc14 = loc("./local_cache/ir/cirveghol7wjrq7zwkkgu3sphruzjhq4ru5zcvmudgaexdo5niag.py":35:34)
#loc15 = loc("./local_cache/ir/cirveghol7wjrq7zwkkgu3sphruzjhq4ru5zcvmudgaexdo5niag.py":35:61)
#loc16 = loc("./local_cache/ir/cirveghol7wjrq7zwkkgu3sphruzjhq4ru5zcvmudgaexdo5niag.py":35:51)
#loc17 = loc("./local_cache/ir/cirveghol7wjrq7zwkkgu3sphruzjhq4ru5zcvmudgaexdo5niag.py":35:113)
#loc18 = loc("./local_cache/ir/cirveghol7wjrq7zwkkgu3sphruzjhq4ru5zcvmudgaexdo5niag.py":36:34)
#loc19 = loc("./local_cache/ir/cirveghol7wjrq7zwkkgu3sphruzjhq4ru5zcvmudgaexdo5niag.py":36:51)
#loc20 = loc("./local_cache/ir/cirveghol7wjrq7zwkkgu3sphruzjhq4ru5zcvmudgaexdo5niag.py":36:113)
#loc21 = loc("./local_cache/ir/cirveghol7wjrq7zwkkgu3sphruzjhq4ru5zcvmudgaexdo5niag.py":37:38)
#loc22 = loc("./local_cache/ir/cirveghol7wjrq7zwkkgu3sphruzjhq4ru5zcvmudgaexdo5niag.py":37:55)
#loc23 = loc("./local_cache/ir/cirveghol7wjrq7zwkkgu3sphruzjhq4ru5zcvmudgaexdo5niag.py":37:117)
#loc24 = loc("./local_cache/ir/cirveghol7wjrq7zwkkgu3sphruzjhq4ru5zcvmudgaexdo5niag.py":38:22)
#loc25 = loc("./local_cache/ir/cirveghol7wjrq7zwkkgu3sphruzjhq4ru5zcvmudgaexdo5niag.py":39:22)
#loc26 = loc("./local_cache/ir/cirveghol7wjrq7zwkkgu3sphruzjhq4ru5zcvmudgaexdo5niag.py":41:22)
#loc27 = loc("./local_cache/ir/cirveghol7wjrq7zwkkgu3sphruzjhq4ru5zcvmudgaexdo5niag.py":43:23)
#loc28 = loc("./local_cache/ir/cirveghol7wjrq7zwkkgu3sphruzjhq4ru5zcvmudgaexdo5niag.py":44:48)
#loc29 = loc("./local_cache/ir/cirveghol7wjrq7zwkkgu3sphruzjhq4ru5zcvmudgaexdo5niag.py":45:55)
#loc30 = loc("./local_cache/ir/cirveghol7wjrq7zwkkgu3sphruzjhq4ru5zcvmudgaexdo5niag.py":45:8)
#loc31 = loc("/workspace/torch-compile-caching/.venv/lib/python3.11/site-packages/triton/language/standard.py":286:36)
#loc33 = loc("/workspace/torch-compile-caching/.venv/lib/python3.11/site-packages/triton/language/standard.py":256:15)
#loc34 = loc("./local_cache/ir/cirveghol7wjrq7zwkkgu3sphruzjhq4ru5zcvmudgaexdo5niag.py":46:28)
#loc35 = loc("./local_cache/ir/cirveghol7wjrq7zwkkgu3sphruzjhq4ru5zcvmudgaexdo5niag.py":48:20)
#loc36 = loc("./local_cache/ir/cirveghol7wjrq7zwkkgu3sphruzjhq4ru5zcvmudgaexdo5niag.py":50:20)
#loc37 = loc("./local_cache/ir/cirveghol7wjrq7zwkkgu3sphruzjhq4ru5zcvmudgaexdo5niag.py":51:28)
#loc38 = loc("./local_cache/ir/cirveghol7wjrq7zwkkgu3sphruzjhq4ru5zcvmudgaexdo5niag.py":52:4)
#loc39 = loc("./local_cache/ir/cirveghol7wjrq7zwkkgu3sphruzjhq4ru5zcvmudgaexdo5niag.py":53:28)
#loc40 = loc("./local_cache/ir/cirveghol7wjrq7zwkkgu3sphruzjhq4ru5zcvmudgaexdo5niag.py":53:40)
#loc41 = loc("./local_cache/ir/cirveghol7wjrq7zwkkgu3sphruzjhq4ru5zcvmudgaexdo5niag.py":54:40)
#loc42 = loc("./local_cache/ir/cirveghol7wjrq7zwkkgu3sphruzjhq4ru5zcvmudgaexdo5niag.py":55:31)
#loc43 = loc("./local_cache/ir/cirveghol7wjrq7zwkkgu3sphruzjhq4ru5zcvmudgaexdo5niag.py":56:29)
#loc44 = loc("./local_cache/ir/cirveghol7wjrq7zwkkgu3sphruzjhq4ru5zcvmudgaexdo5niag.py":60:35)
#loc45 = loc("./local_cache/ir/cirveghol7wjrq7zwkkgu3sphruzjhq4ru5zcvmudgaexdo5niag.py":60:42)
#loc46 = loc("./local_cache/ir/cirveghol7wjrq7zwkkgu3sphruzjhq4ru5zcvmudgaexdo5niag.py":60:95)
#loc47 = loc("./local_cache/ir/cirveghol7wjrq7zwkkgu3sphruzjhq4ru5zcvmudgaexdo5niag.py":61:51)
#loc48 = loc("./local_cache/ir/cirveghol7wjrq7zwkkgu3sphruzjhq4ru5zcvmudgaexdo5niag.py":61:46)
#loc49 = loc("./local_cache/ir/cirveghol7wjrq7zwkkgu3sphruzjhq4ru5zcvmudgaexdo5niag.py":61:39)
#loc50 = loc("./local_cache/ir/cirveghol7wjrq7zwkkgu3sphruzjhq4ru5zcvmudgaexdo5niag.py":61:66)
#loc51 = loc("./local_cache/ir/cirveghol7wjrq7zwkkgu3sphruzjhq4ru5zcvmudgaexdo5niag.py":61:56)
#loc52 = loc("./local_cache/ir/cirveghol7wjrq7zwkkgu3sphruzjhq4ru5zcvmudgaexdo5niag.py":61:118)
#loc53 = loc("./local_cache/ir/cirveghol7wjrq7zwkkgu3sphruzjhq4ru5zcvmudgaexdo5niag.py":63:24)
#loc54 = loc("./local_cache/ir/cirveghol7wjrq7zwkkgu3sphruzjhq4ru5zcvmudgaexdo5niag.py":65:24)
#loc55 = loc("./local_cache/ir/cirveghol7wjrq7zwkkgu3sphruzjhq4ru5zcvmudgaexdo5niag.py":66:29)
#loc56 = loc("./local_cache/ir/cirveghol7wjrq7zwkkgu3sphruzjhq4ru5zcvmudgaexdo5niag.py":66:53)
#loc57 = loc("./local_cache/ir/cirveghol7wjrq7zwkkgu3sphruzjhq4ru5zcvmudgaexdo5niag.py":54:4)
#loc58 = loc(callsite(#loc31 at #loc32))
#loc60 = loc(callsite(#loc33 at #loc31))
#loc61 = loc(callsite(#loc60 at #loc32))
