#loc = loc("./local_cache/xb/cxbiz6a53yuzne7tuzqghtuipdavwtl2jp3relur3ksonmtcg44q.py":18:0)
#loc1 = loc(unknown)
#loc27 = loc("./local_cache/xb/cxbiz6a53yuzne7tuzqghtuipdavwtl2jp3relur3ksonmtcg44q.py":43:25)
#loc58 = loc(callsite(#loc1 at #loc27))
module {
  tt.func public @triton_red_fused__to_copy_add_mean_mul_pow_rsqrt_6(%arg0: !tt.ptr<f32> {tt.divisibility = 16 : i32} loc("./local_cache/xb/cxbiz6a53yuzne7tuzqghtuipdavwtl2jp3relur3ksonmtcg44q.py":18:0), %arg1: !tt.ptr<f16> {tt.divisibility = 16 : i32} loc("./local_cache/xb/cxbiz6a53yuzne7tuzqghtuipdavwtl2jp3relur3ksonmtcg44q.py":18:0), %arg2: !tt.ptr<f16> {tt.divisibility = 16 : i32} loc("./local_cache/xb/cxbiz6a53yuzne7tuzqghtuipdavwtl2jp3relur3ksonmtcg44q.py":18:0), %arg3: !tt.ptr<f16> {tt.divisibility = 16 : i32} loc("./local_cache/xb/cxbiz6a53yuzne7tuzqghtuipdavwtl2jp3relur3ksonmtcg44q.py":18:0), %arg4: !tt.ptr<f16> {tt.divisibility = 16 : i32} loc("./local_cache/xb/cxbiz6a53yuzne7tuzqghtuipdavwtl2jp3relur3ksonmtcg44q.py":18:0), %arg5: i32 loc("./local_cache/xb/cxbiz6a53yuzne7tuzqghtuipdavwtl2jp3relur3ksonmtcg44q.py":18:0), %arg6: i32 {tt.divisibility = 16 : i32} loc("./local_cache/xb/cxbiz6a53yuzne7tuzqghtuipdavwtl2jp3relur3ksonmtcg44q.py":18:0)) attributes {noinline = false} {
    %cst = arith.constant dense<0.000000e+00> : tensor<1x4xf16> loc(#loc1)
    %cst_0 = arith.constant dense<0.000000e+00> : tensor<4x4xf16> loc(#loc1)
    %c4096_i32 = arith.constant 4096 : i32 loc(#loc1)
    %c0_i32 = arith.constant 0 : i32 loc(#loc1)
    %cst_1 = arith.constant dense<9.99999974E-6> : tensor<4x1xf32> loc(#loc1)
    %cst_2 = arith.constant dense<4.096000e+03> : tensor<4x1xf32> loc(#loc1)
    %cst_3 = arith.constant dense<4096> : tensor<4x1xi32> loc(#loc1)
    %cst_4 = arith.constant dense<4096> : tensor<1x4xi32> loc(#loc1)
    %cst_5 = arith.constant dense<0.000000e+00> : tensor<4x4xf32> loc(#loc1)
    %c4_i32 = arith.constant 4 : i32 loc(#loc1)
    %0 = tt.get_program_id x : i32 loc(#loc2)
    %1 = arith.muli %0, %c4_i32 : i32 loc(#loc3)
    %2 = tt.make_range {end = 4 : i32, start = 0 : i32} : tensor<4xi32> loc(#loc4)
    %3 = tt.expand_dims %2 {axis = 1 : i32} : tensor<4xi32> -> tensor<4x1xi32> loc(#loc5)
    %4 = tt.splat %1 : i32 -> tensor<4x1xi32> loc(#loc6)
    %5 = arith.addi %4, %3 : tensor<4x1xi32> loc(#loc6)
    %6 = tt.splat %arg5 : i32 -> tensor<4x1xi32> loc(#loc7)
    %7 = arith.cmpi slt, %5, %6 : tensor<4x1xi32> loc(#loc7)
    %8 = tt.expand_dims %2 {axis = 0 : i32} : tensor<4xi32> -> tensor<1x4xi32> loc(#loc8)
    %9 = scf.for %arg7 = %c0_i32 to %c4096_i32 step %c4_i32 iter_args(%arg8 = %cst_5) -> (tensor<4x4xf32>)  : i32 {
      %17 = tt.splat %arg7 : i32 -> tensor<1x4xi32> loc(#loc10)
      %18 = arith.addi %17, %8 : tensor<1x4xi32> loc(#loc10)
      %19 = arith.cmpi slt, %18, %cst_4 : tensor<1x4xi32> loc(#loc11)
      %20 = arith.muli %5, %cst_3 : tensor<4x1xi32> loc(#loc12)
      %21 = tt.broadcast %18 : tensor<1x4xi32> -> tensor<4x4xi32> loc(#loc13)
      %22 = tt.broadcast %20 : tensor<4x1xi32> -> tensor<4x4xi32> loc(#loc13)
      %23 = arith.addi %21, %22 : tensor<4x4xi32> loc(#loc13)
      %24 = tt.splat %arg1 : !tt.ptr<f16> -> tensor<4x4x!tt.ptr<f16>> loc(#loc14)
      %25 = tt.addptr %24, %23 : tensor<4x4x!tt.ptr<f16>>, tensor<4x4xi32> loc(#loc14)
      %26 = tt.broadcast %19 : tensor<1x4xi1> -> tensor<4x4xi1> loc(#loc15)
      %27 = tt.broadcast %7 : tensor<4x1xi1> -> tensor<4x4xi1> loc(#loc15)
      %28 = arith.andi %26, %27 : tensor<4x4xi1> loc(#loc15)
      %29 = tt.load %25, %28, %cst_0 evictionPolicy = evict_last : tensor<4x4x!tt.ptr<f16>> loc(#loc16)
      %30 = arith.extf %29 : tensor<4x4xf16> to tensor<4x4xf32> loc(#loc17)
      %31 = tt.splat %arg2 : !tt.ptr<f16> -> tensor<4x4x!tt.ptr<f16>> loc(#loc18)
      %32 = tt.addptr %31, %23 : tensor<4x4x!tt.ptr<f16>>, tensor<4x4xi32> loc(#loc18)
      %33 = tt.load %32, %28, %cst_0 evictionPolicy = evict_last : tensor<4x4x!tt.ptr<f16>> loc(#loc19)
      %34 = arith.extf %33 : tensor<4x4xf16> to tensor<4x4xf32> loc(#loc20)
      %35 = arith.addf %30, %34 : tensor<4x4xf32> loc(#loc21)
      %36 = arith.mulf %35, %35 : tensor<4x4xf32> loc(#loc22)
      %37 = arith.addf %arg8, %36 : tensor<4x4xf32> loc(#loc23)
      %38 = arith.select %28, %37, %arg8 : tensor<4x4xi1>, tensor<4x4xf32> loc(#loc24)
      scf.yield %38 : tensor<4x4xf32> loc(#loc25)
    } loc(#loc9)
    %10 = "tt.reduce"(%9) <{axis = 1 : i32}> ({
    ^bb0(%arg7: f32 loc(callsite(#loc1 at #loc27)), %arg8: f32 loc(callsite(#loc1 at #loc27))):
      %17 = arith.addf %arg7, %arg8 : f32 loc(#loc60)
      tt.reduce.return %17 : f32 loc(#loc57)
    }) : (tensor<4x4xf32>) -> tensor<4xf32> loc(#loc57)
    %11 = tt.expand_dims %10 {axis = 1 : i32} : tensor<4xf32> -> tensor<4x1xf32> loc(#loc29)
    %12 = arith.divf %11, %cst_2 : tensor<4x1xf32> loc(#loc30)
    %13 = arith.addf %12, %cst_1 : tensor<4x1xf32> loc(#loc31)
    %14 = tt.extern_elementwise %13 {libname = "", libpath = "", pure = true, symbol = "__nv_rsqrtf"} : (tensor<4x1xf32>) -> tensor<4x1xf32> loc(#loc32)
    gpu.barrier loc(#loc33)
    %15 = tt.splat %arg0 : !tt.ptr<f32> -> tensor<4x1x!tt.ptr<f32>> loc(#loc34)
    %16 = tt.addptr %15, %5 : tensor<4x1x!tt.ptr<f32>>, tensor<4x1xi32> loc(#loc34)
    tt.store %16, %14, %7 : tensor<4x1x!tt.ptr<f32>> loc(#loc35)
    scf.for %arg7 = %c0_i32 to %c4096_i32 step %c4_i32  : i32 {
      %17 = tt.splat %arg7 : i32 -> tensor<1x4xi32> loc(#loc37)
      %18 = arith.addi %17, %8 : tensor<1x4xi32> loc(#loc37)
      %19 = arith.cmpi slt, %18, %cst_4 : tensor<1x4xi32> loc(#loc38)
      %20 = tt.splat %arg3 : !tt.ptr<f16> -> tensor<1x4x!tt.ptr<f16>> loc(#loc39)
      %21 = tt.addptr %20, %18 : tensor<1x4x!tt.ptr<f16>>, tensor<1x4xi32> loc(#loc39)
      %22 = tt.load %21, %19, %cst evictionPolicy = evict_last : tensor<1x4x!tt.ptr<f16>> loc(#loc40)
      %23 = arith.extf %22 : tensor<1x4xf16> to tensor<1x4xf32> loc(#loc41)
      %24 = arith.muli %5, %cst_3 : tensor<4x1xi32> loc(#loc42)
      %25 = tt.broadcast %18 : tensor<1x4xi32> -> tensor<4x4xi32> loc(#loc43)
      %26 = tt.broadcast %24 : tensor<4x1xi32> -> tensor<4x4xi32> loc(#loc43)
      %27 = arith.addi %25, %26 : tensor<4x4xi32> loc(#loc43)
      %28 = tt.splat %arg1 : !tt.ptr<f16> -> tensor<4x4x!tt.ptr<f16>> loc(#loc44)
      %29 = tt.addptr %28, %27 : tensor<4x4x!tt.ptr<f16>>, tensor<4x4xi32> loc(#loc44)
      %30 = tt.broadcast %19 : tensor<1x4xi1> -> tensor<4x4xi1> loc(#loc45)
      %31 = tt.broadcast %7 : tensor<4x1xi1> -> tensor<4x4xi1> loc(#loc45)
      %32 = arith.andi %30, %31 : tensor<4x4xi1> loc(#loc45)
      %33 = tt.load %29, %32, %cst_0 evictionPolicy = evict_first : tensor<4x4x!tt.ptr<f16>> loc(#loc46)
      %34 = arith.extf %33 : tensor<4x4xf16> to tensor<4x4xf32> loc(#loc47)
      %35 = tt.splat %arg2 : !tt.ptr<f16> -> tensor<4x4x!tt.ptr<f16>> loc(#loc48)
      %36 = tt.addptr %35, %27 : tensor<4x4x!tt.ptr<f16>>, tensor<4x4xi32> loc(#loc48)
      %37 = tt.load %36, %32, %cst_0 evictionPolicy = evict_first : tensor<4x4x!tt.ptr<f16>> loc(#loc49)
      %38 = arith.extf %37 : tensor<4x4xf16> to tensor<4x4xf32> loc(#loc50)
      %39 = arith.addf %34, %38 : tensor<4x4xf32> loc(#loc51)
      %40 = tt.broadcast %14 : tensor<4x1xf32> -> tensor<4x4xf32> loc(#loc52)
      %41 = arith.mulf %39, %40 : tensor<4x4xf32> loc(#loc52)
      %42 = tt.broadcast %23 : tensor<1x4xf32> -> tensor<4x4xf32> loc(#loc53)
      %43 = arith.mulf %42, %41 : tensor<4x4xf32> loc(#loc53)
      %44 = tt.splat %arg4 : !tt.ptr<f16> -> tensor<4x4x!tt.ptr<f16>> loc(#loc54)
      %45 = tt.addptr %44, %27 : tensor<4x4x!tt.ptr<f16>>, tensor<4x4xi32> loc(#loc54)
      %46 = arith.truncf %43 : tensor<4x4xf32> to tensor<4x4xf16> loc(#loc55)
      tt.store %45, %46, %32 : tensor<4x4x!tt.ptr<f16>> loc(#loc55)
    } loc(#loc36)
    tt.return loc(#loc56)
  } loc(#loc)
} loc(#loc)
#loc2 = loc("./local_cache/xb/cxbiz6a53yuzne7tuzqghtuipdavwtl2jp3relur3ksonmtcg44q.py":22:28)
#loc3 = loc("./local_cache/xb/cxbiz6a53yuzne7tuzqghtuipdavwtl2jp3relur3ksonmtcg44q.py":22:33)
#loc4 = loc("./local_cache/xb/cxbiz6a53yuzne7tuzqghtuipdavwtl2jp3relur3ksonmtcg44q.py":23:36)
#loc5 = loc("./local_cache/xb/cxbiz6a53yuzne7tuzqghtuipdavwtl2jp3relur3ksonmtcg44q.py":23:44)
#loc6 = loc("./local_cache/xb/cxbiz6a53yuzne7tuzqghtuipdavwtl2jp3relur3ksonmtcg44q.py":23:23)
#loc7 = loc("./local_cache/xb/cxbiz6a53yuzne7tuzqghtuipdavwtl2jp3relur3ksonmtcg44q.py":24:21)
#loc8 = loc("./local_cache/xb/cxbiz6a53yuzne7tuzqghtuipdavwtl2jp3relur3ksonmtcg44q.py":25:37)
#loc9 = loc("./local_cache/xb/cxbiz6a53yuzne7tuzqghtuipdavwtl2jp3relur3ksonmtcg44q.py":29:40)
#loc10 = loc("./local_cache/xb/cxbiz6a53yuzne7tuzqghtuipdavwtl2jp3relur3ksonmtcg44q.py":30:31)
#loc11 = loc("./local_cache/xb/cxbiz6a53yuzne7tuzqghtuipdavwtl2jp3relur3ksonmtcg44q.py":31:29)
#loc12 = loc("./local_cache/xb/cxbiz6a53yuzne7tuzqghtuipdavwtl2jp3relur3ksonmtcg44q.py":35:46)
#loc13 = loc("./local_cache/xb/cxbiz6a53yuzne7tuzqghtuipdavwtl2jp3relur3ksonmtcg44q.py":35:41)
#loc14 = loc("./local_cache/xb/cxbiz6a53yuzne7tuzqghtuipdavwtl2jp3relur3ksonmtcg44q.py":35:34)
#loc15 = loc("./local_cache/xb/cxbiz6a53yuzne7tuzqghtuipdavwtl2jp3relur3ksonmtcg44q.py":35:61)
#loc16 = loc("./local_cache/xb/cxbiz6a53yuzne7tuzqghtuipdavwtl2jp3relur3ksonmtcg44q.py":35:51)
#loc17 = loc("./local_cache/xb/cxbiz6a53yuzne7tuzqghtuipdavwtl2jp3relur3ksonmtcg44q.py":35:112)
#loc18 = loc("./local_cache/xb/cxbiz6a53yuzne7tuzqghtuipdavwtl2jp3relur3ksonmtcg44q.py":36:34)
#loc19 = loc("./local_cache/xb/cxbiz6a53yuzne7tuzqghtuipdavwtl2jp3relur3ksonmtcg44q.py":36:51)
#loc20 = loc("./local_cache/xb/cxbiz6a53yuzne7tuzqghtuipdavwtl2jp3relur3ksonmtcg44q.py":36:112)
#loc21 = loc("./local_cache/xb/cxbiz6a53yuzne7tuzqghtuipdavwtl2jp3relur3ksonmtcg44q.py":37:22)
#loc22 = loc("./local_cache/xb/cxbiz6a53yuzne7tuzqghtuipdavwtl2jp3relur3ksonmtcg44q.py":39:22)
#loc23 = loc("./local_cache/xb/cxbiz6a53yuzne7tuzqghtuipdavwtl2jp3relur3ksonmtcg44q.py":41:23)
#loc24 = loc("./local_cache/xb/cxbiz6a53yuzne7tuzqghtuipdavwtl2jp3relur3ksonmtcg44q.py":42:48)
#loc25 = loc("./local_cache/xb/cxbiz6a53yuzne7tuzqghtuipdavwtl2jp3relur3ksonmtcg44q.py":42:8)
#loc26 = loc("/workspace/torch-compile-caching/.venv/lib/python3.11/site-packages/triton/language/standard.py":286:36)
#loc28 = loc("/workspace/torch-compile-caching/.venv/lib/python3.11/site-packages/triton/language/standard.py":256:15)
#loc29 = loc("./local_cache/xb/cxbiz6a53yuzne7tuzqghtuipdavwtl2jp3relur3ksonmtcg44q.py":43:28)
#loc30 = loc("./local_cache/xb/cxbiz6a53yuzne7tuzqghtuipdavwtl2jp3relur3ksonmtcg44q.py":45:19)
#loc31 = loc("./local_cache/xb/cxbiz6a53yuzne7tuzqghtuipdavwtl2jp3relur3ksonmtcg44q.py":47:19)
#loc32 = loc("./local_cache/xb/cxbiz6a53yuzne7tuzqghtuipdavwtl2jp3relur3ksonmtcg44q.py":48:28)
#loc33 = loc("./local_cache/xb/cxbiz6a53yuzne7tuzqghtuipdavwtl2jp3relur3ksonmtcg44q.py":49:4)
#loc34 = loc("./local_cache/xb/cxbiz6a53yuzne7tuzqghtuipdavwtl2jp3relur3ksonmtcg44q.py":50:28)
#loc35 = loc("./local_cache/xb/cxbiz6a53yuzne7tuzqghtuipdavwtl2jp3relur3ksonmtcg44q.py":50:40)
#loc36 = loc("./local_cache/xb/cxbiz6a53yuzne7tuzqghtuipdavwtl2jp3relur3ksonmtcg44q.py":51:40)
#loc37 = loc("./local_cache/xb/cxbiz6a53yuzne7tuzqghtuipdavwtl2jp3relur3ksonmtcg44q.py":52:31)
#loc38 = loc("./local_cache/xb/cxbiz6a53yuzne7tuzqghtuipdavwtl2jp3relur3ksonmtcg44q.py":53:29)
#loc39 = loc("./local_cache/xb/cxbiz6a53yuzne7tuzqghtuipdavwtl2jp3relur3ksonmtcg44q.py":57:35)
#loc40 = loc("./local_cache/xb/cxbiz6a53yuzne7tuzqghtuipdavwtl2jp3relur3ksonmtcg44q.py":57:42)
#loc41 = loc("./local_cache/xb/cxbiz6a53yuzne7tuzqghtuipdavwtl2jp3relur3ksonmtcg44q.py":57:95)
#loc42 = loc("./local_cache/xb/cxbiz6a53yuzne7tuzqghtuipdavwtl2jp3relur3ksonmtcg44q.py":58:47)
#loc43 = loc("./local_cache/xb/cxbiz6a53yuzne7tuzqghtuipdavwtl2jp3relur3ksonmtcg44q.py":58:42)
#loc44 = loc("./local_cache/xb/cxbiz6a53yuzne7tuzqghtuipdavwtl2jp3relur3ksonmtcg44q.py":58:35)
#loc45 = loc("./local_cache/xb/cxbiz6a53yuzne7tuzqghtuipdavwtl2jp3relur3ksonmtcg44q.py":58:62)
#loc46 = loc("./local_cache/xb/cxbiz6a53yuzne7tuzqghtuipdavwtl2jp3relur3ksonmtcg44q.py":58:52)
#loc47 = loc("./local_cache/xb/cxbiz6a53yuzne7tuzqghtuipdavwtl2jp3relur3ksonmtcg44q.py":58:114)
#loc48 = loc("./local_cache/xb/cxbiz6a53yuzne7tuzqghtuipdavwtl2jp3relur3ksonmtcg44q.py":59:35)
#loc49 = loc("./local_cache/xb/cxbiz6a53yuzne7tuzqghtuipdavwtl2jp3relur3ksonmtcg44q.py":59:52)
#loc50 = loc("./local_cache/xb/cxbiz6a53yuzne7tuzqghtuipdavwtl2jp3relur3ksonmtcg44q.py":59:114)
#loc51 = loc("./local_cache/xb/cxbiz6a53yuzne7tuzqghtuipdavwtl2jp3relur3ksonmtcg44q.py":60:24)
#loc52 = loc("./local_cache/xb/cxbiz6a53yuzne7tuzqghtuipdavwtl2jp3relur3ksonmtcg44q.py":62:24)
#loc53 = loc("./local_cache/xb/cxbiz6a53yuzne7tuzqghtuipdavwtl2jp3relur3ksonmtcg44q.py":64:24)
#loc54 = loc("./local_cache/xb/cxbiz6a53yuzne7tuzqghtuipdavwtl2jp3relur3ksonmtcg44q.py":65:29)
#loc55 = loc("./local_cache/xb/cxbiz6a53yuzne7tuzqghtuipdavwtl2jp3relur3ksonmtcg44q.py":65:53)
#loc56 = loc("./local_cache/xb/cxbiz6a53yuzne7tuzqghtuipdavwtl2jp3relur3ksonmtcg44q.py":51:4)
#loc57 = loc(callsite(#loc26 at #loc27))
#loc59 = loc(callsite(#loc28 at #loc26))
#loc60 = loc(callsite(#loc59 at #loc27))
