#loc = loc("./local_cache/dp/cdpmdjxtn76eoilzzn3auquxblbphkbtjfl7kawk25qsvgvr45be.py":18:0)
#loc1 = loc(unknown)
#loc28 = loc("./local_cache/dp/cdpmdjxtn76eoilzzn3auquxblbphkbtjfl7kawk25qsvgvr45be.py":45:25)
#loc35 = loc(callsite(#loc1 at #loc28))
module {
  tt.func public @triton_red_fused__to_copy_mul_sum_1(%arg0: !tt.ptr<f16> {tt.divisibility = 16 : i32} loc("./local_cache/dp/cdpmdjxtn76eoilzzn3auquxblbphkbtjfl7kawk25qsvgvr45be.py":18:0), %arg1: !tt.ptr<f16> {tt.divisibility = 16 : i32} loc("./local_cache/dp/cdpmdjxtn76eoilzzn3auquxblbphkbtjfl7kawk25qsvgvr45be.py":18:0), %arg2: !tt.ptr<f32> {tt.divisibility = 16 : i32} loc("./local_cache/dp/cdpmdjxtn76eoilzzn3auquxblbphkbtjfl7kawk25qsvgvr45be.py":18:0), %arg3: !tt.ptr<f16> {tt.divisibility = 16 : i32} loc("./local_cache/dp/cdpmdjxtn76eoilzzn3auquxblbphkbtjfl7kawk25qsvgvr45be.py":18:0), %arg4: i32 {tt.divisibility = 16 : i32} loc("./local_cache/dp/cdpmdjxtn76eoilzzn3auquxblbphkbtjfl7kawk25qsvgvr45be.py":18:0), %arg5: i32 loc("./local_cache/dp/cdpmdjxtn76eoilzzn3auquxblbphkbtjfl7kawk25qsvgvr45be.py":18:0)) attributes {noinline = false} {
    %cst = arith.constant dense<0.000000e+00> : tensor<64x4xf16> loc(#loc1)
    %c4_i32 = arith.constant 4 : i32 loc(#loc1)
    %c0_i32 = arith.constant 0 : i32 loc(#loc1)
    %cst_0 = arith.constant dense<0.000000e+00> : tensor<1x4xf32> loc(#loc1)
    %cst_1 = arith.constant dense<4096> : tensor<1x4xi32> loc(#loc1)
    %cst_2 = arith.constant dense<0.000000e+00> : tensor<64x4xf32> loc(#loc1)
    %c64_i32 = arith.constant 64 : i32 loc(#loc1)
    %0 = tt.get_program_id x : i32 loc(#loc2)
    %1 = arith.muli %0, %c64_i32 : i32 loc(#loc3)
    %2 = tt.make_range {end = 64 : i32, start = 0 : i32} : tensor<64xi32> loc(#loc4)
    %3 = tt.expand_dims %2 {axis = 1 : i32} : tensor<64xi32> -> tensor<64x1xi32> loc(#loc5)
    %4 = tt.splat %1 : i32 -> tensor<64x1xi32> loc(#loc6)
    %5 = arith.addi %4, %3 : tensor<64x1xi32> loc(#loc6)
    %6 = tt.make_range {end = 4 : i32, start = 0 : i32} : tensor<4xi32> loc(#loc7)
    %7 = tt.expand_dims %6 {axis = 0 : i32} : tensor<4xi32> -> tensor<1x4xi32> loc(#loc8)
    %8 = scf.for %arg6 = %c0_i32 to %arg5 step %c4_i32 iter_args(%arg7 = %cst_2) -> (tensor<64x4xf32>)  : i32 {
      %14 = tt.splat %arg6 : i32 -> tensor<1x4xi32> loc(#loc10)
      %15 = arith.addi %14, %7 : tensor<1x4xi32> loc(#loc10)
      %16 = tt.splat %arg5 : i32 -> tensor<1x4xi32> loc(#loc11)
      %17 = arith.cmpi slt, %15, %16 : tensor<1x4xi32> loc(#loc11)
      %18 = arith.muli %15, %cst_1 : tensor<1x4xi32> loc(#loc12)
      %19 = tt.broadcast %5 : tensor<64x1xi32> -> tensor<64x4xi32> loc(#loc13)
      %20 = tt.broadcast %18 : tensor<1x4xi32> -> tensor<64x4xi32> loc(#loc13)
      %21 = arith.addi %19, %20 : tensor<64x4xi32> loc(#loc13)
      %22 = tt.splat %arg0 : !tt.ptr<f16> -> tensor<64x4x!tt.ptr<f16>> loc(#loc14)
      %23 = tt.addptr %22, %21 : tensor<64x4x!tt.ptr<f16>>, tensor<64x4xi32> loc(#loc14)
      %24 = tt.broadcast %17 : tensor<1x4xi1> -> tensor<64x4xi1> loc(#loc15)
      %25 = tt.load %23, %24, %cst evictionPolicy = evict_first : tensor<64x4x!tt.ptr<f16>> loc(#loc15)
      %26 = arith.extf %25 : tensor<64x4xf16> to tensor<64x4xf32> loc(#loc16)
      %27 = tt.splat %arg1 : !tt.ptr<f16> -> tensor<64x4x!tt.ptr<f16>> loc(#loc17)
      %28 = tt.addptr %27, %21 : tensor<64x4x!tt.ptr<f16>>, tensor<64x4xi32> loc(#loc17)
      %29 = tt.load %28, %24, %cst evictionPolicy = evict_first : tensor<64x4x!tt.ptr<f16>> loc(#loc18)
      %30 = arith.extf %29 : tensor<64x4xf16> to tensor<64x4xf32> loc(#loc19)
      %31 = tt.splat %arg2 : !tt.ptr<f32> -> tensor<1x4x!tt.ptr<f32>> loc(#loc20)
      %32 = tt.addptr %31, %15 : tensor<1x4x!tt.ptr<f32>>, tensor<1x4xi32> loc(#loc20)
      %33 = tt.load %32, %17, %cst_0 evictionPolicy = evict_last : tensor<1x4x!tt.ptr<f32>> loc(#loc21)
      %34 = tt.broadcast %33 : tensor<1x4xf32> -> tensor<64x4xf32> loc(#loc22)
      %35 = arith.mulf %30, %34 : tensor<64x4xf32> loc(#loc22)
      %36 = arith.mulf %26, %35 : tensor<64x4xf32> loc(#loc23)
      %37 = arith.addf %arg7, %36 : tensor<64x4xf32> loc(#loc24)
      %38 = arith.select %24, %37, %arg7 : tensor<64x4xi1>, tensor<64x4xf32> loc(#loc25)
      scf.yield %38 : tensor<64x4xf32> loc(#loc26)
    } loc(#loc9)
    %9 = "tt.reduce"(%8) <{axis = 1 : i32}> ({
    ^bb0(%arg6: f32 loc(callsite(#loc1 at #loc28)), %arg7: f32 loc(callsite(#loc1 at #loc28))):
      %14 = arith.addf %arg6, %arg7 : f32 loc(#loc37)
      tt.reduce.return %14 : f32 loc(#loc34)
    }) : (tensor<64x4xf32>) -> tensor<64xf32> loc(#loc34)
    %10 = tt.expand_dims %9 {axis = 1 : i32} : tensor<64xf32> -> tensor<64x1xf32> loc(#loc30)
    %11 = tt.splat %arg3 : !tt.ptr<f16> -> tensor<64x1x!tt.ptr<f16>> loc(#loc31)
    %12 = tt.addptr %11, %5 : tensor<64x1x!tt.ptr<f16>>, tensor<64x1xi32> loc(#loc31)
    %13 = arith.truncf %10 : tensor<64x1xf32> to tensor<64x1xf16> loc(#loc32)
    tt.store %12, %13 : tensor<64x1x!tt.ptr<f16>> loc(#loc32)
    tt.return loc(#loc33)
  } loc(#loc)
} loc(#loc)
#loc2 = loc("./local_cache/dp/cdpmdjxtn76eoilzzn3auquxblbphkbtjfl7kawk25qsvgvr45be.py":22:28)
#loc3 = loc("./local_cache/dp/cdpmdjxtn76eoilzzn3auquxblbphkbtjfl7kawk25qsvgvr45be.py":22:33)
#loc4 = loc("./local_cache/dp/cdpmdjxtn76eoilzzn3auquxblbphkbtjfl7kawk25qsvgvr45be.py":23:36)
#loc5 = loc("./local_cache/dp/cdpmdjxtn76eoilzzn3auquxblbphkbtjfl7kawk25qsvgvr45be.py":23:44)
#loc6 = loc("./local_cache/dp/cdpmdjxtn76eoilzzn3auquxblbphkbtjfl7kawk25qsvgvr45be.py":23:23)
#loc7 = loc("./local_cache/dp/cdpmdjxtn76eoilzzn3auquxblbphkbtjfl7kawk25qsvgvr45be.py":25:27)
#loc8 = loc("./local_cache/dp/cdpmdjxtn76eoilzzn3auquxblbphkbtjfl7kawk25qsvgvr45be.py":25:37)
#loc9 = loc("./local_cache/dp/cdpmdjxtn76eoilzzn3auquxblbphkbtjfl7kawk25qsvgvr45be.py":29:40)
#loc10 = loc("./local_cache/dp/cdpmdjxtn76eoilzzn3auquxblbphkbtjfl7kawk25qsvgvr45be.py":30:31)
#loc11 = loc("./local_cache/dp/cdpmdjxtn76eoilzzn3auquxblbphkbtjfl7kawk25qsvgvr45be.py":31:29)
#loc12 = loc("./local_cache/dp/cdpmdjxtn76eoilzzn3auquxblbphkbtjfl7kawk25qsvgvr45be.py":35:44)
#loc13 = loc("./local_cache/dp/cdpmdjxtn76eoilzzn3auquxblbphkbtjfl7kawk25qsvgvr45be.py":35:39)
#loc14 = loc("./local_cache/dp/cdpmdjxtn76eoilzzn3auquxblbphkbtjfl7kawk25qsvgvr45be.py":35:34)
#loc15 = loc("./local_cache/dp/cdpmdjxtn76eoilzzn3auquxblbphkbtjfl7kawk25qsvgvr45be.py":35:51)
#loc16 = loc("./local_cache/dp/cdpmdjxtn76eoilzzn3auquxblbphkbtjfl7kawk25qsvgvr45be.py":35:105)
#loc17 = loc("./local_cache/dp/cdpmdjxtn76eoilzzn3auquxblbphkbtjfl7kawk25qsvgvr45be.py":36:34)
#loc18 = loc("./local_cache/dp/cdpmdjxtn76eoilzzn3auquxblbphkbtjfl7kawk25qsvgvr45be.py":36:51)
#loc19 = loc("./local_cache/dp/cdpmdjxtn76eoilzzn3auquxblbphkbtjfl7kawk25qsvgvr45be.py":36:105)
#loc20 = loc("./local_cache/dp/cdpmdjxtn76eoilzzn3auquxblbphkbtjfl7kawk25qsvgvr45be.py":37:34)
#loc21 = loc("./local_cache/dp/cdpmdjxtn76eoilzzn3auquxblbphkbtjfl7kawk25qsvgvr45be.py":37:41)
#loc22 = loc("./local_cache/dp/cdpmdjxtn76eoilzzn3auquxblbphkbtjfl7kawk25qsvgvr45be.py":39:22)
#loc23 = loc("./local_cache/dp/cdpmdjxtn76eoilzzn3auquxblbphkbtjfl7kawk25qsvgvr45be.py":41:22)
#loc24 = loc("./local_cache/dp/cdpmdjxtn76eoilzzn3auquxblbphkbtjfl7kawk25qsvgvr45be.py":43:23)
#loc25 = loc("./local_cache/dp/cdpmdjxtn76eoilzzn3auquxblbphkbtjfl7kawk25qsvgvr45be.py":44:40)
#loc26 = loc("./local_cache/dp/cdpmdjxtn76eoilzzn3auquxblbphkbtjfl7kawk25qsvgvr45be.py":44:8)
#loc27 = loc("/workspace/torch-compile-caching/.venv/lib/python3.11/site-packages/triton/language/standard.py":286:36)
#loc29 = loc("/workspace/torch-compile-caching/.venv/lib/python3.11/site-packages/triton/language/standard.py":256:15)
#loc30 = loc("./local_cache/dp/cdpmdjxtn76eoilzzn3auquxblbphkbtjfl7kawk25qsvgvr45be.py":45:28)
#loc31 = loc("./local_cache/dp/cdpmdjxtn76eoilzzn3auquxblbphkbtjfl7kawk25qsvgvr45be.py":46:25)
#loc32 = loc("./local_cache/dp/cdpmdjxtn76eoilzzn3auquxblbphkbtjfl7kawk25qsvgvr45be.py":46:36)
#loc33 = loc("./local_cache/dp/cdpmdjxtn76eoilzzn3auquxblbphkbtjfl7kawk25qsvgvr45be.py":46:4)
#loc34 = loc(callsite(#loc27 at #loc28))
#loc36 = loc(callsite(#loc29 at #loc27))
#loc37 = loc(callsite(#loc36 at #loc28))
