#loc = loc("/tmp/torchinductor_root/cs/ccs6agov6apf2a2jmdmjbgw3s6dcemdcmtagau4xvkq2rtwcynjt.py":18:0)
#loc1 = loc(unknown)
#loc38 = loc("/tmp/torchinductor_root/cs/ccs6agov6apf2a2jmdmjbgw3s6dcemdcmtagau4xvkq2rtwcynjt.py":49:27)
#loc83 = loc(callsite(#loc1 at #loc38))
module {
  tt.func public @triton_red_fused__to_copy_add_div_mul_pow_sum_10(%arg0: !tt.ptr<f16> {tt.divisibility = 16 : i32} loc("/tmp/torchinductor_root/cs/ccs6agov6apf2a2jmdmjbgw3s6dcemdcmtagau4xvkq2rtwcynjt.py":18:0), %arg1: !tt.ptr<f16> {tt.divisibility = 16 : i32} loc("/tmp/torchinductor_root/cs/ccs6agov6apf2a2jmdmjbgw3s6dcemdcmtagau4xvkq2rtwcynjt.py":18:0), %arg2: !tt.ptr<f16> {tt.divisibility = 16 : i32} loc("/tmp/torchinductor_root/cs/ccs6agov6apf2a2jmdmjbgw3s6dcemdcmtagau4xvkq2rtwcynjt.py":18:0), %arg3: !tt.ptr<f16> {tt.divisibility = 16 : i32} loc("/tmp/torchinductor_root/cs/ccs6agov6apf2a2jmdmjbgw3s6dcemdcmtagau4xvkq2rtwcynjt.py":18:0), %arg4: !tt.ptr<f16> {tt.divisibility = 16 : i32} loc("/tmp/torchinductor_root/cs/ccs6agov6apf2a2jmdmjbgw3s6dcemdcmtagau4xvkq2rtwcynjt.py":18:0), %arg5: !tt.ptr<f16> {tt.divisibility = 16 : i32} loc("/tmp/torchinductor_root/cs/ccs6agov6apf2a2jmdmjbgw3s6dcemdcmtagau4xvkq2rtwcynjt.py":18:0), %arg6: !tt.ptr<f32> {tt.divisibility = 16 : i32} loc("/tmp/torchinductor_root/cs/ccs6agov6apf2a2jmdmjbgw3s6dcemdcmtagau4xvkq2rtwcynjt.py":18:0), %arg7: i32 loc("/tmp/torchinductor_root/cs/ccs6agov6apf2a2jmdmjbgw3s6dcemdcmtagau4xvkq2rtwcynjt.py":18:0), %arg8: i32 {tt.divisibility = 16 : i32} loc("/tmp/torchinductor_root/cs/ccs6agov6apf2a2jmdmjbgw3s6dcemdcmtagau4xvkq2rtwcynjt.py":18:0)) attributes {noinline = false} {
    %cst = arith.constant dense<0.000000e+00> : tensor<1x4xf16> loc(#loc1)
    %cst_0 = arith.constant dense<0.000000e+00> : tensor<4x4xf16> loc(#loc1)
    %c4096_i32 = arith.constant 4096 : i32 loc(#loc1)
    %c0_i32 = arith.constant 0 : i32 loc(#loc1)
    %cst_1 = arith.constant dense<2.000000e+00> : tensor<4x4xf32> loc(#loc1)
    %cst_2 = arith.constant dense<2.44140625E-4> : tensor<4x1xf32> loc(#loc1)
    %cst_3 = arith.constant dense<-5.000000e-01> : tensor<4x1xf32> loc(#loc1)
    %cst_4 = arith.constant dense<4096> : tensor<4x1xi32> loc(#loc1)
    %cst_5 = arith.constant dense<4096> : tensor<1x4xi32> loc(#loc1)
    %cst_6 = arith.constant dense<0.000000e+00> : tensor<4x4xf32> loc(#loc1)
    %c4_i32 = arith.constant 4 : i32 loc(#loc1)
    %0 = tt.get_program_id x : i32 loc(#loc2)
    %1 = arith.muli %0, %c4_i32 : i32 loc(#loc3)
    %2 = tt.make_range {end = 4 : i32, start = 0 : i32} : tensor<4xi32> loc(#loc4)
    %3 = tt.expand_dims %2 {axis = 1 : i32} : tensor<4xi32> -> tensor<4x1xi32> loc(#loc5)
    %4 = tt.splat %1 : i32 -> tensor<4x1xi32> loc(#loc6)
    %5 = arith.addi %4, %3 : tensor<4x1xi32> loc(#loc6)
    %6 = tt.splat %arg7 : i32 -> tensor<4x1xi32> loc(#loc7)
    %7 = arith.cmpi slt, %5, %6 : tensor<4x1xi32> loc(#loc7)
    %8 = tt.expand_dims %2 {axis = 0 : i32} : tensor<4xi32> -> tensor<1x4xi32> loc(#loc8)
    %9 = scf.for %arg9 = %c0_i32 to %c4096_i32 step %c4_i32 iter_args(%arg10 = %cst_6) -> (tensor<4x4xf32>)  : i32 {
      %15 = tt.splat %arg9 : i32 -> tensor<1x4xi32> loc(#loc10)
      %16 = arith.addi %15, %8 : tensor<1x4xi32> loc(#loc10)
      %17 = arith.cmpi slt, %16, %cst_5 : tensor<1x4xi32> loc(#loc11)
      %18 = arith.muli %5, %cst_4 : tensor<4x1xi32> loc(#loc12)
      %19 = tt.broadcast %16 : tensor<1x4xi32> -> tensor<4x4xi32> loc(#loc13)
      %20 = tt.broadcast %18 : tensor<4x1xi32> -> tensor<4x4xi32> loc(#loc13)
      %21 = arith.addi %19, %20 : tensor<4x4xi32> loc(#loc13)
      %22 = tt.splat %arg1 : !tt.ptr<f16> -> tensor<4x4x!tt.ptr<f16>> loc(#loc14)
      %23 = tt.addptr %22, %21 : tensor<4x4x!tt.ptr<f16>>, tensor<4x4xi32> loc(#loc14)
      %24 = tt.broadcast %7 : tensor<4x1xi1> -> tensor<4x4xi1> loc(#loc15)
      %25 = tt.broadcast %17 : tensor<1x4xi1> -> tensor<4x4xi1> loc(#loc15)
      %26 = arith.andi %24, %25 : tensor<4x4xi1> loc(#loc15)
      %27 = tt.load %23, %26, %cst_0 evictionPolicy = evict_last : tensor<4x4x!tt.ptr<f16>> loc(#loc16)
      %28 = arith.extf %27 : tensor<4x4xf16> to tensor<4x4xf32> loc(#loc17)
      %29 = tt.splat %arg2 : !tt.ptr<f16> -> tensor<4x4x!tt.ptr<f16>> loc(#loc18)
      %30 = tt.addptr %29, %21 : tensor<4x4x!tt.ptr<f16>>, tensor<4x4xi32> loc(#loc18)
      %31 = tt.load %30, %26, %cst_0 evictionPolicy = evict_last : tensor<4x4x!tt.ptr<f16>> loc(#loc19)
      %32 = arith.extf %31 : tensor<4x4xf16> to tensor<4x4xf32> loc(#loc20)
      %33 = tt.splat %arg3 : !tt.ptr<f16> -> tensor<4x4x!tt.ptr<f16>> loc(#loc21)
      %34 = tt.addptr %33, %21 : tensor<4x4x!tt.ptr<f16>>, tensor<4x4xi32> loc(#loc21)
      %35 = tt.load %34, %26, %cst_0 evictionPolicy = evict_last : tensor<4x4x!tt.ptr<f16>> loc(#loc22)
      %36 = arith.extf %35 : tensor<4x4xf16> to tensor<4x4xf32> loc(#loc23)
      %37 = tt.splat %arg4 : !tt.ptr<f16> -> tensor<1x4x!tt.ptr<f16>> loc(#loc24)
      %38 = tt.addptr %37, %16 : tensor<1x4x!tt.ptr<f16>>, tensor<1x4xi32> loc(#loc24)
      %39 = tt.load %38, %17, %cst evictionPolicy = evict_last : tensor<1x4x!tt.ptr<f16>> loc(#loc25)
      %40 = arith.extf %39 : tensor<1x4xf16> to tensor<1x4xf32> loc(#loc26)
      %41 = tt.splat %arg5 : !tt.ptr<f16> -> tensor<4x4x!tt.ptr<f16>> loc(#loc27)
      %42 = tt.addptr %41, %21 : tensor<4x4x!tt.ptr<f16>>, tensor<4x4xi32> loc(#loc27)
      %43 = tt.load %42, %26, %cst_0 evictionPolicy = evict_last : tensor<4x4x!tt.ptr<f16>> loc(#loc28)
      %44 = arith.extf %43 : tensor<4x4xf16> to tensor<4x4xf32> loc(#loc29)
      %45 = arith.addf %28, %32 : tensor<4x4xf32> loc(#loc30)
      %46 = arith.addf %45, %36 : tensor<4x4xf32> loc(#loc31)
      %47 = tt.broadcast %40 : tensor<1x4xf32> -> tensor<4x4xf32> loc(#loc32)
      %48 = arith.mulf %46, %47 : tensor<4x4xf32> loc(#loc32)
      %49 = arith.mulf %48, %44 : tensor<4x4xf32> loc(#loc33)
      %50 = arith.addf %arg10, %49 : tensor<4x4xf32> loc(#loc34)
      %51 = arith.select %26, %50, %arg10 : tensor<4x4xi1>, tensor<4x4xf32> loc(#loc35)
      scf.yield %51 : tensor<4x4xf32> loc(#loc36)
    } loc(#loc9)
    %10 = "tt.reduce"(%9) <{axis = 1 : i32}> ({
    ^bb0(%arg9: f32 loc(callsite(#loc1 at #loc38)), %arg10: f32 loc(callsite(#loc1 at #loc38))):
      %15 = arith.addf %arg9, %arg10 : f32 loc(#loc85)
      tt.reduce.return %15 : f32 loc(#loc82)
    }) : (tensor<4x4xf32>) -> tensor<4xf32> loc(#loc82)
    %11 = tt.expand_dims %10 {axis = 1 : i32} : tensor<4xf32> -> tensor<4x1xf32> loc(#loc40)
    %12 = tt.splat %arg6 : !tt.ptr<f32> -> tensor<4x1x!tt.ptr<f32>> loc(#loc41)
    %13 = tt.addptr %12, %5 : tensor<4x1x!tt.ptr<f32>>, tensor<4x1xi32> loc(#loc41)
    %14 = tt.load %13, %7 evictionPolicy = evict_last : tensor<4x1x!tt.ptr<f32>> loc(#loc42)
    scf.for %arg9 = %c0_i32 to %c4096_i32 step %c4_i32  : i32 {
      %15 = tt.splat %arg9 : i32 -> tensor<1x4xi32> loc(#loc44)
      %16 = arith.addi %15, %8 : tensor<1x4xi32> loc(#loc44)
      %17 = arith.cmpi slt, %16, %cst_5 : tensor<1x4xi32> loc(#loc45)
      %18 = arith.muli %5, %cst_4 : tensor<4x1xi32> loc(#loc46)
      %19 = tt.broadcast %16 : tensor<1x4xi32> -> tensor<4x4xi32> loc(#loc47)
      %20 = tt.broadcast %18 : tensor<4x1xi32> -> tensor<4x4xi32> loc(#loc47)
      %21 = arith.addi %19, %20 : tensor<4x4xi32> loc(#loc47)
      %22 = tt.splat %arg0 : !tt.ptr<f16> -> tensor<4x4x!tt.ptr<f16>> loc(#loc48)
      %23 = tt.addptr %22, %21 : tensor<4x4x!tt.ptr<f16>>, tensor<4x4xi32> loc(#loc48)
      %24 = tt.broadcast %7 : tensor<4x1xi1> -> tensor<4x4xi1> loc(#loc49)
      %25 = tt.broadcast %17 : tensor<1x4xi1> -> tensor<4x4xi1> loc(#loc49)
      %26 = arith.andi %24, %25 : tensor<4x4xi1> loc(#loc49)
      %27 = tt.load %23, %26, %cst_0 evictionPolicy = evict_first : tensor<4x4x!tt.ptr<f16>> loc(#loc50)
      %28 = arith.extf %27 : tensor<4x4xf16> to tensor<4x4xf32> loc(#loc51)
      %29 = tt.splat %arg1 : !tt.ptr<f16> -> tensor<4x4x!tt.ptr<f16>> loc(#loc52)
      %30 = tt.addptr %29, %21 : tensor<4x4x!tt.ptr<f16>>, tensor<4x4xi32> loc(#loc52)
      %31 = tt.load %30, %26, %cst_0 evictionPolicy = evict_first : tensor<4x4x!tt.ptr<f16>> loc(#loc53)
      %32 = arith.extf %31 : tensor<4x4xf16> to tensor<4x4xf32> loc(#loc54)
      %33 = tt.splat %arg2 : !tt.ptr<f16> -> tensor<4x4x!tt.ptr<f16>> loc(#loc55)
      %34 = tt.addptr %33, %21 : tensor<4x4x!tt.ptr<f16>>, tensor<4x4xi32> loc(#loc55)
      %35 = tt.load %34, %26, %cst_0 evictionPolicy = evict_first : tensor<4x4x!tt.ptr<f16>> loc(#loc56)
      %36 = arith.extf %35 : tensor<4x4xf16> to tensor<4x4xf32> loc(#loc57)
      %37 = tt.splat %arg3 : !tt.ptr<f16> -> tensor<4x4x!tt.ptr<f16>> loc(#loc58)
      %38 = tt.addptr %37, %21 : tensor<4x4x!tt.ptr<f16>>, tensor<4x4xi32> loc(#loc58)
      %39 = tt.load %38, %26, %cst_0 evictionPolicy = evict_first : tensor<4x4x!tt.ptr<f16>> loc(#loc59)
      %40 = arith.extf %39 : tensor<4x4xf16> to tensor<4x4xf32> loc(#loc60)
      %41 = tt.splat %arg4 : !tt.ptr<f16> -> tensor<1x4x!tt.ptr<f16>> loc(#loc61)
      %42 = tt.addptr %41, %16 : tensor<1x4x!tt.ptr<f16>>, tensor<1x4xi32> loc(#loc61)
      %43 = tt.load %42, %17, %cst evictionPolicy = evict_last : tensor<1x4x!tt.ptr<f16>> loc(#loc62)
      %44 = arith.extf %43 : tensor<1x4xf16> to tensor<1x4xf32> loc(#loc63)
      %45 = tt.splat %arg5 : !tt.ptr<f16> -> tensor<4x4x!tt.ptr<f16>> loc(#loc64)
      %46 = tt.addptr %45, %21 : tensor<4x4x!tt.ptr<f16>>, tensor<4x4xi32> loc(#loc64)
      %47 = tt.load %46, %26, %cst_0 evictionPolicy = evict_first : tensor<4x4x!tt.ptr<f16>> loc(#loc65)
      %48 = arith.extf %47 : tensor<4x4xf16> to tensor<4x4xf32> loc(#loc66)
      %49 = arith.addf %32, %36 : tensor<4x4xf32> loc(#loc67)
      %50 = arith.addf %49, %40 : tensor<4x4xf32> loc(#loc68)
      %51 = tt.broadcast %44 : tensor<1x4xf32> -> tensor<4x4xf32> loc(#loc69)
      %52 = arith.mulf %50, %51 : tensor<4x4xf32> loc(#loc69)
      %53 = tt.broadcast %14 : tensor<4x1xf32> -> tensor<4x4xf32> loc(#loc70)
      %54 = arith.mulf %52, %53 : tensor<4x4xf32> loc(#loc70)
      %55 = arith.mulf %11, %cst_3 : tensor<4x1xf32> loc(#loc71)
      %56 = arith.mulf %14, %14 : tensor<4x1xf32> loc(#loc72)
      %57 = arith.mulf %56, %14 : tensor<4x1xf32> loc(#loc73)
      %58 = arith.mulf %55, %57 : tensor<4x1xf32> loc(#loc74)
      %59 = arith.mulf %58, %cst_2 : tensor<4x1xf32> loc(#loc75)
      %60 = arith.mulf %48, %cst_1 : tensor<4x4xf32> loc(#loc76)
      %61 = tt.broadcast %59 : tensor<4x1xf32> -> tensor<4x4xf32> loc(#loc77)
      %62 = arith.mulf %61, %60 : tensor<4x4xf32> loc(#loc77)
      %63 = arith.addf %54, %62 : tensor<4x4xf32> loc(#loc78)
      %64 = arith.addf %28, %63 : tensor<4x4xf32> loc(#loc79)
      %65 = arith.truncf %64 : tensor<4x4xf32> to tensor<4x4xf16> loc(#loc80)
      tt.store %23, %65, %26 : tensor<4x4x!tt.ptr<f16>> loc(#loc80)
    } loc(#loc43)
    tt.return loc(#loc81)
  } loc(#loc)
} loc(#loc)
#loc2 = loc("/tmp/torchinductor_root/cs/ccs6agov6apf2a2jmdmjbgw3s6dcemdcmtagau4xvkq2rtwcynjt.py":22:28)
#loc3 = loc("/tmp/torchinductor_root/cs/ccs6agov6apf2a2jmdmjbgw3s6dcemdcmtagau4xvkq2rtwcynjt.py":22:33)
#loc4 = loc("/tmp/torchinductor_root/cs/ccs6agov6apf2a2jmdmjbgw3s6dcemdcmtagau4xvkq2rtwcynjt.py":23:36)
#loc5 = loc("/tmp/torchinductor_root/cs/ccs6agov6apf2a2jmdmjbgw3s6dcemdcmtagau4xvkq2rtwcynjt.py":23:44)
#loc6 = loc("/tmp/torchinductor_root/cs/ccs6agov6apf2a2jmdmjbgw3s6dcemdcmtagau4xvkq2rtwcynjt.py":23:23)
#loc7 = loc("/tmp/torchinductor_root/cs/ccs6agov6apf2a2jmdmjbgw3s6dcemdcmtagau4xvkq2rtwcynjt.py":24:21)
#loc8 = loc("/tmp/torchinductor_root/cs/ccs6agov6apf2a2jmdmjbgw3s6dcemdcmtagau4xvkq2rtwcynjt.py":25:37)
#loc9 = loc("/tmp/torchinductor_root/cs/ccs6agov6apf2a2jmdmjbgw3s6dcemdcmtagau4xvkq2rtwcynjt.py":29:40)
#loc10 = loc("/tmp/torchinductor_root/cs/ccs6agov6apf2a2jmdmjbgw3s6dcemdcmtagau4xvkq2rtwcynjt.py":30:31)
#loc11 = loc("/tmp/torchinductor_root/cs/ccs6agov6apf2a2jmdmjbgw3s6dcemdcmtagau4xvkq2rtwcynjt.py":31:29)
#loc12 = loc("/tmp/torchinductor_root/cs/ccs6agov6apf2a2jmdmjbgw3s6dcemdcmtagau4xvkq2rtwcynjt.py":35:46)
#loc13 = loc("/tmp/torchinductor_root/cs/ccs6agov6apf2a2jmdmjbgw3s6dcemdcmtagau4xvkq2rtwcynjt.py":35:41)
#loc14 = loc("/tmp/torchinductor_root/cs/ccs6agov6apf2a2jmdmjbgw3s6dcemdcmtagau4xvkq2rtwcynjt.py":35:34)
#loc15 = loc("/tmp/torchinductor_root/cs/ccs6agov6apf2a2jmdmjbgw3s6dcemdcmtagau4xvkq2rtwcynjt.py":35:59)
#loc16 = loc("/tmp/torchinductor_root/cs/ccs6agov6apf2a2jmdmjbgw3s6dcemdcmtagau4xvkq2rtwcynjt.py":35:51)
#loc17 = loc("/tmp/torchinductor_root/cs/ccs6agov6apf2a2jmdmjbgw3s6dcemdcmtagau4xvkq2rtwcynjt.py":35:112)
#loc18 = loc("/tmp/torchinductor_root/cs/ccs6agov6apf2a2jmdmjbgw3s6dcemdcmtagau4xvkq2rtwcynjt.py":36:34)
#loc19 = loc("/tmp/torchinductor_root/cs/ccs6agov6apf2a2jmdmjbgw3s6dcemdcmtagau4xvkq2rtwcynjt.py":36:51)
#loc20 = loc("/tmp/torchinductor_root/cs/ccs6agov6apf2a2jmdmjbgw3s6dcemdcmtagau4xvkq2rtwcynjt.py":36:112)
#loc21 = loc("/tmp/torchinductor_root/cs/ccs6agov6apf2a2jmdmjbgw3s6dcemdcmtagau4xvkq2rtwcynjt.py":37:34)
#loc22 = loc("/tmp/torchinductor_root/cs/ccs6agov6apf2a2jmdmjbgw3s6dcemdcmtagau4xvkq2rtwcynjt.py":37:51)
#loc23 = loc("/tmp/torchinductor_root/cs/ccs6agov6apf2a2jmdmjbgw3s6dcemdcmtagau4xvkq2rtwcynjt.py":37:112)
#loc24 = loc("/tmp/torchinductor_root/cs/ccs6agov6apf2a2jmdmjbgw3s6dcemdcmtagau4xvkq2rtwcynjt.py":38:34)
#loc25 = loc("/tmp/torchinductor_root/cs/ccs6agov6apf2a2jmdmjbgw3s6dcemdcmtagau4xvkq2rtwcynjt.py":38:41)
#loc26 = loc("/tmp/torchinductor_root/cs/ccs6agov6apf2a2jmdmjbgw3s6dcemdcmtagau4xvkq2rtwcynjt.py":38:94)
#loc27 = loc("/tmp/torchinductor_root/cs/ccs6agov6apf2a2jmdmjbgw3s6dcemdcmtagau4xvkq2rtwcynjt.py":39:34)
#loc28 = loc("/tmp/torchinductor_root/cs/ccs6agov6apf2a2jmdmjbgw3s6dcemdcmtagau4xvkq2rtwcynjt.py":39:51)
#loc29 = loc("/tmp/torchinductor_root/cs/ccs6agov6apf2a2jmdmjbgw3s6dcemdcmtagau4xvkq2rtwcynjt.py":39:112)
#loc30 = loc("/tmp/torchinductor_root/cs/ccs6agov6apf2a2jmdmjbgw3s6dcemdcmtagau4xvkq2rtwcynjt.py":40:22)
#loc31 = loc("/tmp/torchinductor_root/cs/ccs6agov6apf2a2jmdmjbgw3s6dcemdcmtagau4xvkq2rtwcynjt.py":41:22)
#loc32 = loc("/tmp/torchinductor_root/cs/ccs6agov6apf2a2jmdmjbgw3s6dcemdcmtagau4xvkq2rtwcynjt.py":42:22)
#loc33 = loc("/tmp/torchinductor_root/cs/ccs6agov6apf2a2jmdmjbgw3s6dcemdcmtagau4xvkq2rtwcynjt.py":45:23)
#loc34 = loc("/tmp/torchinductor_root/cs/ccs6agov6apf2a2jmdmjbgw3s6dcemdcmtagau4xvkq2rtwcynjt.py":47:25)
#loc35 = loc("/tmp/torchinductor_root/cs/ccs6agov6apf2a2jmdmjbgw3s6dcemdcmtagau4xvkq2rtwcynjt.py":48:50)
#loc36 = loc("/tmp/torchinductor_root/cs/ccs6agov6apf2a2jmdmjbgw3s6dcemdcmtagau4xvkq2rtwcynjt.py":48:8)
#loc37 = loc("/workspace/torch-compile-caching/.venv/lib/python3.11/site-packages/triton/language/standard.py":286:36)
#loc39 = loc("/workspace/torch-compile-caching/.venv/lib/python3.11/site-packages/triton/language/standard.py":256:15)
#loc40 = loc("/tmp/torchinductor_root/cs/ccs6agov6apf2a2jmdmjbgw3s6dcemdcmtagau4xvkq2rtwcynjt.py":49:30)
#loc41 = loc("/tmp/torchinductor_root/cs/ccs6agov6apf2a2jmdmjbgw3s6dcemdcmtagau4xvkq2rtwcynjt.py":50:31)
#loc42 = loc("/tmp/torchinductor_root/cs/ccs6agov6apf2a2jmdmjbgw3s6dcemdcmtagau4xvkq2rtwcynjt.py":50:36)
#loc43 = loc("/tmp/torchinductor_root/cs/ccs6agov6apf2a2jmdmjbgw3s6dcemdcmtagau4xvkq2rtwcynjt.py":51:40)
#loc44 = loc("/tmp/torchinductor_root/cs/ccs6agov6apf2a2jmdmjbgw3s6dcemdcmtagau4xvkq2rtwcynjt.py":52:31)
#loc45 = loc("/tmp/torchinductor_root/cs/ccs6agov6apf2a2jmdmjbgw3s6dcemdcmtagau4xvkq2rtwcynjt.py":53:29)
#loc46 = loc("/tmp/torchinductor_root/cs/ccs6agov6apf2a2jmdmjbgw3s6dcemdcmtagau4xvkq2rtwcynjt.py":57:51)
#loc47 = loc("/tmp/torchinductor_root/cs/ccs6agov6apf2a2jmdmjbgw3s6dcemdcmtagau4xvkq2rtwcynjt.py":57:46)
#loc48 = loc("/tmp/torchinductor_root/cs/ccs6agov6apf2a2jmdmjbgw3s6dcemdcmtagau4xvkq2rtwcynjt.py":57:39)
#loc49 = loc("/tmp/torchinductor_root/cs/ccs6agov6apf2a2jmdmjbgw3s6dcemdcmtagau4xvkq2rtwcynjt.py":57:64)
#loc50 = loc("/tmp/torchinductor_root/cs/ccs6agov6apf2a2jmdmjbgw3s6dcemdcmtagau4xvkq2rtwcynjt.py":57:56)
#loc51 = loc("/tmp/torchinductor_root/cs/ccs6agov6apf2a2jmdmjbgw3s6dcemdcmtagau4xvkq2rtwcynjt.py":57:118)
#loc52 = loc("/tmp/torchinductor_root/cs/ccs6agov6apf2a2jmdmjbgw3s6dcemdcmtagau4xvkq2rtwcynjt.py":58:35)
#loc53 = loc("/tmp/torchinductor_root/cs/ccs6agov6apf2a2jmdmjbgw3s6dcemdcmtagau4xvkq2rtwcynjt.py":58:52)
#loc54 = loc("/tmp/torchinductor_root/cs/ccs6agov6apf2a2jmdmjbgw3s6dcemdcmtagau4xvkq2rtwcynjt.py":58:114)
#loc55 = loc("/tmp/torchinductor_root/cs/ccs6agov6apf2a2jmdmjbgw3s6dcemdcmtagau4xvkq2rtwcynjt.py":59:35)
#loc56 = loc("/tmp/torchinductor_root/cs/ccs6agov6apf2a2jmdmjbgw3s6dcemdcmtagau4xvkq2rtwcynjt.py":59:52)
#loc57 = loc("/tmp/torchinductor_root/cs/ccs6agov6apf2a2jmdmjbgw3s6dcemdcmtagau4xvkq2rtwcynjt.py":59:114)
#loc58 = loc("/tmp/torchinductor_root/cs/ccs6agov6apf2a2jmdmjbgw3s6dcemdcmtagau4xvkq2rtwcynjt.py":60:35)
#loc59 = loc("/tmp/torchinductor_root/cs/ccs6agov6apf2a2jmdmjbgw3s6dcemdcmtagau4xvkq2rtwcynjt.py":60:52)
#loc60 = loc("/tmp/torchinductor_root/cs/ccs6agov6apf2a2jmdmjbgw3s6dcemdcmtagau4xvkq2rtwcynjt.py":60:114)
#loc61 = loc("/tmp/torchinductor_root/cs/ccs6agov6apf2a2jmdmjbgw3s6dcemdcmtagau4xvkq2rtwcynjt.py":61:35)
#loc62 = loc("/tmp/torchinductor_root/cs/ccs6agov6apf2a2jmdmjbgw3s6dcemdcmtagau4xvkq2rtwcynjt.py":61:42)
#loc63 = loc("/tmp/torchinductor_root/cs/ccs6agov6apf2a2jmdmjbgw3s6dcemdcmtagau4xvkq2rtwcynjt.py":61:95)
#loc64 = loc("/tmp/torchinductor_root/cs/ccs6agov6apf2a2jmdmjbgw3s6dcemdcmtagau4xvkq2rtwcynjt.py":62:35)
#loc65 = loc("/tmp/torchinductor_root/cs/ccs6agov6apf2a2jmdmjbgw3s6dcemdcmtagau4xvkq2rtwcynjt.py":62:52)
#loc66 = loc("/tmp/torchinductor_root/cs/ccs6agov6apf2a2jmdmjbgw3s6dcemdcmtagau4xvkq2rtwcynjt.py":62:114)
#loc67 = loc("/tmp/torchinductor_root/cs/ccs6agov6apf2a2jmdmjbgw3s6dcemdcmtagau4xvkq2rtwcynjt.py":63:24)
#loc68 = loc("/tmp/torchinductor_root/cs/ccs6agov6apf2a2jmdmjbgw3s6dcemdcmtagau4xvkq2rtwcynjt.py":64:24)
#loc69 = loc("/tmp/torchinductor_root/cs/ccs6agov6apf2a2jmdmjbgw3s6dcemdcmtagau4xvkq2rtwcynjt.py":65:24)
#loc70 = loc("/tmp/torchinductor_root/cs/ccs6agov6apf2a2jmdmjbgw3s6dcemdcmtagau4xvkq2rtwcynjt.py":67:24)
#loc71 = loc("/tmp/torchinductor_root/cs/ccs6agov6apf2a2jmdmjbgw3s6dcemdcmtagau4xvkq2rtwcynjt.py":69:24)
#loc72 = loc("/tmp/torchinductor_root/cs/ccs6agov6apf2a2jmdmjbgw3s6dcemdcmtagau4xvkq2rtwcynjt.py":70:24)
#loc73 = loc("/tmp/torchinductor_root/cs/ccs6agov6apf2a2jmdmjbgw3s6dcemdcmtagau4xvkq2rtwcynjt.py":71:24)
#loc74 = loc("/tmp/torchinductor_root/cs/ccs6agov6apf2a2jmdmjbgw3s6dcemdcmtagau4xvkq2rtwcynjt.py":72:24)
#loc75 = loc("/tmp/torchinductor_root/cs/ccs6agov6apf2a2jmdmjbgw3s6dcemdcmtagau4xvkq2rtwcynjt.py":74:24)
#loc76 = loc("/tmp/torchinductor_root/cs/ccs6agov6apf2a2jmdmjbgw3s6dcemdcmtagau4xvkq2rtwcynjt.py":77:24)
#loc77 = loc("/tmp/torchinductor_root/cs/ccs6agov6apf2a2jmdmjbgw3s6dcemdcmtagau4xvkq2rtwcynjt.py":78:24)
#loc78 = loc("/tmp/torchinductor_root/cs/ccs6agov6apf2a2jmdmjbgw3s6dcemdcmtagau4xvkq2rtwcynjt.py":79:24)
#loc79 = loc("/tmp/torchinductor_root/cs/ccs6agov6apf2a2jmdmjbgw3s6dcemdcmtagau4xvkq2rtwcynjt.py":81:24)
#loc80 = loc("/tmp/torchinductor_root/cs/ccs6agov6apf2a2jmdmjbgw3s6dcemdcmtagau4xvkq2rtwcynjt.py":82:56)
#loc81 = loc("/tmp/torchinductor_root/cs/ccs6agov6apf2a2jmdmjbgw3s6dcemdcmtagau4xvkq2rtwcynjt.py":51:4)
#loc82 = loc(callsite(#loc37 at #loc38))
#loc84 = loc(callsite(#loc39 at #loc37))
#loc85 = loc(callsite(#loc84 at #loc38))
