#loc = loc("/tmp/torchinductor_root/yk/cykee6clrweh6jbbxbmrpngyewr62qpmcg4hw7n6oizkget7ik2a.py":18:0)
#loc1 = loc(unknown)
#loc36 = loc("/tmp/torchinductor_root/yk/cykee6clrweh6jbbxbmrpngyewr62qpmcg4hw7n6oizkget7ik2a.py":49:27)
#loc43 = loc(callsite(#loc1 at #loc36))
module {
  tt.func public @triton_red_fused__to_copy_add_mul_sum_11(%arg0: !tt.ptr<f16> {tt.divisibility = 16 : i32} loc("/tmp/torchinductor_root/yk/cykee6clrweh6jbbxbmrpngyewr62qpmcg4hw7n6oizkget7ik2a.py":18:0), %arg1: !tt.ptr<f16> {tt.divisibility = 16 : i32} loc("/tmp/torchinductor_root/yk/cykee6clrweh6jbbxbmrpngyewr62qpmcg4hw7n6oizkget7ik2a.py":18:0), %arg2: !tt.ptr<f16> {tt.divisibility = 16 : i32} loc("/tmp/torchinductor_root/yk/cykee6clrweh6jbbxbmrpngyewr62qpmcg4hw7n6oizkget7ik2a.py":18:0), %arg3: !tt.ptr<f16> {tt.divisibility = 16 : i32} loc("/tmp/torchinductor_root/yk/cykee6clrweh6jbbxbmrpngyewr62qpmcg4hw7n6oizkget7ik2a.py":18:0), %arg4: !tt.ptr<f32> {tt.divisibility = 16 : i32} loc("/tmp/torchinductor_root/yk/cykee6clrweh6jbbxbmrpngyewr62qpmcg4hw7n6oizkget7ik2a.py":18:0), %arg5: !tt.ptr<f16> {tt.divisibility = 16 : i32} loc("/tmp/torchinductor_root/yk/cykee6clrweh6jbbxbmrpngyewr62qpmcg4hw7n6oizkget7ik2a.py":18:0), %arg6: i32 {tt.divisibility = 16 : i32} loc("/tmp/torchinductor_root/yk/cykee6clrweh6jbbxbmrpngyewr62qpmcg4hw7n6oizkget7ik2a.py":18:0), %arg7: i32 loc("/tmp/torchinductor_root/yk/cykee6clrweh6jbbxbmrpngyewr62qpmcg4hw7n6oizkget7ik2a.py":18:0)) attributes {noinline = false} {
    %cst = arith.constant dense<0.000000e+00> : tensor<64x8xf16> loc(#loc1)
    %c8_i32 = arith.constant 8 : i32 loc(#loc1)
    %c0_i32 = arith.constant 0 : i32 loc(#loc1)
    %cst_0 = arith.constant dense<0.000000e+00> : tensor<1x8xf32> loc(#loc1)
    %cst_1 = arith.constant dense<4096> : tensor<1x8xi32> loc(#loc1)
    %cst_2 = arith.constant dense<0.000000e+00> : tensor<64x8xf32> loc(#loc1)
    %c64_i32 = arith.constant 64 : i32 loc(#loc1)
    %0 = tt.get_program_id x : i32 loc(#loc2)
    %1 = arith.muli %0, %c64_i32 : i32 loc(#loc3)
    %2 = tt.make_range {end = 64 : i32, start = 0 : i32} : tensor<64xi32> loc(#loc4)
    %3 = tt.expand_dims %2 {axis = 1 : i32} : tensor<64xi32> -> tensor<64x1xi32> loc(#loc5)
    %4 = tt.splat %1 : i32 -> tensor<64x1xi32> loc(#loc6)
    %5 = arith.addi %4, %3 : tensor<64x1xi32> loc(#loc6)
    %6 = tt.make_range {end = 8 : i32, start = 0 : i32} : tensor<8xi32> loc(#loc7)
    %7 = tt.expand_dims %6 {axis = 0 : i32} : tensor<8xi32> -> tensor<1x8xi32> loc(#loc8)
    %8 = scf.for %arg8 = %c0_i32 to %arg7 step %c8_i32 iter_args(%arg9 = %cst_2) -> (tensor<64x8xf32>)  : i32 {
      %14 = tt.splat %arg8 : i32 -> tensor<1x8xi32> loc(#loc10)
      %15 = arith.addi %14, %7 : tensor<1x8xi32> loc(#loc10)
      %16 = tt.splat %arg7 : i32 -> tensor<1x8xi32> loc(#loc11)
      %17 = arith.cmpi slt, %15, %16 : tensor<1x8xi32> loc(#loc11)
      %18 = arith.muli %15, %cst_1 : tensor<1x8xi32> loc(#loc12)
      %19 = tt.broadcast %5 : tensor<64x1xi32> -> tensor<64x8xi32> loc(#loc13)
      %20 = tt.broadcast %18 : tensor<1x8xi32> -> tensor<64x8xi32> loc(#loc13)
      %21 = arith.addi %19, %20 : tensor<64x8xi32> loc(#loc13)
      %22 = tt.splat %arg0 : !tt.ptr<f16> -> tensor<64x8x!tt.ptr<f16>> loc(#loc14)
      %23 = tt.addptr %22, %21 : tensor<64x8x!tt.ptr<f16>>, tensor<64x8xi32> loc(#loc14)
      %24 = tt.broadcast %17 : tensor<1x8xi1> -> tensor<64x8xi1> loc(#loc15)
      %25 = tt.load %23, %24, %cst evictionPolicy = evict_first : tensor<64x8x!tt.ptr<f16>> loc(#loc15)
      %26 = arith.extf %25 : tensor<64x8xf16> to tensor<64x8xf32> loc(#loc16)
      %27 = tt.splat %arg1 : !tt.ptr<f16> -> tensor<64x8x!tt.ptr<f16>> loc(#loc17)
      %28 = tt.addptr %27, %21 : tensor<64x8x!tt.ptr<f16>>, tensor<64x8xi32> loc(#loc17)
      %29 = tt.load %28, %24, %cst evictionPolicy = evict_first : tensor<64x8x!tt.ptr<f16>> loc(#loc18)
      %30 = arith.extf %29 : tensor<64x8xf16> to tensor<64x8xf32> loc(#loc19)
      %31 = tt.splat %arg2 : !tt.ptr<f16> -> tensor<64x8x!tt.ptr<f16>> loc(#loc20)
      %32 = tt.addptr %31, %21 : tensor<64x8x!tt.ptr<f16>>, tensor<64x8xi32> loc(#loc20)
      %33 = tt.load %32, %24, %cst evictionPolicy = evict_first : tensor<64x8x!tt.ptr<f16>> loc(#loc21)
      %34 = arith.extf %33 : tensor<64x8xf16> to tensor<64x8xf32> loc(#loc22)
      %35 = tt.splat %arg3 : !tt.ptr<f16> -> tensor<64x8x!tt.ptr<f16>> loc(#loc23)
      %36 = tt.addptr %35, %21 : tensor<64x8x!tt.ptr<f16>>, tensor<64x8xi32> loc(#loc23)
      %37 = tt.load %36, %24, %cst evictionPolicy = evict_first : tensor<64x8x!tt.ptr<f16>> loc(#loc24)
      %38 = arith.extf %37 : tensor<64x8xf16> to tensor<64x8xf32> loc(#loc25)
      %39 = tt.splat %arg4 : !tt.ptr<f32> -> tensor<1x8x!tt.ptr<f32>> loc(#loc26)
      %40 = tt.addptr %39, %15 : tensor<1x8x!tt.ptr<f32>>, tensor<1x8xi32> loc(#loc26)
      %41 = tt.load %40, %17, %cst_0 evictionPolicy = evict_last : tensor<1x8x!tt.ptr<f32>> loc(#loc27)
      %42 = arith.addf %26, %30 : tensor<64x8xf32> loc(#loc28)
      %43 = arith.addf %42, %34 : tensor<64x8xf32> loc(#loc29)
      %44 = tt.broadcast %41 : tensor<1x8xf32> -> tensor<64x8xf32> loc(#loc30)
      %45 = arith.mulf %38, %44 : tensor<64x8xf32> loc(#loc30)
      %46 = arith.mulf %43, %45 : tensor<64x8xf32> loc(#loc31)
      %47 = arith.addf %arg9, %46 : tensor<64x8xf32> loc(#loc32)
      %48 = arith.select %24, %47, %arg9 : tensor<64x8xi1>, tensor<64x8xf32> loc(#loc33)
      scf.yield %48 : tensor<64x8xf32> loc(#loc34)
    } loc(#loc9)
    %9 = "tt.reduce"(%8) <{axis = 1 : i32}> ({
    ^bb0(%arg8: f32 loc(callsite(#loc1 at #loc36)), %arg9: f32 loc(callsite(#loc1 at #loc36))):
      %14 = arith.addf %arg8, %arg9 : f32 loc(#loc45)
      tt.reduce.return %14 : f32 loc(#loc42)
    }) : (tensor<64x8xf32>) -> tensor<64xf32> loc(#loc42)
    %10 = tt.expand_dims %9 {axis = 1 : i32} : tensor<64xf32> -> tensor<64x1xf32> loc(#loc38)
    %11 = tt.splat %arg5 : !tt.ptr<f16> -> tensor<64x1x!tt.ptr<f16>> loc(#loc39)
    %12 = tt.addptr %11, %5 : tensor<64x1x!tt.ptr<f16>>, tensor<64x1xi32> loc(#loc39)
    %13 = arith.truncf %10 : tensor<64x1xf32> to tensor<64x1xf16> loc(#loc40)
    tt.store %12, %13 : tensor<64x1x!tt.ptr<f16>> loc(#loc40)
    tt.return loc(#loc41)
  } loc(#loc)
} loc(#loc)
#loc2 = loc("/tmp/torchinductor_root/yk/cykee6clrweh6jbbxbmrpngyewr62qpmcg4hw7n6oizkget7ik2a.py":22:28)
#loc3 = loc("/tmp/torchinductor_root/yk/cykee6clrweh6jbbxbmrpngyewr62qpmcg4hw7n6oizkget7ik2a.py":22:33)
#loc4 = loc("/tmp/torchinductor_root/yk/cykee6clrweh6jbbxbmrpngyewr62qpmcg4hw7n6oizkget7ik2a.py":23:36)
#loc5 = loc("/tmp/torchinductor_root/yk/cykee6clrweh6jbbxbmrpngyewr62qpmcg4hw7n6oizkget7ik2a.py":23:44)
#loc6 = loc("/tmp/torchinductor_root/yk/cykee6clrweh6jbbxbmrpngyewr62qpmcg4hw7n6oizkget7ik2a.py":23:23)
#loc7 = loc("/tmp/torchinductor_root/yk/cykee6clrweh6jbbxbmrpngyewr62qpmcg4hw7n6oizkget7ik2a.py":25:27)
#loc8 = loc("/tmp/torchinductor_root/yk/cykee6clrweh6jbbxbmrpngyewr62qpmcg4hw7n6oizkget7ik2a.py":25:37)
#loc9 = loc("/tmp/torchinductor_root/yk/cykee6clrweh6jbbxbmrpngyewr62qpmcg4hw7n6oizkget7ik2a.py":29:40)
#loc10 = loc("/tmp/torchinductor_root/yk/cykee6clrweh6jbbxbmrpngyewr62qpmcg4hw7n6oizkget7ik2a.py":30:31)
#loc11 = loc("/tmp/torchinductor_root/yk/cykee6clrweh6jbbxbmrpngyewr62qpmcg4hw7n6oizkget7ik2a.py":31:29)
#loc12 = loc("/tmp/torchinductor_root/yk/cykee6clrweh6jbbxbmrpngyewr62qpmcg4hw7n6oizkget7ik2a.py":35:44)
#loc13 = loc("/tmp/torchinductor_root/yk/cykee6clrweh6jbbxbmrpngyewr62qpmcg4hw7n6oizkget7ik2a.py":35:39)
#loc14 = loc("/tmp/torchinductor_root/yk/cykee6clrweh6jbbxbmrpngyewr62qpmcg4hw7n6oizkget7ik2a.py":35:34)
#loc15 = loc("/tmp/torchinductor_root/yk/cykee6clrweh6jbbxbmrpngyewr62qpmcg4hw7n6oizkget7ik2a.py":35:51)
#loc16 = loc("/tmp/torchinductor_root/yk/cykee6clrweh6jbbxbmrpngyewr62qpmcg4hw7n6oizkget7ik2a.py":35:105)
#loc17 = loc("/tmp/torchinductor_root/yk/cykee6clrweh6jbbxbmrpngyewr62qpmcg4hw7n6oizkget7ik2a.py":36:34)
#loc18 = loc("/tmp/torchinductor_root/yk/cykee6clrweh6jbbxbmrpngyewr62qpmcg4hw7n6oizkget7ik2a.py":36:51)
#loc19 = loc("/tmp/torchinductor_root/yk/cykee6clrweh6jbbxbmrpngyewr62qpmcg4hw7n6oizkget7ik2a.py":36:105)
#loc20 = loc("/tmp/torchinductor_root/yk/cykee6clrweh6jbbxbmrpngyewr62qpmcg4hw7n6oizkget7ik2a.py":37:34)
#loc21 = loc("/tmp/torchinductor_root/yk/cykee6clrweh6jbbxbmrpngyewr62qpmcg4hw7n6oizkget7ik2a.py":37:51)
#loc22 = loc("/tmp/torchinductor_root/yk/cykee6clrweh6jbbxbmrpngyewr62qpmcg4hw7n6oizkget7ik2a.py":37:105)
#loc23 = loc("/tmp/torchinductor_root/yk/cykee6clrweh6jbbxbmrpngyewr62qpmcg4hw7n6oizkget7ik2a.py":38:34)
#loc24 = loc("/tmp/torchinductor_root/yk/cykee6clrweh6jbbxbmrpngyewr62qpmcg4hw7n6oizkget7ik2a.py":38:51)
#loc25 = loc("/tmp/torchinductor_root/yk/cykee6clrweh6jbbxbmrpngyewr62qpmcg4hw7n6oizkget7ik2a.py":38:105)
#loc26 = loc("/tmp/torchinductor_root/yk/cykee6clrweh6jbbxbmrpngyewr62qpmcg4hw7n6oizkget7ik2a.py":39:34)
#loc27 = loc("/tmp/torchinductor_root/yk/cykee6clrweh6jbbxbmrpngyewr62qpmcg4hw7n6oizkget7ik2a.py":39:41)
#loc28 = loc("/tmp/torchinductor_root/yk/cykee6clrweh6jbbxbmrpngyewr62qpmcg4hw7n6oizkget7ik2a.py":40:22)
#loc29 = loc("/tmp/torchinductor_root/yk/cykee6clrweh6jbbxbmrpngyewr62qpmcg4hw7n6oizkget7ik2a.py":41:22)
#loc30 = loc("/tmp/torchinductor_root/yk/cykee6clrweh6jbbxbmrpngyewr62qpmcg4hw7n6oizkget7ik2a.py":43:22)
#loc31 = loc("/tmp/torchinductor_root/yk/cykee6clrweh6jbbxbmrpngyewr62qpmcg4hw7n6oizkget7ik2a.py":45:23)
#loc32 = loc("/tmp/torchinductor_root/yk/cykee6clrweh6jbbxbmrpngyewr62qpmcg4hw7n6oizkget7ik2a.py":47:25)
#loc33 = loc("/tmp/torchinductor_root/yk/cykee6clrweh6jbbxbmrpngyewr62qpmcg4hw7n6oizkget7ik2a.py":48:42)
#loc34 = loc("/tmp/torchinductor_root/yk/cykee6clrweh6jbbxbmrpngyewr62qpmcg4hw7n6oizkget7ik2a.py":48:8)
#loc35 = loc("/workspace/torch-compile-caching/.venv/lib/python3.11/site-packages/triton/language/standard.py":286:36)
#loc37 = loc("/workspace/torch-compile-caching/.venv/lib/python3.11/site-packages/triton/language/standard.py":256:15)
#loc38 = loc("/tmp/torchinductor_root/yk/cykee6clrweh6jbbxbmrpngyewr62qpmcg4hw7n6oizkget7ik2a.py":49:30)
#loc39 = loc("/tmp/torchinductor_root/yk/cykee6clrweh6jbbxbmrpngyewr62qpmcg4hw7n6oizkget7ik2a.py":50:25)
#loc40 = loc("/tmp/torchinductor_root/yk/cykee6clrweh6jbbxbmrpngyewr62qpmcg4hw7n6oizkget7ik2a.py":50:37)
#loc41 = loc("/tmp/torchinductor_root/yk/cykee6clrweh6jbbxbmrpngyewr62qpmcg4hw7n6oizkget7ik2a.py":50:4)
#loc42 = loc(callsite(#loc35 at #loc36))
#loc44 = loc(callsite(#loc37 at #loc35))
#loc45 = loc(callsite(#loc44 at #loc36))
