#loc = loc("./local_cache/m2/cm2digt4hcus2fxymbfdumzjafjngblhe2d6qijkeeihhspgjvlp.py":18:0)
#loc1 = loc(unknown)
#loc27 = loc("./local_cache/m2/cm2digt4hcus2fxymbfdumzjafjngblhe2d6qijkeeihhspgjvlp.py":45:25)
#loc62 = loc(callsite(#loc1 at #loc27))
module {
  tt.func public @triton_red_fused__to_copy_add_div_mul_pow_sum_2(%arg0: !tt.ptr<f16> {tt.divisibility = 16 : i32} loc("./local_cache/m2/cm2digt4hcus2fxymbfdumzjafjngblhe2d6qijkeeihhspgjvlp.py":18:0), %arg1: !tt.ptr<f16> {tt.divisibility = 16 : i32} loc("./local_cache/m2/cm2digt4hcus2fxymbfdumzjafjngblhe2d6qijkeeihhspgjvlp.py":18:0), %arg2: !tt.ptr<f16> {tt.divisibility = 16 : i32} loc("./local_cache/m2/cm2digt4hcus2fxymbfdumzjafjngblhe2d6qijkeeihhspgjvlp.py":18:0), %arg3: !tt.ptr<f32> {tt.divisibility = 16 : i32} loc("./local_cache/m2/cm2digt4hcus2fxymbfdumzjafjngblhe2d6qijkeeihhspgjvlp.py":18:0), %arg4: i32 loc("./local_cache/m2/cm2digt4hcus2fxymbfdumzjafjngblhe2d6qijkeeihhspgjvlp.py":18:0), %arg5: i32 {tt.divisibility = 16 : i32} loc("./local_cache/m2/cm2digt4hcus2fxymbfdumzjafjngblhe2d6qijkeeihhspgjvlp.py":18:0)) attributes {noinline = false} {
    %cst = arith.constant dense<0.000000e+00> : tensor<1x2048xf16> loc(#loc1)
    %c2048_i32 = arith.constant 2048 : i32 loc(#loc1)
    %c4096_i32 = arith.constant 4096 : i32 loc(#loc1)
    %c0_i32 = arith.constant 0 : i32 loc(#loc1)
    %cst_0 = arith.constant dense<2.000000e+00> : tensor<1x2048xf32> loc(#loc1)
    %cst_1 = arith.constant dense<2.44140625E-4> : tensor<1x1xf32> loc(#loc1)
    %cst_2 = arith.constant dense<-5.000000e-01> : tensor<1x1xf32> loc(#loc1)
    %cst_3 = arith.constant dense<4096> : tensor<1x2048xi32> loc(#loc1)
    %cst_4 = arith.constant dense<0.000000e+00> : tensor<1x2048xf32> loc(#loc1)
    %0 = tt.get_program_id x : i32 loc(#loc2)
    %1 = arith.cmpi slt, %0, %arg4 : i32 loc(#loc3)
    %2 = tt.splat %1 : i1 -> tensor<1x1xi1> loc(#loc3)
    %3 = tt.make_range {end = 2048 : i32, start = 0 : i32} : tensor<2048xi32> loc(#loc4)
    %4 = tt.expand_dims %3 {axis = 0 : i32} : tensor<2048xi32> -> tensor<1x2048xi32> loc(#loc5)
    %5 = scf.for %arg6 = %c0_i32 to %c4096_i32 step %c2048_i32 iter_args(%arg7 = %cst_4) -> (tensor<1x2048xf32>)  : i32 {
      %11 = tt.splat %arg6 : i32 -> tensor<1x2048xi32> loc(#loc7)
      %12 = arith.addi %11, %4 : tensor<1x2048xi32> loc(#loc7)
      %13 = arith.cmpi slt, %12, %cst_3 : tensor<1x2048xi32> loc(#loc8)
      %14 = arith.muli %0, %c4096_i32 : i32 loc(#loc9)
      %15 = tt.splat %14 : i32 -> tensor<1x2048xi32> loc(#loc59)
      %16 = arith.addi %12, %15 : tensor<1x2048xi32> loc(#loc10)
      %17 = tt.splat %arg0 : !tt.ptr<f16> -> tensor<1x2048x!tt.ptr<f16>> loc(#loc11)
      %18 = tt.addptr %17, %16 : tensor<1x2048x!tt.ptr<f16>>, tensor<1x2048xi32> loc(#loc11)
      %19 = tt.splat %1 : i1 -> tensor<1x2048xi1> loc(#loc60)
      %20 = arith.andi %13, %19 : tensor<1x2048xi1> loc(#loc12)
      %21 = tt.load %18, %20, %cst evictionPolicy = evict_last : tensor<1x2048x!tt.ptr<f16>> loc(#loc13)
      %22 = arith.extf %21 : tensor<1x2048xf16> to tensor<1x2048xf32> loc(#loc14)
      %23 = tt.splat %arg1 : !tt.ptr<f16> -> tensor<1x2048x!tt.ptr<f16>> loc(#loc15)
      %24 = tt.addptr %23, %12 : tensor<1x2048x!tt.ptr<f16>>, tensor<1x2048xi32> loc(#loc15)
      %25 = tt.load %24, %13, %cst evictionPolicy = evict_last : tensor<1x2048x!tt.ptr<f16>> loc(#loc16)
      %26 = arith.extf %25 : tensor<1x2048xf16> to tensor<1x2048xf32> loc(#loc17)
      %27 = tt.splat %arg2 : !tt.ptr<f16> -> tensor<1x2048x!tt.ptr<f16>> loc(#loc18)
      %28 = tt.addptr %27, %16 : tensor<1x2048x!tt.ptr<f16>>, tensor<1x2048xi32> loc(#loc18)
      %29 = tt.load %28, %20, %cst evictionPolicy = evict_last : tensor<1x2048x!tt.ptr<f16>> loc(#loc19)
      %30 = arith.extf %29 : tensor<1x2048xf16> to tensor<1x2048xf32> loc(#loc20)
      %31 = arith.mulf %22, %26 : tensor<1x2048xf32> loc(#loc21)
      %32 = arith.mulf %31, %30 : tensor<1x2048xf32> loc(#loc22)
      %33 = arith.addf %arg7, %32 : tensor<1x2048xf32> loc(#loc23)
      %34 = arith.select %20, %33, %arg7 : tensor<1x2048xi1>, tensor<1x2048xf32> loc(#loc24)
      scf.yield %34 : tensor<1x2048xf32> loc(#loc25)
    } loc(#loc6)
    %6 = "tt.reduce"(%5) <{axis = 1 : i32}> ({
    ^bb0(%arg6: f32 loc(callsite(#loc1 at #loc27)), %arg7: f32 loc(callsite(#loc1 at #loc27))):
      %11 = arith.addf %arg6, %arg7 : f32 loc(#loc66)
      tt.reduce.return %11 : f32 loc(#loc61)
    }) : (tensor<1x2048xf32>) -> tensor<1xf32> loc(#loc61)
    %7 = tt.expand_dims %6 {axis = 1 : i32} : tensor<1xf32> -> tensor<1x1xf32> loc(#loc29)
    %8 = tt.addptr %arg3, %0 : !tt.ptr<f32>, i32 loc(#loc30)
    %9 = tt.splat %8 : !tt.ptr<f32> -> tensor<1x1x!tt.ptr<f32>> loc(#loc30)
    %10 = tt.load %9, %2 evictionPolicy = evict_last : tensor<1x1x!tt.ptr<f32>> loc(#loc31)
    scf.for %arg6 = %c0_i32 to %c4096_i32 step %c2048_i32  : i32 {
      %11 = tt.splat %arg6 : i32 -> tensor<1x2048xi32> loc(#loc33)
      %12 = arith.addi %11, %4 : tensor<1x2048xi32> loc(#loc33)
      %13 = arith.cmpi slt, %12, %cst_3 : tensor<1x2048xi32> loc(#loc34)
      %14 = arith.muli %0, %c4096_i32 : i32 loc(#loc35)
      %15 = tt.splat %14 : i32 -> tensor<1x2048xi32> loc(#loc64)
      %16 = arith.addi %12, %15 : tensor<1x2048xi32> loc(#loc36)
      %17 = tt.splat %arg0 : !tt.ptr<f16> -> tensor<1x2048x!tt.ptr<f16>> loc(#loc37)
      %18 = tt.addptr %17, %16 : tensor<1x2048x!tt.ptr<f16>>, tensor<1x2048xi32> loc(#loc37)
      %19 = tt.splat %1 : i1 -> tensor<1x2048xi1> loc(#loc65)
      %20 = arith.andi %13, %19 : tensor<1x2048xi1> loc(#loc38)
      %21 = tt.load %18, %20, %cst evictionPolicy = evict_first : tensor<1x2048x!tt.ptr<f16>> loc(#loc39)
      %22 = arith.extf %21 : tensor<1x2048xf16> to tensor<1x2048xf32> loc(#loc40)
      %23 = tt.splat %arg1 : !tt.ptr<f16> -> tensor<1x2048x!tt.ptr<f16>> loc(#loc41)
      %24 = tt.addptr %23, %12 : tensor<1x2048x!tt.ptr<f16>>, tensor<1x2048xi32> loc(#loc41)
      %25 = tt.load %24, %13, %cst evictionPolicy = evict_last : tensor<1x2048x!tt.ptr<f16>> loc(#loc42)
      %26 = arith.extf %25 : tensor<1x2048xf16> to tensor<1x2048xf32> loc(#loc43)
      %27 = tt.splat %arg2 : !tt.ptr<f16> -> tensor<1x2048x!tt.ptr<f16>> loc(#loc44)
      %28 = tt.addptr %27, %16 : tensor<1x2048x!tt.ptr<f16>>, tensor<1x2048xi32> loc(#loc44)
      %29 = tt.load %28, %20, %cst evictionPolicy = evict_first : tensor<1x2048x!tt.ptr<f16>> loc(#loc45)
      %30 = arith.extf %29 : tensor<1x2048xf16> to tensor<1x2048xf32> loc(#loc46)
      %31 = arith.mulf %22, %26 : tensor<1x2048xf32> loc(#loc47)
      %32 = tt.broadcast %10 : tensor<1x1xf32> -> tensor<1x2048xf32> loc(#loc48)
      %33 = arith.mulf %31, %32 : tensor<1x2048xf32> loc(#loc48)
      %34 = arith.mulf %7, %cst_2 : tensor<1x1xf32> loc(#loc49)
      %35 = arith.mulf %10, %10 : tensor<1x1xf32> loc(#loc50)
      %36 = arith.mulf %35, %10 : tensor<1x1xf32> loc(#loc51)
      %37 = arith.mulf %34, %36 : tensor<1x1xf32> loc(#loc52)
      %38 = arith.mulf %37, %cst_1 : tensor<1x1xf32> loc(#loc53)
      %39 = arith.mulf %30, %cst_0 : tensor<1x2048xf32> loc(#loc54)
      %40 = tt.broadcast %38 : tensor<1x1xf32> -> tensor<1x2048xf32> loc(#loc55)
      %41 = arith.mulf %40, %39 : tensor<1x2048xf32> loc(#loc55)
      %42 = arith.addf %33, %41 : tensor<1x2048xf32> loc(#loc56)
      %43 = arith.truncf %42 : tensor<1x2048xf32> to tensor<1x2048xf16> loc(#loc57)
      tt.store %18, %43, %20 : tensor<1x2048x!tt.ptr<f16>> loc(#loc57)
    } loc(#loc32)
    tt.return loc(#loc58)
  } loc(#loc)
} loc(#loc)
#loc2 = loc("./local_cache/m2/cm2digt4hcus2fxymbfdumzjafjngblhe2d6qijkeeihhspgjvlp.py":22:28)
#loc3 = loc("./local_cache/m2/cm2digt4hcus2fxymbfdumzjafjngblhe2d6qijkeeihhspgjvlp.py":24:21)
#loc4 = loc("./local_cache/m2/cm2digt4hcus2fxymbfdumzjafjngblhe2d6qijkeeihhspgjvlp.py":25:27)
#loc5 = loc("./local_cache/m2/cm2digt4hcus2fxymbfdumzjafjngblhe2d6qijkeeihhspgjvlp.py":25:37)
#loc6 = loc("./local_cache/m2/cm2digt4hcus2fxymbfdumzjafjngblhe2d6qijkeeihhspgjvlp.py":29:40)
#loc7 = loc("./local_cache/m2/cm2digt4hcus2fxymbfdumzjafjngblhe2d6qijkeeihhspgjvlp.py":30:31)
#loc8 = loc("./local_cache/m2/cm2digt4hcus2fxymbfdumzjafjngblhe2d6qijkeeihhspgjvlp.py":31:29)
#loc9 = loc("./local_cache/m2/cm2digt4hcus2fxymbfdumzjafjngblhe2d6qijkeeihhspgjvlp.py":35:50)
#loc10 = loc("./local_cache/m2/cm2digt4hcus2fxymbfdumzjafjngblhe2d6qijkeeihhspgjvlp.py":35:45)
#loc11 = loc("./local_cache/m2/cm2digt4hcus2fxymbfdumzjafjngblhe2d6qijkeeihhspgjvlp.py":35:38)
#loc12 = loc("./local_cache/m2/cm2digt4hcus2fxymbfdumzjafjngblhe2d6qijkeeihhspgjvlp.py":35:65)
#loc13 = loc("./local_cache/m2/cm2digt4hcus2fxymbfdumzjafjngblhe2d6qijkeeihhspgjvlp.py":35:55)
#loc14 = loc("./local_cache/m2/cm2digt4hcus2fxymbfdumzjafjngblhe2d6qijkeeihhspgjvlp.py":35:116)
#loc15 = loc("./local_cache/m2/cm2digt4hcus2fxymbfdumzjafjngblhe2d6qijkeeihhspgjvlp.py":36:34)
#loc16 = loc("./local_cache/m2/cm2digt4hcus2fxymbfdumzjafjngblhe2d6qijkeeihhspgjvlp.py":36:41)
#loc17 = loc("./local_cache/m2/cm2digt4hcus2fxymbfdumzjafjngblhe2d6qijkeeihhspgjvlp.py":36:94)
#loc18 = loc("./local_cache/m2/cm2digt4hcus2fxymbfdumzjafjngblhe2d6qijkeeihhspgjvlp.py":37:34)
#loc19 = loc("./local_cache/m2/cm2digt4hcus2fxymbfdumzjafjngblhe2d6qijkeeihhspgjvlp.py":37:51)
#loc20 = loc("./local_cache/m2/cm2digt4hcus2fxymbfdumzjafjngblhe2d6qijkeeihhspgjvlp.py":37:112)
#loc21 = loc("./local_cache/m2/cm2digt4hcus2fxymbfdumzjafjngblhe2d6qijkeeihhspgjvlp.py":38:22)
#loc22 = loc("./local_cache/m2/cm2digt4hcus2fxymbfdumzjafjngblhe2d6qijkeeihhspgjvlp.py":41:22)
#loc23 = loc("./local_cache/m2/cm2digt4hcus2fxymbfdumzjafjngblhe2d6qijkeeihhspgjvlp.py":43:23)
#loc24 = loc("./local_cache/m2/cm2digt4hcus2fxymbfdumzjafjngblhe2d6qijkeeihhspgjvlp.py":44:48)
#loc25 = loc("./local_cache/m2/cm2digt4hcus2fxymbfdumzjafjngblhe2d6qijkeeihhspgjvlp.py":44:8)
#loc26 = loc("/workspace/torch-compile-caching/.venv/lib/python3.11/site-packages/triton/language/standard.py":286:36)
#loc28 = loc("/workspace/torch-compile-caching/.venv/lib/python3.11/site-packages/triton/language/standard.py":256:15)
#loc29 = loc("./local_cache/m2/cm2digt4hcus2fxymbfdumzjafjngblhe2d6qijkeeihhspgjvlp.py":45:28)
#loc30 = loc("./local_cache/m2/cm2digt4hcus2fxymbfdumzjafjngblhe2d6qijkeeihhspgjvlp.py":46:31)
#loc31 = loc("./local_cache/m2/cm2digt4hcus2fxymbfdumzjafjngblhe2d6qijkeeihhspgjvlp.py":46:36)
#loc32 = loc("./local_cache/m2/cm2digt4hcus2fxymbfdumzjafjngblhe2d6qijkeeihhspgjvlp.py":47:40)
#loc33 = loc("./local_cache/m2/cm2digt4hcus2fxymbfdumzjafjngblhe2d6qijkeeihhspgjvlp.py":48:31)
#loc34 = loc("./local_cache/m2/cm2digt4hcus2fxymbfdumzjafjngblhe2d6qijkeeihhspgjvlp.py":49:29)
#loc35 = loc("./local_cache/m2/cm2digt4hcus2fxymbfdumzjafjngblhe2d6qijkeeihhspgjvlp.py":53:51)
#loc36 = loc("./local_cache/m2/cm2digt4hcus2fxymbfdumzjafjngblhe2d6qijkeeihhspgjvlp.py":53:46)
#loc37 = loc("./local_cache/m2/cm2digt4hcus2fxymbfdumzjafjngblhe2d6qijkeeihhspgjvlp.py":53:39)
#loc38 = loc("./local_cache/m2/cm2digt4hcus2fxymbfdumzjafjngblhe2d6qijkeeihhspgjvlp.py":53:66)
#loc39 = loc("./local_cache/m2/cm2digt4hcus2fxymbfdumzjafjngblhe2d6qijkeeihhspgjvlp.py":53:56)
#loc40 = loc("./local_cache/m2/cm2digt4hcus2fxymbfdumzjafjngblhe2d6qijkeeihhspgjvlp.py":53:118)
#loc41 = loc("./local_cache/m2/cm2digt4hcus2fxymbfdumzjafjngblhe2d6qijkeeihhspgjvlp.py":54:35)
#loc42 = loc("./local_cache/m2/cm2digt4hcus2fxymbfdumzjafjngblhe2d6qijkeeihhspgjvlp.py":54:42)
#loc43 = loc("./local_cache/m2/cm2digt4hcus2fxymbfdumzjafjngblhe2d6qijkeeihhspgjvlp.py":54:95)
#loc44 = loc("./local_cache/m2/cm2digt4hcus2fxymbfdumzjafjngblhe2d6qijkeeihhspgjvlp.py":55:35)
#loc45 = loc("./local_cache/m2/cm2digt4hcus2fxymbfdumzjafjngblhe2d6qijkeeihhspgjvlp.py":55:52)
#loc46 = loc("./local_cache/m2/cm2digt4hcus2fxymbfdumzjafjngblhe2d6qijkeeihhspgjvlp.py":55:114)
#loc47 = loc("./local_cache/m2/cm2digt4hcus2fxymbfdumzjafjngblhe2d6qijkeeihhspgjvlp.py":56:24)
#loc48 = loc("./local_cache/m2/cm2digt4hcus2fxymbfdumzjafjngblhe2d6qijkeeihhspgjvlp.py":58:24)
#loc49 = loc("./local_cache/m2/cm2digt4hcus2fxymbfdumzjafjngblhe2d6qijkeeihhspgjvlp.py":60:23)
#loc50 = loc("./local_cache/m2/cm2digt4hcus2fxymbfdumzjafjngblhe2d6qijkeeihhspgjvlp.py":61:24)
#loc51 = loc("./local_cache/m2/cm2digt4hcus2fxymbfdumzjafjngblhe2d6qijkeeihhspgjvlp.py":62:24)
#loc52 = loc("./local_cache/m2/cm2digt4hcus2fxymbfdumzjafjngblhe2d6qijkeeihhspgjvlp.py":63:24)
#loc53 = loc("./local_cache/m2/cm2digt4hcus2fxymbfdumzjafjngblhe2d6qijkeeihhspgjvlp.py":65:24)
#loc54 = loc("./local_cache/m2/cm2digt4hcus2fxymbfdumzjafjngblhe2d6qijkeeihhspgjvlp.py":68:24)
#loc55 = loc("./local_cache/m2/cm2digt4hcus2fxymbfdumzjafjngblhe2d6qijkeeihhspgjvlp.py":69:24)
#loc56 = loc("./local_cache/m2/cm2digt4hcus2fxymbfdumzjafjngblhe2d6qijkeeihhspgjvlp.py":70:24)
#loc57 = loc("./local_cache/m2/cm2digt4hcus2fxymbfdumzjafjngblhe2d6qijkeeihhspgjvlp.py":72:56)
#loc58 = loc("./local_cache/m2/cm2digt4hcus2fxymbfdumzjafjngblhe2d6qijkeeihhspgjvlp.py":47:4)
#loc59 = loc(fused[#loc10, #loc9])
#loc60 = loc(fused[#loc12, #loc3])
#loc61 = loc(callsite(#loc26 at #loc27))
#loc63 = loc(callsite(#loc28 at #loc26))
#loc64 = loc(fused[#loc36, #loc35])
#loc65 = loc(fused[#loc38, #loc3])
#loc66 = loc(callsite(#loc63 at #loc27))
