#loc = loc("/tmp/torchinductor_root/3k/c3kp3uisolqkxpkp44yxtd4m4gm5tvzfgnb4pfz7r37cv7lkmwh5.py":18:0)
#loc1 = loc(unknown)
#loc36 = loc("/tmp/torchinductor_root/3k/c3kp3uisolqkxpkp44yxtd4m4gm5tvzfgnb4pfz7r37cv7lkmwh5.py":48:27)
#loc56 = loc(callsite(#loc1 at #loc36))
module {
  tt.func public @triton_red_fused__to_copy_add_embedding_mean_mul_pow_rsqrt_0(%arg0: !tt.ptr<f32> {tt.divisibility = 16 : i32} loc("/tmp/torchinductor_root/3k/c3kp3uisolqkxpkp44yxtd4m4gm5tvzfgnb4pfz7r37cv7lkmwh5.py":18:0), %arg1: !tt.ptr<i64> {tt.divisibility = 16 : i32} loc("/tmp/torchinductor_root/3k/c3kp3uisolqkxpkp44yxtd4m4gm5tvzfgnb4pfz7r37cv7lkmwh5.py":18:0), %arg2: !tt.ptr<f16> {tt.divisibility = 16 : i32} loc("/tmp/torchinductor_root/3k/c3kp3uisolqkxpkp44yxtd4m4gm5tvzfgnb4pfz7r37cv7lkmwh5.py":18:0), %arg3: !tt.ptr<f16> {tt.divisibility = 16 : i32} loc("/tmp/torchinductor_root/3k/c3kp3uisolqkxpkp44yxtd4m4gm5tvzfgnb4pfz7r37cv7lkmwh5.py":18:0), %arg4: !tt.ptr<f16> {tt.divisibility = 16 : i32} loc("/tmp/torchinductor_root/3k/c3kp3uisolqkxpkp44yxtd4m4gm5tvzfgnb4pfz7r37cv7lkmwh5.py":18:0), %arg5: !tt.ptr<f16> {tt.divisibility = 16 : i32} loc("/tmp/torchinductor_root/3k/c3kp3uisolqkxpkp44yxtd4m4gm5tvzfgnb4pfz7r37cv7lkmwh5.py":18:0), %arg6: i32 loc("/tmp/torchinductor_root/3k/c3kp3uisolqkxpkp44yxtd4m4gm5tvzfgnb4pfz7r37cv7lkmwh5.py":18:0), %arg7: i32 {tt.divisibility = 16 : i32} loc("/tmp/torchinductor_root/3k/c3kp3uisolqkxpkp44yxtd4m4gm5tvzfgnb4pfz7r37cv7lkmwh5.py":18:0)) attributes {noinline = false} {
    %cst = arith.constant dense<4096> : tensor<2x1xi64> loc(#loc1)
    %cst_0 = arith.constant dense<128256> : tensor<2x1xi64> loc(#loc1)
    %cst_1 = arith.constant dense<0.000000e+00> : tensor<1x4096xf16> loc(#loc1)
    %cst_2 = arith.constant dense<0.000000e+00> : tensor<2x4096xf16> loc(#loc1)
    %cst_3 = arith.constant dense<0> : tensor<2x1xi64> loc(#loc1)
    %cst_4 = arith.constant dense<9.99999974E-6> : tensor<2x1xf32> loc(#loc1)
    %cst_5 = arith.constant dense<4.096000e+03> : tensor<2x1xf32> loc(#loc1)
    %cst_6 = arith.constant dense<4096> : tensor<2x1xi32> loc(#loc1)
    %cst_7 = arith.constant dense<true> : tensor<2x1xi1> loc(#loc1)
    %cst_8 = arith.constant dense<4096> : tensor<1x4096xi32> loc(#loc1)
    %cst_9 = arith.constant dense<0.000000e+00> : tensor<2x4096xf32> loc(#loc1)
    %c2_i32 = arith.constant 2 : i32 loc(#loc1)
    %0 = tt.get_program_id x : i32 loc(#loc2)
    %1 = arith.muli %0, %c2_i32 : i32 loc(#loc3)
    %2 = tt.make_range {end = 2 : i32, start = 0 : i32} : tensor<2xi32> loc(#loc4)
    %3 = tt.expand_dims %2 {axis = 1 : i32} : tensor<2xi32> -> tensor<2x1xi32> loc(#loc5)
    %4 = tt.splat %1 : i32 -> tensor<2x1xi32> loc(#loc6)
    %5 = arith.addi %4, %3 : tensor<2x1xi32> loc(#loc6)
    %6 = tt.splat %arg6 : i32 -> tensor<2x1xi32> loc(#loc7)
    %7 = arith.cmpi slt, %5, %6 : tensor<2x1xi32> loc(#loc7)
    %8 = tt.make_range {end = 4096 : i32, start = 0 : i32} : tensor<4096xi32> loc(#loc8)
    %9 = tt.expand_dims %8 {axis = 0 : i32} : tensor<4096xi32> -> tensor<1x4096xi32> loc(#loc9)
    %10 = tt.splat %arg1 : !tt.ptr<i64> -> tensor<2x1x!tt.ptr<i64>> loc(#loc10)
    %11 = tt.addptr %10, %5 : tensor<2x1x!tt.ptr<i64>>, tensor<2x1xi32> loc(#loc10)
    %12 = tt.load %11, %7 evictionPolicy = evict_last : tensor<2x1x!tt.ptr<i64>> loc(#loc11)
    %13 = arith.cmpi slt, %9, %cst_8 : tensor<1x4096xi32> loc(#loc12)
    %14 = arith.addi %12, %cst_0 : tensor<2x1xi64> loc(#loc13)
    %15 = arith.cmpi slt, %12, %cst_3 : tensor<2x1xi64> loc(#loc14)
    %16 = arith.select %15, %14, %12 : tensor<2x1xi1>, tensor<2x1xi64> loc(#loc15)
    %17 = arith.cmpi sge, %16, %cst_3 : tensor<2x1xi64> loc(#loc16)
    %18 = arith.cmpi slt, %16, %cst_0 : tensor<2x1xi64> loc(#loc17)
    %19 = arith.andi %17, %18 : tensor<2x1xi1> loc(#loc18)
    %20 = arith.xori %7, %cst_7 : tensor<2x1xi1> loc(#loc19)
    %21 = arith.ori %19, %20 : tensor<2x1xi1> loc(#loc20)
    %22 = tt.broadcast %21 : tensor<2x1xi1> -> tensor<2x4096xi1> loc(#loc20)
    tt.assert %22, "index out of bounds: 0 <= tmp4 < 128256" : tensor<2x4096xi1> loc(#loc21)
    %23 = arith.muli %16, %cst : tensor<2x1xi64> loc(#loc22)
    %24 = tt.broadcast %23 : tensor<2x1xi64> -> tensor<2x4096xi64> loc(#loc22)
    %25 = arith.extsi %9 : tensor<1x4096xi32> to tensor<1x4096xi64> loc(#loc23)
    %26 = tt.broadcast %25 : tensor<1x4096xi64> -> tensor<2x4096xi64> loc(#loc23)
    %27 = arith.addi %26, %24 : tensor<2x4096xi64> loc(#loc23)
    %28 = tt.splat %arg2 : !tt.ptr<f16> -> tensor<2x4096x!tt.ptr<f16>> loc(#loc24)
    %29 = tt.addptr %28, %27 : tensor<2x4096x!tt.ptr<f16>>, tensor<2x4096xi64> loc(#loc24)
    %30 = tt.broadcast %7 : tensor<2x1xi1> -> tensor<2x4096xi1> loc(#loc25)
    %31 = tt.broadcast %13 : tensor<1x4096xi1> -> tensor<2x4096xi1> loc(#loc25)
    %32 = arith.andi %30, %31 : tensor<2x4096xi1> loc(#loc25)
    %33 = tt.load %29, %32, %cst_2 evictionPolicy = evict_first : tensor<2x4096x!tt.ptr<f16>> loc(#loc26)
    %34 = arith.extf %33 : tensor<2x4096xf16> to tensor<2x4096xf32> loc(#loc27)
    %35 = arith.mulf %34, %34 : tensor<2x4096xf32> loc(#loc28)
    %36 = arith.addf %35, %cst_9 : tensor<2x4096xf32> loc(#loc29)
    %37 = arith.select %32, %36, %cst_9 : tensor<2x4096xi1>, tensor<2x4096xf32> loc(#loc30)
    %38 = arith.muli %5, %cst_6 : tensor<2x1xi32> loc(#loc31)
    %39 = tt.broadcast %9 : tensor<1x4096xi32> -> tensor<2x4096xi32> loc(#loc32)
    %40 = tt.broadcast %38 : tensor<2x1xi32> -> tensor<2x4096xi32> loc(#loc32)
    %41 = arith.addi %39, %40 : tensor<2x4096xi32> loc(#loc32)
    %42 = tt.splat %arg4 : !tt.ptr<f16> -> tensor<2x4096x!tt.ptr<f16>> loc(#loc33)
    %43 = tt.addptr %42, %41 : tensor<2x4096x!tt.ptr<f16>>, tensor<2x4096xi32> loc(#loc33)
    %44 = arith.truncf %34 : tensor<2x4096xf32> to tensor<2x4096xf16> loc(#loc34)
    tt.store %43, %44, %32 : tensor<2x4096x!tt.ptr<f16>> loc(#loc34)
    %45 = "tt.reduce"(%37) <{axis = 1 : i32}> ({
    ^bb0(%arg8: f32 loc(callsite(#loc1 at #loc36)), %arg9: f32 loc(callsite(#loc1 at #loc36))):
      %65 = arith.addf %arg8, %arg9 : f32 loc(#loc58)
      tt.reduce.return %65 : f32 loc(#loc55)
    }) : (tensor<2x4096xf32>) -> tensor<2xf32> loc(#loc55)
    %46 = tt.expand_dims %45 {axis = 1 : i32} : tensor<2xf32> -> tensor<2x1xf32> loc(#loc38)
    %47 = arith.divf %46, %cst_5 : tensor<2x1xf32> loc(#loc39)
    %48 = arith.addf %47, %cst_4 : tensor<2x1xf32> loc(#loc40)
    %49 = tt.extern_elementwise %48 {libname = "", libpath = "", pure = true, symbol = "__nv_rsqrtf"} : (tensor<2x1xf32>) -> tensor<2x1xf32> loc(#loc41)
    gpu.barrier loc(#loc42)
    %50 = tt.splat %arg0 : !tt.ptr<f32> -> tensor<2x1x!tt.ptr<f32>> loc(#loc43)
    %51 = tt.addptr %50, %5 : tensor<2x1x!tt.ptr<f32>>, tensor<2x1xi32> loc(#loc43)
    tt.store %51, %49, %7 : tensor<2x1x!tt.ptr<f32>> loc(#loc44)
    %52 = tt.splat %arg3 : !tt.ptr<f16> -> tensor<1x4096x!tt.ptr<f16>> loc(#loc45)
    %53 = tt.addptr %52, %9 : tensor<1x4096x!tt.ptr<f16>>, tensor<1x4096xi32> loc(#loc45)
    %54 = tt.load %53, %13, %cst_1 evictionPolicy = evict_last : tensor<1x4096x!tt.ptr<f16>> loc(#loc46)
    %55 = arith.extf %54 : tensor<1x4096xf16> to tensor<1x4096xf32> loc(#loc47)
    %56 = tt.load %43, %32, %cst_2 evictionPolicy = evict_first : tensor<2x4096x!tt.ptr<f16>> loc(#loc48)
    %57 = arith.extf %56 : tensor<2x4096xf16> to tensor<2x4096xf32> loc(#loc49)
    %58 = tt.broadcast %49 : tensor<2x1xf32> -> tensor<2x4096xf32> loc(#loc50)
    %59 = arith.mulf %57, %58 : tensor<2x4096xf32> loc(#loc50)
    %60 = tt.broadcast %55 : tensor<1x4096xf32> -> tensor<2x4096xf32> loc(#loc51)
    %61 = arith.mulf %60, %59 : tensor<2x4096xf32> loc(#loc51)
    %62 = tt.splat %arg5 : !tt.ptr<f16> -> tensor<2x4096x!tt.ptr<f16>> loc(#loc52)
    %63 = tt.addptr %62, %41 : tensor<2x4096x!tt.ptr<f16>>, tensor<2x4096xi32> loc(#loc52)
    %64 = arith.truncf %61 : tensor<2x4096xf32> to tensor<2x4096xf16> loc(#loc53)
    tt.store %63, %64, %32 : tensor<2x4096x!tt.ptr<f16>> loc(#loc53)
    tt.return loc(#loc54)
  } loc(#loc)
} loc(#loc)
#loc2 = loc("/tmp/torchinductor_root/3k/c3kp3uisolqkxpkp44yxtd4m4gm5tvzfgnb4pfz7r37cv7lkmwh5.py":22:28)
#loc3 = loc("/tmp/torchinductor_root/3k/c3kp3uisolqkxpkp44yxtd4m4gm5tvzfgnb4pfz7r37cv7lkmwh5.py":22:33)
#loc4 = loc("/tmp/torchinductor_root/3k/c3kp3uisolqkxpkp44yxtd4m4gm5tvzfgnb4pfz7r37cv7lkmwh5.py":23:36)
#loc5 = loc("/tmp/torchinductor_root/3k/c3kp3uisolqkxpkp44yxtd4m4gm5tvzfgnb4pfz7r37cv7lkmwh5.py":23:44)
#loc6 = loc("/tmp/torchinductor_root/3k/c3kp3uisolqkxpkp44yxtd4m4gm5tvzfgnb4pfz7r37cv7lkmwh5.py":23:23)
#loc7 = loc("/tmp/torchinductor_root/3k/c3kp3uisolqkxpkp44yxtd4m4gm5tvzfgnb4pfz7r37cv7lkmwh5.py":24:21)
#loc8 = loc("/tmp/torchinductor_root/3k/c3kp3uisolqkxpkp44yxtd4m4gm5tvzfgnb4pfz7r37cv7lkmwh5.py":25:27)
#loc9 = loc("/tmp/torchinductor_root/3k/c3kp3uisolqkxpkp44yxtd4m4gm5tvzfgnb4pfz7r37cv7lkmwh5.py":25:37)
#loc10 = loc("/tmp/torchinductor_root/3k/c3kp3uisolqkxpkp44yxtd4m4gm5tvzfgnb4pfz7r37cv7lkmwh5.py":28:30)
#loc11 = loc("/tmp/torchinductor_root/3k/c3kp3uisolqkxpkp44yxtd4m4gm5tvzfgnb4pfz7r37cv7lkmwh5.py":28:35)
#loc12 = loc("/tmp/torchinductor_root/3k/c3kp3uisolqkxpkp44yxtd4m4gm5tvzfgnb4pfz7r37cv7lkmwh5.py":32:29)
#loc13 = loc("/tmp/torchinductor_root/3k/c3kp3uisolqkxpkp44yxtd4m4gm5tvzfgnb4pfz7r37cv7lkmwh5.py":37:22)
#loc14 = loc("/tmp/torchinductor_root/3k/c3kp3uisolqkxpkp44yxtd4m4gm5tvzfgnb4pfz7r37cv7lkmwh5.py":38:22)
#loc15 = loc("/tmp/torchinductor_root/3k/c3kp3uisolqkxpkp44yxtd4m4gm5tvzfgnb4pfz7r37cv7lkmwh5.py":39:36)
#loc16 = loc("/tmp/torchinductor_root/3k/c3kp3uisolqkxpkp44yxtd4m4gm5tvzfgnb4pfz7r37cv7lkmwh5.py":40:32)
#loc17 = loc("/tmp/torchinductor_root/3k/c3kp3uisolqkxpkp44yxtd4m4gm5tvzfgnb4pfz7r37cv7lkmwh5.py":40:48)
#loc18 = loc("/tmp/torchinductor_root/3k/c3kp3uisolqkxpkp44yxtd4m4gm5tvzfgnb4pfz7r37cv7lkmwh5.py":40:41)
#loc19 = loc("/tmp/torchinductor_root/3k/c3kp3uisolqkxpkp44yxtd4m4gm5tvzfgnb4pfz7r37cv7lkmwh5.py":40:61)
#loc20 = loc("/tmp/torchinductor_root/3k/c3kp3uisolqkxpkp44yxtd4m4gm5tvzfgnb4pfz7r37cv7lkmwh5.py":40:59)
#loc21 = loc("/tmp/torchinductor_root/3k/c3kp3uisolqkxpkp44yxtd4m4gm5tvzfgnb4pfz7r37cv7lkmwh5.py":40:69)
#loc22 = loc("/tmp/torchinductor_root/3k/c3kp3uisolqkxpkp44yxtd4m4gm5tvzfgnb4pfz7r37cv7lkmwh5.py":41:46)
#loc23 = loc("/tmp/torchinductor_root/3k/c3kp3uisolqkxpkp44yxtd4m4gm5tvzfgnb4pfz7r37cv7lkmwh5.py":41:41)
#loc24 = loc("/tmp/torchinductor_root/3k/c3kp3uisolqkxpkp44yxtd4m4gm5tvzfgnb4pfz7r37cv7lkmwh5.py":41:34)
#loc25 = loc("/tmp/torchinductor_root/3k/c3kp3uisolqkxpkp44yxtd4m4gm5tvzfgnb4pfz7r37cv7lkmwh5.py":41:61)
#loc26 = loc("/tmp/torchinductor_root/3k/c3kp3uisolqkxpkp44yxtd4m4gm5tvzfgnb4pfz7r37cv7lkmwh5.py":41:53)
#loc27 = loc("/tmp/torchinductor_root/3k/c3kp3uisolqkxpkp44yxtd4m4gm5tvzfgnb4pfz7r37cv7lkmwh5.py":41:115)
#loc28 = loc("/tmp/torchinductor_root/3k/c3kp3uisolqkxpkp44yxtd4m4gm5tvzfgnb4pfz7r37cv7lkmwh5.py":43:22)
#loc29 = loc("/tmp/torchinductor_root/3k/c3kp3uisolqkxpkp44yxtd4m4gm5tvzfgnb4pfz7r37cv7lkmwh5.py":45:25)
#loc30 = loc("/tmp/torchinductor_root/3k/c3kp3uisolqkxpkp44yxtd4m4gm5tvzfgnb4pfz7r37cv7lkmwh5.py":46:50)
#loc31 = loc("/tmp/torchinductor_root/3k/c3kp3uisolqkxpkp44yxtd4m4gm5tvzfgnb4pfz7r37cv7lkmwh5.py":47:41)
#loc32 = loc("/tmp/torchinductor_root/3k/c3kp3uisolqkxpkp44yxtd4m4gm5tvzfgnb4pfz7r37cv7lkmwh5.py":47:36)
#loc33 = loc("/tmp/torchinductor_root/3k/c3kp3uisolqkxpkp44yxtd4m4gm5tvzfgnb4pfz7r37cv7lkmwh5.py":47:29)
#loc34 = loc("/tmp/torchinductor_root/3k/c3kp3uisolqkxpkp44yxtd4m4gm5tvzfgnb4pfz7r37cv7lkmwh5.py":47:52)
#loc35 = loc("/workspace/torch-compile-caching/.venv/lib/python3.11/site-packages/triton/language/standard.py":286:36)
#loc37 = loc("/workspace/torch-compile-caching/.venv/lib/python3.11/site-packages/triton/language/standard.py":256:15)
#loc38 = loc("/tmp/torchinductor_root/3k/c3kp3uisolqkxpkp44yxtd4m4gm5tvzfgnb4pfz7r37cv7lkmwh5.py":48:30)
#loc39 = loc("/tmp/torchinductor_root/3k/c3kp3uisolqkxpkp44yxtd4m4gm5tvzfgnb4pfz7r37cv7lkmwh5.py":50:21)
#loc40 = loc("/tmp/torchinductor_root/3k/c3kp3uisolqkxpkp44yxtd4m4gm5tvzfgnb4pfz7r37cv7lkmwh5.py":52:20)
#loc41 = loc("/tmp/torchinductor_root/3k/c3kp3uisolqkxpkp44yxtd4m4gm5tvzfgnb4pfz7r37cv7lkmwh5.py":53:28)
#loc42 = loc("/tmp/torchinductor_root/3k/c3kp3uisolqkxpkp44yxtd4m4gm5tvzfgnb4pfz7r37cv7lkmwh5.py":54:4)
#loc43 = loc("/tmp/torchinductor_root/3k/c3kp3uisolqkxpkp44yxtd4m4gm5tvzfgnb4pfz7r37cv7lkmwh5.py":55:28)
#loc44 = loc("/tmp/torchinductor_root/3k/c3kp3uisolqkxpkp44yxtd4m4gm5tvzfgnb4pfz7r37cv7lkmwh5.py":55:40)
#loc45 = loc("/tmp/torchinductor_root/3k/c3kp3uisolqkxpkp44yxtd4m4gm5tvzfgnb4pfz7r37cv7lkmwh5.py":62:35)
#loc46 = loc("/tmp/torchinductor_root/3k/c3kp3uisolqkxpkp44yxtd4m4gm5tvzfgnb4pfz7r37cv7lkmwh5.py":62:42)
#loc47 = loc("/tmp/torchinductor_root/3k/c3kp3uisolqkxpkp44yxtd4m4gm5tvzfgnb4pfz7r37cv7lkmwh5.py":62:95)
#loc48 = loc("/tmp/torchinductor_root/3k/c3kp3uisolqkxpkp44yxtd4m4gm5tvzfgnb4pfz7r37cv7lkmwh5.py":63:53)
#loc49 = loc("/tmp/torchinductor_root/3k/c3kp3uisolqkxpkp44yxtd4m4gm5tvzfgnb4pfz7r37cv7lkmwh5.py":63:115)
#loc50 = loc("/tmp/torchinductor_root/3k/c3kp3uisolqkxpkp44yxtd4m4gm5tvzfgnb4pfz7r37cv7lkmwh5.py":65:24)
#loc51 = loc("/tmp/torchinductor_root/3k/c3kp3uisolqkxpkp44yxtd4m4gm5tvzfgnb4pfz7r37cv7lkmwh5.py":67:24)
#loc52 = loc("/tmp/torchinductor_root/3k/c3kp3uisolqkxpkp44yxtd4m4gm5tvzfgnb4pfz7r37cv7lkmwh5.py":68:29)
#loc53 = loc("/tmp/torchinductor_root/3k/c3kp3uisolqkxpkp44yxtd4m4gm5tvzfgnb4pfz7r37cv7lkmwh5.py":68:53)
#loc54 = loc("/tmp/torchinductor_root/3k/c3kp3uisolqkxpkp44yxtd4m4gm5tvzfgnb4pfz7r37cv7lkmwh5.py":56:4)
#loc55 = loc(callsite(#loc35 at #loc36))
#loc57 = loc(callsite(#loc37 at #loc35))
#loc58 = loc(callsite(#loc57 at #loc36))
