#loc = loc("./local_cache/m3/cm3xmogfip2jlis6ndgz42hay2axvskpa64eoxadbtfgyk5gvt2c.py":18:0)
#loc1 = loc(unknown)
#loc39 = loc("./local_cache/m3/cm3xmogfip2jlis6ndgz42hay2axvskpa64eoxadbtfgyk5gvt2c.py":49:27)
#loc100 = loc(callsite(#loc1 at #loc39))
module {
  tt.func public @triton_red_fused__to_copy_add_div_embedding_dense_backward_mul_pow_sum_13(%arg0: !tt.ptr<f16> {tt.divisibility = 16 : i32} loc("./local_cache/m3/cm3xmogfip2jlis6ndgz42hay2axvskpa64eoxadbtfgyk5gvt2c.py":18:0), %arg1: !tt.ptr<f16> {tt.divisibility = 16 : i32} loc("./local_cache/m3/cm3xmogfip2jlis6ndgz42hay2axvskpa64eoxadbtfgyk5gvt2c.py":18:0), %arg2: !tt.ptr<f16> {tt.divisibility = 16 : i32} loc("./local_cache/m3/cm3xmogfip2jlis6ndgz42hay2axvskpa64eoxadbtfgyk5gvt2c.py":18:0), %arg3: !tt.ptr<f16> {tt.divisibility = 16 : i32} loc("./local_cache/m3/cm3xmogfip2jlis6ndgz42hay2axvskpa64eoxadbtfgyk5gvt2c.py":18:0), %arg4: !tt.ptr<f16> {tt.divisibility = 16 : i32} loc("./local_cache/m3/cm3xmogfip2jlis6ndgz42hay2axvskpa64eoxadbtfgyk5gvt2c.py":18:0), %arg5: !tt.ptr<i64> {tt.divisibility = 16 : i32} loc("./local_cache/m3/cm3xmogfip2jlis6ndgz42hay2axvskpa64eoxadbtfgyk5gvt2c.py":18:0), %arg6: !tt.ptr<f16> {tt.divisibility = 16 : i32} loc("./local_cache/m3/cm3xmogfip2jlis6ndgz42hay2axvskpa64eoxadbtfgyk5gvt2c.py":18:0), %arg7: !tt.ptr<f32> {tt.divisibility = 16 : i32} loc("./local_cache/m3/cm3xmogfip2jlis6ndgz42hay2axvskpa64eoxadbtfgyk5gvt2c.py":18:0), %arg8: !tt.ptr<f32> {tt.divisibility = 16 : i32} loc("./local_cache/m3/cm3xmogfip2jlis6ndgz42hay2axvskpa64eoxadbtfgyk5gvt2c.py":18:0), %arg9: i32 loc("./local_cache/m3/cm3xmogfip2jlis6ndgz42hay2axvskpa64eoxadbtfgyk5gvt2c.py":18:0), %arg10: i32 {tt.divisibility = 16 : i32} loc("./local_cache/m3/cm3xmogfip2jlis6ndgz42hay2axvskpa64eoxadbtfgyk5gvt2c.py":18:0)) attributes {noinline = false} {
    %cst = arith.constant dense<4096> : tensor<16x1xi64> loc(#loc1)
    %cst_0 = arith.constant dense<128256> : tensor<16x1xi64> loc(#loc1)
    %cst_1 = arith.constant dense<0> : tensor<16x1xi64> loc(#loc1)
    %cst_2 = arith.constant dense<0.000000e+00> : tensor<1x4xf16> loc(#loc1)
    %cst_3 = arith.constant dense<0.000000e+00> : tensor<16x4xf16> loc(#loc1)
    %c4_i32 = arith.constant 4 : i32 loc(#loc1)
    %c4096_i32 = arith.constant 4096 : i32 loc(#loc1)
    %c0_i32 = arith.constant 0 : i32 loc(#loc1)
    %cst_4 = arith.constant dense<true> : tensor<16x1xi1> loc(#loc1)
    %cst_5 = arith.constant dense<2.000000e+00> : tensor<16x4xf32> loc(#loc1)
    %cst_6 = arith.constant dense<2.44140625E-4> : tensor<16x1xf32> loc(#loc1)
    %cst_7 = arith.constant dense<-5.000000e-01> : tensor<16x1xf32> loc(#loc1)
    %cst_8 = arith.constant dense<-1> : tensor<16x1xi64> loc(#loc1)
    %cst_9 = arith.constant dense<4096> : tensor<16x1xi32> loc(#loc1)
    %cst_10 = arith.constant dense<4096> : tensor<1x4xi32> loc(#loc1)
    %cst_11 = arith.constant dense<0.000000e+00> : tensor<16x4xf32> loc(#loc1)
    %c16_i32 = arith.constant 16 : i32 loc(#loc1)
    %0 = tt.get_program_id x : i32 loc(#loc2)
    %1 = arith.muli %0, %c16_i32 : i32 loc(#loc3)
    %2 = tt.make_range {end = 16 : i32, start = 0 : i32} : tensor<16xi32> loc(#loc4)
    %3 = tt.expand_dims %2 {axis = 1 : i32} : tensor<16xi32> -> tensor<16x1xi32> loc(#loc5)
    %4 = tt.splat %1 : i32 -> tensor<16x1xi32> loc(#loc6)
    %5 = arith.addi %4, %3 : tensor<16x1xi32> loc(#loc6)
    %6 = tt.splat %arg9 : i32 -> tensor<16x1xi32> loc(#loc7)
    %7 = arith.cmpi slt, %5, %6 : tensor<16x1xi32> loc(#loc7)
    %8 = tt.make_range {end = 4 : i32, start = 0 : i32} : tensor<4xi32> loc(#loc8)
    %9 = tt.expand_dims %8 {axis = 0 : i32} : tensor<4xi32> -> tensor<1x4xi32> loc(#loc9)
    %10 = scf.for %arg11 = %c0_i32 to %c4096_i32 step %c4_i32 iter_args(%arg12 = %cst_11) -> (tensor<16x4xf32>)  : i32 {
      %19 = tt.splat %arg11 : i32 -> tensor<1x4xi32> loc(#loc11)
      %20 = arith.addi %19, %9 : tensor<1x4xi32> loc(#loc11)
      %21 = arith.cmpi slt, %20, %cst_10 : tensor<1x4xi32> loc(#loc12)
      %22 = arith.muli %5, %cst_9 : tensor<16x1xi32> loc(#loc13)
      %23 = tt.broadcast %20 : tensor<1x4xi32> -> tensor<16x4xi32> loc(#loc14)
      %24 = tt.broadcast %22 : tensor<16x1xi32> -> tensor<16x4xi32> loc(#loc14)
      %25 = arith.addi %23, %24 : tensor<16x4xi32> loc(#loc14)
      %26 = tt.splat %arg0 : !tt.ptr<f16> -> tensor<16x4x!tt.ptr<f16>> loc(#loc15)
      %27 = tt.addptr %26, %25 : tensor<16x4x!tt.ptr<f16>>, tensor<16x4xi32> loc(#loc15)
      %28 = tt.broadcast %21 : tensor<1x4xi1> -> tensor<16x4xi1> loc(#loc16)
      %29 = tt.broadcast %7 : tensor<16x1xi1> -> tensor<16x4xi1> loc(#loc16)
      %30 = arith.andi %28, %29 : tensor<16x4xi1> loc(#loc16)
      %31 = tt.load %27, %30, %cst_3 evictionPolicy = evict_last : tensor<16x4x!tt.ptr<f16>> loc(#loc17)
      %32 = arith.extf %31 : tensor<16x4xf16> to tensor<16x4xf32> loc(#loc18)
      %33 = tt.splat %arg1 : !tt.ptr<f16> -> tensor<16x4x!tt.ptr<f16>> loc(#loc19)
      %34 = tt.addptr %33, %25 : tensor<16x4x!tt.ptr<f16>>, tensor<16x4xi32> loc(#loc19)
      %35 = tt.load %34, %30, %cst_3 evictionPolicy = evict_last : tensor<16x4x!tt.ptr<f16>> loc(#loc20)
      %36 = arith.extf %35 : tensor<16x4xf16> to tensor<16x4xf32> loc(#loc21)
      %37 = tt.splat %arg2 : !tt.ptr<f16> -> tensor<16x4x!tt.ptr<f16>> loc(#loc22)
      %38 = tt.addptr %37, %25 : tensor<16x4x!tt.ptr<f16>>, tensor<16x4xi32> loc(#loc22)
      %39 = tt.load %38, %30, %cst_3 evictionPolicy = evict_last : tensor<16x4x!tt.ptr<f16>> loc(#loc23)
      %40 = arith.extf %39 : tensor<16x4xf16> to tensor<16x4xf32> loc(#loc24)
      %41 = tt.splat %arg3 : !tt.ptr<f16> -> tensor<1x4x!tt.ptr<f16>> loc(#loc25)
      %42 = tt.addptr %41, %20 : tensor<1x4x!tt.ptr<f16>>, tensor<1x4xi32> loc(#loc25)
      %43 = tt.load %42, %21, %cst_2 evictionPolicy = evict_last : tensor<1x4x!tt.ptr<f16>> loc(#loc26)
      %44 = arith.extf %43 : tensor<1x4xf16> to tensor<1x4xf32> loc(#loc27)
      %45 = tt.splat %arg4 : !tt.ptr<f16> -> tensor<16x4x!tt.ptr<f16>> loc(#loc28)
      %46 = tt.addptr %45, %25 : tensor<16x4x!tt.ptr<f16>>, tensor<16x4xi32> loc(#loc28)
      %47 = tt.load %46, %30, %cst_3 evictionPolicy = evict_last : tensor<16x4x!tt.ptr<f16>> loc(#loc29)
      %48 = arith.extf %47 : tensor<16x4xf16> to tensor<16x4xf32> loc(#loc30)
      %49 = arith.addf %32, %36 : tensor<16x4xf32> loc(#loc31)
      %50 = arith.addf %49, %40 : tensor<16x4xf32> loc(#loc32)
      %51 = tt.broadcast %44 : tensor<1x4xf32> -> tensor<16x4xf32> loc(#loc33)
      %52 = arith.mulf %50, %51 : tensor<16x4xf32> loc(#loc33)
      %53 = arith.mulf %52, %48 : tensor<16x4xf32> loc(#loc34)
      %54 = arith.addf %arg12, %53 : tensor<16x4xf32> loc(#loc35)
      %55 = arith.select %30, %54, %arg12 : tensor<16x4xi1>, tensor<16x4xf32> loc(#loc36)
      scf.yield %55 : tensor<16x4xf32> loc(#loc37)
    } loc(#loc10)
    %11 = "tt.reduce"(%10) <{axis = 1 : i32}> ({
    ^bb0(%arg11: f32 loc(callsite(#loc1 at #loc39)), %arg12: f32 loc(callsite(#loc1 at #loc39))):
      %19 = arith.addf %arg11, %arg12 : f32 loc(#loc102)
      tt.reduce.return %19 : f32 loc(#loc99)
    }) : (tensor<16x4xf32>) -> tensor<16xf32> loc(#loc99)
    %12 = tt.expand_dims %11 {axis = 1 : i32} : tensor<16xf32> -> tensor<16x1xf32> loc(#loc41)
    %13 = tt.splat %arg5 : !tt.ptr<i64> -> tensor<16x1x!tt.ptr<i64>> loc(#loc42)
    %14 = tt.addptr %13, %5 : tensor<16x1x!tt.ptr<i64>>, tensor<16x1xi32> loc(#loc42)
    %15 = tt.load %14, %7 evictionPolicy = evict_last : tensor<16x1x!tt.ptr<i64>> loc(#loc43)
    %16 = tt.splat %arg7 : !tt.ptr<f32> -> tensor<16x1x!tt.ptr<f32>> loc(#loc44)
    %17 = tt.addptr %16, %5 : tensor<16x1x!tt.ptr<f32>>, tensor<16x1xi32> loc(#loc44)
    %18 = tt.load %17, %7 evictionPolicy = evict_last : tensor<16x1x!tt.ptr<f32>> loc(#loc45)
    scf.for %arg11 = %c0_i32 to %c4096_i32 step %c4_i32  : i32 {
      %19 = tt.splat %arg11 : i32 -> tensor<1x4xi32> loc(#loc47)
      %20 = arith.addi %19, %9 : tensor<1x4xi32> loc(#loc47)
      %21 = arith.cmpi slt, %20, %cst_10 : tensor<1x4xi32> loc(#loc48)
      %22 = arith.muli %5, %cst_9 : tensor<16x1xi32> loc(#loc49)
      %23 = tt.broadcast %20 : tensor<1x4xi32> -> tensor<16x4xi32> loc(#loc50)
      %24 = tt.broadcast %22 : tensor<16x1xi32> -> tensor<16x4xi32> loc(#loc50)
      %25 = arith.addi %23, %24 : tensor<16x4xi32> loc(#loc50)
      %26 = tt.splat %arg6 : !tt.ptr<f16> -> tensor<16x4x!tt.ptr<f16>> loc(#loc51)
      %27 = tt.addptr %26, %25 : tensor<16x4x!tt.ptr<f16>>, tensor<16x4xi32> loc(#loc51)
      %28 = tt.broadcast %21 : tensor<1x4xi1> -> tensor<16x4xi1> loc(#loc52)
      %29 = tt.broadcast %7 : tensor<16x1xi1> -> tensor<16x4xi1> loc(#loc52)
      %30 = arith.andi %28, %29 : tensor<16x4xi1> loc(#loc52)
      %31 = tt.load %27, %30, %cst_3 evictionPolicy = evict_first : tensor<16x4x!tt.ptr<f16>> loc(#loc53)
      %32 = arith.extf %31 : tensor<16x4xf16> to tensor<16x4xf32> loc(#loc54)
      %33 = tt.splat %arg0 : !tt.ptr<f16> -> tensor<16x4x!tt.ptr<f16>> loc(#loc55)
      %34 = tt.addptr %33, %25 : tensor<16x4x!tt.ptr<f16>>, tensor<16x4xi32> loc(#loc55)
      %35 = tt.load %34, %30, %cst_3 evictionPolicy = evict_first : tensor<16x4x!tt.ptr<f16>> loc(#loc56)
      %36 = arith.extf %35 : tensor<16x4xf16> to tensor<16x4xf32> loc(#loc57)
      %37 = tt.splat %arg1 : !tt.ptr<f16> -> tensor<16x4x!tt.ptr<f16>> loc(#loc58)
      %38 = tt.addptr %37, %25 : tensor<16x4x!tt.ptr<f16>>, tensor<16x4xi32> loc(#loc58)
      %39 = tt.load %38, %30, %cst_3 evictionPolicy = evict_first : tensor<16x4x!tt.ptr<f16>> loc(#loc59)
      %40 = arith.extf %39 : tensor<16x4xf16> to tensor<16x4xf32> loc(#loc60)
      %41 = tt.splat %arg2 : !tt.ptr<f16> -> tensor<16x4x!tt.ptr<f16>> loc(#loc61)
      %42 = tt.addptr %41, %25 : tensor<16x4x!tt.ptr<f16>>, tensor<16x4xi32> loc(#loc61)
      %43 = tt.load %42, %30, %cst_3 evictionPolicy = evict_first : tensor<16x4x!tt.ptr<f16>> loc(#loc62)
      %44 = arith.extf %43 : tensor<16x4xf16> to tensor<16x4xf32> loc(#loc63)
      %45 = tt.splat %arg3 : !tt.ptr<f16> -> tensor<1x4x!tt.ptr<f16>> loc(#loc64)
      %46 = tt.addptr %45, %20 : tensor<1x4x!tt.ptr<f16>>, tensor<1x4xi32> loc(#loc64)
      %47 = tt.load %46, %21, %cst_2 evictionPolicy = evict_last : tensor<1x4x!tt.ptr<f16>> loc(#loc65)
      %48 = arith.extf %47 : tensor<1x4xf16> to tensor<1x4xf32> loc(#loc66)
      %49 = tt.splat %arg4 : !tt.ptr<f16> -> tensor<16x4x!tt.ptr<f16>> loc(#loc67)
      %50 = tt.addptr %49, %25 : tensor<16x4x!tt.ptr<f16>>, tensor<16x4xi32> loc(#loc67)
      %51 = tt.load %50, %30, %cst_3 evictionPolicy = evict_first : tensor<16x4x!tt.ptr<f16>> loc(#loc68)
      %52 = arith.extf %51 : tensor<16x4xf16> to tensor<16x4xf32> loc(#loc69)
      %53 = arith.cmpi eq, %15, %cst_8 : tensor<16x1xi64> loc(#loc70)
      %54 = arith.addf %36, %40 : tensor<16x4xf32> loc(#loc71)
      %55 = arith.addf %54, %44 : tensor<16x4xf32> loc(#loc72)
      %56 = tt.broadcast %48 : tensor<1x4xf32> -> tensor<16x4xf32> loc(#loc73)
      %57 = arith.mulf %55, %56 : tensor<16x4xf32> loc(#loc73)
      %58 = tt.broadcast %18 : tensor<16x1xf32> -> tensor<16x4xf32> loc(#loc74)
      %59 = arith.mulf %57, %58 : tensor<16x4xf32> loc(#loc74)
      %60 = arith.mulf %12, %cst_7 : tensor<16x1xf32> loc(#loc75)
      %61 = arith.mulf %18, %18 : tensor<16x1xf32> loc(#loc76)
      %62 = arith.mulf %61, %18 : tensor<16x1xf32> loc(#loc77)
      %63 = arith.mulf %60, %62 : tensor<16x1xf32> loc(#loc78)
      %64 = arith.mulf %63, %cst_6 : tensor<16x1xf32> loc(#loc79)
      %65 = arith.mulf %52, %cst_5 : tensor<16x4xf32> loc(#loc80)
      %66 = tt.broadcast %64 : tensor<16x1xf32> -> tensor<16x4xf32> loc(#loc81)
      %67 = arith.mulf %66, %65 : tensor<16x4xf32> loc(#loc81)
      %68 = arith.addf %59, %67 : tensor<16x4xf32> loc(#loc82)
      %69 = arith.addf %32, %68 : tensor<16x4xf32> loc(#loc83)
      %70 = tt.broadcast %53 : tensor<16x1xi1> -> tensor<16x4xi1> loc(#loc84)
      %71 = arith.select %70, %cst_11, %69 : tensor<16x4xi1>, tensor<16x4xf32> loc(#loc84)
      %72 = arith.addi %15, %cst_0 : tensor<16x1xi64> loc(#loc85)
      %73 = arith.cmpi slt, %15, %cst_1 : tensor<16x1xi64> loc(#loc86)
      %74 = arith.select %73, %72, %15 : tensor<16x1xi1>, tensor<16x1xi64> loc(#loc87)
      %75 = arith.cmpi sge, %74, %cst_1 : tensor<16x1xi64> loc(#loc88)
      %76 = arith.cmpi slt, %74, %cst_0 : tensor<16x1xi64> loc(#loc89)
      %77 = arith.andi %75, %76 : tensor<16x1xi1> loc(#loc90)
      %78 = arith.xori %7, %cst_4 : tensor<16x1xi1> loc(#loc91)
      %79 = arith.ori %77, %78 : tensor<16x1xi1> loc(#loc92)
      %80 = tt.broadcast %79 : tensor<16x1xi1> -> tensor<16x4xi1> loc(#loc92)
      tt.assert %80, "index out of bounds: 0 <= tmp49 < 128256" : tensor<16x4xi1> loc(#loc93)
      %81 = arith.muli %74, %cst : tensor<16x1xi64> loc(#loc94)
      %82 = tt.broadcast %81 : tensor<16x1xi64> -> tensor<16x4xi64> loc(#loc94)
      %83 = arith.extsi %20 : tensor<1x4xi32> to tensor<1x4xi64> loc(#loc95)
      %84 = tt.broadcast %83 : tensor<1x4xi64> -> tensor<16x4xi64> loc(#loc95)
      %85 = arith.addi %84, %82 : tensor<16x4xi64> loc(#loc95)
      %86 = tt.splat %arg8 : !tt.ptr<f32> -> tensor<16x4x!tt.ptr<f32>> loc(#loc96)
      %87 = tt.addptr %86, %85 : tensor<16x4x!tt.ptr<f32>>, tensor<16x4xi64> loc(#loc96)
      %88 = tt.atomic_rmw fadd, relaxed, gpu, %87, %71, %30 : (tensor<16x4x!tt.ptr<f32>>, tensor<16x4xf32>, tensor<16x4xi1>) -> tensor<16x4xf32> loc(#loc97)
    } loc(#loc46)
    tt.return loc(#loc98)
  } loc(#loc)
} loc(#loc)
#loc2 = loc("./local_cache/m3/cm3xmogfip2jlis6ndgz42hay2axvskpa64eoxadbtfgyk5gvt2c.py":22:28)
#loc3 = loc("./local_cache/m3/cm3xmogfip2jlis6ndgz42hay2axvskpa64eoxadbtfgyk5gvt2c.py":22:33)
#loc4 = loc("./local_cache/m3/cm3xmogfip2jlis6ndgz42hay2axvskpa64eoxadbtfgyk5gvt2c.py":23:36)
#loc5 = loc("./local_cache/m3/cm3xmogfip2jlis6ndgz42hay2axvskpa64eoxadbtfgyk5gvt2c.py":23:44)
#loc6 = loc("./local_cache/m3/cm3xmogfip2jlis6ndgz42hay2axvskpa64eoxadbtfgyk5gvt2c.py":23:23)
#loc7 = loc("./local_cache/m3/cm3xmogfip2jlis6ndgz42hay2axvskpa64eoxadbtfgyk5gvt2c.py":24:21)
#loc8 = loc("./local_cache/m3/cm3xmogfip2jlis6ndgz42hay2axvskpa64eoxadbtfgyk5gvt2c.py":25:27)
#loc9 = loc("./local_cache/m3/cm3xmogfip2jlis6ndgz42hay2axvskpa64eoxadbtfgyk5gvt2c.py":25:37)
#loc10 = loc("./local_cache/m3/cm3xmogfip2jlis6ndgz42hay2axvskpa64eoxadbtfgyk5gvt2c.py":29:40)
#loc11 = loc("./local_cache/m3/cm3xmogfip2jlis6ndgz42hay2axvskpa64eoxadbtfgyk5gvt2c.py":30:31)
#loc12 = loc("./local_cache/m3/cm3xmogfip2jlis6ndgz42hay2axvskpa64eoxadbtfgyk5gvt2c.py":31:29)
#loc13 = loc("./local_cache/m3/cm3xmogfip2jlis6ndgz42hay2axvskpa64eoxadbtfgyk5gvt2c.py":35:46)
#loc14 = loc("./local_cache/m3/cm3xmogfip2jlis6ndgz42hay2axvskpa64eoxadbtfgyk5gvt2c.py":35:41)
#loc15 = loc("./local_cache/m3/cm3xmogfip2jlis6ndgz42hay2axvskpa64eoxadbtfgyk5gvt2c.py":35:34)
#loc16 = loc("./local_cache/m3/cm3xmogfip2jlis6ndgz42hay2axvskpa64eoxadbtfgyk5gvt2c.py":35:61)
#loc17 = loc("./local_cache/m3/cm3xmogfip2jlis6ndgz42hay2axvskpa64eoxadbtfgyk5gvt2c.py":35:51)
#loc18 = loc("./local_cache/m3/cm3xmogfip2jlis6ndgz42hay2axvskpa64eoxadbtfgyk5gvt2c.py":35:112)
#loc19 = loc("./local_cache/m3/cm3xmogfip2jlis6ndgz42hay2axvskpa64eoxadbtfgyk5gvt2c.py":36:34)
#loc20 = loc("./local_cache/m3/cm3xmogfip2jlis6ndgz42hay2axvskpa64eoxadbtfgyk5gvt2c.py":36:51)
#loc21 = loc("./local_cache/m3/cm3xmogfip2jlis6ndgz42hay2axvskpa64eoxadbtfgyk5gvt2c.py":36:112)
#loc22 = loc("./local_cache/m3/cm3xmogfip2jlis6ndgz42hay2axvskpa64eoxadbtfgyk5gvt2c.py":37:34)
#loc23 = loc("./local_cache/m3/cm3xmogfip2jlis6ndgz42hay2axvskpa64eoxadbtfgyk5gvt2c.py":37:51)
#loc24 = loc("./local_cache/m3/cm3xmogfip2jlis6ndgz42hay2axvskpa64eoxadbtfgyk5gvt2c.py":37:112)
#loc25 = loc("./local_cache/m3/cm3xmogfip2jlis6ndgz42hay2axvskpa64eoxadbtfgyk5gvt2c.py":38:34)
#loc26 = loc("./local_cache/m3/cm3xmogfip2jlis6ndgz42hay2axvskpa64eoxadbtfgyk5gvt2c.py":38:41)
#loc27 = loc("./local_cache/m3/cm3xmogfip2jlis6ndgz42hay2axvskpa64eoxadbtfgyk5gvt2c.py":38:94)
#loc28 = loc("./local_cache/m3/cm3xmogfip2jlis6ndgz42hay2axvskpa64eoxadbtfgyk5gvt2c.py":39:34)
#loc29 = loc("./local_cache/m3/cm3xmogfip2jlis6ndgz42hay2axvskpa64eoxadbtfgyk5gvt2c.py":39:51)
#loc30 = loc("./local_cache/m3/cm3xmogfip2jlis6ndgz42hay2axvskpa64eoxadbtfgyk5gvt2c.py":39:112)
#loc31 = loc("./local_cache/m3/cm3xmogfip2jlis6ndgz42hay2axvskpa64eoxadbtfgyk5gvt2c.py":40:22)
#loc32 = loc("./local_cache/m3/cm3xmogfip2jlis6ndgz42hay2axvskpa64eoxadbtfgyk5gvt2c.py":41:22)
#loc33 = loc("./local_cache/m3/cm3xmogfip2jlis6ndgz42hay2axvskpa64eoxadbtfgyk5gvt2c.py":42:22)
#loc34 = loc("./local_cache/m3/cm3xmogfip2jlis6ndgz42hay2axvskpa64eoxadbtfgyk5gvt2c.py":45:23)
#loc35 = loc("./local_cache/m3/cm3xmogfip2jlis6ndgz42hay2axvskpa64eoxadbtfgyk5gvt2c.py":47:25)
#loc36 = loc("./local_cache/m3/cm3xmogfip2jlis6ndgz42hay2axvskpa64eoxadbtfgyk5gvt2c.py":48:50)
#loc37 = loc("./local_cache/m3/cm3xmogfip2jlis6ndgz42hay2axvskpa64eoxadbtfgyk5gvt2c.py":48:8)
#loc38 = loc("/workspace/torch-compile-caching/.venv/lib/python3.11/site-packages/triton/language/standard.py":286:36)
#loc40 = loc("/workspace/torch-compile-caching/.venv/lib/python3.11/site-packages/triton/language/standard.py":256:15)
#loc41 = loc("./local_cache/m3/cm3xmogfip2jlis6ndgz42hay2axvskpa64eoxadbtfgyk5gvt2c.py":49:30)
#loc42 = loc("./local_cache/m3/cm3xmogfip2jlis6ndgz42hay2axvskpa64eoxadbtfgyk5gvt2c.py":50:31)
#loc43 = loc("./local_cache/m3/cm3xmogfip2jlis6ndgz42hay2axvskpa64eoxadbtfgyk5gvt2c.py":50:36)
#loc44 = loc("./local_cache/m3/cm3xmogfip2jlis6ndgz42hay2axvskpa64eoxadbtfgyk5gvt2c.py":51:31)
#loc45 = loc("./local_cache/m3/cm3xmogfip2jlis6ndgz42hay2axvskpa64eoxadbtfgyk5gvt2c.py":51:36)
#loc46 = loc("./local_cache/m3/cm3xmogfip2jlis6ndgz42hay2axvskpa64eoxadbtfgyk5gvt2c.py":52:40)
#loc47 = loc("./local_cache/m3/cm3xmogfip2jlis6ndgz42hay2axvskpa64eoxadbtfgyk5gvt2c.py":53:31)
#loc48 = loc("./local_cache/m3/cm3xmogfip2jlis6ndgz42hay2axvskpa64eoxadbtfgyk5gvt2c.py":54:29)
#loc49 = loc("./local_cache/m3/cm3xmogfip2jlis6ndgz42hay2axvskpa64eoxadbtfgyk5gvt2c.py":58:47)
#loc50 = loc("./local_cache/m3/cm3xmogfip2jlis6ndgz42hay2axvskpa64eoxadbtfgyk5gvt2c.py":58:42)
#loc51 = loc("./local_cache/m3/cm3xmogfip2jlis6ndgz42hay2axvskpa64eoxadbtfgyk5gvt2c.py":58:35)
#loc52 = loc("./local_cache/m3/cm3xmogfip2jlis6ndgz42hay2axvskpa64eoxadbtfgyk5gvt2c.py":58:62)
#loc53 = loc("./local_cache/m3/cm3xmogfip2jlis6ndgz42hay2axvskpa64eoxadbtfgyk5gvt2c.py":58:52)
#loc54 = loc("./local_cache/m3/cm3xmogfip2jlis6ndgz42hay2axvskpa64eoxadbtfgyk5gvt2c.py":58:114)
#loc55 = loc("./local_cache/m3/cm3xmogfip2jlis6ndgz42hay2axvskpa64eoxadbtfgyk5gvt2c.py":59:35)
#loc56 = loc("./local_cache/m3/cm3xmogfip2jlis6ndgz42hay2axvskpa64eoxadbtfgyk5gvt2c.py":59:52)
#loc57 = loc("./local_cache/m3/cm3xmogfip2jlis6ndgz42hay2axvskpa64eoxadbtfgyk5gvt2c.py":59:114)
#loc58 = loc("./local_cache/m3/cm3xmogfip2jlis6ndgz42hay2axvskpa64eoxadbtfgyk5gvt2c.py":60:35)
#loc59 = loc("./local_cache/m3/cm3xmogfip2jlis6ndgz42hay2axvskpa64eoxadbtfgyk5gvt2c.py":60:52)
#loc60 = loc("./local_cache/m3/cm3xmogfip2jlis6ndgz42hay2axvskpa64eoxadbtfgyk5gvt2c.py":60:114)
#loc61 = loc("./local_cache/m3/cm3xmogfip2jlis6ndgz42hay2axvskpa64eoxadbtfgyk5gvt2c.py":61:35)
#loc62 = loc("./local_cache/m3/cm3xmogfip2jlis6ndgz42hay2axvskpa64eoxadbtfgyk5gvt2c.py":61:52)
#loc63 = loc("./local_cache/m3/cm3xmogfip2jlis6ndgz42hay2axvskpa64eoxadbtfgyk5gvt2c.py":61:114)
#loc64 = loc("./local_cache/m3/cm3xmogfip2jlis6ndgz42hay2axvskpa64eoxadbtfgyk5gvt2c.py":62:35)
#loc65 = loc("./local_cache/m3/cm3xmogfip2jlis6ndgz42hay2axvskpa64eoxadbtfgyk5gvt2c.py":62:42)
#loc66 = loc("./local_cache/m3/cm3xmogfip2jlis6ndgz42hay2axvskpa64eoxadbtfgyk5gvt2c.py":62:95)
#loc67 = loc("./local_cache/m3/cm3xmogfip2jlis6ndgz42hay2axvskpa64eoxadbtfgyk5gvt2c.py":63:35)
#loc68 = loc("./local_cache/m3/cm3xmogfip2jlis6ndgz42hay2axvskpa64eoxadbtfgyk5gvt2c.py":63:52)
#loc69 = loc("./local_cache/m3/cm3xmogfip2jlis6ndgz42hay2axvskpa64eoxadbtfgyk5gvt2c.py":63:114)
#loc70 = loc("./local_cache/m3/cm3xmogfip2jlis6ndgz42hay2axvskpa64eoxadbtfgyk5gvt2c.py":65:25)
#loc71 = loc("./local_cache/m3/cm3xmogfip2jlis6ndgz42hay2axvskpa64eoxadbtfgyk5gvt2c.py":66:24)
#loc72 = loc("./local_cache/m3/cm3xmogfip2jlis6ndgz42hay2axvskpa64eoxadbtfgyk5gvt2c.py":67:24)
#loc73 = loc("./local_cache/m3/cm3xmogfip2jlis6ndgz42hay2axvskpa64eoxadbtfgyk5gvt2c.py":68:24)
#loc74 = loc("./local_cache/m3/cm3xmogfip2jlis6ndgz42hay2axvskpa64eoxadbtfgyk5gvt2c.py":70:24)
#loc75 = loc("./local_cache/m3/cm3xmogfip2jlis6ndgz42hay2axvskpa64eoxadbtfgyk5gvt2c.py":72:24)
#loc76 = loc("./local_cache/m3/cm3xmogfip2jlis6ndgz42hay2axvskpa64eoxadbtfgyk5gvt2c.py":73:24)
#loc77 = loc("./local_cache/m3/cm3xmogfip2jlis6ndgz42hay2axvskpa64eoxadbtfgyk5gvt2c.py":74:24)
#loc78 = loc("./local_cache/m3/cm3xmogfip2jlis6ndgz42hay2axvskpa64eoxadbtfgyk5gvt2c.py":75:24)
#loc79 = loc("./local_cache/m3/cm3xmogfip2jlis6ndgz42hay2axvskpa64eoxadbtfgyk5gvt2c.py":77:24)
#loc80 = loc("./local_cache/m3/cm3xmogfip2jlis6ndgz42hay2axvskpa64eoxadbtfgyk5gvt2c.py":80:24)
#loc81 = loc("./local_cache/m3/cm3xmogfip2jlis6ndgz42hay2axvskpa64eoxadbtfgyk5gvt2c.py":81:24)
#loc82 = loc("./local_cache/m3/cm3xmogfip2jlis6ndgz42hay2axvskpa64eoxadbtfgyk5gvt2c.py":82:24)
#loc83 = loc("./local_cache/m3/cm3xmogfip2jlis6ndgz42hay2axvskpa64eoxadbtfgyk5gvt2c.py":84:24)
#loc84 = loc("./local_cache/m3/cm3xmogfip2jlis6ndgz42hay2axvskpa64eoxadbtfgyk5gvt2c.py":87:39)
#loc85 = loc("./local_cache/m3/cm3xmogfip2jlis6ndgz42hay2axvskpa64eoxadbtfgyk5gvt2c.py":89:24)
#loc86 = loc("./local_cache/m3/cm3xmogfip2jlis6ndgz42hay2axvskpa64eoxadbtfgyk5gvt2c.py":90:24)
#loc87 = loc("./local_cache/m3/cm3xmogfip2jlis6ndgz42hay2axvskpa64eoxadbtfgyk5gvt2c.py":91:39)
#loc88 = loc("./local_cache/m3/cm3xmogfip2jlis6ndgz42hay2axvskpa64eoxadbtfgyk5gvt2c.py":92:32)
#loc89 = loc("./local_cache/m3/cm3xmogfip2jlis6ndgz42hay2axvskpa64eoxadbtfgyk5gvt2c.py":92:50)
#loc90 = loc("./local_cache/m3/cm3xmogfip2jlis6ndgz42hay2axvskpa64eoxadbtfgyk5gvt2c.py":92:42)
#loc91 = loc("./local_cache/m3/cm3xmogfip2jlis6ndgz42hay2axvskpa64eoxadbtfgyk5gvt2c.py":92:63)
#loc92 = loc("./local_cache/m3/cm3xmogfip2jlis6ndgz42hay2axvskpa64eoxadbtfgyk5gvt2c.py":92:61)
#loc93 = loc("./local_cache/m3/cm3xmogfip2jlis6ndgz42hay2axvskpa64eoxadbtfgyk5gvt2c.py":92:71)
#loc94 = loc("./local_cache/m3/cm3xmogfip2jlis6ndgz42hay2axvskpa64eoxadbtfgyk5gvt2c.py":93:62)
#loc95 = loc("./local_cache/m3/cm3xmogfip2jlis6ndgz42hay2axvskpa64eoxadbtfgyk5gvt2c.py":93:57)
#loc96 = loc("./local_cache/m3/cm3xmogfip2jlis6ndgz42hay2axvskpa64eoxadbtfgyk5gvt2c.py":93:34)
#loc97 = loc("./local_cache/m3/cm3xmogfip2jlis6ndgz42hay2axvskpa64eoxadbtfgyk5gvt2c.py":93:98)
#loc98 = loc("./local_cache/m3/cm3xmogfip2jlis6ndgz42hay2axvskpa64eoxadbtfgyk5gvt2c.py":52:4)
#loc99 = loc(callsite(#loc38 at #loc39))
#loc101 = loc(callsite(#loc40 at #loc38))
#loc102 = loc(callsite(#loc101 at #loc39))
