#loc = loc("/tmp/torchinductor_root/yk/cykee6clrweh6jbbxbmrpngyewr62qpmcg4hw7n6oizkget7ik2a.py":18:0)
#loc1 = loc(unknown)
#loc33 = loc("/tmp/torchinductor_root/yk/cykee6clrweh6jbbxbmrpngyewr62qpmcg4hw7n6oizkget7ik2a.py":49:27)
#loc41 = loc(callsite(#loc1 at #loc33))
module {
  tt.func public @triton_red_fused__to_copy_add_mul_sum_11(%arg0: !tt.ptr<f16> {tt.divisibility = 16 : i32} loc("/tmp/torchinductor_root/yk/cykee6clrweh6jbbxbmrpngyewr62qpmcg4hw7n6oizkget7ik2a.py":18:0), %arg1: !tt.ptr<f16> {tt.divisibility = 16 : i32} loc("/tmp/torchinductor_root/yk/cykee6clrweh6jbbxbmrpngyewr62qpmcg4hw7n6oizkget7ik2a.py":18:0), %arg2: !tt.ptr<f16> {tt.divisibility = 16 : i32} loc("/tmp/torchinductor_root/yk/cykee6clrweh6jbbxbmrpngyewr62qpmcg4hw7n6oizkget7ik2a.py":18:0), %arg3: !tt.ptr<f16> {tt.divisibility = 16 : i32} loc("/tmp/torchinductor_root/yk/cykee6clrweh6jbbxbmrpngyewr62qpmcg4hw7n6oizkget7ik2a.py":18:0), %arg4: !tt.ptr<f32> {tt.divisibility = 16 : i32} loc("/tmp/torchinductor_root/yk/cykee6clrweh6jbbxbmrpngyewr62qpmcg4hw7n6oizkget7ik2a.py":18:0), %arg5: !tt.ptr<f16> {tt.divisibility = 16 : i32} loc("/tmp/torchinductor_root/yk/cykee6clrweh6jbbxbmrpngyewr62qpmcg4hw7n6oizkget7ik2a.py":18:0), %arg6: i32 {tt.divisibility = 16 : i32} loc("/tmp/torchinductor_root/yk/cykee6clrweh6jbbxbmrpngyewr62qpmcg4hw7n6oizkget7ik2a.py":18:0), %arg7: i32 loc("/tmp/torchinductor_root/yk/cykee6clrweh6jbbxbmrpngyewr62qpmcg4hw7n6oizkget7ik2a.py":18:0)) attributes {noinline = false} {
    %cst = arith.constant dense<0.000000e+00> : tensor<1x64xf16> loc(#loc1)
    %c64_i32 = arith.constant 64 : i32 loc(#loc1)
    %c0_i32 = arith.constant 0 : i32 loc(#loc1)
    %cst_0 = arith.constant dense<4096> : tensor<1x64xi32> loc(#loc1)
    %cst_1 = arith.constant dense<0.000000e+00> : tensor<1x64xf32> loc(#loc1)
    %0 = tt.get_program_id x : i32 loc(#loc2)
    %1 = tt.make_range {end = 64 : i32, start = 0 : i32} : tensor<64xi32> loc(#loc3)
    %2 = tt.expand_dims %1 {axis = 0 : i32} : tensor<64xi32> -> tensor<1x64xi32> loc(#loc4)
    %3 = scf.for %arg8 = %c0_i32 to %arg7 step %c64_i32 iter_args(%arg9 = %cst_1) -> (tensor<1x64xf32>)  : i32 {
      %9 = tt.splat %arg8 : i32 -> tensor<1x64xi32> loc(#loc6)
      %10 = arith.addi %9, %2 : tensor<1x64xi32> loc(#loc6)
      %11 = tt.splat %arg7 : i32 -> tensor<1x64xi32> loc(#loc7)
      %12 = arith.cmpi slt, %10, %11 : tensor<1x64xi32> loc(#loc7)
      %13 = arith.muli %10, %cst_0 : tensor<1x64xi32> loc(#loc8)
      %14 = tt.splat %0 : i32 -> tensor<1x64xi32> loc(#loc39)
      %15 = arith.addi %14, %13 : tensor<1x64xi32> loc(#loc9)
      %16 = tt.splat %arg0 : !tt.ptr<f16> -> tensor<1x64x!tt.ptr<f16>> loc(#loc11)
      %17 = tt.addptr %16, %15 : tensor<1x64x!tt.ptr<f16>>, tensor<1x64xi32> loc(#loc11)
      %18 = tt.load %17, %12, %cst evictionPolicy = evict_first : tensor<1x64x!tt.ptr<f16>> loc(#loc12)
      %19 = arith.extf %18 : tensor<1x64xf16> to tensor<1x64xf32> loc(#loc13)
      %20 = tt.splat %arg1 : !tt.ptr<f16> -> tensor<1x64x!tt.ptr<f16>> loc(#loc14)
      %21 = tt.addptr %20, %15 : tensor<1x64x!tt.ptr<f16>>, tensor<1x64xi32> loc(#loc14)
      %22 = tt.load %21, %12, %cst evictionPolicy = evict_first : tensor<1x64x!tt.ptr<f16>> loc(#loc15)
      %23 = arith.extf %22 : tensor<1x64xf16> to tensor<1x64xf32> loc(#loc16)
      %24 = tt.splat %arg2 : !tt.ptr<f16> -> tensor<1x64x!tt.ptr<f16>> loc(#loc17)
      %25 = tt.addptr %24, %15 : tensor<1x64x!tt.ptr<f16>>, tensor<1x64xi32> loc(#loc17)
      %26 = tt.load %25, %12, %cst evictionPolicy = evict_first : tensor<1x64x!tt.ptr<f16>> loc(#loc18)
      %27 = arith.extf %26 : tensor<1x64xf16> to tensor<1x64xf32> loc(#loc19)
      %28 = tt.splat %arg3 : !tt.ptr<f16> -> tensor<1x64x!tt.ptr<f16>> loc(#loc20)
      %29 = tt.addptr %28, %15 : tensor<1x64x!tt.ptr<f16>>, tensor<1x64xi32> loc(#loc20)
      %30 = tt.load %29, %12, %cst evictionPolicy = evict_first : tensor<1x64x!tt.ptr<f16>> loc(#loc21)
      %31 = arith.extf %30 : tensor<1x64xf16> to tensor<1x64xf32> loc(#loc22)
      %32 = tt.splat %arg4 : !tt.ptr<f32> -> tensor<1x64x!tt.ptr<f32>> loc(#loc23)
      %33 = tt.addptr %32, %10 : tensor<1x64x!tt.ptr<f32>>, tensor<1x64xi32> loc(#loc23)
      %34 = tt.load %33, %12, %cst_1 evictionPolicy = evict_last : tensor<1x64x!tt.ptr<f32>> loc(#loc24)
      %35 = arith.addf %19, %23 : tensor<1x64xf32> loc(#loc25)
      %36 = arith.addf %35, %27 : tensor<1x64xf32> loc(#loc26)
      %37 = arith.mulf %31, %34 : tensor<1x64xf32> loc(#loc27)
      %38 = arith.mulf %36, %37 : tensor<1x64xf32> loc(#loc28)
      %39 = arith.addf %arg9, %38 : tensor<1x64xf32> loc(#loc29)
      %40 = arith.select %12, %39, %arg9 : tensor<1x64xi1>, tensor<1x64xf32> loc(#loc30)
      scf.yield %40 : tensor<1x64xf32> loc(#loc31)
    } loc(#loc5)
    %4 = "tt.reduce"(%3) <{axis = 1 : i32}> ({
    ^bb0(%arg8: f32 loc(callsite(#loc1 at #loc33)), %arg9: f32 loc(callsite(#loc1 at #loc33))):
      %9 = arith.addf %arg8, %arg9 : f32 loc(#loc43)
      tt.reduce.return %9 : f32 loc(#loc40)
    }) : (tensor<1x64xf32>) -> tensor<1xf32> loc(#loc40)
    %5 = tt.expand_dims %4 {axis = 1 : i32} : tensor<1xf32> -> tensor<1x1xf32> loc(#loc35)
    %6 = tt.addptr %arg5, %0 : !tt.ptr<f16>, i32 loc(#loc36)
    %7 = tt.splat %6 : !tt.ptr<f16> -> tensor<1x1x!tt.ptr<f16>> loc(#loc36)
    %8 = arith.truncf %5 : tensor<1x1xf32> to tensor<1x1xf16> loc(#loc37)
    tt.store %7, %8 : tensor<1x1x!tt.ptr<f16>> loc(#loc37)
    tt.return loc(#loc38)
  } loc(#loc)
} loc(#loc)
#loc2 = loc("/tmp/torchinductor_root/yk/cykee6clrweh6jbbxbmrpngyewr62qpmcg4hw7n6oizkget7ik2a.py":22:28)
#loc3 = loc("/tmp/torchinductor_root/yk/cykee6clrweh6jbbxbmrpngyewr62qpmcg4hw7n6oizkget7ik2a.py":25:27)
#loc4 = loc("/tmp/torchinductor_root/yk/cykee6clrweh6jbbxbmrpngyewr62qpmcg4hw7n6oizkget7ik2a.py":25:37)
#loc5 = loc("/tmp/torchinductor_root/yk/cykee6clrweh6jbbxbmrpngyewr62qpmcg4hw7n6oizkget7ik2a.py":29:40)
#loc6 = loc("/tmp/torchinductor_root/yk/cykee6clrweh6jbbxbmrpngyewr62qpmcg4hw7n6oizkget7ik2a.py":30:31)
#loc7 = loc("/tmp/torchinductor_root/yk/cykee6clrweh6jbbxbmrpngyewr62qpmcg4hw7n6oizkget7ik2a.py":31:29)
#loc8 = loc("/tmp/torchinductor_root/yk/cykee6clrweh6jbbxbmrpngyewr62qpmcg4hw7n6oizkget7ik2a.py":35:44)
#loc9 = loc("/tmp/torchinductor_root/yk/cykee6clrweh6jbbxbmrpngyewr62qpmcg4hw7n6oizkget7ik2a.py":35:39)
#loc10 = loc("/tmp/torchinductor_root/yk/cykee6clrweh6jbbxbmrpngyewr62qpmcg4hw7n6oizkget7ik2a.py":23:23)
#loc11 = loc("/tmp/torchinductor_root/yk/cykee6clrweh6jbbxbmrpngyewr62qpmcg4hw7n6oizkget7ik2a.py":35:34)
#loc12 = loc("/tmp/torchinductor_root/yk/cykee6clrweh6jbbxbmrpngyewr62qpmcg4hw7n6oizkget7ik2a.py":35:51)
#loc13 = loc("/tmp/torchinductor_root/yk/cykee6clrweh6jbbxbmrpngyewr62qpmcg4hw7n6oizkget7ik2a.py":35:105)
#loc14 = loc("/tmp/torchinductor_root/yk/cykee6clrweh6jbbxbmrpngyewr62qpmcg4hw7n6oizkget7ik2a.py":36:34)
#loc15 = loc("/tmp/torchinductor_root/yk/cykee6clrweh6jbbxbmrpngyewr62qpmcg4hw7n6oizkget7ik2a.py":36:51)
#loc16 = loc("/tmp/torchinductor_root/yk/cykee6clrweh6jbbxbmrpngyewr62qpmcg4hw7n6oizkget7ik2a.py":36:105)
#loc17 = loc("/tmp/torchinductor_root/yk/cykee6clrweh6jbbxbmrpngyewr62qpmcg4hw7n6oizkget7ik2a.py":37:34)
#loc18 = loc("/tmp/torchinductor_root/yk/cykee6clrweh6jbbxbmrpngyewr62qpmcg4hw7n6oizkget7ik2a.py":37:51)
#loc19 = loc("/tmp/torchinductor_root/yk/cykee6clrweh6jbbxbmrpngyewr62qpmcg4hw7n6oizkget7ik2a.py":37:105)
#loc20 = loc("/tmp/torchinductor_root/yk/cykee6clrweh6jbbxbmrpngyewr62qpmcg4hw7n6oizkget7ik2a.py":38:34)
#loc21 = loc("/tmp/torchinductor_root/yk/cykee6clrweh6jbbxbmrpngyewr62qpmcg4hw7n6oizkget7ik2a.py":38:51)
#loc22 = loc("/tmp/torchinductor_root/yk/cykee6clrweh6jbbxbmrpngyewr62qpmcg4hw7n6oizkget7ik2a.py":38:105)
#loc23 = loc("/tmp/torchinductor_root/yk/cykee6clrweh6jbbxbmrpngyewr62qpmcg4hw7n6oizkget7ik2a.py":39:34)
#loc24 = loc("/tmp/torchinductor_root/yk/cykee6clrweh6jbbxbmrpngyewr62qpmcg4hw7n6oizkget7ik2a.py":39:41)
#loc25 = loc("/tmp/torchinductor_root/yk/cykee6clrweh6jbbxbmrpngyewr62qpmcg4hw7n6oizkget7ik2a.py":40:22)
#loc26 = loc("/tmp/torchinductor_root/yk/cykee6clrweh6jbbxbmrpngyewr62qpmcg4hw7n6oizkget7ik2a.py":41:22)
#loc27 = loc("/tmp/torchinductor_root/yk/cykee6clrweh6jbbxbmrpngyewr62qpmcg4hw7n6oizkget7ik2a.py":43:22)
#loc28 = loc("/tmp/torchinductor_root/yk/cykee6clrweh6jbbxbmrpngyewr62qpmcg4hw7n6oizkget7ik2a.py":45:23)
#loc29 = loc("/tmp/torchinductor_root/yk/cykee6clrweh6jbbxbmrpngyewr62qpmcg4hw7n6oizkget7ik2a.py":47:25)
#loc30 = loc("/tmp/torchinductor_root/yk/cykee6clrweh6jbbxbmrpngyewr62qpmcg4hw7n6oizkget7ik2a.py":48:42)
#loc31 = loc("/tmp/torchinductor_root/yk/cykee6clrweh6jbbxbmrpngyewr62qpmcg4hw7n6oizkget7ik2a.py":48:8)
#loc32 = loc("/workspace/torch-compile-caching/.venv/lib/python3.11/site-packages/triton/language/standard.py":286:36)
#loc34 = loc("/workspace/torch-compile-caching/.venv/lib/python3.11/site-packages/triton/language/standard.py":256:15)
#loc35 = loc("/tmp/torchinductor_root/yk/cykee6clrweh6jbbxbmrpngyewr62qpmcg4hw7n6oizkget7ik2a.py":49:30)
#loc36 = loc("/tmp/torchinductor_root/yk/cykee6clrweh6jbbxbmrpngyewr62qpmcg4hw7n6oizkget7ik2a.py":50:25)
#loc37 = loc("/tmp/torchinductor_root/yk/cykee6clrweh6jbbxbmrpngyewr62qpmcg4hw7n6oizkget7ik2a.py":50:37)
#loc38 = loc("/tmp/torchinductor_root/yk/cykee6clrweh6jbbxbmrpngyewr62qpmcg4hw7n6oizkget7ik2a.py":50:4)
#loc39 = loc(fused[#loc9, #loc10])
#loc40 = loc(callsite(#loc32 at #loc33))
#loc42 = loc(callsite(#loc34 at #loc32))
#loc43 = loc(callsite(#loc42 at #loc33))
