#loc = loc("./local_cache/xb/cxbiz6a53yuzne7tuzqghtuipdavwtl2jp3relur3ksonmtcg44q.py":18:0)
#loc1 = loc(unknown)
#loc28 = loc("./local_cache/xb/cxbiz6a53yuzne7tuzqghtuipdavwtl2jp3relur3ksonmtcg44q.py":43:25)
#loc59 = loc(callsite(#loc1 at #loc28))
module {
  tt.func public @triton_red_fused__to_copy_add_mean_mul_pow_rsqrt_6(%arg0: !tt.ptr<f32> {tt.divisibility = 16 : i32} loc("./local_cache/xb/cxbiz6a53yuzne7tuzqghtuipdavwtl2jp3relur3ksonmtcg44q.py":18:0), %arg1: !tt.ptr<f16> {tt.divisibility = 16 : i32} loc("./local_cache/xb/cxbiz6a53yuzne7tuzqghtuipdavwtl2jp3relur3ksonmtcg44q.py":18:0), %arg2: !tt.ptr<f16> {tt.divisibility = 16 : i32} loc("./local_cache/xb/cxbiz6a53yuzne7tuzqghtuipdavwtl2jp3relur3ksonmtcg44q.py":18:0), %arg3: !tt.ptr<f16> {tt.divisibility = 16 : i32} loc("./local_cache/xb/cxbiz6a53yuzne7tuzqghtuipdavwtl2jp3relur3ksonmtcg44q.py":18:0), %arg4: !tt.ptr<f16> {tt.divisibility = 16 : i32} loc("./local_cache/xb/cxbiz6a53yuzne7tuzqghtuipdavwtl2jp3relur3ksonmtcg44q.py":18:0), %arg5: i32 loc("./local_cache/xb/cxbiz6a53yuzne7tuzqghtuipdavwtl2jp3relur3ksonmtcg44q.py":18:0), %arg6: i32 {tt.divisibility = 16 : i32} loc("./local_cache/xb/cxbiz6a53yuzne7tuzqghtuipdavwtl2jp3relur3ksonmtcg44q.py":18:0)) attributes {noinline = false} {
    %cst = arith.constant dense<0.000000e+00> : tensor<1x64xf16> loc(#loc1)
    %cst_0 = arith.constant dense<0.000000e+00> : tensor<4x64xf16> loc(#loc1)
    %c64_i32 = arith.constant 64 : i32 loc(#loc1)
    %c4096_i32 = arith.constant 4096 : i32 loc(#loc1)
    %c0_i32 = arith.constant 0 : i32 loc(#loc1)
    %cst_1 = arith.constant dense<9.99999974E-6> : tensor<4x1xf32> loc(#loc1)
    %cst_2 = arith.constant dense<4.096000e+03> : tensor<4x1xf32> loc(#loc1)
    %cst_3 = arith.constant dense<4096> : tensor<4x1xi32> loc(#loc1)
    %cst_4 = arith.constant dense<4096> : tensor<1x64xi32> loc(#loc1)
    %cst_5 = arith.constant dense<0.000000e+00> : tensor<4x64xf32> loc(#loc1)
    %c4_i32 = arith.constant 4 : i32 loc(#loc1)
    %0 = tt.get_program_id x : i32 loc(#loc2)
    %1 = arith.muli %0, %c4_i32 : i32 loc(#loc3)
    %2 = tt.make_range {end = 4 : i32, start = 0 : i32} : tensor<4xi32> loc(#loc4)
    %3 = tt.expand_dims %2 {axis = 1 : i32} : tensor<4xi32> -> tensor<4x1xi32> loc(#loc5)
    %4 = tt.splat %1 : i32 -> tensor<4x1xi32> loc(#loc6)
    %5 = arith.addi %4, %3 : tensor<4x1xi32> loc(#loc6)
    %6 = tt.splat %arg5 : i32 -> tensor<4x1xi32> loc(#loc7)
    %7 = arith.cmpi slt, %5, %6 : tensor<4x1xi32> loc(#loc7)
    %8 = tt.make_range {end = 64 : i32, start = 0 : i32} : tensor<64xi32> loc(#loc8)
    %9 = tt.expand_dims %8 {axis = 0 : i32} : tensor<64xi32> -> tensor<1x64xi32> loc(#loc9)
    %10 = scf.for %arg7 = %c0_i32 to %c4096_i32 step %c64_i32 iter_args(%arg8 = %cst_5) -> (tensor<4x64xf32>)  : i32 {
      %18 = tt.splat %arg7 : i32 -> tensor<1x64xi32> loc(#loc11)
      %19 = arith.addi %18, %9 : tensor<1x64xi32> loc(#loc11)
      %20 = arith.cmpi slt, %19, %cst_4 : tensor<1x64xi32> loc(#loc12)
      %21 = arith.muli %5, %cst_3 : tensor<4x1xi32> loc(#loc13)
      %22 = tt.broadcast %19 : tensor<1x64xi32> -> tensor<4x64xi32> loc(#loc14)
      %23 = tt.broadcast %21 : tensor<4x1xi32> -> tensor<4x64xi32> loc(#loc14)
      %24 = arith.addi %22, %23 : tensor<4x64xi32> loc(#loc14)
      %25 = tt.splat %arg1 : !tt.ptr<f16> -> tensor<4x64x!tt.ptr<f16>> loc(#loc15)
      %26 = tt.addptr %25, %24 : tensor<4x64x!tt.ptr<f16>>, tensor<4x64xi32> loc(#loc15)
      %27 = tt.broadcast %20 : tensor<1x64xi1> -> tensor<4x64xi1> loc(#loc16)
      %28 = tt.broadcast %7 : tensor<4x1xi1> -> tensor<4x64xi1> loc(#loc16)
      %29 = arith.andi %27, %28 : tensor<4x64xi1> loc(#loc16)
      %30 = tt.load %26, %29, %cst_0 evictionPolicy = evict_last : tensor<4x64x!tt.ptr<f16>> loc(#loc17)
      %31 = arith.extf %30 : tensor<4x64xf16> to tensor<4x64xf32> loc(#loc18)
      %32 = tt.splat %arg2 : !tt.ptr<f16> -> tensor<4x64x!tt.ptr<f16>> loc(#loc19)
      %33 = tt.addptr %32, %24 : tensor<4x64x!tt.ptr<f16>>, tensor<4x64xi32> loc(#loc19)
      %34 = tt.load %33, %29, %cst_0 evictionPolicy = evict_last : tensor<4x64x!tt.ptr<f16>> loc(#loc20)
      %35 = arith.extf %34 : tensor<4x64xf16> to tensor<4x64xf32> loc(#loc21)
      %36 = arith.addf %31, %35 : tensor<4x64xf32> loc(#loc22)
      %37 = arith.mulf %36, %36 : tensor<4x64xf32> loc(#loc23)
      %38 = arith.addf %arg8, %37 : tensor<4x64xf32> loc(#loc24)
      %39 = arith.select %29, %38, %arg8 : tensor<4x64xi1>, tensor<4x64xf32> loc(#loc25)
      scf.yield %39 : tensor<4x64xf32> loc(#loc26)
    } loc(#loc10)
    %11 = "tt.reduce"(%10) <{axis = 1 : i32}> ({
    ^bb0(%arg7: f32 loc(callsite(#loc1 at #loc28)), %arg8: f32 loc(callsite(#loc1 at #loc28))):
      %18 = arith.addf %arg7, %arg8 : f32 loc(#loc61)
      tt.reduce.return %18 : f32 loc(#loc58)
    }) : (tensor<4x64xf32>) -> tensor<4xf32> loc(#loc58)
    %12 = tt.expand_dims %11 {axis = 1 : i32} : tensor<4xf32> -> tensor<4x1xf32> loc(#loc30)
    %13 = arith.divf %12, %cst_2 : tensor<4x1xf32> loc(#loc31)
    %14 = arith.addf %13, %cst_1 : tensor<4x1xf32> loc(#loc32)
    %15 = tt.extern_elementwise %14 {libname = "", libpath = "", pure = true, symbol = "__nv_rsqrtf"} : (tensor<4x1xf32>) -> tensor<4x1xf32> loc(#loc33)
    gpu.barrier loc(#loc34)
    %16 = tt.splat %arg0 : !tt.ptr<f32> -> tensor<4x1x!tt.ptr<f32>> loc(#loc35)
    %17 = tt.addptr %16, %5 : tensor<4x1x!tt.ptr<f32>>, tensor<4x1xi32> loc(#loc35)
    tt.store %17, %15, %7 : tensor<4x1x!tt.ptr<f32>> loc(#loc36)
    scf.for %arg7 = %c0_i32 to %c4096_i32 step %c64_i32  : i32 {
      %18 = tt.splat %arg7 : i32 -> tensor<1x64xi32> loc(#loc38)
      %19 = arith.addi %18, %9 : tensor<1x64xi32> loc(#loc38)
      %20 = arith.cmpi slt, %19, %cst_4 : tensor<1x64xi32> loc(#loc39)
      %21 = tt.splat %arg3 : !tt.ptr<f16> -> tensor<1x64x!tt.ptr<f16>> loc(#loc40)
      %22 = tt.addptr %21, %19 : tensor<1x64x!tt.ptr<f16>>, tensor<1x64xi32> loc(#loc40)
      %23 = tt.load %22, %20, %cst evictionPolicy = evict_last : tensor<1x64x!tt.ptr<f16>> loc(#loc41)
      %24 = arith.extf %23 : tensor<1x64xf16> to tensor<1x64xf32> loc(#loc42)
      %25 = arith.muli %5, %cst_3 : tensor<4x1xi32> loc(#loc43)
      %26 = tt.broadcast %19 : tensor<1x64xi32> -> tensor<4x64xi32> loc(#loc44)
      %27 = tt.broadcast %25 : tensor<4x1xi32> -> tensor<4x64xi32> loc(#loc44)
      %28 = arith.addi %26, %27 : tensor<4x64xi32> loc(#loc44)
      %29 = tt.splat %arg1 : !tt.ptr<f16> -> tensor<4x64x!tt.ptr<f16>> loc(#loc45)
      %30 = tt.addptr %29, %28 : tensor<4x64x!tt.ptr<f16>>, tensor<4x64xi32> loc(#loc45)
      %31 = tt.broadcast %20 : tensor<1x64xi1> -> tensor<4x64xi1> loc(#loc46)
      %32 = tt.broadcast %7 : tensor<4x1xi1> -> tensor<4x64xi1> loc(#loc46)
      %33 = arith.andi %31, %32 : tensor<4x64xi1> loc(#loc46)
      %34 = tt.load %30, %33, %cst_0 evictionPolicy = evict_first : tensor<4x64x!tt.ptr<f16>> loc(#loc47)
      %35 = arith.extf %34 : tensor<4x64xf16> to tensor<4x64xf32> loc(#loc48)
      %36 = tt.splat %arg2 : !tt.ptr<f16> -> tensor<4x64x!tt.ptr<f16>> loc(#loc49)
      %37 = tt.addptr %36, %28 : tensor<4x64x!tt.ptr<f16>>, tensor<4x64xi32> loc(#loc49)
      %38 = tt.load %37, %33, %cst_0 evictionPolicy = evict_first : tensor<4x64x!tt.ptr<f16>> loc(#loc50)
      %39 = arith.extf %38 : tensor<4x64xf16> to tensor<4x64xf32> loc(#loc51)
      %40 = arith.addf %35, %39 : tensor<4x64xf32> loc(#loc52)
      %41 = tt.broadcast %15 : tensor<4x1xf32> -> tensor<4x64xf32> loc(#loc53)
      %42 = arith.mulf %40, %41 : tensor<4x64xf32> loc(#loc53)
      %43 = tt.broadcast %24 : tensor<1x64xf32> -> tensor<4x64xf32> loc(#loc54)
      %44 = arith.mulf %43, %42 : tensor<4x64xf32> loc(#loc54)
      %45 = tt.splat %arg4 : !tt.ptr<f16> -> tensor<4x64x!tt.ptr<f16>> loc(#loc55)
      %46 = tt.addptr %45, %28 : tensor<4x64x!tt.ptr<f16>>, tensor<4x64xi32> loc(#loc55)
      %47 = arith.truncf %44 : tensor<4x64xf32> to tensor<4x64xf16> loc(#loc56)
      tt.store %46, %47, %33 : tensor<4x64x!tt.ptr<f16>> loc(#loc56)
    } loc(#loc37)
    tt.return loc(#loc57)
  } loc(#loc)
} loc(#loc)
#loc2 = loc("./local_cache/xb/cxbiz6a53yuzne7tuzqghtuipdavwtl2jp3relur3ksonmtcg44q.py":22:28)
#loc3 = loc("./local_cache/xb/cxbiz6a53yuzne7tuzqghtuipdavwtl2jp3relur3ksonmtcg44q.py":22:33)
#loc4 = loc("./local_cache/xb/cxbiz6a53yuzne7tuzqghtuipdavwtl2jp3relur3ksonmtcg44q.py":23:36)
#loc5 = loc("./local_cache/xb/cxbiz6a53yuzne7tuzqghtuipdavwtl2jp3relur3ksonmtcg44q.py":23:44)
#loc6 = loc("./local_cache/xb/cxbiz6a53yuzne7tuzqghtuipdavwtl2jp3relur3ksonmtcg44q.py":23:23)
#loc7 = loc("./local_cache/xb/cxbiz6a53yuzne7tuzqghtuipdavwtl2jp3relur3ksonmtcg44q.py":24:21)
#loc8 = loc("./local_cache/xb/cxbiz6a53yuzne7tuzqghtuipdavwtl2jp3relur3ksonmtcg44q.py":25:27)
#loc9 = loc("./local_cache/xb/cxbiz6a53yuzne7tuzqghtuipdavwtl2jp3relur3ksonmtcg44q.py":25:37)
#loc10 = loc("./local_cache/xb/cxbiz6a53yuzne7tuzqghtuipdavwtl2jp3relur3ksonmtcg44q.py":29:40)
#loc11 = loc("./local_cache/xb/cxbiz6a53yuzne7tuzqghtuipdavwtl2jp3relur3ksonmtcg44q.py":30:31)
#loc12 = loc("./local_cache/xb/cxbiz6a53yuzne7tuzqghtuipdavwtl2jp3relur3ksonmtcg44q.py":31:29)
#loc13 = loc("./local_cache/xb/cxbiz6a53yuzne7tuzqghtuipdavwtl2jp3relur3ksonmtcg44q.py":35:46)
#loc14 = loc("./local_cache/xb/cxbiz6a53yuzne7tuzqghtuipdavwtl2jp3relur3ksonmtcg44q.py":35:41)
#loc15 = loc("./local_cache/xb/cxbiz6a53yuzne7tuzqghtuipdavwtl2jp3relur3ksonmtcg44q.py":35:34)
#loc16 = loc("./local_cache/xb/cxbiz6a53yuzne7tuzqghtuipdavwtl2jp3relur3ksonmtcg44q.py":35:61)
#loc17 = loc("./local_cache/xb/cxbiz6a53yuzne7tuzqghtuipdavwtl2jp3relur3ksonmtcg44q.py":35:51)
#loc18 = loc("./local_cache/xb/cxbiz6a53yuzne7tuzqghtuipdavwtl2jp3relur3ksonmtcg44q.py":35:112)
#loc19 = loc("./local_cache/xb/cxbiz6a53yuzne7tuzqghtuipdavwtl2jp3relur3ksonmtcg44q.py":36:34)
#loc20 = loc("./local_cache/xb/cxbiz6a53yuzne7tuzqghtuipdavwtl2jp3relur3ksonmtcg44q.py":36:51)
#loc21 = loc("./local_cache/xb/cxbiz6a53yuzne7tuzqghtuipdavwtl2jp3relur3ksonmtcg44q.py":36:112)
#loc22 = loc("./local_cache/xb/cxbiz6a53yuzne7tuzqghtuipdavwtl2jp3relur3ksonmtcg44q.py":37:22)
#loc23 = loc("./local_cache/xb/cxbiz6a53yuzne7tuzqghtuipdavwtl2jp3relur3ksonmtcg44q.py":39:22)
#loc24 = loc("./local_cache/xb/cxbiz6a53yuzne7tuzqghtuipdavwtl2jp3relur3ksonmtcg44q.py":41:23)
#loc25 = loc("./local_cache/xb/cxbiz6a53yuzne7tuzqghtuipdavwtl2jp3relur3ksonmtcg44q.py":42:48)
#loc26 = loc("./local_cache/xb/cxbiz6a53yuzne7tuzqghtuipdavwtl2jp3relur3ksonmtcg44q.py":42:8)
#loc27 = loc("/workspace/torch-compile-caching/.venv/lib/python3.11/site-packages/triton/language/standard.py":286:36)
#loc29 = loc("/workspace/torch-compile-caching/.venv/lib/python3.11/site-packages/triton/language/standard.py":256:15)
#loc30 = loc("./local_cache/xb/cxbiz6a53yuzne7tuzqghtuipdavwtl2jp3relur3ksonmtcg44q.py":43:28)
#loc31 = loc("./local_cache/xb/cxbiz6a53yuzne7tuzqghtuipdavwtl2jp3relur3ksonmtcg44q.py":45:19)
#loc32 = loc("./local_cache/xb/cxbiz6a53yuzne7tuzqghtuipdavwtl2jp3relur3ksonmtcg44q.py":47:19)
#loc33 = loc("./local_cache/xb/cxbiz6a53yuzne7tuzqghtuipdavwtl2jp3relur3ksonmtcg44q.py":48:28)
#loc34 = loc("./local_cache/xb/cxbiz6a53yuzne7tuzqghtuipdavwtl2jp3relur3ksonmtcg44q.py":49:4)
#loc35 = loc("./local_cache/xb/cxbiz6a53yuzne7tuzqghtuipdavwtl2jp3relur3ksonmtcg44q.py":50:28)
#loc36 = loc("./local_cache/xb/cxbiz6a53yuzne7tuzqghtuipdavwtl2jp3relur3ksonmtcg44q.py":50:40)
#loc37 = loc("./local_cache/xb/cxbiz6a53yuzne7tuzqghtuipdavwtl2jp3relur3ksonmtcg44q.py":51:40)
#loc38 = loc("./local_cache/xb/cxbiz6a53yuzne7tuzqghtuipdavwtl2jp3relur3ksonmtcg44q.py":52:31)
#loc39 = loc("./local_cache/xb/cxbiz6a53yuzne7tuzqghtuipdavwtl2jp3relur3ksonmtcg44q.py":53:29)
#loc40 = loc("./local_cache/xb/cxbiz6a53yuzne7tuzqghtuipdavwtl2jp3relur3ksonmtcg44q.py":57:35)
#loc41 = loc("./local_cache/xb/cxbiz6a53yuzne7tuzqghtuipdavwtl2jp3relur3ksonmtcg44q.py":57:42)
#loc42 = loc("./local_cache/xb/cxbiz6a53yuzne7tuzqghtuipdavwtl2jp3relur3ksonmtcg44q.py":57:95)
#loc43 = loc("./local_cache/xb/cxbiz6a53yuzne7tuzqghtuipdavwtl2jp3relur3ksonmtcg44q.py":58:47)
#loc44 = loc("./local_cache/xb/cxbiz6a53yuzne7tuzqghtuipdavwtl2jp3relur3ksonmtcg44q.py":58:42)
#loc45 = loc("./local_cache/xb/cxbiz6a53yuzne7tuzqghtuipdavwtl2jp3relur3ksonmtcg44q.py":58:35)
#loc46 = loc("./local_cache/xb/cxbiz6a53yuzne7tuzqghtuipdavwtl2jp3relur3ksonmtcg44q.py":58:62)
#loc47 = loc("./local_cache/xb/cxbiz6a53yuzne7tuzqghtuipdavwtl2jp3relur3ksonmtcg44q.py":58:52)
#loc48 = loc("./local_cache/xb/cxbiz6a53yuzne7tuzqghtuipdavwtl2jp3relur3ksonmtcg44q.py":58:114)
#loc49 = loc("./local_cache/xb/cxbiz6a53yuzne7tuzqghtuipdavwtl2jp3relur3ksonmtcg44q.py":59:35)
#loc50 = loc("./local_cache/xb/cxbiz6a53yuzne7tuzqghtuipdavwtl2jp3relur3ksonmtcg44q.py":59:52)
#loc51 = loc("./local_cache/xb/cxbiz6a53yuzne7tuzqghtuipdavwtl2jp3relur3ksonmtcg44q.py":59:114)
#loc52 = loc("./local_cache/xb/cxbiz6a53yuzne7tuzqghtuipdavwtl2jp3relur3ksonmtcg44q.py":60:24)
#loc53 = loc("./local_cache/xb/cxbiz6a53yuzne7tuzqghtuipdavwtl2jp3relur3ksonmtcg44q.py":62:24)
#loc54 = loc("./local_cache/xb/cxbiz6a53yuzne7tuzqghtuipdavwtl2jp3relur3ksonmtcg44q.py":64:24)
#loc55 = loc("./local_cache/xb/cxbiz6a53yuzne7tuzqghtuipdavwtl2jp3relur3ksonmtcg44q.py":65:29)
#loc56 = loc("./local_cache/xb/cxbiz6a53yuzne7tuzqghtuipdavwtl2jp3relur3ksonmtcg44q.py":65:53)
#loc57 = loc("./local_cache/xb/cxbiz6a53yuzne7tuzqghtuipdavwtl2jp3relur3ksonmtcg44q.py":51:4)
#loc58 = loc(callsite(#loc27 at #loc28))
#loc60 = loc(callsite(#loc29 at #loc27))
#loc61 = loc(callsite(#loc60 at #loc28))
