#loc = loc("/tmp/torchinductor_root/z4/cz4raaxbxby7dltdikbrpmyoxvbaywto5wc2t7rus6zhnzkqrtmy.py":18:0)
#loc1 = loc(unknown)
#loc52 = loc("/tmp/torchinductor_root/z4/cz4raaxbxby7dltdikbrpmyoxvbaywto5wc2t7rus6zhnzkqrtmy.py":63:27)
#loc55 = loc("/tmp/torchinductor_root/z4/cz4raaxbxby7dltdikbrpmyoxvbaywto5wc2t7rus6zhnzkqrtmy.py":64:27)
#loc63 = loc(callsite(#loc1 at #loc52))
#loc66 = loc(callsite(#loc1 at #loc55))
module {
  tt.func public @triton_red_fused__to_copy_add_mul_sum_14(%arg0: !tt.ptr<f16> {tt.divisibility = 16 : i32} loc("/tmp/torchinductor_root/z4/cz4raaxbxby7dltdikbrpmyoxvbaywto5wc2t7rus6zhnzkqrtmy.py":18:0), %arg1: !tt.ptr<f16> {tt.divisibility = 16 : i32} loc("/tmp/torchinductor_root/z4/cz4raaxbxby7dltdikbrpmyoxvbaywto5wc2t7rus6zhnzkqrtmy.py":18:0), %arg2: !tt.ptr<f16> {tt.divisibility = 16 : i32} loc("/tmp/torchinductor_root/z4/cz4raaxbxby7dltdikbrpmyoxvbaywto5wc2t7rus6zhnzkqrtmy.py":18:0), %arg3: !tt.ptr<f16> {tt.divisibility = 16 : i32} loc("/tmp/torchinductor_root/z4/cz4raaxbxby7dltdikbrpmyoxvbaywto5wc2t7rus6zhnzkqrtmy.py":18:0), %arg4: !tt.ptr<f32> {tt.divisibility = 16 : i32} loc("/tmp/torchinductor_root/z4/cz4raaxbxby7dltdikbrpmyoxvbaywto5wc2t7rus6zhnzkqrtmy.py":18:0), %arg5: !tt.ptr<f16> {tt.divisibility = 16 : i32} loc("/tmp/torchinductor_root/z4/cz4raaxbxby7dltdikbrpmyoxvbaywto5wc2t7rus6zhnzkqrtmy.py":18:0), %arg6: !tt.ptr<f16> {tt.divisibility = 16 : i32} loc("/tmp/torchinductor_root/z4/cz4raaxbxby7dltdikbrpmyoxvbaywto5wc2t7rus6zhnzkqrtmy.py":18:0), %arg7: !tt.ptr<f16> {tt.divisibility = 16 : i32} loc("/tmp/torchinductor_root/z4/cz4raaxbxby7dltdikbrpmyoxvbaywto5wc2t7rus6zhnzkqrtmy.py":18:0), %arg8: !tt.ptr<f32> {tt.divisibility = 16 : i32} loc("/tmp/torchinductor_root/z4/cz4raaxbxby7dltdikbrpmyoxvbaywto5wc2t7rus6zhnzkqrtmy.py":18:0), %arg9: !tt.ptr<f16> {tt.divisibility = 16 : i32} loc("/tmp/torchinductor_root/z4/cz4raaxbxby7dltdikbrpmyoxvbaywto5wc2t7rus6zhnzkqrtmy.py":18:0), %arg10: !tt.ptr<f16> {tt.divisibility = 16 : i32} loc("/tmp/torchinductor_root/z4/cz4raaxbxby7dltdikbrpmyoxvbaywto5wc2t7rus6zhnzkqrtmy.py":18:0), %arg11: i32 {tt.divisibility = 16 : i32} loc("/tmp/torchinductor_root/z4/cz4raaxbxby7dltdikbrpmyoxvbaywto5wc2t7rus6zhnzkqrtmy.py":18:0), %arg12: i32 loc("/tmp/torchinductor_root/z4/cz4raaxbxby7dltdikbrpmyoxvbaywto5wc2t7rus6zhnzkqrtmy.py":18:0)) attributes {noinline = false} {
    %cst = arith.constant dense<0.000000e+00> : tensor<64x64xf16> loc(#loc1)
    %c0_i32 = arith.constant 0 : i32 loc(#loc1)
    %cst_0 = arith.constant dense<0.000000e+00> : tensor<1x64xf32> loc(#loc1)
    %cst_1 = arith.constant dense<4096> : tensor<1x64xi32> loc(#loc1)
    %cst_2 = arith.constant dense<0.000000e+00> : tensor<64x64xf32> loc(#loc1)
    %c64_i32 = arith.constant 64 : i32 loc(#loc1)
    %0 = tt.get_program_id x : i32 loc(#loc2)
    %1 = arith.muli %0, %c64_i32 : i32 loc(#loc3)
    %2 = tt.make_range {end = 64 : i32, start = 0 : i32} : tensor<64xi32> loc(#loc4)
    %3 = tt.expand_dims %2 {axis = 1 : i32} : tensor<64xi32> -> tensor<64x1xi32> loc(#loc5)
    %4 = tt.splat %1 : i32 -> tensor<64x1xi32> loc(#loc6)
    %5 = arith.addi %4, %3 : tensor<64x1xi32> loc(#loc6)
    %6 = tt.expand_dims %2 {axis = 0 : i32} : tensor<64xi32> -> tensor<1x64xi32> loc(#loc7)
    %7:2 = scf.for %arg13 = %c0_i32 to %arg12 step %c64_i32 iter_args(%arg14 = %cst_2, %arg15 = %cst_2) -> (tensor<64x64xf32>, tensor<64x64xf32>)  : i32 {
      %18 = tt.splat %arg13 : i32 -> tensor<1x64xi32> loc(#loc9)
      %19 = arith.addi %18, %6 : tensor<1x64xi32> loc(#loc9)
      %20 = tt.splat %arg12 : i32 -> tensor<1x64xi32> loc(#loc10)
      %21 = arith.cmpi slt, %19, %20 : tensor<1x64xi32> loc(#loc10)
      %22 = arith.muli %19, %cst_1 : tensor<1x64xi32> loc(#loc11)
      %23 = tt.broadcast %5 : tensor<64x1xi32> -> tensor<64x64xi32> loc(#loc12)
      %24 = tt.broadcast %22 : tensor<1x64xi32> -> tensor<64x64xi32> loc(#loc12)
      %25 = arith.addi %23, %24 : tensor<64x64xi32> loc(#loc12)
      %26 = tt.splat %arg0 : !tt.ptr<f16> -> tensor<64x64x!tt.ptr<f16>> loc(#loc13)
      %27 = tt.addptr %26, %25 : tensor<64x64x!tt.ptr<f16>>, tensor<64x64xi32> loc(#loc13)
      %28 = tt.broadcast %21 : tensor<1x64xi1> -> tensor<64x64xi1> loc(#loc14)
      %29 = tt.load %27, %28, %cst evictionPolicy = evict_first : tensor<64x64x!tt.ptr<f16>> loc(#loc14)
      %30 = arith.extf %29 : tensor<64x64xf16> to tensor<64x64xf32> loc(#loc15)
      %31 = tt.splat %arg1 : !tt.ptr<f16> -> tensor<64x64x!tt.ptr<f16>> loc(#loc16)
      %32 = tt.addptr %31, %25 : tensor<64x64x!tt.ptr<f16>>, tensor<64x64xi32> loc(#loc16)
      %33 = tt.load %32, %28, %cst evictionPolicy = evict_first : tensor<64x64x!tt.ptr<f16>> loc(#loc17)
      %34 = arith.extf %33 : tensor<64x64xf16> to tensor<64x64xf32> loc(#loc18)
      %35 = tt.splat %arg2 : !tt.ptr<f16> -> tensor<64x64x!tt.ptr<f16>> loc(#loc19)
      %36 = tt.addptr %35, %25 : tensor<64x64x!tt.ptr<f16>>, tensor<64x64xi32> loc(#loc19)
      %37 = tt.load %36, %28, %cst evictionPolicy = evict_first : tensor<64x64x!tt.ptr<f16>> loc(#loc20)
      %38 = arith.extf %37 : tensor<64x64xf16> to tensor<64x64xf32> loc(#loc21)
      %39 = tt.splat %arg3 : !tt.ptr<f16> -> tensor<64x64x!tt.ptr<f16>> loc(#loc22)
      %40 = tt.addptr %39, %25 : tensor<64x64x!tt.ptr<f16>>, tensor<64x64xi32> loc(#loc22)
      %41 = tt.load %40, %28, %cst evictionPolicy = evict_first : tensor<64x64x!tt.ptr<f16>> loc(#loc23)
      %42 = arith.extf %41 : tensor<64x64xf16> to tensor<64x64xf32> loc(#loc24)
      %43 = tt.splat %arg4 : !tt.ptr<f32> -> tensor<1x64x!tt.ptr<f32>> loc(#loc25)
      %44 = tt.addptr %43, %19 : tensor<1x64x!tt.ptr<f32>>, tensor<1x64xi32> loc(#loc25)
      %45 = tt.load %44, %21, %cst_0 evictionPolicy = evict_last : tensor<1x64x!tt.ptr<f32>> loc(#loc26)
      %46 = tt.splat %arg5 : !tt.ptr<f16> -> tensor<64x64x!tt.ptr<f16>> loc(#loc27)
      %47 = tt.addptr %46, %25 : tensor<64x64x!tt.ptr<f16>>, tensor<64x64xi32> loc(#loc27)
      %48 = tt.load %47, %28, %cst evictionPolicy = evict_first : tensor<64x64x!tt.ptr<f16>> loc(#loc28)
      %49 = arith.extf %48 : tensor<64x64xf16> to tensor<64x64xf32> loc(#loc29)
      %50 = tt.splat %arg6 : !tt.ptr<f16> -> tensor<64x64x!tt.ptr<f16>> loc(#loc30)
      %51 = tt.addptr %50, %25 : tensor<64x64x!tt.ptr<f16>>, tensor<64x64xi32> loc(#loc30)
      %52 = tt.load %51, %28, %cst evictionPolicy = evict_first : tensor<64x64x!tt.ptr<f16>> loc(#loc31)
      %53 = arith.extf %52 : tensor<64x64xf16> to tensor<64x64xf32> loc(#loc32)
      %54 = tt.splat %arg7 : !tt.ptr<f16> -> tensor<64x64x!tt.ptr<f16>> loc(#loc33)
      %55 = tt.addptr %54, %25 : tensor<64x64x!tt.ptr<f16>>, tensor<64x64xi32> loc(#loc33)
      %56 = tt.load %55, %28, %cst evictionPolicy = evict_first : tensor<64x64x!tt.ptr<f16>> loc(#loc34)
      %57 = arith.extf %56 : tensor<64x64xf16> to tensor<64x64xf32> loc(#loc35)
      %58 = tt.splat %arg8 : !tt.ptr<f32> -> tensor<1x64x!tt.ptr<f32>> loc(#loc36)
      %59 = tt.addptr %58, %19 : tensor<1x64x!tt.ptr<f32>>, tensor<1x64xi32> loc(#loc36)
      %60 = tt.load %59, %21, %cst_0 evictionPolicy = evict_last : tensor<1x64x!tt.ptr<f32>> loc(#loc37)
      %61 = arith.addf %30, %34 : tensor<64x64xf32> loc(#loc38)
      %62 = arith.addf %38, %42 : tensor<64x64xf32> loc(#loc39)
      %63 = tt.broadcast %45 : tensor<1x64xf32> -> tensor<64x64xf32> loc(#loc40)
      %64 = arith.mulf %62, %63 : tensor<64x64xf32> loc(#loc40)
      %65 = arith.mulf %61, %64 : tensor<64x64xf32> loc(#loc41)
      %66 = arith.addf %arg14, %65 : tensor<64x64xf32> loc(#loc42)
      %67 = arith.select %28, %66, %arg14 : tensor<64x64xi1>, tensor<64x64xf32> loc(#loc43)
      %68 = arith.addf %49, %53 : tensor<64x64xf32> loc(#loc44)
      %69 = arith.addf %68, %57 : tensor<64x64xf32> loc(#loc45)
      %70 = tt.broadcast %60 : tensor<1x64xf32> -> tensor<64x64xf32> loc(#loc46)
      %71 = arith.mulf %38, %70 : tensor<64x64xf32> loc(#loc46)
      %72 = arith.mulf %69, %71 : tensor<64x64xf32> loc(#loc47)
      %73 = arith.addf %arg15, %72 : tensor<64x64xf32> loc(#loc48)
      %74 = arith.select %28, %73, %arg15 : tensor<64x64xi1>, tensor<64x64xf32> loc(#loc49)
      scf.yield %67, %74 : tensor<64x64xf32>, tensor<64x64xf32> loc(#loc50)
    } loc(#loc8)
    %8 = "tt.reduce"(%7#0) <{axis = 1 : i32}> ({
    ^bb0(%arg13: f32 loc(callsite(#loc1 at #loc52)), %arg14: f32 loc(callsite(#loc1 at #loc52))):
      %18 = arith.addf %arg13, %arg14 : f32 loc(#loc67)
      tt.reduce.return %18 : f32 loc(#loc62)
    }) : (tensor<64x64xf32>) -> tensor<64xf32> loc(#loc62)
    %9 = tt.expand_dims %8 {axis = 1 : i32} : tensor<64xf32> -> tensor<64x1xf32> loc(#loc54)
    %10 = "tt.reduce"(%7#1) <{axis = 1 : i32}> ({
    ^bb0(%arg13: f32 loc(callsite(#loc1 at #loc55)), %arg14: f32 loc(callsite(#loc1 at #loc55))):
      %18 = arith.addf %arg13, %arg14 : f32 loc(#loc68)
      tt.reduce.return %18 : f32 loc(#loc65)
    }) : (tensor<64x64xf32>) -> tensor<64xf32> loc(#loc65)
    %11 = tt.expand_dims %10 {axis = 1 : i32} : tensor<64xf32> -> tensor<64x1xf32> loc(#loc56)
    %12 = tt.splat %arg9 : !tt.ptr<f16> -> tensor<64x1x!tt.ptr<f16>> loc(#loc57)
    %13 = tt.addptr %12, %5 : tensor<64x1x!tt.ptr<f16>>, tensor<64x1xi32> loc(#loc57)
    %14 = arith.truncf %9 : tensor<64x1xf32> to tensor<64x1xf16> loc(#loc58)
    tt.store %13, %14 : tensor<64x1x!tt.ptr<f16>> loc(#loc58)
    %15 = tt.splat %arg10 : !tt.ptr<f16> -> tensor<64x1x!tt.ptr<f16>> loc(#loc59)
    %16 = tt.addptr %15, %5 : tensor<64x1x!tt.ptr<f16>>, tensor<64x1xi32> loc(#loc59)
    %17 = arith.truncf %11 : tensor<64x1xf32> to tensor<64x1xf16> loc(#loc60)
    tt.store %16, %17 : tensor<64x1x!tt.ptr<f16>> loc(#loc60)
    tt.return loc(#loc61)
  } loc(#loc)
} loc(#loc)
#loc2 = loc("/tmp/torchinductor_root/z4/cz4raaxbxby7dltdikbrpmyoxvbaywto5wc2t7rus6zhnzkqrtmy.py":22:28)
#loc3 = loc("/tmp/torchinductor_root/z4/cz4raaxbxby7dltdikbrpmyoxvbaywto5wc2t7rus6zhnzkqrtmy.py":22:33)
#loc4 = loc("/tmp/torchinductor_root/z4/cz4raaxbxby7dltdikbrpmyoxvbaywto5wc2t7rus6zhnzkqrtmy.py":23:36)
#loc5 = loc("/tmp/torchinductor_root/z4/cz4raaxbxby7dltdikbrpmyoxvbaywto5wc2t7rus6zhnzkqrtmy.py":23:44)
#loc6 = loc("/tmp/torchinductor_root/z4/cz4raaxbxby7dltdikbrpmyoxvbaywto5wc2t7rus6zhnzkqrtmy.py":23:23)
#loc7 = loc("/tmp/torchinductor_root/z4/cz4raaxbxby7dltdikbrpmyoxvbaywto5wc2t7rus6zhnzkqrtmy.py":25:37)
#loc8 = loc("/tmp/torchinductor_root/z4/cz4raaxbxby7dltdikbrpmyoxvbaywto5wc2t7rus6zhnzkqrtmy.py":30:40)
#loc9 = loc("/tmp/torchinductor_root/z4/cz4raaxbxby7dltdikbrpmyoxvbaywto5wc2t7rus6zhnzkqrtmy.py":31:31)
#loc10 = loc("/tmp/torchinductor_root/z4/cz4raaxbxby7dltdikbrpmyoxvbaywto5wc2t7rus6zhnzkqrtmy.py":32:29)
#loc11 = loc("/tmp/torchinductor_root/z4/cz4raaxbxby7dltdikbrpmyoxvbaywto5wc2t7rus6zhnzkqrtmy.py":36:44)
#loc12 = loc("/tmp/torchinductor_root/z4/cz4raaxbxby7dltdikbrpmyoxvbaywto5wc2t7rus6zhnzkqrtmy.py":36:39)
#loc13 = loc("/tmp/torchinductor_root/z4/cz4raaxbxby7dltdikbrpmyoxvbaywto5wc2t7rus6zhnzkqrtmy.py":36:34)
#loc14 = loc("/tmp/torchinductor_root/z4/cz4raaxbxby7dltdikbrpmyoxvbaywto5wc2t7rus6zhnzkqrtmy.py":36:51)
#loc15 = loc("/tmp/torchinductor_root/z4/cz4raaxbxby7dltdikbrpmyoxvbaywto5wc2t7rus6zhnzkqrtmy.py":36:105)
#loc16 = loc("/tmp/torchinductor_root/z4/cz4raaxbxby7dltdikbrpmyoxvbaywto5wc2t7rus6zhnzkqrtmy.py":37:34)
#loc17 = loc("/tmp/torchinductor_root/z4/cz4raaxbxby7dltdikbrpmyoxvbaywto5wc2t7rus6zhnzkqrtmy.py":37:51)
#loc18 = loc("/tmp/torchinductor_root/z4/cz4raaxbxby7dltdikbrpmyoxvbaywto5wc2t7rus6zhnzkqrtmy.py":37:105)
#loc19 = loc("/tmp/torchinductor_root/z4/cz4raaxbxby7dltdikbrpmyoxvbaywto5wc2t7rus6zhnzkqrtmy.py":38:34)
#loc20 = loc("/tmp/torchinductor_root/z4/cz4raaxbxby7dltdikbrpmyoxvbaywto5wc2t7rus6zhnzkqrtmy.py":38:51)
#loc21 = loc("/tmp/torchinductor_root/z4/cz4raaxbxby7dltdikbrpmyoxvbaywto5wc2t7rus6zhnzkqrtmy.py":38:105)
#loc22 = loc("/tmp/torchinductor_root/z4/cz4raaxbxby7dltdikbrpmyoxvbaywto5wc2t7rus6zhnzkqrtmy.py":39:34)
#loc23 = loc("/tmp/torchinductor_root/z4/cz4raaxbxby7dltdikbrpmyoxvbaywto5wc2t7rus6zhnzkqrtmy.py":39:51)
#loc24 = loc("/tmp/torchinductor_root/z4/cz4raaxbxby7dltdikbrpmyoxvbaywto5wc2t7rus6zhnzkqrtmy.py":39:105)
#loc25 = loc("/tmp/torchinductor_root/z4/cz4raaxbxby7dltdikbrpmyoxvbaywto5wc2t7rus6zhnzkqrtmy.py":40:34)
#loc26 = loc("/tmp/torchinductor_root/z4/cz4raaxbxby7dltdikbrpmyoxvbaywto5wc2t7rus6zhnzkqrtmy.py":40:41)
#loc27 = loc("/tmp/torchinductor_root/z4/cz4raaxbxby7dltdikbrpmyoxvbaywto5wc2t7rus6zhnzkqrtmy.py":41:35)
#loc28 = loc("/tmp/torchinductor_root/z4/cz4raaxbxby7dltdikbrpmyoxvbaywto5wc2t7rus6zhnzkqrtmy.py":41:52)
#loc29 = loc("/tmp/torchinductor_root/z4/cz4raaxbxby7dltdikbrpmyoxvbaywto5wc2t7rus6zhnzkqrtmy.py":41:106)
#loc30 = loc("/tmp/torchinductor_root/z4/cz4raaxbxby7dltdikbrpmyoxvbaywto5wc2t7rus6zhnzkqrtmy.py":42:35)
#loc31 = loc("/tmp/torchinductor_root/z4/cz4raaxbxby7dltdikbrpmyoxvbaywto5wc2t7rus6zhnzkqrtmy.py":42:52)
#loc32 = loc("/tmp/torchinductor_root/z4/cz4raaxbxby7dltdikbrpmyoxvbaywto5wc2t7rus6zhnzkqrtmy.py":42:106)
#loc33 = loc("/tmp/torchinductor_root/z4/cz4raaxbxby7dltdikbrpmyoxvbaywto5wc2t7rus6zhnzkqrtmy.py":43:35)
#loc34 = loc("/tmp/torchinductor_root/z4/cz4raaxbxby7dltdikbrpmyoxvbaywto5wc2t7rus6zhnzkqrtmy.py":43:52)
#loc35 = loc("/tmp/torchinductor_root/z4/cz4raaxbxby7dltdikbrpmyoxvbaywto5wc2t7rus6zhnzkqrtmy.py":43:106)
#loc36 = loc("/tmp/torchinductor_root/z4/cz4raaxbxby7dltdikbrpmyoxvbaywto5wc2t7rus6zhnzkqrtmy.py":44:35)
#loc37 = loc("/tmp/torchinductor_root/z4/cz4raaxbxby7dltdikbrpmyoxvbaywto5wc2t7rus6zhnzkqrtmy.py":44:42)
#loc38 = loc("/tmp/torchinductor_root/z4/cz4raaxbxby7dltdikbrpmyoxvbaywto5wc2t7rus6zhnzkqrtmy.py":45:22)
#loc39 = loc("/tmp/torchinductor_root/z4/cz4raaxbxby7dltdikbrpmyoxvbaywto5wc2t7rus6zhnzkqrtmy.py":46:22)
#loc40 = loc("/tmp/torchinductor_root/z4/cz4raaxbxby7dltdikbrpmyoxvbaywto5wc2t7rus6zhnzkqrtmy.py":48:22)
#loc41 = loc("/tmp/torchinductor_root/z4/cz4raaxbxby7dltdikbrpmyoxvbaywto5wc2t7rus6zhnzkqrtmy.py":50:23)
#loc42 = loc("/tmp/torchinductor_root/z4/cz4raaxbxby7dltdikbrpmyoxvbaywto5wc2t7rus6zhnzkqrtmy.py":52:25)
#loc43 = loc("/tmp/torchinductor_root/z4/cz4raaxbxby7dltdikbrpmyoxvbaywto5wc2t7rus6zhnzkqrtmy.py":53:42)
#loc44 = loc("/tmp/torchinductor_root/z4/cz4raaxbxby7dltdikbrpmyoxvbaywto5wc2t7rus6zhnzkqrtmy.py":54:24)
#loc45 = loc("/tmp/torchinductor_root/z4/cz4raaxbxby7dltdikbrpmyoxvbaywto5wc2t7rus6zhnzkqrtmy.py":55:24)
#loc46 = loc("/tmp/torchinductor_root/z4/cz4raaxbxby7dltdikbrpmyoxvbaywto5wc2t7rus6zhnzkqrtmy.py":57:24)
#loc47 = loc("/tmp/torchinductor_root/z4/cz4raaxbxby7dltdikbrpmyoxvbaywto5wc2t7rus6zhnzkqrtmy.py":59:24)
#loc48 = loc("/tmp/torchinductor_root/z4/cz4raaxbxby7dltdikbrpmyoxvbaywto5wc2t7rus6zhnzkqrtmy.py":61:25)
#loc49 = loc("/tmp/torchinductor_root/z4/cz4raaxbxby7dltdikbrpmyoxvbaywto5wc2t7rus6zhnzkqrtmy.py":62:42)
#loc50 = loc("/tmp/torchinductor_root/z4/cz4raaxbxby7dltdikbrpmyoxvbaywto5wc2t7rus6zhnzkqrtmy.py":62:8)
#loc51 = loc("/workspace/torch-compile-caching/.venv/lib/python3.11/site-packages/triton/language/standard.py":286:36)
#loc53 = loc("/workspace/torch-compile-caching/.venv/lib/python3.11/site-packages/triton/language/standard.py":256:15)
#loc54 = loc("/tmp/torchinductor_root/z4/cz4raaxbxby7dltdikbrpmyoxvbaywto5wc2t7rus6zhnzkqrtmy.py":63:30)
#loc56 = loc("/tmp/torchinductor_root/z4/cz4raaxbxby7dltdikbrpmyoxvbaywto5wc2t7rus6zhnzkqrtmy.py":64:30)
#loc57 = loc("/tmp/torchinductor_root/z4/cz4raaxbxby7dltdikbrpmyoxvbaywto5wc2t7rus6zhnzkqrtmy.py":65:25)
#loc58 = loc("/tmp/torchinductor_root/z4/cz4raaxbxby7dltdikbrpmyoxvbaywto5wc2t7rus6zhnzkqrtmy.py":65:37)
#loc59 = loc("/tmp/torchinductor_root/z4/cz4raaxbxby7dltdikbrpmyoxvbaywto5wc2t7rus6zhnzkqrtmy.py":66:25)
#loc60 = loc("/tmp/torchinductor_root/z4/cz4raaxbxby7dltdikbrpmyoxvbaywto5wc2t7rus6zhnzkqrtmy.py":66:37)
#loc61 = loc("/tmp/torchinductor_root/z4/cz4raaxbxby7dltdikbrpmyoxvbaywto5wc2t7rus6zhnzkqrtmy.py":66:4)
#loc62 = loc(callsite(#loc51 at #loc52))
#loc64 = loc(callsite(#loc53 at #loc51))
#loc65 = loc(callsite(#loc51 at #loc55))
#loc67 = loc(callsite(#loc64 at #loc52))
#loc68 = loc(callsite(#loc64 at #loc55))
