#loc = loc("./local_cache/a5/ca52bl5squdroeaanlxdwl3jwdjj2wexli2lmyaxagznldaazf2w.py":18:0)
#loc1 = loc(unknown)
#loc39 = loc("./local_cache/a5/ca52bl5squdroeaanlxdwl3jwdjj2wexli2lmyaxagznldaazf2w.py":49:27)
#loc84 = loc(callsite(#loc1 at #loc39))
module {
  tt.func public @triton_red_fused__to_copy_add_div_mul_pow_sum_10(%arg0: !tt.ptr<f16> {tt.divisibility = 16 : i32} loc("./local_cache/a5/ca52bl5squdroeaanlxdwl3jwdjj2wexli2lmyaxagznldaazf2w.py":18:0), %arg1: !tt.ptr<f16> {tt.divisibility = 16 : i32} loc("./local_cache/a5/ca52bl5squdroeaanlxdwl3jwdjj2wexli2lmyaxagznldaazf2w.py":18:0), %arg2: !tt.ptr<f16> {tt.divisibility = 16 : i32} loc("./local_cache/a5/ca52bl5squdroeaanlxdwl3jwdjj2wexli2lmyaxagznldaazf2w.py":18:0), %arg3: !tt.ptr<f16> {tt.divisibility = 16 : i32} loc("./local_cache/a5/ca52bl5squdroeaanlxdwl3jwdjj2wexli2lmyaxagznldaazf2w.py":18:0), %arg4: !tt.ptr<f16> {tt.divisibility = 16 : i32} loc("./local_cache/a5/ca52bl5squdroeaanlxdwl3jwdjj2wexli2lmyaxagznldaazf2w.py":18:0), %arg5: !tt.ptr<f16> {tt.divisibility = 16 : i32} loc("./local_cache/a5/ca52bl5squdroeaanlxdwl3jwdjj2wexli2lmyaxagznldaazf2w.py":18:0), %arg6: !tt.ptr<f32> {tt.divisibility = 16 : i32} loc("./local_cache/a5/ca52bl5squdroeaanlxdwl3jwdjj2wexli2lmyaxagznldaazf2w.py":18:0), %arg7: i32 loc("./local_cache/a5/ca52bl5squdroeaanlxdwl3jwdjj2wexli2lmyaxagznldaazf2w.py":18:0), %arg8: i32 {tt.divisibility = 16 : i32} loc("./local_cache/a5/ca52bl5squdroeaanlxdwl3jwdjj2wexli2lmyaxagznldaazf2w.py":18:0)) attributes {noinline = false} {
    %cst = arith.constant dense<0.000000e+00> : tensor<1x512xf16> loc(#loc1)
    %cst_0 = arith.constant dense<0.000000e+00> : tensor<8x512xf16> loc(#loc1)
    %c512_i32 = arith.constant 512 : i32 loc(#loc1)
    %c4096_i32 = arith.constant 4096 : i32 loc(#loc1)
    %c0_i32 = arith.constant 0 : i32 loc(#loc1)
    %cst_1 = arith.constant dense<2.000000e+00> : tensor<8x512xf32> loc(#loc1)
    %cst_2 = arith.constant dense<2.44140625E-4> : tensor<8x1xf32> loc(#loc1)
    %cst_3 = arith.constant dense<-5.000000e-01> : tensor<8x1xf32> loc(#loc1)
    %cst_4 = arith.constant dense<4096> : tensor<8x1xi32> loc(#loc1)
    %cst_5 = arith.constant dense<4096> : tensor<1x512xi32> loc(#loc1)
    %cst_6 = arith.constant dense<0.000000e+00> : tensor<8x512xf32> loc(#loc1)
    %c8_i32 = arith.constant 8 : i32 loc(#loc1)
    %0 = tt.get_program_id x : i32 loc(#loc2)
    %1 = arith.muli %0, %c8_i32 : i32 loc(#loc3)
    %2 = tt.make_range {end = 8 : i32, start = 0 : i32} : tensor<8xi32> loc(#loc4)
    %3 = tt.expand_dims %2 {axis = 1 : i32} : tensor<8xi32> -> tensor<8x1xi32> loc(#loc5)
    %4 = tt.splat %1 : i32 -> tensor<8x1xi32> loc(#loc6)
    %5 = arith.addi %4, %3 : tensor<8x1xi32> loc(#loc6)
    %6 = tt.splat %arg7 : i32 -> tensor<8x1xi32> loc(#loc7)
    %7 = arith.cmpi slt, %5, %6 : tensor<8x1xi32> loc(#loc7)
    %8 = tt.make_range {end = 512 : i32, start = 0 : i32} : tensor<512xi32> loc(#loc8)
    %9 = tt.expand_dims %8 {axis = 0 : i32} : tensor<512xi32> -> tensor<1x512xi32> loc(#loc9)
    %10 = scf.for %arg9 = %c0_i32 to %c4096_i32 step %c512_i32 iter_args(%arg10 = %cst_6) -> (tensor<8x512xf32>)  : i32 {
      %16 = tt.splat %arg9 : i32 -> tensor<1x512xi32> loc(#loc11)
      %17 = arith.addi %16, %9 : tensor<1x512xi32> loc(#loc11)
      %18 = arith.cmpi slt, %17, %cst_5 : tensor<1x512xi32> loc(#loc12)
      %19 = arith.muli %5, %cst_4 : tensor<8x1xi32> loc(#loc13)
      %20 = tt.broadcast %17 : tensor<1x512xi32> -> tensor<8x512xi32> loc(#loc14)
      %21 = tt.broadcast %19 : tensor<8x1xi32> -> tensor<8x512xi32> loc(#loc14)
      %22 = arith.addi %20, %21 : tensor<8x512xi32> loc(#loc14)
      %23 = tt.splat %arg1 : !tt.ptr<f16> -> tensor<8x512x!tt.ptr<f16>> loc(#loc15)
      %24 = tt.addptr %23, %22 : tensor<8x512x!tt.ptr<f16>>, tensor<8x512xi32> loc(#loc15)
      %25 = tt.broadcast %18 : tensor<1x512xi1> -> tensor<8x512xi1> loc(#loc16)
      %26 = tt.broadcast %7 : tensor<8x1xi1> -> tensor<8x512xi1> loc(#loc16)
      %27 = arith.andi %25, %26 : tensor<8x512xi1> loc(#loc16)
      %28 = tt.load %24, %27, %cst_0 evictionPolicy = evict_last : tensor<8x512x!tt.ptr<f16>> loc(#loc17)
      %29 = arith.extf %28 : tensor<8x512xf16> to tensor<8x512xf32> loc(#loc18)
      %30 = tt.splat %arg2 : !tt.ptr<f16> -> tensor<8x512x!tt.ptr<f16>> loc(#loc19)
      %31 = tt.addptr %30, %22 : tensor<8x512x!tt.ptr<f16>>, tensor<8x512xi32> loc(#loc19)
      %32 = tt.load %31, %27, %cst_0 evictionPolicy = evict_last : tensor<8x512x!tt.ptr<f16>> loc(#loc20)
      %33 = arith.extf %32 : tensor<8x512xf16> to tensor<8x512xf32> loc(#loc21)
      %34 = tt.splat %arg3 : !tt.ptr<f16> -> tensor<8x512x!tt.ptr<f16>> loc(#loc22)
      %35 = tt.addptr %34, %22 : tensor<8x512x!tt.ptr<f16>>, tensor<8x512xi32> loc(#loc22)
      %36 = tt.load %35, %27, %cst_0 evictionPolicy = evict_last : tensor<8x512x!tt.ptr<f16>> loc(#loc23)
      %37 = arith.extf %36 : tensor<8x512xf16> to tensor<8x512xf32> loc(#loc24)
      %38 = tt.splat %arg4 : !tt.ptr<f16> -> tensor<1x512x!tt.ptr<f16>> loc(#loc25)
      %39 = tt.addptr %38, %17 : tensor<1x512x!tt.ptr<f16>>, tensor<1x512xi32> loc(#loc25)
      %40 = tt.load %39, %18, %cst evictionPolicy = evict_last : tensor<1x512x!tt.ptr<f16>> loc(#loc26)
      %41 = arith.extf %40 : tensor<1x512xf16> to tensor<1x512xf32> loc(#loc27)
      %42 = tt.splat %arg5 : !tt.ptr<f16> -> tensor<8x512x!tt.ptr<f16>> loc(#loc28)
      %43 = tt.addptr %42, %22 : tensor<8x512x!tt.ptr<f16>>, tensor<8x512xi32> loc(#loc28)
      %44 = tt.load %43, %27, %cst_0 evictionPolicy = evict_last : tensor<8x512x!tt.ptr<f16>> loc(#loc29)
      %45 = arith.extf %44 : tensor<8x512xf16> to tensor<8x512xf32> loc(#loc30)
      %46 = arith.addf %29, %33 : tensor<8x512xf32> loc(#loc31)
      %47 = arith.addf %46, %37 : tensor<8x512xf32> loc(#loc32)
      %48 = tt.broadcast %41 : tensor<1x512xf32> -> tensor<8x512xf32> loc(#loc33)
      %49 = arith.mulf %47, %48 : tensor<8x512xf32> loc(#loc33)
      %50 = arith.mulf %49, %45 : tensor<8x512xf32> loc(#loc34)
      %51 = arith.addf %arg10, %50 : tensor<8x512xf32> loc(#loc35)
      %52 = arith.select %27, %51, %arg10 : tensor<8x512xi1>, tensor<8x512xf32> loc(#loc36)
      scf.yield %52 : tensor<8x512xf32> loc(#loc37)
    } loc(#loc10)
    %11 = "tt.reduce"(%10) <{axis = 1 : i32}> ({
    ^bb0(%arg9: f32 loc(callsite(#loc1 at #loc39)), %arg10: f32 loc(callsite(#loc1 at #loc39))):
      %16 = arith.addf %arg9, %arg10 : f32 loc(#loc86)
      tt.reduce.return %16 : f32 loc(#loc83)
    }) : (tensor<8x512xf32>) -> tensor<8xf32> loc(#loc83)
    %12 = tt.expand_dims %11 {axis = 1 : i32} : tensor<8xf32> -> tensor<8x1xf32> loc(#loc41)
    %13 = tt.splat %arg6 : !tt.ptr<f32> -> tensor<8x1x!tt.ptr<f32>> loc(#loc42)
    %14 = tt.addptr %13, %5 : tensor<8x1x!tt.ptr<f32>>, tensor<8x1xi32> loc(#loc42)
    %15 = tt.load %14, %7 evictionPolicy = evict_last : tensor<8x1x!tt.ptr<f32>> loc(#loc43)
    scf.for %arg9 = %c0_i32 to %c4096_i32 step %c512_i32  : i32 {
      %16 = tt.splat %arg9 : i32 -> tensor<1x512xi32> loc(#loc45)
      %17 = arith.addi %16, %9 : tensor<1x512xi32> loc(#loc45)
      %18 = arith.cmpi slt, %17, %cst_5 : tensor<1x512xi32> loc(#loc46)
      %19 = arith.muli %5, %cst_4 : tensor<8x1xi32> loc(#loc47)
      %20 = tt.broadcast %17 : tensor<1x512xi32> -> tensor<8x512xi32> loc(#loc48)
      %21 = tt.broadcast %19 : tensor<8x1xi32> -> tensor<8x512xi32> loc(#loc48)
      %22 = arith.addi %20, %21 : tensor<8x512xi32> loc(#loc48)
      %23 = tt.splat %arg0 : !tt.ptr<f16> -> tensor<8x512x!tt.ptr<f16>> loc(#loc49)
      %24 = tt.addptr %23, %22 : tensor<8x512x!tt.ptr<f16>>, tensor<8x512xi32> loc(#loc49)
      %25 = tt.broadcast %18 : tensor<1x512xi1> -> tensor<8x512xi1> loc(#loc50)
      %26 = tt.broadcast %7 : tensor<8x1xi1> -> tensor<8x512xi1> loc(#loc50)
      %27 = arith.andi %25, %26 : tensor<8x512xi1> loc(#loc50)
      %28 = tt.load %24, %27, %cst_0 evictionPolicy = evict_first : tensor<8x512x!tt.ptr<f16>> loc(#loc51)
      %29 = arith.extf %28 : tensor<8x512xf16> to tensor<8x512xf32> loc(#loc52)
      %30 = tt.splat %arg1 : !tt.ptr<f16> -> tensor<8x512x!tt.ptr<f16>> loc(#loc53)
      %31 = tt.addptr %30, %22 : tensor<8x512x!tt.ptr<f16>>, tensor<8x512xi32> loc(#loc53)
      %32 = tt.load %31, %27, %cst_0 evictionPolicy = evict_first : tensor<8x512x!tt.ptr<f16>> loc(#loc54)
      %33 = arith.extf %32 : tensor<8x512xf16> to tensor<8x512xf32> loc(#loc55)
      %34 = tt.splat %arg2 : !tt.ptr<f16> -> tensor<8x512x!tt.ptr<f16>> loc(#loc56)
      %35 = tt.addptr %34, %22 : tensor<8x512x!tt.ptr<f16>>, tensor<8x512xi32> loc(#loc56)
      %36 = tt.load %35, %27, %cst_0 evictionPolicy = evict_first : tensor<8x512x!tt.ptr<f16>> loc(#loc57)
      %37 = arith.extf %36 : tensor<8x512xf16> to tensor<8x512xf32> loc(#loc58)
      %38 = tt.splat %arg3 : !tt.ptr<f16> -> tensor<8x512x!tt.ptr<f16>> loc(#loc59)
      %39 = tt.addptr %38, %22 : tensor<8x512x!tt.ptr<f16>>, tensor<8x512xi32> loc(#loc59)
      %40 = tt.load %39, %27, %cst_0 evictionPolicy = evict_first : tensor<8x512x!tt.ptr<f16>> loc(#loc60)
      %41 = arith.extf %40 : tensor<8x512xf16> to tensor<8x512xf32> loc(#loc61)
      %42 = tt.splat %arg4 : !tt.ptr<f16> -> tensor<1x512x!tt.ptr<f16>> loc(#loc62)
      %43 = tt.addptr %42, %17 : tensor<1x512x!tt.ptr<f16>>, tensor<1x512xi32> loc(#loc62)
      %44 = tt.load %43, %18, %cst evictionPolicy = evict_last : tensor<1x512x!tt.ptr<f16>> loc(#loc63)
      %45 = arith.extf %44 : tensor<1x512xf16> to tensor<1x512xf32> loc(#loc64)
      %46 = tt.splat %arg5 : !tt.ptr<f16> -> tensor<8x512x!tt.ptr<f16>> loc(#loc65)
      %47 = tt.addptr %46, %22 : tensor<8x512x!tt.ptr<f16>>, tensor<8x512xi32> loc(#loc65)
      %48 = tt.load %47, %27, %cst_0 evictionPolicy = evict_first : tensor<8x512x!tt.ptr<f16>> loc(#loc66)
      %49 = arith.extf %48 : tensor<8x512xf16> to tensor<8x512xf32> loc(#loc67)
      %50 = arith.addf %33, %37 : tensor<8x512xf32> loc(#loc68)
      %51 = arith.addf %50, %41 : tensor<8x512xf32> loc(#loc69)
      %52 = tt.broadcast %45 : tensor<1x512xf32> -> tensor<8x512xf32> loc(#loc70)
      %53 = arith.mulf %51, %52 : tensor<8x512xf32> loc(#loc70)
      %54 = tt.broadcast %15 : tensor<8x1xf32> -> tensor<8x512xf32> loc(#loc71)
      %55 = arith.mulf %53, %54 : tensor<8x512xf32> loc(#loc71)
      %56 = arith.mulf %12, %cst_3 : tensor<8x1xf32> loc(#loc72)
      %57 = arith.mulf %15, %15 : tensor<8x1xf32> loc(#loc73)
      %58 = arith.mulf %57, %15 : tensor<8x1xf32> loc(#loc74)
      %59 = arith.mulf %56, %58 : tensor<8x1xf32> loc(#loc75)
      %60 = arith.mulf %59, %cst_2 : tensor<8x1xf32> loc(#loc76)
      %61 = arith.mulf %49, %cst_1 : tensor<8x512xf32> loc(#loc77)
      %62 = tt.broadcast %60 : tensor<8x1xf32> -> tensor<8x512xf32> loc(#loc78)
      %63 = arith.mulf %62, %61 : tensor<8x512xf32> loc(#loc78)
      %64 = arith.addf %55, %63 : tensor<8x512xf32> loc(#loc79)
      %65 = arith.addf %29, %64 : tensor<8x512xf32> loc(#loc80)
      %66 = arith.truncf %65 : tensor<8x512xf32> to tensor<8x512xf16> loc(#loc81)
      tt.store %24, %66, %27 : tensor<8x512x!tt.ptr<f16>> loc(#loc81)
    } loc(#loc44)
    tt.return loc(#loc82)
  } loc(#loc)
} loc(#loc)
#loc2 = loc("./local_cache/a5/ca52bl5squdroeaanlxdwl3jwdjj2wexli2lmyaxagznldaazf2w.py":22:28)
#loc3 = loc("./local_cache/a5/ca52bl5squdroeaanlxdwl3jwdjj2wexli2lmyaxagznldaazf2w.py":22:33)
#loc4 = loc("./local_cache/a5/ca52bl5squdroeaanlxdwl3jwdjj2wexli2lmyaxagznldaazf2w.py":23:36)
#loc5 = loc("./local_cache/a5/ca52bl5squdroeaanlxdwl3jwdjj2wexli2lmyaxagznldaazf2w.py":23:44)
#loc6 = loc("./local_cache/a5/ca52bl5squdroeaanlxdwl3jwdjj2wexli2lmyaxagznldaazf2w.py":23:23)
#loc7 = loc("./local_cache/a5/ca52bl5squdroeaanlxdwl3jwdjj2wexli2lmyaxagznldaazf2w.py":24:21)
#loc8 = loc("./local_cache/a5/ca52bl5squdroeaanlxdwl3jwdjj2wexli2lmyaxagznldaazf2w.py":25:27)
#loc9 = loc("./local_cache/a5/ca52bl5squdroeaanlxdwl3jwdjj2wexli2lmyaxagznldaazf2w.py":25:37)
#loc10 = loc("./local_cache/a5/ca52bl5squdroeaanlxdwl3jwdjj2wexli2lmyaxagznldaazf2w.py":29:40)
#loc11 = loc("./local_cache/a5/ca52bl5squdroeaanlxdwl3jwdjj2wexli2lmyaxagznldaazf2w.py":30:31)
#loc12 = loc("./local_cache/a5/ca52bl5squdroeaanlxdwl3jwdjj2wexli2lmyaxagznldaazf2w.py":31:29)
#loc13 = loc("./local_cache/a5/ca52bl5squdroeaanlxdwl3jwdjj2wexli2lmyaxagznldaazf2w.py":35:46)
#loc14 = loc("./local_cache/a5/ca52bl5squdroeaanlxdwl3jwdjj2wexli2lmyaxagznldaazf2w.py":35:41)
#loc15 = loc("./local_cache/a5/ca52bl5squdroeaanlxdwl3jwdjj2wexli2lmyaxagznldaazf2w.py":35:34)
#loc16 = loc("./local_cache/a5/ca52bl5squdroeaanlxdwl3jwdjj2wexli2lmyaxagznldaazf2w.py":35:61)
#loc17 = loc("./local_cache/a5/ca52bl5squdroeaanlxdwl3jwdjj2wexli2lmyaxagznldaazf2w.py":35:51)
#loc18 = loc("./local_cache/a5/ca52bl5squdroeaanlxdwl3jwdjj2wexli2lmyaxagznldaazf2w.py":35:112)
#loc19 = loc("./local_cache/a5/ca52bl5squdroeaanlxdwl3jwdjj2wexli2lmyaxagznldaazf2w.py":36:34)
#loc20 = loc("./local_cache/a5/ca52bl5squdroeaanlxdwl3jwdjj2wexli2lmyaxagznldaazf2w.py":36:51)
#loc21 = loc("./local_cache/a5/ca52bl5squdroeaanlxdwl3jwdjj2wexli2lmyaxagznldaazf2w.py":36:112)
#loc22 = loc("./local_cache/a5/ca52bl5squdroeaanlxdwl3jwdjj2wexli2lmyaxagznldaazf2w.py":37:34)
#loc23 = loc("./local_cache/a5/ca52bl5squdroeaanlxdwl3jwdjj2wexli2lmyaxagznldaazf2w.py":37:51)
#loc24 = loc("./local_cache/a5/ca52bl5squdroeaanlxdwl3jwdjj2wexli2lmyaxagznldaazf2w.py":37:112)
#loc25 = loc("./local_cache/a5/ca52bl5squdroeaanlxdwl3jwdjj2wexli2lmyaxagznldaazf2w.py":38:34)
#loc26 = loc("./local_cache/a5/ca52bl5squdroeaanlxdwl3jwdjj2wexli2lmyaxagznldaazf2w.py":38:41)
#loc27 = loc("./local_cache/a5/ca52bl5squdroeaanlxdwl3jwdjj2wexli2lmyaxagznldaazf2w.py":38:94)
#loc28 = loc("./local_cache/a5/ca52bl5squdroeaanlxdwl3jwdjj2wexli2lmyaxagznldaazf2w.py":39:34)
#loc29 = loc("./local_cache/a5/ca52bl5squdroeaanlxdwl3jwdjj2wexli2lmyaxagznldaazf2w.py":39:51)
#loc30 = loc("./local_cache/a5/ca52bl5squdroeaanlxdwl3jwdjj2wexli2lmyaxagznldaazf2w.py":39:112)
#loc31 = loc("./local_cache/a5/ca52bl5squdroeaanlxdwl3jwdjj2wexli2lmyaxagznldaazf2w.py":40:22)
#loc32 = loc("./local_cache/a5/ca52bl5squdroeaanlxdwl3jwdjj2wexli2lmyaxagznldaazf2w.py":41:22)
#loc33 = loc("./local_cache/a5/ca52bl5squdroeaanlxdwl3jwdjj2wexli2lmyaxagznldaazf2w.py":42:22)
#loc34 = loc("./local_cache/a5/ca52bl5squdroeaanlxdwl3jwdjj2wexli2lmyaxagznldaazf2w.py":45:23)
#loc35 = loc("./local_cache/a5/ca52bl5squdroeaanlxdwl3jwdjj2wexli2lmyaxagznldaazf2w.py":47:25)
#loc36 = loc("./local_cache/a5/ca52bl5squdroeaanlxdwl3jwdjj2wexli2lmyaxagznldaazf2w.py":48:50)
#loc37 = loc("./local_cache/a5/ca52bl5squdroeaanlxdwl3jwdjj2wexli2lmyaxagznldaazf2w.py":48:8)
#loc38 = loc("/workspace/torch-compile-caching/.venv/lib/python3.11/site-packages/triton/language/standard.py":286:36)
#loc40 = loc("/workspace/torch-compile-caching/.venv/lib/python3.11/site-packages/triton/language/standard.py":256:15)
#loc41 = loc("./local_cache/a5/ca52bl5squdroeaanlxdwl3jwdjj2wexli2lmyaxagznldaazf2w.py":49:30)
#loc42 = loc("./local_cache/a5/ca52bl5squdroeaanlxdwl3jwdjj2wexli2lmyaxagznldaazf2w.py":50:31)
#loc43 = loc("./local_cache/a5/ca52bl5squdroeaanlxdwl3jwdjj2wexli2lmyaxagznldaazf2w.py":50:36)
#loc44 = loc("./local_cache/a5/ca52bl5squdroeaanlxdwl3jwdjj2wexli2lmyaxagznldaazf2w.py":51:40)
#loc45 = loc("./local_cache/a5/ca52bl5squdroeaanlxdwl3jwdjj2wexli2lmyaxagznldaazf2w.py":52:31)
#loc46 = loc("./local_cache/a5/ca52bl5squdroeaanlxdwl3jwdjj2wexli2lmyaxagznldaazf2w.py":53:29)
#loc47 = loc("./local_cache/a5/ca52bl5squdroeaanlxdwl3jwdjj2wexli2lmyaxagznldaazf2w.py":57:51)
#loc48 = loc("./local_cache/a5/ca52bl5squdroeaanlxdwl3jwdjj2wexli2lmyaxagznldaazf2w.py":57:46)
#loc49 = loc("./local_cache/a5/ca52bl5squdroeaanlxdwl3jwdjj2wexli2lmyaxagznldaazf2w.py":57:39)
#loc50 = loc("./local_cache/a5/ca52bl5squdroeaanlxdwl3jwdjj2wexli2lmyaxagznldaazf2w.py":57:66)
#loc51 = loc("./local_cache/a5/ca52bl5squdroeaanlxdwl3jwdjj2wexli2lmyaxagznldaazf2w.py":57:56)
#loc52 = loc("./local_cache/a5/ca52bl5squdroeaanlxdwl3jwdjj2wexli2lmyaxagznldaazf2w.py":57:118)
#loc53 = loc("./local_cache/a5/ca52bl5squdroeaanlxdwl3jwdjj2wexli2lmyaxagznldaazf2w.py":58:35)
#loc54 = loc("./local_cache/a5/ca52bl5squdroeaanlxdwl3jwdjj2wexli2lmyaxagznldaazf2w.py":58:52)
#loc55 = loc("./local_cache/a5/ca52bl5squdroeaanlxdwl3jwdjj2wexli2lmyaxagznldaazf2w.py":58:114)
#loc56 = loc("./local_cache/a5/ca52bl5squdroeaanlxdwl3jwdjj2wexli2lmyaxagznldaazf2w.py":59:35)
#loc57 = loc("./local_cache/a5/ca52bl5squdroeaanlxdwl3jwdjj2wexli2lmyaxagznldaazf2w.py":59:52)
#loc58 = loc("./local_cache/a5/ca52bl5squdroeaanlxdwl3jwdjj2wexli2lmyaxagznldaazf2w.py":59:114)
#loc59 = loc("./local_cache/a5/ca52bl5squdroeaanlxdwl3jwdjj2wexli2lmyaxagznldaazf2w.py":60:35)
#loc60 = loc("./local_cache/a5/ca52bl5squdroeaanlxdwl3jwdjj2wexli2lmyaxagznldaazf2w.py":60:52)
#loc61 = loc("./local_cache/a5/ca52bl5squdroeaanlxdwl3jwdjj2wexli2lmyaxagznldaazf2w.py":60:114)
#loc62 = loc("./local_cache/a5/ca52bl5squdroeaanlxdwl3jwdjj2wexli2lmyaxagznldaazf2w.py":61:35)
#loc63 = loc("./local_cache/a5/ca52bl5squdroeaanlxdwl3jwdjj2wexli2lmyaxagznldaazf2w.py":61:42)
#loc64 = loc("./local_cache/a5/ca52bl5squdroeaanlxdwl3jwdjj2wexli2lmyaxagznldaazf2w.py":61:95)
#loc65 = loc("./local_cache/a5/ca52bl5squdroeaanlxdwl3jwdjj2wexli2lmyaxagznldaazf2w.py":62:35)
#loc66 = loc("./local_cache/a5/ca52bl5squdroeaanlxdwl3jwdjj2wexli2lmyaxagznldaazf2w.py":62:52)
#loc67 = loc("./local_cache/a5/ca52bl5squdroeaanlxdwl3jwdjj2wexli2lmyaxagznldaazf2w.py":62:114)
#loc68 = loc("./local_cache/a5/ca52bl5squdroeaanlxdwl3jwdjj2wexli2lmyaxagznldaazf2w.py":63:24)
#loc69 = loc("./local_cache/a5/ca52bl5squdroeaanlxdwl3jwdjj2wexli2lmyaxagznldaazf2w.py":64:24)
#loc70 = loc("./local_cache/a5/ca52bl5squdroeaanlxdwl3jwdjj2wexli2lmyaxagznldaazf2w.py":65:24)
#loc71 = loc("./local_cache/a5/ca52bl5squdroeaanlxdwl3jwdjj2wexli2lmyaxagznldaazf2w.py":67:24)
#loc72 = loc("./local_cache/a5/ca52bl5squdroeaanlxdwl3jwdjj2wexli2lmyaxagznldaazf2w.py":69:24)
#loc73 = loc("./local_cache/a5/ca52bl5squdroeaanlxdwl3jwdjj2wexli2lmyaxagznldaazf2w.py":70:24)
#loc74 = loc("./local_cache/a5/ca52bl5squdroeaanlxdwl3jwdjj2wexli2lmyaxagznldaazf2w.py":71:24)
#loc75 = loc("./local_cache/a5/ca52bl5squdroeaanlxdwl3jwdjj2wexli2lmyaxagznldaazf2w.py":72:24)
#loc76 = loc("./local_cache/a5/ca52bl5squdroeaanlxdwl3jwdjj2wexli2lmyaxagznldaazf2w.py":74:24)
#loc77 = loc("./local_cache/a5/ca52bl5squdroeaanlxdwl3jwdjj2wexli2lmyaxagznldaazf2w.py":77:24)
#loc78 = loc("./local_cache/a5/ca52bl5squdroeaanlxdwl3jwdjj2wexli2lmyaxagznldaazf2w.py":78:24)
#loc79 = loc("./local_cache/a5/ca52bl5squdroeaanlxdwl3jwdjj2wexli2lmyaxagznldaazf2w.py":79:24)
#loc80 = loc("./local_cache/a5/ca52bl5squdroeaanlxdwl3jwdjj2wexli2lmyaxagznldaazf2w.py":81:24)
#loc81 = loc("./local_cache/a5/ca52bl5squdroeaanlxdwl3jwdjj2wexli2lmyaxagznldaazf2w.py":82:56)
#loc82 = loc("./local_cache/a5/ca52bl5squdroeaanlxdwl3jwdjj2wexli2lmyaxagznldaazf2w.py":51:4)
#loc83 = loc(callsite(#loc38 at #loc39))
#loc85 = loc(callsite(#loc40 at #loc38))
#loc86 = loc(callsite(#loc85 at #loc39))
