#loc = loc("/tmp/torchinductor_root/rn/crnc6oprka42sj7c5wh2kuihctqhia3bpcgrfvd77nq7vnlnwk35.py":18:0)
module {
  tt.func public @triton_poi_fused_mul_7(%arg0: !tt.ptr<f16> {tt.divisibility = 16 : i32} loc("/tmp/torchinductor_root/rn/crnc6oprka42sj7c5wh2kuihctqhia3bpcgrfvd77nq7vnlnwk35.py":18:0), %arg1: !tt.ptr<f32> {tt.divisibility = 16 : i32} loc("/tmp/torchinductor_root/rn/crnc6oprka42sj7c5wh2kuihctqhia3bpcgrfvd77nq7vnlnwk35.py":18:0), %arg2: !tt.ptr<f16> {tt.divisibility = 16 : i32} loc("/tmp/torchinductor_root/rn/crnc6oprka42sj7c5wh2kuihctqhia3bpcgrfvd77nq7vnlnwk35.py":18:0), %arg3: i32 loc("/tmp/torchinductor_root/rn/crnc6oprka42sj7c5wh2kuihctqhia3bpcgrfvd77nq7vnlnwk35.py":18:0), %arg4: i32 {tt.divisibility = 16 : i32} loc("/tmp/torchinductor_root/rn/crnc6oprka42sj7c5wh2kuihctqhia3bpcgrfvd77nq7vnlnwk35.py":18:0)) attributes {noinline = false} {
    %cst = arith.constant dense<64> : tensor<512xi32> loc(#loc1)
    %cst_0 = arith.constant dense<384> : tensor<512xi32> loc(#loc1)
    %cst_1 = arith.constant dense<256> : tensor<512xi32> loc(#loc1)
    %cst_2 = arith.constant dense<512> : tensor<512xi32> loc(#loc1)
    %cst_3 = arith.constant dense<1024> : tensor<512xi32> loc(#loc1)
    %cst_4 = arith.constant dense<128> : tensor<512xi32> loc(#loc1)
    %c512_i32 = arith.constant 512 : i32 loc(#loc1)
    %0 = tt.get_program_id x : i32 loc(#loc2)
    %1 = arith.muli %0, %c512_i32 : i32 loc(#loc3)
    %2 = tt.make_range {end = 512 : i32, start = 0 : i32} : tensor<512xi32> loc(#loc4)
    %3 = tt.splat %1 : i32 -> tensor<512xi32> loc(#loc5)
    %4 = arith.addi %3, %2 : tensor<512xi32> loc(#loc5)
    %5 = tt.splat %arg4 : i32 -> tensor<512xi32> loc(#loc6)
    %6 = arith.cmpi slt, %4, %5 : tensor<512xi32> loc(#loc6)
    %7 = arith.remsi %4, %cst_4 : tensor<512xi32> loc(#loc7)
    %8 = arith.divsi %4, %cst_4 : tensor<512xi32> loc(#loc8)
    %9 = arith.divsi %4, %cst_3 : tensor<512xi32> loc(#loc9)
    %10 = arith.muli %8, %cst_2 : tensor<512xi32> loc(#loc10)
    %11 = arith.addi %7, %10 : tensor<512xi32> loc(#loc11)
    %12 = tt.splat %arg0 : !tt.ptr<f16> -> tensor<512x!tt.ptr<f16>> loc(#loc12)
    %13 = tt.addptr %12, %11 : tensor<512x!tt.ptr<f16>>, tensor<512xi32> loc(#loc12)
    %14 = tt.load %13, %6 : tensor<512x!tt.ptr<f16>> loc(#loc13)
    %15 = arith.extf %14 : tensor<512xf16> to tensor<512xf32> loc(#loc14)
    %16 = arith.addi %7, %cst_4 : tensor<512xi32> loc(#loc15)
    %17 = arith.addi %16, %10 : tensor<512xi32> loc(#loc16)
    %18 = tt.addptr %12, %17 : tensor<512x!tt.ptr<f16>>, tensor<512xi32> loc(#loc17)
    %19 = tt.load %18, %6 : tensor<512x!tt.ptr<f16>> loc(#loc18)
    %20 = arith.extf %19 : tensor<512xf16> to tensor<512xf32> loc(#loc19)
    %21 = arith.addi %7, %cst_1 : tensor<512xi32> loc(#loc20)
    %22 = arith.addi %21, %10 : tensor<512xi32> loc(#loc21)
    %23 = tt.addptr %12, %22 : tensor<512x!tt.ptr<f16>>, tensor<512xi32> loc(#loc22)
    %24 = tt.load %23, %6 : tensor<512x!tt.ptr<f16>> loc(#loc23)
    %25 = arith.extf %24 : tensor<512xf16> to tensor<512xf32> loc(#loc24)
    %26 = arith.addi %7, %cst_0 : tensor<512xi32> loc(#loc25)
    %27 = arith.addi %26, %10 : tensor<512xi32> loc(#loc26)
    %28 = tt.addptr %12, %27 : tensor<512x!tt.ptr<f16>>, tensor<512xi32> loc(#loc27)
    %29 = tt.load %28, %6 : tensor<512x!tt.ptr<f16>> loc(#loc28)
    %30 = arith.extf %29 : tensor<512xf16> to tensor<512xf32> loc(#loc29)
    %31 = arith.remsi %7, %cst : tensor<512xi32> loc(#loc30)
    %32 = tt.splat %arg3 : i32 -> tensor<512xi32> loc(#loc31)
    %33 = arith.muli %32, %31 : tensor<512xi32> loc(#loc31)
    %34 = arith.addi %9, %33 : tensor<512xi32> loc(#loc32)
    %35 = tt.splat %arg1 : !tt.ptr<f32> -> tensor<512x!tt.ptr<f32>> loc(#loc33)
    %36 = tt.addptr %35, %34 : tensor<512x!tt.ptr<f32>>, tensor<512xi32> loc(#loc33)
    %37 = tt.load %36, %6 evictionPolicy = evict_last : tensor<512x!tt.ptr<f32>> loc(#loc34)
    %38 = arith.addf %15, %20 : tensor<512xf32> loc(#loc35)
    %39 = arith.addf %38, %25 : tensor<512xf32> loc(#loc36)
    %40 = arith.addf %39, %30 : tensor<512xf32> loc(#loc37)
    %41 = math.sin %37 : tensor<512xf32> loc(#loc38)
    %42 = arith.mulf %40, %41 : tensor<512xf32> loc(#loc39)
    %43 = tt.splat %arg2 : !tt.ptr<f16> -> tensor<512x!tt.ptr<f16>> loc(#loc40)
    %44 = tt.addptr %43, %4 : tensor<512x!tt.ptr<f16>>, tensor<512xi32> loc(#loc40)
    %45 = arith.truncf %42 : tensor<512xf32> to tensor<512xf16> loc(#loc41)
    tt.store %44, %45, %6 : tensor<512x!tt.ptr<f16>> loc(#loc41)
    tt.return loc(#loc42)
  } loc(#loc)
} loc(#loc)
#loc1 = loc(unknown)
#loc2 = loc("/tmp/torchinductor_root/rn/crnc6oprka42sj7c5wh2kuihctqhia3bpcgrfvd77nq7vnlnwk35.py":19:28)
#loc3 = loc("/tmp/torchinductor_root/rn/crnc6oprka42sj7c5wh2kuihctqhia3bpcgrfvd77nq7vnlnwk35.py":19:33)
#loc4 = loc("/tmp/torchinductor_root/rn/crnc6oprka42sj7c5wh2kuihctqhia3bpcgrfvd77nq7vnlnwk35.py":20:36)
#loc5 = loc("/tmp/torchinductor_root/rn/crnc6oprka42sj7c5wh2kuihctqhia3bpcgrfvd77nq7vnlnwk35.py":20:23)
#loc6 = loc("/tmp/torchinductor_root/rn/crnc6oprka42sj7c5wh2kuihctqhia3bpcgrfvd77nq7vnlnwk35.py":21:21)
#loc7 = loc("/tmp/torchinductor_root/rn/crnc6oprka42sj7c5wh2kuihctqhia3bpcgrfvd77nq7vnlnwk35.py":22:19)
#loc8 = loc("/tmp/torchinductor_root/rn/crnc6oprka42sj7c5wh2kuihctqhia3bpcgrfvd77nq7vnlnwk35.py":23:19)
#loc9 = loc("/tmp/torchinductor_root/rn/crnc6oprka42sj7c5wh2kuihctqhia3bpcgrfvd77nq7vnlnwk35.py":24:19)
#loc10 = loc("/tmp/torchinductor_root/rn/crnc6oprka42sj7c5wh2kuihctqhia3bpcgrfvd77nq7vnlnwk35.py":26:39)
#loc11 = loc("/tmp/torchinductor_root/rn/crnc6oprka42sj7c5wh2kuihctqhia3bpcgrfvd77nq7vnlnwk35.py":26:35)
#loc12 = loc("/tmp/torchinductor_root/rn/crnc6oprka42sj7c5wh2kuihctqhia3bpcgrfvd77nq7vnlnwk35.py":26:30)
#loc13 = loc("/tmp/torchinductor_root/rn/crnc6oprka42sj7c5wh2kuihctqhia3bpcgrfvd77nq7vnlnwk35.py":26:44)
#loc14 = loc("/tmp/torchinductor_root/rn/crnc6oprka42sj7c5wh2kuihctqhia3bpcgrfvd77nq7vnlnwk35.py":26:54)
#loc15 = loc("/tmp/torchinductor_root/rn/crnc6oprka42sj7c5wh2kuihctqhia3bpcgrfvd77nq7vnlnwk35.py":27:36)
#loc16 = loc("/tmp/torchinductor_root/rn/crnc6oprka42sj7c5wh2kuihctqhia3bpcgrfvd77nq7vnlnwk35.py":27:41)
#loc17 = loc("/tmp/torchinductor_root/rn/crnc6oprka42sj7c5wh2kuihctqhia3bpcgrfvd77nq7vnlnwk35.py":27:30)
#loc18 = loc("/tmp/torchinductor_root/rn/crnc6oprka42sj7c5wh2kuihctqhia3bpcgrfvd77nq7vnlnwk35.py":27:50)
#loc19 = loc("/tmp/torchinductor_root/rn/crnc6oprka42sj7c5wh2kuihctqhia3bpcgrfvd77nq7vnlnwk35.py":27:60)
#loc20 = loc("/tmp/torchinductor_root/rn/crnc6oprka42sj7c5wh2kuihctqhia3bpcgrfvd77nq7vnlnwk35.py":28:36)
#loc21 = loc("/tmp/torchinductor_root/rn/crnc6oprka42sj7c5wh2kuihctqhia3bpcgrfvd77nq7vnlnwk35.py":28:41)
#loc22 = loc("/tmp/torchinductor_root/rn/crnc6oprka42sj7c5wh2kuihctqhia3bpcgrfvd77nq7vnlnwk35.py":28:30)
#loc23 = loc("/tmp/torchinductor_root/rn/crnc6oprka42sj7c5wh2kuihctqhia3bpcgrfvd77nq7vnlnwk35.py":28:50)
#loc24 = loc("/tmp/torchinductor_root/rn/crnc6oprka42sj7c5wh2kuihctqhia3bpcgrfvd77nq7vnlnwk35.py":28:60)
#loc25 = loc("/tmp/torchinductor_root/rn/crnc6oprka42sj7c5wh2kuihctqhia3bpcgrfvd77nq7vnlnwk35.py":29:36)
#loc26 = loc("/tmp/torchinductor_root/rn/crnc6oprka42sj7c5wh2kuihctqhia3bpcgrfvd77nq7vnlnwk35.py":29:41)
#loc27 = loc("/tmp/torchinductor_root/rn/crnc6oprka42sj7c5wh2kuihctqhia3bpcgrfvd77nq7vnlnwk35.py":29:30)
#loc28 = loc("/tmp/torchinductor_root/rn/crnc6oprka42sj7c5wh2kuihctqhia3bpcgrfvd77nq7vnlnwk35.py":29:50)
#loc29 = loc("/tmp/torchinductor_root/rn/crnc6oprka42sj7c5wh2kuihctqhia3bpcgrfvd77nq7vnlnwk35.py":29:60)
#loc30 = loc("/tmp/torchinductor_root/rn/crnc6oprka42sj7c5wh2kuihctqhia3bpcgrfvd77nq7vnlnwk35.py":30:46)
#loc31 = loc("/tmp/torchinductor_root/rn/crnc6oprka42sj7c5wh2kuihctqhia3bpcgrfvd77nq7vnlnwk35.py":30:41)
#loc32 = loc("/tmp/torchinductor_root/rn/crnc6oprka42sj7c5wh2kuihctqhia3bpcgrfvd77nq7vnlnwk35.py":30:35)
#loc33 = loc("/tmp/torchinductor_root/rn/crnc6oprka42sj7c5wh2kuihctqhia3bpcgrfvd77nq7vnlnwk35.py":30:30)
#loc34 = loc("/tmp/torchinductor_root/rn/crnc6oprka42sj7c5wh2kuihctqhia3bpcgrfvd77nq7vnlnwk35.py":30:53)
#loc35 = loc("/tmp/torchinductor_root/rn/crnc6oprka42sj7c5wh2kuihctqhia3bpcgrfvd77nq7vnlnwk35.py":31:18)
#loc36 = loc("/tmp/torchinductor_root/rn/crnc6oprka42sj7c5wh2kuihctqhia3bpcgrfvd77nq7vnlnwk35.py":32:18)
#loc37 = loc("/tmp/torchinductor_root/rn/crnc6oprka42sj7c5wh2kuihctqhia3bpcgrfvd77nq7vnlnwk35.py":33:18)
#loc38 = loc("/tmp/torchinductor_root/rn/crnc6oprka42sj7c5wh2kuihctqhia3bpcgrfvd77nq7vnlnwk35.py":34:23)
#loc39 = loc("/tmp/torchinductor_root/rn/crnc6oprka42sj7c5wh2kuihctqhia3bpcgrfvd77nq7vnlnwk35.py":38:19)
#loc40 = loc("/tmp/torchinductor_root/rn/crnc6oprka42sj7c5wh2kuihctqhia3bpcgrfvd77nq7vnlnwk35.py":39:25)
#loc41 = loc("/tmp/torchinductor_root/rn/crnc6oprka42sj7c5wh2kuihctqhia3bpcgrfvd77nq7vnlnwk35.py":39:37)
#loc42 = loc("/tmp/torchinductor_root/rn/crnc6oprka42sj7c5wh2kuihctqhia3bpcgrfvd77nq7vnlnwk35.py":39:4)
