#loc = loc("./local_cache/ir/cirveghol7wjrq7zwkkgu3sphruzjhq4ru5zcvmudgaexdo5niag.py":18:0)
#loc1 = loc(unknown)
#loc26 = loc("./local_cache/ir/cirveghol7wjrq7zwkkgu3sphruzjhq4ru5zcvmudgaexdo5niag.py":46:25)
#loc48 = loc(callsite(#loc1 at #loc26))
module {
  tt.func public @triton_red_fused__to_copy_add_mean_mul_pow_rsqrt_8(%arg0: !tt.ptr<f16> {tt.divisibility = 16 : i32} loc("./local_cache/ir/cirveghol7wjrq7zwkkgu3sphruzjhq4ru5zcvmudgaexdo5niag.py":18:0), %arg1: !tt.ptr<f32> {tt.divisibility = 16 : i32} loc("./local_cache/ir/cirveghol7wjrq7zwkkgu3sphruzjhq4ru5zcvmudgaexdo5niag.py":18:0), %arg2: !tt.ptr<f16> {tt.divisibility = 16 : i32} loc("./local_cache/ir/cirveghol7wjrq7zwkkgu3sphruzjhq4ru5zcvmudgaexdo5niag.py":18:0), %arg3: !tt.ptr<f16> {tt.divisibility = 16 : i32} loc("./local_cache/ir/cirveghol7wjrq7zwkkgu3sphruzjhq4ru5zcvmudgaexdo5niag.py":18:0), %arg4: !tt.ptr<f16> {tt.divisibility = 16 : i32} loc("./local_cache/ir/cirveghol7wjrq7zwkkgu3sphruzjhq4ru5zcvmudgaexdo5niag.py":18:0), %arg5: !tt.ptr<f16> {tt.divisibility = 16 : i32} loc("./local_cache/ir/cirveghol7wjrq7zwkkgu3sphruzjhq4ru5zcvmudgaexdo5niag.py":18:0), %arg6: i32 loc("./local_cache/ir/cirveghol7wjrq7zwkkgu3sphruzjhq4ru5zcvmudgaexdo5niag.py":18:0), %arg7: i32 {tt.divisibility = 16 : i32} loc("./local_cache/ir/cirveghol7wjrq7zwkkgu3sphruzjhq4ru5zcvmudgaexdo5niag.py":18:0)) attributes {noinline = false} {
    %c4096_i32 = arith.constant 4096 : i32 loc(#loc1)
    %cst = arith.constant dense<0.000000e+00> : tensor<1x4096xf16> loc(#loc1)
    %cst_0 = arith.constant dense<9.99999974E-6> : tensor<1x1xf32> loc(#loc1)
    %cst_1 = arith.constant dense<4.096000e+03> : tensor<1x1xf32> loc(#loc1)
    %cst_2 = arith.constant dense<4096> : tensor<1x4096xi32> loc(#loc1)
    %cst_3 = arith.constant dense<0.000000e+00> : tensor<1x4096xf32> loc(#loc1)
    %0 = tt.get_program_id x : i32 loc(#loc2)
    %1 = arith.cmpi slt, %0, %arg6 : i32 loc(#loc3)
    %2 = tt.splat %1 : i1 -> tensor<1x1xi1> loc(#loc3)
    %3 = tt.make_range {end = 4096 : i32, start = 0 : i32} : tensor<4096xi32> loc(#loc4)
    %4 = tt.expand_dims %3 {axis = 0 : i32} : tensor<4096xi32> -> tensor<1x4096xi32> loc(#loc5)
    %5 = arith.cmpi slt, %4, %cst_2 : tensor<1x4096xi32> loc(#loc6)
    %6 = arith.muli %0, %c4096_i32 : i32 loc(#loc7)
    %7 = tt.splat %6 : i32 -> tensor<1x4096xi32> loc(#loc45)
    %8 = arith.addi %4, %7 : tensor<1x4096xi32> loc(#loc8)
    %9 = tt.splat %arg2 : !tt.ptr<f16> -> tensor<1x4096x!tt.ptr<f16>> loc(#loc9)
    %10 = tt.addptr %9, %8 : tensor<1x4096x!tt.ptr<f16>>, tensor<1x4096xi32> loc(#loc9)
    %11 = tt.splat %1 : i1 -> tensor<1x4096xi1> loc(#loc46)
    %12 = arith.andi %5, %11 : tensor<1x4096xi1> loc(#loc10)
    %13 = tt.load %10, %12, %cst evictionPolicy = evict_first : tensor<1x4096x!tt.ptr<f16>> loc(#loc11)
    %14 = arith.extf %13 : tensor<1x4096xf16> to tensor<1x4096xf32> loc(#loc12)
    %15 = tt.splat %arg3 : !tt.ptr<f16> -> tensor<1x4096x!tt.ptr<f16>> loc(#loc13)
    %16 = tt.addptr %15, %8 : tensor<1x4096x!tt.ptr<f16>>, tensor<1x4096xi32> loc(#loc13)
    %17 = tt.load %16, %12, %cst evictionPolicy = evict_first : tensor<1x4096x!tt.ptr<f16>> loc(#loc14)
    %18 = arith.extf %17 : tensor<1x4096xf16> to tensor<1x4096xf32> loc(#loc15)
    %19 = tt.splat %arg0 : !tt.ptr<f16> -> tensor<1x4096x!tt.ptr<f16>> loc(#loc16)
    %20 = tt.addptr %19, %8 : tensor<1x4096x!tt.ptr<f16>>, tensor<1x4096xi32> loc(#loc16)
    %21 = tt.load %20, %12, %cst evictionPolicy = evict_first : tensor<1x4096x!tt.ptr<f16>> loc(#loc17)
    %22 = arith.extf %21 : tensor<1x4096xf16> to tensor<1x4096xf32> loc(#loc18)
    %23 = arith.addf %14, %18 : tensor<1x4096xf32> loc(#loc19)
    %24 = arith.addf %23, %22 : tensor<1x4096xf32> loc(#loc20)
    %25 = arith.mulf %24, %24 : tensor<1x4096xf32> loc(#loc21)
    %26 = arith.addf %25, %cst_3 : tensor<1x4096xf32> loc(#loc22)
    %27 = arith.select %12, %26, %cst_3 : tensor<1x4096xi1>, tensor<1x4096xf32> loc(#loc23)
    %28 = arith.truncf %24 : tensor<1x4096xf32> to tensor<1x4096xf16> loc(#loc24)
    tt.store %20, %28, %12 : tensor<1x4096x!tt.ptr<f16>> loc(#loc24)
    %29 = "tt.reduce"(%27) <{axis = 1 : i32}> ({
    ^bb0(%arg8: f32 loc(callsite(#loc1 at #loc26)), %arg9: f32 loc(callsite(#loc1 at #loc26))):
      %48 = arith.addf %arg8, %arg9 : f32 loc(#loc50)
      tt.reduce.return %48 : f32 loc(#loc47)
    }) : (tensor<1x4096xf32>) -> tensor<1xf32> loc(#loc47)
    %30 = tt.expand_dims %29 {axis = 1 : i32} : tensor<1xf32> -> tensor<1x1xf32> loc(#loc28)
    %31 = arith.divf %30, %cst_1 : tensor<1x1xf32> loc(#loc29)
    %32 = arith.addf %31, %cst_0 : tensor<1x1xf32> loc(#loc30)
    %33 = tt.extern_elementwise %32 {libname = "", libpath = "", pure = true, symbol = "__nv_rsqrtf"} : (tensor<1x1xf32>) -> tensor<1x1xf32> loc(#loc31)
    gpu.barrier loc(#loc32)
    %34 = tt.addptr %arg1, %0 : !tt.ptr<f32>, i32 loc(#loc33)
    %35 = tt.splat %34 : !tt.ptr<f32> -> tensor<1x1x!tt.ptr<f32>> loc(#loc33)
    tt.store %35, %33, %2 : tensor<1x1x!tt.ptr<f32>> loc(#loc34)
    %36 = tt.splat %arg4 : !tt.ptr<f16> -> tensor<1x4096x!tt.ptr<f16>> loc(#loc35)
    %37 = tt.addptr %36, %4 : tensor<1x4096x!tt.ptr<f16>>, tensor<1x4096xi32> loc(#loc35)
    %38 = tt.load %37, %5, %cst evictionPolicy = evict_last : tensor<1x4096x!tt.ptr<f16>> loc(#loc36)
    %39 = arith.extf %38 : tensor<1x4096xf16> to tensor<1x4096xf32> loc(#loc37)
    %40 = tt.load %20, %12, %cst evictionPolicy = evict_first : tensor<1x4096x!tt.ptr<f16>> loc(#loc38)
    %41 = arith.extf %40 : tensor<1x4096xf16> to tensor<1x4096xf32> loc(#loc39)
    %42 = tt.broadcast %33 : tensor<1x1xf32> -> tensor<1x4096xf32> loc(#loc40)
    %43 = arith.mulf %41, %42 : tensor<1x4096xf32> loc(#loc40)
    %44 = arith.mulf %39, %43 : tensor<1x4096xf32> loc(#loc41)
    %45 = tt.splat %arg5 : !tt.ptr<f16> -> tensor<1x4096x!tt.ptr<f16>> loc(#loc42)
    %46 = tt.addptr %45, %8 : tensor<1x4096x!tt.ptr<f16>>, tensor<1x4096xi32> loc(#loc42)
    %47 = arith.truncf %44 : tensor<1x4096xf32> to tensor<1x4096xf16> loc(#loc43)
    tt.store %46, %47, %12 : tensor<1x4096x!tt.ptr<f16>> loc(#loc43)
    tt.return loc(#loc44)
  } loc(#loc)
} loc(#loc)
#loc2 = loc("./local_cache/ir/cirveghol7wjrq7zwkkgu3sphruzjhq4ru5zcvmudgaexdo5niag.py":22:28)
#loc3 = loc("./local_cache/ir/cirveghol7wjrq7zwkkgu3sphruzjhq4ru5zcvmudgaexdo5niag.py":24:21)
#loc4 = loc("./local_cache/ir/cirveghol7wjrq7zwkkgu3sphruzjhq4ru5zcvmudgaexdo5niag.py":25:27)
#loc5 = loc("./local_cache/ir/cirveghol7wjrq7zwkkgu3sphruzjhq4ru5zcvmudgaexdo5niag.py":25:37)
#loc6 = loc("./local_cache/ir/cirveghol7wjrq7zwkkgu3sphruzjhq4ru5zcvmudgaexdo5niag.py":31:29)
#loc7 = loc("./local_cache/ir/cirveghol7wjrq7zwkkgu3sphruzjhq4ru5zcvmudgaexdo5niag.py":35:46)
#loc8 = loc("./local_cache/ir/cirveghol7wjrq7zwkkgu3sphruzjhq4ru5zcvmudgaexdo5niag.py":35:41)
#loc9 = loc("./local_cache/ir/cirveghol7wjrq7zwkkgu3sphruzjhq4ru5zcvmudgaexdo5niag.py":35:34)
#loc10 = loc("./local_cache/ir/cirveghol7wjrq7zwkkgu3sphruzjhq4ru5zcvmudgaexdo5niag.py":35:61)
#loc11 = loc("./local_cache/ir/cirveghol7wjrq7zwkkgu3sphruzjhq4ru5zcvmudgaexdo5niag.py":35:51)
#loc12 = loc("./local_cache/ir/cirveghol7wjrq7zwkkgu3sphruzjhq4ru5zcvmudgaexdo5niag.py":35:113)
#loc13 = loc("./local_cache/ir/cirveghol7wjrq7zwkkgu3sphruzjhq4ru5zcvmudgaexdo5niag.py":36:34)
#loc14 = loc("./local_cache/ir/cirveghol7wjrq7zwkkgu3sphruzjhq4ru5zcvmudgaexdo5niag.py":36:51)
#loc15 = loc("./local_cache/ir/cirveghol7wjrq7zwkkgu3sphruzjhq4ru5zcvmudgaexdo5niag.py":36:113)
#loc16 = loc("./local_cache/ir/cirveghol7wjrq7zwkkgu3sphruzjhq4ru5zcvmudgaexdo5niag.py":37:38)
#loc17 = loc("./local_cache/ir/cirveghol7wjrq7zwkkgu3sphruzjhq4ru5zcvmudgaexdo5niag.py":37:55)
#loc18 = loc("./local_cache/ir/cirveghol7wjrq7zwkkgu3sphruzjhq4ru5zcvmudgaexdo5niag.py":37:117)
#loc19 = loc("./local_cache/ir/cirveghol7wjrq7zwkkgu3sphruzjhq4ru5zcvmudgaexdo5niag.py":38:22)
#loc20 = loc("./local_cache/ir/cirveghol7wjrq7zwkkgu3sphruzjhq4ru5zcvmudgaexdo5niag.py":39:22)
#loc21 = loc("./local_cache/ir/cirveghol7wjrq7zwkkgu3sphruzjhq4ru5zcvmudgaexdo5niag.py":41:22)
#loc22 = loc("./local_cache/ir/cirveghol7wjrq7zwkkgu3sphruzjhq4ru5zcvmudgaexdo5niag.py":43:23)
#loc23 = loc("./local_cache/ir/cirveghol7wjrq7zwkkgu3sphruzjhq4ru5zcvmudgaexdo5niag.py":44:48)
#loc24 = loc("./local_cache/ir/cirveghol7wjrq7zwkkgu3sphruzjhq4ru5zcvmudgaexdo5niag.py":45:55)
#loc25 = loc("/workspace/torch-compile-caching/.venv/lib/python3.11/site-packages/triton/language/standard.py":286:36)
#loc27 = loc("/workspace/torch-compile-caching/.venv/lib/python3.11/site-packages/triton/language/standard.py":256:15)
#loc28 = loc("./local_cache/ir/cirveghol7wjrq7zwkkgu3sphruzjhq4ru5zcvmudgaexdo5niag.py":46:28)
#loc29 = loc("./local_cache/ir/cirveghol7wjrq7zwkkgu3sphruzjhq4ru5zcvmudgaexdo5niag.py":48:20)
#loc30 = loc("./local_cache/ir/cirveghol7wjrq7zwkkgu3sphruzjhq4ru5zcvmudgaexdo5niag.py":50:20)
#loc31 = loc("./local_cache/ir/cirveghol7wjrq7zwkkgu3sphruzjhq4ru5zcvmudgaexdo5niag.py":51:28)
#loc32 = loc("./local_cache/ir/cirveghol7wjrq7zwkkgu3sphruzjhq4ru5zcvmudgaexdo5niag.py":52:4)
#loc33 = loc("./local_cache/ir/cirveghol7wjrq7zwkkgu3sphruzjhq4ru5zcvmudgaexdo5niag.py":53:28)
#loc34 = loc("./local_cache/ir/cirveghol7wjrq7zwkkgu3sphruzjhq4ru5zcvmudgaexdo5niag.py":53:40)
#loc35 = loc("./local_cache/ir/cirveghol7wjrq7zwkkgu3sphruzjhq4ru5zcvmudgaexdo5niag.py":60:35)
#loc36 = loc("./local_cache/ir/cirveghol7wjrq7zwkkgu3sphruzjhq4ru5zcvmudgaexdo5niag.py":60:42)
#loc37 = loc("./local_cache/ir/cirveghol7wjrq7zwkkgu3sphruzjhq4ru5zcvmudgaexdo5niag.py":60:95)
#loc38 = loc("./local_cache/ir/cirveghol7wjrq7zwkkgu3sphruzjhq4ru5zcvmudgaexdo5niag.py":61:56)
#loc39 = loc("./local_cache/ir/cirveghol7wjrq7zwkkgu3sphruzjhq4ru5zcvmudgaexdo5niag.py":61:118)
#loc40 = loc("./local_cache/ir/cirveghol7wjrq7zwkkgu3sphruzjhq4ru5zcvmudgaexdo5niag.py":63:24)
#loc41 = loc("./local_cache/ir/cirveghol7wjrq7zwkkgu3sphruzjhq4ru5zcvmudgaexdo5niag.py":65:24)
#loc42 = loc("./local_cache/ir/cirveghol7wjrq7zwkkgu3sphruzjhq4ru5zcvmudgaexdo5niag.py":66:29)
#loc43 = loc("./local_cache/ir/cirveghol7wjrq7zwkkgu3sphruzjhq4ru5zcvmudgaexdo5niag.py":66:53)
#loc44 = loc("./local_cache/ir/cirveghol7wjrq7zwkkgu3sphruzjhq4ru5zcvmudgaexdo5niag.py":54:4)
#loc45 = loc(fused[#loc8, #loc7])
#loc46 = loc(fused[#loc10, #loc3])
#loc47 = loc(callsite(#loc25 at #loc26))
#loc49 = loc(callsite(#loc27 at #loc25))
#loc50 = loc(callsite(#loc49 at #loc26))
