#loc = loc("./local_cache/t5/ct5b6awyifp6axgj3o2hglyu23vrueitmssagp2ltfkjebrjoxge.py":18:0)
#loc1 = loc(unknown)
#loc35 = loc("./local_cache/t5/ct5b6awyifp6axgj3o2hglyu23vrueitmssagp2ltfkjebrjoxge.py":49:27)
#loc82 = loc(callsite(#loc1 at #loc35))
module {
  tt.func public @triton_red_fused__to_copy_add_div_mul_pow_sum_12(%arg0: !tt.ptr<f16> {tt.divisibility = 16 : i32} loc("./local_cache/t5/ct5b6awyifp6axgj3o2hglyu23vrueitmssagp2ltfkjebrjoxge.py":18:0), %arg1: !tt.ptr<f16> {tt.divisibility = 16 : i32} loc("./local_cache/t5/ct5b6awyifp6axgj3o2hglyu23vrueitmssagp2ltfkjebrjoxge.py":18:0), %arg2: !tt.ptr<f16> {tt.divisibility = 16 : i32} loc("./local_cache/t5/ct5b6awyifp6axgj3o2hglyu23vrueitmssagp2ltfkjebrjoxge.py":18:0), %arg3: !tt.ptr<f16> {tt.divisibility = 16 : i32} loc("./local_cache/t5/ct5b6awyifp6axgj3o2hglyu23vrueitmssagp2ltfkjebrjoxge.py":18:0), %arg4: !tt.ptr<f16> {tt.divisibility = 16 : i32} loc("./local_cache/t5/ct5b6awyifp6axgj3o2hglyu23vrueitmssagp2ltfkjebrjoxge.py":18:0), %arg5: !tt.ptr<f16> {tt.divisibility = 16 : i32} loc("./local_cache/t5/ct5b6awyifp6axgj3o2hglyu23vrueitmssagp2ltfkjebrjoxge.py":18:0), %arg6: !tt.ptr<f32> {tt.divisibility = 16 : i32} loc("./local_cache/t5/ct5b6awyifp6axgj3o2hglyu23vrueitmssagp2ltfkjebrjoxge.py":18:0), %arg7: i32 loc("./local_cache/t5/ct5b6awyifp6axgj3o2hglyu23vrueitmssagp2ltfkjebrjoxge.py":18:0), %arg8: i32 {tt.divisibility = 16 : i32} loc("./local_cache/t5/ct5b6awyifp6axgj3o2hglyu23vrueitmssagp2ltfkjebrjoxge.py":18:0)) attributes {noinline = false} {
    %cst = arith.constant dense<0.000000e+00> : tensor<1x2048xf16> loc(#loc1)
    %c2048_i32 = arith.constant 2048 : i32 loc(#loc1)
    %c4096_i32 = arith.constant 4096 : i32 loc(#loc1)
    %c0_i32 = arith.constant 0 : i32 loc(#loc1)
    %cst_0 = arith.constant dense<2.000000e+00> : tensor<1x2048xf32> loc(#loc1)
    %cst_1 = arith.constant dense<2.44140625E-4> : tensor<1x1xf32> loc(#loc1)
    %cst_2 = arith.constant dense<-5.000000e-01> : tensor<1x1xf32> loc(#loc1)
    %cst_3 = arith.constant dense<4096> : tensor<1x2048xi32> loc(#loc1)
    %cst_4 = arith.constant dense<0.000000e+00> : tensor<1x2048xf32> loc(#loc1)
    %0 = tt.get_program_id x : i32 loc(#loc2)
    %1 = arith.cmpi slt, %0, %arg7 : i32 loc(#loc3)
    %2 = tt.splat %1 : i1 -> tensor<1x1xi1> loc(#loc3)
    %3 = tt.make_range {end = 2048 : i32, start = 0 : i32} : tensor<2048xi32> loc(#loc4)
    %4 = tt.expand_dims %3 {axis = 0 : i32} : tensor<2048xi32> -> tensor<1x2048xi32> loc(#loc5)
    %5 = scf.for %arg9 = %c0_i32 to %c4096_i32 step %c2048_i32 iter_args(%arg10 = %cst_4) -> (tensor<1x2048xf32>)  : i32 {
      %11 = tt.splat %arg9 : i32 -> tensor<1x2048xi32> loc(#loc7)
      %12 = arith.addi %11, %4 : tensor<1x2048xi32> loc(#loc7)
      %13 = arith.cmpi slt, %12, %cst_3 : tensor<1x2048xi32> loc(#loc8)
      %14 = arith.muli %0, %c4096_i32 : i32 loc(#loc9)
      %15 = tt.splat %14 : i32 -> tensor<1x2048xi32> loc(#loc79)
      %16 = arith.addi %12, %15 : tensor<1x2048xi32> loc(#loc10)
      %17 = tt.splat %arg1 : !tt.ptr<f16> -> tensor<1x2048x!tt.ptr<f16>> loc(#loc11)
      %18 = tt.addptr %17, %16 : tensor<1x2048x!tt.ptr<f16>>, tensor<1x2048xi32> loc(#loc11)
      %19 = tt.splat %1 : i1 -> tensor<1x2048xi1> loc(#loc80)
      %20 = arith.andi %13, %19 : tensor<1x2048xi1> loc(#loc12)
      %21 = tt.load %18, %20, %cst evictionPolicy = evict_last : tensor<1x2048x!tt.ptr<f16>> loc(#loc13)
      %22 = arith.extf %21 : tensor<1x2048xf16> to tensor<1x2048xf32> loc(#loc14)
      %23 = tt.splat %arg2 : !tt.ptr<f16> -> tensor<1x2048x!tt.ptr<f16>> loc(#loc15)
      %24 = tt.addptr %23, %16 : tensor<1x2048x!tt.ptr<f16>>, tensor<1x2048xi32> loc(#loc15)
      %25 = tt.load %24, %20, %cst evictionPolicy = evict_last : tensor<1x2048x!tt.ptr<f16>> loc(#loc16)
      %26 = arith.extf %25 : tensor<1x2048xf16> to tensor<1x2048xf32> loc(#loc17)
      %27 = tt.splat %arg3 : !tt.ptr<f16> -> tensor<1x2048x!tt.ptr<f16>> loc(#loc18)
      %28 = tt.addptr %27, %12 : tensor<1x2048x!tt.ptr<f16>>, tensor<1x2048xi32> loc(#loc18)
      %29 = tt.load %28, %13, %cst evictionPolicy = evict_last : tensor<1x2048x!tt.ptr<f16>> loc(#loc19)
      %30 = arith.extf %29 : tensor<1x2048xf16> to tensor<1x2048xf32> loc(#loc20)
      %31 = tt.splat %arg4 : !tt.ptr<f16> -> tensor<1x2048x!tt.ptr<f16>> loc(#loc21)
      %32 = tt.addptr %31, %16 : tensor<1x2048x!tt.ptr<f16>>, tensor<1x2048xi32> loc(#loc21)
      %33 = tt.load %32, %20, %cst evictionPolicy = evict_last : tensor<1x2048x!tt.ptr<f16>> loc(#loc22)
      %34 = arith.extf %33 : tensor<1x2048xf16> to tensor<1x2048xf32> loc(#loc23)
      %35 = tt.splat %arg5 : !tt.ptr<f16> -> tensor<1x2048x!tt.ptr<f16>> loc(#loc24)
      %36 = tt.addptr %35, %16 : tensor<1x2048x!tt.ptr<f16>>, tensor<1x2048xi32> loc(#loc24)
      %37 = tt.load %36, %20, %cst evictionPolicy = evict_last : tensor<1x2048x!tt.ptr<f16>> loc(#loc25)
      %38 = arith.extf %37 : tensor<1x2048xf16> to tensor<1x2048xf32> loc(#loc26)
      %39 = arith.addf %22, %26 : tensor<1x2048xf32> loc(#loc27)
      %40 = arith.mulf %39, %30 : tensor<1x2048xf32> loc(#loc28)
      %41 = arith.addf %34, %38 : tensor<1x2048xf32> loc(#loc29)
      %42 = arith.mulf %40, %41 : tensor<1x2048xf32> loc(#loc30)
      %43 = arith.addf %arg10, %42 : tensor<1x2048xf32> loc(#loc31)
      %44 = arith.select %20, %43, %arg10 : tensor<1x2048xi1>, tensor<1x2048xf32> loc(#loc32)
      scf.yield %44 : tensor<1x2048xf32> loc(#loc33)
    } loc(#loc6)
    %6 = "tt.reduce"(%5) <{axis = 1 : i32}> ({
    ^bb0(%arg9: f32 loc(callsite(#loc1 at #loc35)), %arg10: f32 loc(callsite(#loc1 at #loc35))):
      %11 = arith.addf %arg9, %arg10 : f32 loc(#loc86)
      tt.reduce.return %11 : f32 loc(#loc81)
    }) : (tensor<1x2048xf32>) -> tensor<1xf32> loc(#loc81)
    %7 = tt.expand_dims %6 {axis = 1 : i32} : tensor<1xf32> -> tensor<1x1xf32> loc(#loc37)
    %8 = tt.addptr %arg6, %0 : !tt.ptr<f32>, i32 loc(#loc38)
    %9 = tt.splat %8 : !tt.ptr<f32> -> tensor<1x1x!tt.ptr<f32>> loc(#loc38)
    %10 = tt.load %9, %2 evictionPolicy = evict_last : tensor<1x1x!tt.ptr<f32>> loc(#loc39)
    scf.for %arg9 = %c0_i32 to %c4096_i32 step %c2048_i32  : i32 {
      %11 = tt.splat %arg9 : i32 -> tensor<1x2048xi32> loc(#loc41)
      %12 = arith.addi %11, %4 : tensor<1x2048xi32> loc(#loc41)
      %13 = arith.cmpi slt, %12, %cst_3 : tensor<1x2048xi32> loc(#loc42)
      %14 = arith.muli %0, %c4096_i32 : i32 loc(#loc43)
      %15 = tt.splat %14 : i32 -> tensor<1x2048xi32> loc(#loc84)
      %16 = arith.addi %12, %15 : tensor<1x2048xi32> loc(#loc44)
      %17 = tt.splat %arg0 : !tt.ptr<f16> -> tensor<1x2048x!tt.ptr<f16>> loc(#loc45)
      %18 = tt.addptr %17, %16 : tensor<1x2048x!tt.ptr<f16>>, tensor<1x2048xi32> loc(#loc45)
      %19 = tt.splat %1 : i1 -> tensor<1x2048xi1> loc(#loc85)
      %20 = arith.andi %13, %19 : tensor<1x2048xi1> loc(#loc46)
      %21 = tt.load %18, %20, %cst evictionPolicy = evict_first : tensor<1x2048x!tt.ptr<f16>> loc(#loc47)
      %22 = arith.extf %21 : tensor<1x2048xf16> to tensor<1x2048xf32> loc(#loc48)
      %23 = tt.splat %arg1 : !tt.ptr<f16> -> tensor<1x2048x!tt.ptr<f16>> loc(#loc49)
      %24 = tt.addptr %23, %16 : tensor<1x2048x!tt.ptr<f16>>, tensor<1x2048xi32> loc(#loc49)
      %25 = tt.load %24, %20, %cst evictionPolicy = evict_first : tensor<1x2048x!tt.ptr<f16>> loc(#loc50)
      %26 = arith.extf %25 : tensor<1x2048xf16> to tensor<1x2048xf32> loc(#loc51)
      %27 = tt.splat %arg2 : !tt.ptr<f16> -> tensor<1x2048x!tt.ptr<f16>> loc(#loc52)
      %28 = tt.addptr %27, %16 : tensor<1x2048x!tt.ptr<f16>>, tensor<1x2048xi32> loc(#loc52)
      %29 = tt.load %28, %20, %cst evictionPolicy = evict_first : tensor<1x2048x!tt.ptr<f16>> loc(#loc53)
      %30 = arith.extf %29 : tensor<1x2048xf16> to tensor<1x2048xf32> loc(#loc54)
      %31 = tt.splat %arg3 : !tt.ptr<f16> -> tensor<1x2048x!tt.ptr<f16>> loc(#loc55)
      %32 = tt.addptr %31, %12 : tensor<1x2048x!tt.ptr<f16>>, tensor<1x2048xi32> loc(#loc55)
      %33 = tt.load %32, %13, %cst evictionPolicy = evict_last : tensor<1x2048x!tt.ptr<f16>> loc(#loc56)
      %34 = arith.extf %33 : tensor<1x2048xf16> to tensor<1x2048xf32> loc(#loc57)
      %35 = tt.splat %arg4 : !tt.ptr<f16> -> tensor<1x2048x!tt.ptr<f16>> loc(#loc58)
      %36 = tt.addptr %35, %16 : tensor<1x2048x!tt.ptr<f16>>, tensor<1x2048xi32> loc(#loc58)
      %37 = tt.load %36, %20, %cst evictionPolicy = evict_first : tensor<1x2048x!tt.ptr<f16>> loc(#loc59)
      %38 = arith.extf %37 : tensor<1x2048xf16> to tensor<1x2048xf32> loc(#loc60)
      %39 = tt.splat %arg5 : !tt.ptr<f16> -> tensor<1x2048x!tt.ptr<f16>> loc(#loc61)
      %40 = tt.addptr %39, %16 : tensor<1x2048x!tt.ptr<f16>>, tensor<1x2048xi32> loc(#loc61)
      %41 = tt.load %40, %20, %cst evictionPolicy = evict_first : tensor<1x2048x!tt.ptr<f16>> loc(#loc62)
      %42 = arith.extf %41 : tensor<1x2048xf16> to tensor<1x2048xf32> loc(#loc63)
      %43 = arith.addf %26, %30 : tensor<1x2048xf32> loc(#loc64)
      %44 = arith.mulf %43, %34 : tensor<1x2048xf32> loc(#loc65)
      %45 = tt.broadcast %10 : tensor<1x1xf32> -> tensor<1x2048xf32> loc(#loc66)
      %46 = arith.mulf %44, %45 : tensor<1x2048xf32> loc(#loc66)
      %47 = arith.mulf %7, %cst_2 : tensor<1x1xf32> loc(#loc67)
      %48 = arith.mulf %10, %10 : tensor<1x1xf32> loc(#loc68)
      %49 = arith.mulf %48, %10 : tensor<1x1xf32> loc(#loc69)
      %50 = arith.mulf %47, %49 : tensor<1x1xf32> loc(#loc70)
      %51 = arith.mulf %50, %cst_1 : tensor<1x1xf32> loc(#loc71)
      %52 = arith.addf %38, %42 : tensor<1x2048xf32> loc(#loc72)
      %53 = arith.mulf %52, %cst_0 : tensor<1x2048xf32> loc(#loc73)
      %54 = tt.broadcast %51 : tensor<1x1xf32> -> tensor<1x2048xf32> loc(#loc74)
      %55 = arith.mulf %54, %53 : tensor<1x2048xf32> loc(#loc74)
      %56 = arith.addf %46, %55 : tensor<1x2048xf32> loc(#loc75)
      %57 = arith.addf %22, %56 : tensor<1x2048xf32> loc(#loc76)
      %58 = arith.truncf %57 : tensor<1x2048xf32> to tensor<1x2048xf16> loc(#loc77)
      tt.store %18, %58, %20 : tensor<1x2048x!tt.ptr<f16>> loc(#loc77)
    } loc(#loc40)
    tt.return loc(#loc78)
  } loc(#loc)
} loc(#loc)
#loc2 = loc("./local_cache/t5/ct5b6awyifp6axgj3o2hglyu23vrueitmssagp2ltfkjebrjoxge.py":22:28)
#loc3 = loc("./local_cache/t5/ct5b6awyifp6axgj3o2hglyu23vrueitmssagp2ltfkjebrjoxge.py":24:21)
#loc4 = loc("./local_cache/t5/ct5b6awyifp6axgj3o2hglyu23vrueitmssagp2ltfkjebrjoxge.py":25:27)
#loc5 = loc("./local_cache/t5/ct5b6awyifp6axgj3o2hglyu23vrueitmssagp2ltfkjebrjoxge.py":25:37)
#loc6 = loc("./local_cache/t5/ct5b6awyifp6axgj3o2hglyu23vrueitmssagp2ltfkjebrjoxge.py":29:40)
#loc7 = loc("./local_cache/t5/ct5b6awyifp6axgj3o2hglyu23vrueitmssagp2ltfkjebrjoxge.py":30:31)
#loc8 = loc("./local_cache/t5/ct5b6awyifp6axgj3o2hglyu23vrueitmssagp2ltfkjebrjoxge.py":31:29)
#loc9 = loc("./local_cache/t5/ct5b6awyifp6axgj3o2hglyu23vrueitmssagp2ltfkjebrjoxge.py":35:46)
#loc10 = loc("./local_cache/t5/ct5b6awyifp6axgj3o2hglyu23vrueitmssagp2ltfkjebrjoxge.py":35:41)
#loc11 = loc("./local_cache/t5/ct5b6awyifp6axgj3o2hglyu23vrueitmssagp2ltfkjebrjoxge.py":35:34)
#loc12 = loc("./local_cache/t5/ct5b6awyifp6axgj3o2hglyu23vrueitmssagp2ltfkjebrjoxge.py":35:61)
#loc13 = loc("./local_cache/t5/ct5b6awyifp6axgj3o2hglyu23vrueitmssagp2ltfkjebrjoxge.py":35:51)
#loc14 = loc("./local_cache/t5/ct5b6awyifp6axgj3o2hglyu23vrueitmssagp2ltfkjebrjoxge.py":35:112)
#loc15 = loc("./local_cache/t5/ct5b6awyifp6axgj3o2hglyu23vrueitmssagp2ltfkjebrjoxge.py":36:34)
#loc16 = loc("./local_cache/t5/ct5b6awyifp6axgj3o2hglyu23vrueitmssagp2ltfkjebrjoxge.py":36:51)
#loc17 = loc("./local_cache/t5/ct5b6awyifp6axgj3o2hglyu23vrueitmssagp2ltfkjebrjoxge.py":36:112)
#loc18 = loc("./local_cache/t5/ct5b6awyifp6axgj3o2hglyu23vrueitmssagp2ltfkjebrjoxge.py":37:34)
#loc19 = loc("./local_cache/t5/ct5b6awyifp6axgj3o2hglyu23vrueitmssagp2ltfkjebrjoxge.py":37:41)
#loc20 = loc("./local_cache/t5/ct5b6awyifp6axgj3o2hglyu23vrueitmssagp2ltfkjebrjoxge.py":37:94)
#loc21 = loc("./local_cache/t5/ct5b6awyifp6axgj3o2hglyu23vrueitmssagp2ltfkjebrjoxge.py":38:34)
#loc22 = loc("./local_cache/t5/ct5b6awyifp6axgj3o2hglyu23vrueitmssagp2ltfkjebrjoxge.py":38:51)
#loc23 = loc("./local_cache/t5/ct5b6awyifp6axgj3o2hglyu23vrueitmssagp2ltfkjebrjoxge.py":38:112)
#loc24 = loc("./local_cache/t5/ct5b6awyifp6axgj3o2hglyu23vrueitmssagp2ltfkjebrjoxge.py":39:34)
#loc25 = loc("./local_cache/t5/ct5b6awyifp6axgj3o2hglyu23vrueitmssagp2ltfkjebrjoxge.py":39:51)
#loc26 = loc("./local_cache/t5/ct5b6awyifp6axgj3o2hglyu23vrueitmssagp2ltfkjebrjoxge.py":39:112)
#loc27 = loc("./local_cache/t5/ct5b6awyifp6axgj3o2hglyu23vrueitmssagp2ltfkjebrjoxge.py":40:22)
#loc28 = loc("./local_cache/t5/ct5b6awyifp6axgj3o2hglyu23vrueitmssagp2ltfkjebrjoxge.py":41:22)
#loc29 = loc("./local_cache/t5/ct5b6awyifp6axgj3o2hglyu23vrueitmssagp2ltfkjebrjoxge.py":43:22)
#loc30 = loc("./local_cache/t5/ct5b6awyifp6axgj3o2hglyu23vrueitmssagp2ltfkjebrjoxge.py":45:23)
#loc31 = loc("./local_cache/t5/ct5b6awyifp6axgj3o2hglyu23vrueitmssagp2ltfkjebrjoxge.py":47:25)
#loc32 = loc("./local_cache/t5/ct5b6awyifp6axgj3o2hglyu23vrueitmssagp2ltfkjebrjoxge.py":48:50)
#loc33 = loc("./local_cache/t5/ct5b6awyifp6axgj3o2hglyu23vrueitmssagp2ltfkjebrjoxge.py":48:8)
#loc34 = loc("/workspace/torch-compile-caching/.venv/lib/python3.11/site-packages/triton/language/standard.py":286:36)
#loc36 = loc("/workspace/torch-compile-caching/.venv/lib/python3.11/site-packages/triton/language/standard.py":256:15)
#loc37 = loc("./local_cache/t5/ct5b6awyifp6axgj3o2hglyu23vrueitmssagp2ltfkjebrjoxge.py":49:30)
#loc38 = loc("./local_cache/t5/ct5b6awyifp6axgj3o2hglyu23vrueitmssagp2ltfkjebrjoxge.py":50:31)
#loc39 = loc("./local_cache/t5/ct5b6awyifp6axgj3o2hglyu23vrueitmssagp2ltfkjebrjoxge.py":50:36)
#loc40 = loc("./local_cache/t5/ct5b6awyifp6axgj3o2hglyu23vrueitmssagp2ltfkjebrjoxge.py":51:40)
#loc41 = loc("./local_cache/t5/ct5b6awyifp6axgj3o2hglyu23vrueitmssagp2ltfkjebrjoxge.py":52:31)
#loc42 = loc("./local_cache/t5/ct5b6awyifp6axgj3o2hglyu23vrueitmssagp2ltfkjebrjoxge.py":53:29)
#loc43 = loc("./local_cache/t5/ct5b6awyifp6axgj3o2hglyu23vrueitmssagp2ltfkjebrjoxge.py":57:51)
#loc44 = loc("./local_cache/t5/ct5b6awyifp6axgj3o2hglyu23vrueitmssagp2ltfkjebrjoxge.py":57:46)
#loc45 = loc("./local_cache/t5/ct5b6awyifp6axgj3o2hglyu23vrueitmssagp2ltfkjebrjoxge.py":57:39)
#loc46 = loc("./local_cache/t5/ct5b6awyifp6axgj3o2hglyu23vrueitmssagp2ltfkjebrjoxge.py":57:66)
#loc47 = loc("./local_cache/t5/ct5b6awyifp6axgj3o2hglyu23vrueitmssagp2ltfkjebrjoxge.py":57:56)
#loc48 = loc("./local_cache/t5/ct5b6awyifp6axgj3o2hglyu23vrueitmssagp2ltfkjebrjoxge.py":57:118)
#loc49 = loc("./local_cache/t5/ct5b6awyifp6axgj3o2hglyu23vrueitmssagp2ltfkjebrjoxge.py":58:35)
#loc50 = loc("./local_cache/t5/ct5b6awyifp6axgj3o2hglyu23vrueitmssagp2ltfkjebrjoxge.py":58:52)
#loc51 = loc("./local_cache/t5/ct5b6awyifp6axgj3o2hglyu23vrueitmssagp2ltfkjebrjoxge.py":58:114)
#loc52 = loc("./local_cache/t5/ct5b6awyifp6axgj3o2hglyu23vrueitmssagp2ltfkjebrjoxge.py":59:35)
#loc53 = loc("./local_cache/t5/ct5b6awyifp6axgj3o2hglyu23vrueitmssagp2ltfkjebrjoxge.py":59:52)
#loc54 = loc("./local_cache/t5/ct5b6awyifp6axgj3o2hglyu23vrueitmssagp2ltfkjebrjoxge.py":59:114)
#loc55 = loc("./local_cache/t5/ct5b6awyifp6axgj3o2hglyu23vrueitmssagp2ltfkjebrjoxge.py":60:35)
#loc56 = loc("./local_cache/t5/ct5b6awyifp6axgj3o2hglyu23vrueitmssagp2ltfkjebrjoxge.py":60:42)
#loc57 = loc("./local_cache/t5/ct5b6awyifp6axgj3o2hglyu23vrueitmssagp2ltfkjebrjoxge.py":60:95)
#loc58 = loc("./local_cache/t5/ct5b6awyifp6axgj3o2hglyu23vrueitmssagp2ltfkjebrjoxge.py":61:35)
#loc59 = loc("./local_cache/t5/ct5b6awyifp6axgj3o2hglyu23vrueitmssagp2ltfkjebrjoxge.py":61:52)
#loc60 = loc("./local_cache/t5/ct5b6awyifp6axgj3o2hglyu23vrueitmssagp2ltfkjebrjoxge.py":61:114)
#loc61 = loc("./local_cache/t5/ct5b6awyifp6axgj3o2hglyu23vrueitmssagp2ltfkjebrjoxge.py":62:35)
#loc62 = loc("./local_cache/t5/ct5b6awyifp6axgj3o2hglyu23vrueitmssagp2ltfkjebrjoxge.py":62:52)
#loc63 = loc("./local_cache/t5/ct5b6awyifp6axgj3o2hglyu23vrueitmssagp2ltfkjebrjoxge.py":62:114)
#loc64 = loc("./local_cache/t5/ct5b6awyifp6axgj3o2hglyu23vrueitmssagp2ltfkjebrjoxge.py":63:24)
#loc65 = loc("./local_cache/t5/ct5b6awyifp6axgj3o2hglyu23vrueitmssagp2ltfkjebrjoxge.py":64:24)
#loc66 = loc("./local_cache/t5/ct5b6awyifp6axgj3o2hglyu23vrueitmssagp2ltfkjebrjoxge.py":66:24)
#loc67 = loc("./local_cache/t5/ct5b6awyifp6axgj3o2hglyu23vrueitmssagp2ltfkjebrjoxge.py":68:24)
#loc68 = loc("./local_cache/t5/ct5b6awyifp6axgj3o2hglyu23vrueitmssagp2ltfkjebrjoxge.py":69:24)
#loc69 = loc("./local_cache/t5/ct5b6awyifp6axgj3o2hglyu23vrueitmssagp2ltfkjebrjoxge.py":70:24)
#loc70 = loc("./local_cache/t5/ct5b6awyifp6axgj3o2hglyu23vrueitmssagp2ltfkjebrjoxge.py":71:24)
#loc71 = loc("./local_cache/t5/ct5b6awyifp6axgj3o2hglyu23vrueitmssagp2ltfkjebrjoxge.py":73:24)
#loc72 = loc("./local_cache/t5/ct5b6awyifp6axgj3o2hglyu23vrueitmssagp2ltfkjebrjoxge.py":74:24)
#loc73 = loc("./local_cache/t5/ct5b6awyifp6axgj3o2hglyu23vrueitmssagp2ltfkjebrjoxge.py":77:24)
#loc74 = loc("./local_cache/t5/ct5b6awyifp6axgj3o2hglyu23vrueitmssagp2ltfkjebrjoxge.py":78:24)
#loc75 = loc("./local_cache/t5/ct5b6awyifp6axgj3o2hglyu23vrueitmssagp2ltfkjebrjoxge.py":79:24)
#loc76 = loc("./local_cache/t5/ct5b6awyifp6axgj3o2hglyu23vrueitmssagp2ltfkjebrjoxge.py":81:24)
#loc77 = loc("./local_cache/t5/ct5b6awyifp6axgj3o2hglyu23vrueitmssagp2ltfkjebrjoxge.py":82:56)
#loc78 = loc("./local_cache/t5/ct5b6awyifp6axgj3o2hglyu23vrueitmssagp2ltfkjebrjoxge.py":51:4)
#loc79 = loc(fused[#loc10, #loc9])
#loc80 = loc(fused[#loc12, #loc3])
#loc81 = loc(callsite(#loc34 at #loc35))
#loc83 = loc(callsite(#loc36 at #loc34))
#loc84 = loc(fused[#loc44, #loc43])
#loc85 = loc(fused[#loc46, #loc3])
#loc86 = loc(callsite(#loc83 at #loc35))
