#loc = loc("./local_cache/ir/cirveghol7wjrq7zwkkgu3sphruzjhq4ru5zcvmudgaexdo5niag.py":18:0)
#loc1 = loc(unknown)
#loc30 = loc("./local_cache/ir/cirveghol7wjrq7zwkkgu3sphruzjhq4ru5zcvmudgaexdo5niag.py":46:25)
#loc50 = loc(callsite(#loc1 at #loc30))
module {
  tt.func public @triton_red_fused__to_copy_add_mean_mul_pow_rsqrt_8(%arg0: !tt.ptr<f16> {tt.divisibility = 16 : i32} loc("./local_cache/ir/cirveghol7wjrq7zwkkgu3sphruzjhq4ru5zcvmudgaexdo5niag.py":18:0), %arg1: !tt.ptr<f32> {tt.divisibility = 16 : i32} loc("./local_cache/ir/cirveghol7wjrq7zwkkgu3sphruzjhq4ru5zcvmudgaexdo5niag.py":18:0), %arg2: !tt.ptr<f16> {tt.divisibility = 16 : i32} loc("./local_cache/ir/cirveghol7wjrq7zwkkgu3sphruzjhq4ru5zcvmudgaexdo5niag.py":18:0), %arg3: !tt.ptr<f16> {tt.divisibility = 16 : i32} loc("./local_cache/ir/cirveghol7wjrq7zwkkgu3sphruzjhq4ru5zcvmudgaexdo5niag.py":18:0), %arg4: !tt.ptr<f16> {tt.divisibility = 16 : i32} loc("./local_cache/ir/cirveghol7wjrq7zwkkgu3sphruzjhq4ru5zcvmudgaexdo5niag.py":18:0), %arg5: !tt.ptr<f16> {tt.divisibility = 16 : i32} loc("./local_cache/ir/cirveghol7wjrq7zwkkgu3sphruzjhq4ru5zcvmudgaexdo5niag.py":18:0), %arg6: i32 loc("./local_cache/ir/cirveghol7wjrq7zwkkgu3sphruzjhq4ru5zcvmudgaexdo5niag.py":18:0), %arg7: i32 {tt.divisibility = 16 : i32} loc("./local_cache/ir/cirveghol7wjrq7zwkkgu3sphruzjhq4ru5zcvmudgaexdo5niag.py":18:0)) attributes {noinline = false} {
    %cst = arith.constant dense<0.000000e+00> : tensor<1x4096xf16> loc(#loc1)
    %cst_0 = arith.constant dense<0.000000e+00> : tensor<2x4096xf16> loc(#loc1)
    %cst_1 = arith.constant dense<9.99999974E-6> : tensor<2x1xf32> loc(#loc1)
    %cst_2 = arith.constant dense<4.096000e+03> : tensor<2x1xf32> loc(#loc1)
    %cst_3 = arith.constant dense<4096> : tensor<2x1xi32> loc(#loc1)
    %cst_4 = arith.constant dense<4096> : tensor<1x4096xi32> loc(#loc1)
    %cst_5 = arith.constant dense<0.000000e+00> : tensor<2x4096xf32> loc(#loc1)
    %c2_i32 = arith.constant 2 : i32 loc(#loc1)
    %0 = tt.get_program_id x : i32 loc(#loc2)
    %1 = arith.muli %0, %c2_i32 : i32 loc(#loc3)
    %2 = tt.make_range {end = 2 : i32, start = 0 : i32} : tensor<2xi32> loc(#loc4)
    %3 = tt.expand_dims %2 {axis = 1 : i32} : tensor<2xi32> -> tensor<2x1xi32> loc(#loc5)
    %4 = tt.splat %1 : i32 -> tensor<2x1xi32> loc(#loc6)
    %5 = arith.addi %4, %3 : tensor<2x1xi32> loc(#loc6)
    %6 = tt.splat %arg6 : i32 -> tensor<2x1xi32> loc(#loc7)
    %7 = arith.cmpi slt, %5, %6 : tensor<2x1xi32> loc(#loc7)
    %8 = tt.make_range {end = 4096 : i32, start = 0 : i32} : tensor<4096xi32> loc(#loc8)
    %9 = tt.expand_dims %8 {axis = 0 : i32} : tensor<4096xi32> -> tensor<1x4096xi32> loc(#loc9)
    %10 = arith.cmpi slt, %9, %cst_4 : tensor<1x4096xi32> loc(#loc10)
    %11 = arith.muli %5, %cst_3 : tensor<2x1xi32> loc(#loc11)
    %12 = tt.broadcast %9 : tensor<1x4096xi32> -> tensor<2x4096xi32> loc(#loc12)
    %13 = tt.broadcast %11 : tensor<2x1xi32> -> tensor<2x4096xi32> loc(#loc12)
    %14 = arith.addi %12, %13 : tensor<2x4096xi32> loc(#loc12)
    %15 = tt.splat %arg2 : !tt.ptr<f16> -> tensor<2x4096x!tt.ptr<f16>> loc(#loc13)
    %16 = tt.addptr %15, %14 : tensor<2x4096x!tt.ptr<f16>>, tensor<2x4096xi32> loc(#loc13)
    %17 = tt.broadcast %10 : tensor<1x4096xi1> -> tensor<2x4096xi1> loc(#loc14)
    %18 = tt.broadcast %7 : tensor<2x1xi1> -> tensor<2x4096xi1> loc(#loc14)
    %19 = arith.andi %17, %18 : tensor<2x4096xi1> loc(#loc14)
    %20 = tt.load %16, %19, %cst_0 evictionPolicy = evict_first : tensor<2x4096x!tt.ptr<f16>> loc(#loc15)
    %21 = arith.extf %20 : tensor<2x4096xf16> to tensor<2x4096xf32> loc(#loc16)
    %22 = tt.splat %arg3 : !tt.ptr<f16> -> tensor<2x4096x!tt.ptr<f16>> loc(#loc17)
    %23 = tt.addptr %22, %14 : tensor<2x4096x!tt.ptr<f16>>, tensor<2x4096xi32> loc(#loc17)
    %24 = tt.load %23, %19, %cst_0 evictionPolicy = evict_first : tensor<2x4096x!tt.ptr<f16>> loc(#loc18)
    %25 = arith.extf %24 : tensor<2x4096xf16> to tensor<2x4096xf32> loc(#loc19)
    %26 = tt.splat %arg0 : !tt.ptr<f16> -> tensor<2x4096x!tt.ptr<f16>> loc(#loc20)
    %27 = tt.addptr %26, %14 : tensor<2x4096x!tt.ptr<f16>>, tensor<2x4096xi32> loc(#loc20)
    %28 = tt.load %27, %19, %cst_0 evictionPolicy = evict_first : tensor<2x4096x!tt.ptr<f16>> loc(#loc21)
    %29 = arith.extf %28 : tensor<2x4096xf16> to tensor<2x4096xf32> loc(#loc22)
    %30 = arith.addf %21, %25 : tensor<2x4096xf32> loc(#loc23)
    %31 = arith.addf %30, %29 : tensor<2x4096xf32> loc(#loc24)
    %32 = arith.mulf %31, %31 : tensor<2x4096xf32> loc(#loc25)
    %33 = arith.addf %32, %cst_5 : tensor<2x4096xf32> loc(#loc26)
    %34 = arith.select %19, %33, %cst_5 : tensor<2x4096xi1>, tensor<2x4096xf32> loc(#loc27)
    %35 = arith.truncf %31 : tensor<2x4096xf32> to tensor<2x4096xf16> loc(#loc28)
    tt.store %27, %35, %19 : tensor<2x4096x!tt.ptr<f16>> loc(#loc28)
    %36 = "tt.reduce"(%34) <{axis = 1 : i32}> ({
    ^bb0(%arg8: f32 loc(callsite(#loc1 at #loc30)), %arg9: f32 loc(callsite(#loc1 at #loc30))):
      %56 = arith.addf %arg8, %arg9 : f32 loc(#loc52)
      tt.reduce.return %56 : f32 loc(#loc49)
    }) : (tensor<2x4096xf32>) -> tensor<2xf32> loc(#loc49)
    %37 = tt.expand_dims %36 {axis = 1 : i32} : tensor<2xf32> -> tensor<2x1xf32> loc(#loc32)
    %38 = arith.divf %37, %cst_2 : tensor<2x1xf32> loc(#loc33)
    %39 = arith.addf %38, %cst_1 : tensor<2x1xf32> loc(#loc34)
    %40 = tt.extern_elementwise %39 {libname = "", libpath = "", pure = true, symbol = "__nv_rsqrtf"} : (tensor<2x1xf32>) -> tensor<2x1xf32> loc(#loc35)
    gpu.barrier loc(#loc36)
    %41 = tt.splat %arg1 : !tt.ptr<f32> -> tensor<2x1x!tt.ptr<f32>> loc(#loc37)
    %42 = tt.addptr %41, %5 : tensor<2x1x!tt.ptr<f32>>, tensor<2x1xi32> loc(#loc37)
    tt.store %42, %40, %7 : tensor<2x1x!tt.ptr<f32>> loc(#loc38)
    %43 = tt.splat %arg4 : !tt.ptr<f16> -> tensor<1x4096x!tt.ptr<f16>> loc(#loc39)
    %44 = tt.addptr %43, %9 : tensor<1x4096x!tt.ptr<f16>>, tensor<1x4096xi32> loc(#loc39)
    %45 = tt.load %44, %10, %cst evictionPolicy = evict_last : tensor<1x4096x!tt.ptr<f16>> loc(#loc40)
    %46 = arith.extf %45 : tensor<1x4096xf16> to tensor<1x4096xf32> loc(#loc41)
    %47 = tt.load %27, %19, %cst_0 evictionPolicy = evict_first : tensor<2x4096x!tt.ptr<f16>> loc(#loc42)
    %48 = arith.extf %47 : tensor<2x4096xf16> to tensor<2x4096xf32> loc(#loc43)
    %49 = tt.broadcast %40 : tensor<2x1xf32> -> tensor<2x4096xf32> loc(#loc44)
    %50 = arith.mulf %48, %49 : tensor<2x4096xf32> loc(#loc44)
    %51 = tt.broadcast %46 : tensor<1x4096xf32> -> tensor<2x4096xf32> loc(#loc45)
    %52 = arith.mulf %51, %50 : tensor<2x4096xf32> loc(#loc45)
    %53 = tt.splat %arg5 : !tt.ptr<f16> -> tensor<2x4096x!tt.ptr<f16>> loc(#loc46)
    %54 = tt.addptr %53, %14 : tensor<2x4096x!tt.ptr<f16>>, tensor<2x4096xi32> loc(#loc46)
    %55 = arith.truncf %52 : tensor<2x4096xf32> to tensor<2x4096xf16> loc(#loc47)
    tt.store %54, %55, %19 : tensor<2x4096x!tt.ptr<f16>> loc(#loc47)
    tt.return loc(#loc48)
  } loc(#loc)
} loc(#loc)
#loc2 = loc("./local_cache/ir/cirveghol7wjrq7zwkkgu3sphruzjhq4ru5zcvmudgaexdo5niag.py":22:28)
#loc3 = loc("./local_cache/ir/cirveghol7wjrq7zwkkgu3sphruzjhq4ru5zcvmudgaexdo5niag.py":22:33)
#loc4 = loc("./local_cache/ir/cirveghol7wjrq7zwkkgu3sphruzjhq4ru5zcvmudgaexdo5niag.py":23:36)
#loc5 = loc("./local_cache/ir/cirveghol7wjrq7zwkkgu3sphruzjhq4ru5zcvmudgaexdo5niag.py":23:44)
#loc6 = loc("./local_cache/ir/cirveghol7wjrq7zwkkgu3sphruzjhq4ru5zcvmudgaexdo5niag.py":23:23)
#loc7 = loc("./local_cache/ir/cirveghol7wjrq7zwkkgu3sphruzjhq4ru5zcvmudgaexdo5niag.py":24:21)
#loc8 = loc("./local_cache/ir/cirveghol7wjrq7zwkkgu3sphruzjhq4ru5zcvmudgaexdo5niag.py":25:27)
#loc9 = loc("./local_cache/ir/cirveghol7wjrq7zwkkgu3sphruzjhq4ru5zcvmudgaexdo5niag.py":25:37)
#loc10 = loc("./local_cache/ir/cirveghol7wjrq7zwkkgu3sphruzjhq4ru5zcvmudgaexdo5niag.py":31:29)
#loc11 = loc("./local_cache/ir/cirveghol7wjrq7zwkkgu3sphruzjhq4ru5zcvmudgaexdo5niag.py":35:46)
#loc12 = loc("./local_cache/ir/cirveghol7wjrq7zwkkgu3sphruzjhq4ru5zcvmudgaexdo5niag.py":35:41)
#loc13 = loc("./local_cache/ir/cirveghol7wjrq7zwkkgu3sphruzjhq4ru5zcvmudgaexdo5niag.py":35:34)
#loc14 = loc("./local_cache/ir/cirveghol7wjrq7zwkkgu3sphruzjhq4ru5zcvmudgaexdo5niag.py":35:61)
#loc15 = loc("./local_cache/ir/cirveghol7wjrq7zwkkgu3sphruzjhq4ru5zcvmudgaexdo5niag.py":35:51)
#loc16 = loc("./local_cache/ir/cirveghol7wjrq7zwkkgu3sphruzjhq4ru5zcvmudgaexdo5niag.py":35:113)
#loc17 = loc("./local_cache/ir/cirveghol7wjrq7zwkkgu3sphruzjhq4ru5zcvmudgaexdo5niag.py":36:34)
#loc18 = loc("./local_cache/ir/cirveghol7wjrq7zwkkgu3sphruzjhq4ru5zcvmudgaexdo5niag.py":36:51)
#loc19 = loc("./local_cache/ir/cirveghol7wjrq7zwkkgu3sphruzjhq4ru5zcvmudgaexdo5niag.py":36:113)
#loc20 = loc("./local_cache/ir/cirveghol7wjrq7zwkkgu3sphruzjhq4ru5zcvmudgaexdo5niag.py":37:38)
#loc21 = loc("./local_cache/ir/cirveghol7wjrq7zwkkgu3sphruzjhq4ru5zcvmudgaexdo5niag.py":37:55)
#loc22 = loc("./local_cache/ir/cirveghol7wjrq7zwkkgu3sphruzjhq4ru5zcvmudgaexdo5niag.py":37:117)
#loc23 = loc("./local_cache/ir/cirveghol7wjrq7zwkkgu3sphruzjhq4ru5zcvmudgaexdo5niag.py":38:22)
#loc24 = loc("./local_cache/ir/cirveghol7wjrq7zwkkgu3sphruzjhq4ru5zcvmudgaexdo5niag.py":39:22)
#loc25 = loc("./local_cache/ir/cirveghol7wjrq7zwkkgu3sphruzjhq4ru5zcvmudgaexdo5niag.py":41:22)
#loc26 = loc("./local_cache/ir/cirveghol7wjrq7zwkkgu3sphruzjhq4ru5zcvmudgaexdo5niag.py":43:23)
#loc27 = loc("./local_cache/ir/cirveghol7wjrq7zwkkgu3sphruzjhq4ru5zcvmudgaexdo5niag.py":44:48)
#loc28 = loc("./local_cache/ir/cirveghol7wjrq7zwkkgu3sphruzjhq4ru5zcvmudgaexdo5niag.py":45:55)
#loc29 = loc("/workspace/torch-compile-caching/.venv/lib/python3.11/site-packages/triton/language/standard.py":286:36)
#loc31 = loc("/workspace/torch-compile-caching/.venv/lib/python3.11/site-packages/triton/language/standard.py":256:15)
#loc32 = loc("./local_cache/ir/cirveghol7wjrq7zwkkgu3sphruzjhq4ru5zcvmudgaexdo5niag.py":46:28)
#loc33 = loc("./local_cache/ir/cirveghol7wjrq7zwkkgu3sphruzjhq4ru5zcvmudgaexdo5niag.py":48:20)
#loc34 = loc("./local_cache/ir/cirveghol7wjrq7zwkkgu3sphruzjhq4ru5zcvmudgaexdo5niag.py":50:20)
#loc35 = loc("./local_cache/ir/cirveghol7wjrq7zwkkgu3sphruzjhq4ru5zcvmudgaexdo5niag.py":51:28)
#loc36 = loc("./local_cache/ir/cirveghol7wjrq7zwkkgu3sphruzjhq4ru5zcvmudgaexdo5niag.py":52:4)
#loc37 = loc("./local_cache/ir/cirveghol7wjrq7zwkkgu3sphruzjhq4ru5zcvmudgaexdo5niag.py":53:28)
#loc38 = loc("./local_cache/ir/cirveghol7wjrq7zwkkgu3sphruzjhq4ru5zcvmudgaexdo5niag.py":53:40)
#loc39 = loc("./local_cache/ir/cirveghol7wjrq7zwkkgu3sphruzjhq4ru5zcvmudgaexdo5niag.py":60:35)
#loc40 = loc("./local_cache/ir/cirveghol7wjrq7zwkkgu3sphruzjhq4ru5zcvmudgaexdo5niag.py":60:42)
#loc41 = loc("./local_cache/ir/cirveghol7wjrq7zwkkgu3sphruzjhq4ru5zcvmudgaexdo5niag.py":60:95)
#loc42 = loc("./local_cache/ir/cirveghol7wjrq7zwkkgu3sphruzjhq4ru5zcvmudgaexdo5niag.py":61:56)
#loc43 = loc("./local_cache/ir/cirveghol7wjrq7zwkkgu3sphruzjhq4ru5zcvmudgaexdo5niag.py":61:118)
#loc44 = loc("./local_cache/ir/cirveghol7wjrq7zwkkgu3sphruzjhq4ru5zcvmudgaexdo5niag.py":63:24)
#loc45 = loc("./local_cache/ir/cirveghol7wjrq7zwkkgu3sphruzjhq4ru5zcvmudgaexdo5niag.py":65:24)
#loc46 = loc("./local_cache/ir/cirveghol7wjrq7zwkkgu3sphruzjhq4ru5zcvmudgaexdo5niag.py":66:29)
#loc47 = loc("./local_cache/ir/cirveghol7wjrq7zwkkgu3sphruzjhq4ru5zcvmudgaexdo5niag.py":66:53)
#loc48 = loc("./local_cache/ir/cirveghol7wjrq7zwkkgu3sphruzjhq4ru5zcvmudgaexdo5niag.py":54:4)
#loc49 = loc(callsite(#loc29 at #loc30))
#loc51 = loc(callsite(#loc31 at #loc29))
#loc52 = loc(callsite(#loc51 at #loc30))
