#loc = loc("./local_cache/gh/cghfemwp5je4gtzbsncc3ktqr4kitawxmdiwtkz7ekfqatqqwhde.py":18:0)
#loc1 = loc(unknown)
#loc50 = loc("./local_cache/gh/cghfemwp5je4gtzbsncc3ktqr4kitawxmdiwtkz7ekfqatqqwhde.py":63:27)
#loc53 = loc("./local_cache/gh/cghfemwp5je4gtzbsncc3ktqr4kitawxmdiwtkz7ekfqatqqwhde.py":64:27)
#loc62 = loc(callsite(#loc1 at #loc50))
#loc65 = loc(callsite(#loc1 at #loc53))
module {
  tt.func public @triton_red_fused__to_copy_add_mul_sum_14(%arg0: !tt.ptr<f16> {tt.divisibility = 16 : i32} loc("./local_cache/gh/cghfemwp5je4gtzbsncc3ktqr4kitawxmdiwtkz7ekfqatqqwhde.py":18:0), %arg1: !tt.ptr<f16> {tt.divisibility = 16 : i32} loc("./local_cache/gh/cghfemwp5je4gtzbsncc3ktqr4kitawxmdiwtkz7ekfqatqqwhde.py":18:0), %arg2: !tt.ptr<f16> {tt.divisibility = 16 : i32} loc("./local_cache/gh/cghfemwp5je4gtzbsncc3ktqr4kitawxmdiwtkz7ekfqatqqwhde.py":18:0), %arg3: !tt.ptr<f16> {tt.divisibility = 16 : i32} loc("./local_cache/gh/cghfemwp5je4gtzbsncc3ktqr4kitawxmdiwtkz7ekfqatqqwhde.py":18:0), %arg4: !tt.ptr<f32> {tt.divisibility = 16 : i32} loc("./local_cache/gh/cghfemwp5je4gtzbsncc3ktqr4kitawxmdiwtkz7ekfqatqqwhde.py":18:0), %arg5: !tt.ptr<f16> {tt.divisibility = 16 : i32} loc("./local_cache/gh/cghfemwp5je4gtzbsncc3ktqr4kitawxmdiwtkz7ekfqatqqwhde.py":18:0), %arg6: !tt.ptr<f16> {tt.divisibility = 16 : i32} loc("./local_cache/gh/cghfemwp5je4gtzbsncc3ktqr4kitawxmdiwtkz7ekfqatqqwhde.py":18:0), %arg7: !tt.ptr<f16> {tt.divisibility = 16 : i32} loc("./local_cache/gh/cghfemwp5je4gtzbsncc3ktqr4kitawxmdiwtkz7ekfqatqqwhde.py":18:0), %arg8: !tt.ptr<f32> {tt.divisibility = 16 : i32} loc("./local_cache/gh/cghfemwp5je4gtzbsncc3ktqr4kitawxmdiwtkz7ekfqatqqwhde.py":18:0), %arg9: !tt.ptr<f16> {tt.divisibility = 16 : i32} loc("./local_cache/gh/cghfemwp5je4gtzbsncc3ktqr4kitawxmdiwtkz7ekfqatqqwhde.py":18:0), %arg10: !tt.ptr<f16> {tt.divisibility = 16 : i32} loc("./local_cache/gh/cghfemwp5je4gtzbsncc3ktqr4kitawxmdiwtkz7ekfqatqqwhde.py":18:0), %arg11: i32 {tt.divisibility = 16 : i32} loc("./local_cache/gh/cghfemwp5je4gtzbsncc3ktqr4kitawxmdiwtkz7ekfqatqqwhde.py":18:0), %arg12: i32 loc("./local_cache/gh/cghfemwp5je4gtzbsncc3ktqr4kitawxmdiwtkz7ekfqatqqwhde.py":18:0)) attributes {noinline = false} {
    %cst = arith.constant dense<0.000000e+00> : tensor<1x4xf16> loc(#loc1)
    %c4_i32 = arith.constant 4 : i32 loc(#loc1)
    %c0_i32 = arith.constant 0 : i32 loc(#loc1)
    %cst_0 = arith.constant dense<4096> : tensor<1x4xi32> loc(#loc1)
    %cst_1 = arith.constant dense<0.000000e+00> : tensor<1x4xf32> loc(#loc1)
    %0 = tt.get_program_id x : i32 loc(#loc2)
    %1 = tt.make_range {end = 4 : i32, start = 0 : i32} : tensor<4xi32> loc(#loc3)
    %2 = tt.expand_dims %1 {axis = 0 : i32} : tensor<4xi32> -> tensor<1x4xi32> loc(#loc4)
    %3:2 = scf.for %arg13 = %c0_i32 to %arg12 step %c4_i32 iter_args(%arg14 = %cst_1, %arg15 = %cst_1) -> (tensor<1x4xf32>, tensor<1x4xf32>)  : i32 {
      %14 = tt.splat %arg13 : i32 -> tensor<1x4xi32> loc(#loc6)
      %15 = arith.addi %14, %2 : tensor<1x4xi32> loc(#loc6)
      %16 = tt.splat %arg12 : i32 -> tensor<1x4xi32> loc(#loc7)
      %17 = arith.cmpi slt, %15, %16 : tensor<1x4xi32> loc(#loc7)
      %18 = arith.muli %15, %cst_0 : tensor<1x4xi32> loc(#loc8)
      %19 = tt.splat %0 : i32 -> tensor<1x4xi32> loc(#loc60)
      %20 = arith.addi %19, %18 : tensor<1x4xi32> loc(#loc9)
      %21 = tt.splat %arg0 : !tt.ptr<f16> -> tensor<1x4x!tt.ptr<f16>> loc(#loc11)
      %22 = tt.addptr %21, %20 : tensor<1x4x!tt.ptr<f16>>, tensor<1x4xi32> loc(#loc11)
      %23 = tt.load %22, %17, %cst evictionPolicy = evict_first : tensor<1x4x!tt.ptr<f16>> loc(#loc12)
      %24 = arith.extf %23 : tensor<1x4xf16> to tensor<1x4xf32> loc(#loc13)
      %25 = tt.splat %arg1 : !tt.ptr<f16> -> tensor<1x4x!tt.ptr<f16>> loc(#loc14)
      %26 = tt.addptr %25, %20 : tensor<1x4x!tt.ptr<f16>>, tensor<1x4xi32> loc(#loc14)
      %27 = tt.load %26, %17, %cst evictionPolicy = evict_first : tensor<1x4x!tt.ptr<f16>> loc(#loc15)
      %28 = arith.extf %27 : tensor<1x4xf16> to tensor<1x4xf32> loc(#loc16)
      %29 = tt.splat %arg2 : !tt.ptr<f16> -> tensor<1x4x!tt.ptr<f16>> loc(#loc17)
      %30 = tt.addptr %29, %20 : tensor<1x4x!tt.ptr<f16>>, tensor<1x4xi32> loc(#loc17)
      %31 = tt.load %30, %17, %cst evictionPolicy = evict_first : tensor<1x4x!tt.ptr<f16>> loc(#loc18)
      %32 = arith.extf %31 : tensor<1x4xf16> to tensor<1x4xf32> loc(#loc19)
      %33 = tt.splat %arg3 : !tt.ptr<f16> -> tensor<1x4x!tt.ptr<f16>> loc(#loc20)
      %34 = tt.addptr %33, %20 : tensor<1x4x!tt.ptr<f16>>, tensor<1x4xi32> loc(#loc20)
      %35 = tt.load %34, %17, %cst evictionPolicy = evict_first : tensor<1x4x!tt.ptr<f16>> loc(#loc21)
      %36 = arith.extf %35 : tensor<1x4xf16> to tensor<1x4xf32> loc(#loc22)
      %37 = tt.splat %arg4 : !tt.ptr<f32> -> tensor<1x4x!tt.ptr<f32>> loc(#loc23)
      %38 = tt.addptr %37, %15 : tensor<1x4x!tt.ptr<f32>>, tensor<1x4xi32> loc(#loc23)
      %39 = tt.load %38, %17, %cst_1 evictionPolicy = evict_last : tensor<1x4x!tt.ptr<f32>> loc(#loc24)
      %40 = tt.splat %arg5 : !tt.ptr<f16> -> tensor<1x4x!tt.ptr<f16>> loc(#loc25)
      %41 = tt.addptr %40, %20 : tensor<1x4x!tt.ptr<f16>>, tensor<1x4xi32> loc(#loc25)
      %42 = tt.load %41, %17, %cst evictionPolicy = evict_first : tensor<1x4x!tt.ptr<f16>> loc(#loc26)
      %43 = arith.extf %42 : tensor<1x4xf16> to tensor<1x4xf32> loc(#loc27)
      %44 = tt.splat %arg6 : !tt.ptr<f16> -> tensor<1x4x!tt.ptr<f16>> loc(#loc28)
      %45 = tt.addptr %44, %20 : tensor<1x4x!tt.ptr<f16>>, tensor<1x4xi32> loc(#loc28)
      %46 = tt.load %45, %17, %cst evictionPolicy = evict_first : tensor<1x4x!tt.ptr<f16>> loc(#loc29)
      %47 = arith.extf %46 : tensor<1x4xf16> to tensor<1x4xf32> loc(#loc30)
      %48 = tt.splat %arg7 : !tt.ptr<f16> -> tensor<1x4x!tt.ptr<f16>> loc(#loc31)
      %49 = tt.addptr %48, %20 : tensor<1x4x!tt.ptr<f16>>, tensor<1x4xi32> loc(#loc31)
      %50 = tt.load %49, %17, %cst evictionPolicy = evict_first : tensor<1x4x!tt.ptr<f16>> loc(#loc32)
      %51 = arith.extf %50 : tensor<1x4xf16> to tensor<1x4xf32> loc(#loc33)
      %52 = tt.splat %arg8 : !tt.ptr<f32> -> tensor<1x4x!tt.ptr<f32>> loc(#loc34)
      %53 = tt.addptr %52, %15 : tensor<1x4x!tt.ptr<f32>>, tensor<1x4xi32> loc(#loc34)
      %54 = tt.load %53, %17, %cst_1 evictionPolicy = evict_last : tensor<1x4x!tt.ptr<f32>> loc(#loc35)
      %55 = arith.addf %24, %28 : tensor<1x4xf32> loc(#loc36)
      %56 = arith.addf %32, %36 : tensor<1x4xf32> loc(#loc37)
      %57 = arith.mulf %56, %39 : tensor<1x4xf32> loc(#loc38)
      %58 = arith.mulf %55, %57 : tensor<1x4xf32> loc(#loc39)
      %59 = arith.addf %arg14, %58 : tensor<1x4xf32> loc(#loc40)
      %60 = arith.select %17, %59, %arg14 : tensor<1x4xi1>, tensor<1x4xf32> loc(#loc41)
      %61 = arith.addf %43, %47 : tensor<1x4xf32> loc(#loc42)
      %62 = arith.addf %61, %51 : tensor<1x4xf32> loc(#loc43)
      %63 = arith.mulf %32, %54 : tensor<1x4xf32> loc(#loc44)
      %64 = arith.mulf %62, %63 : tensor<1x4xf32> loc(#loc45)
      %65 = arith.addf %arg15, %64 : tensor<1x4xf32> loc(#loc46)
      %66 = arith.select %17, %65, %arg15 : tensor<1x4xi1>, tensor<1x4xf32> loc(#loc47)
      scf.yield %60, %66 : tensor<1x4xf32>, tensor<1x4xf32> loc(#loc48)
    } loc(#loc5)
    %4 = "tt.reduce"(%3#0) <{axis = 1 : i32}> ({
    ^bb0(%arg13: f32 loc(callsite(#loc1 at #loc50)), %arg14: f32 loc(callsite(#loc1 at #loc50))):
      %14 = arith.addf %arg13, %arg14 : f32 loc(#loc66)
      tt.reduce.return %14 : f32 loc(#loc61)
    }) : (tensor<1x4xf32>) -> tensor<1xf32> loc(#loc61)
    %5 = tt.expand_dims %4 {axis = 1 : i32} : tensor<1xf32> -> tensor<1x1xf32> loc(#loc52)
    %6 = "tt.reduce"(%3#1) <{axis = 1 : i32}> ({
    ^bb0(%arg13: f32 loc(callsite(#loc1 at #loc53)), %arg14: f32 loc(callsite(#loc1 at #loc53))):
      %14 = arith.addf %arg13, %arg14 : f32 loc(#loc67)
      tt.reduce.return %14 : f32 loc(#loc64)
    }) : (tensor<1x4xf32>) -> tensor<1xf32> loc(#loc64)
    %7 = tt.expand_dims %6 {axis = 1 : i32} : tensor<1xf32> -> tensor<1x1xf32> loc(#loc54)
    %8 = tt.addptr %arg9, %0 : !tt.ptr<f16>, i32 loc(#loc55)
    %9 = tt.splat %8 : !tt.ptr<f16> -> tensor<1x1x!tt.ptr<f16>> loc(#loc55)
    %10 = arith.truncf %5 : tensor<1x1xf32> to tensor<1x1xf16> loc(#loc56)
    tt.store %9, %10 : tensor<1x1x!tt.ptr<f16>> loc(#loc56)
    %11 = tt.addptr %arg10, %0 : !tt.ptr<f16>, i32 loc(#loc57)
    %12 = tt.splat %11 : !tt.ptr<f16> -> tensor<1x1x!tt.ptr<f16>> loc(#loc57)
    %13 = arith.truncf %7 : tensor<1x1xf32> to tensor<1x1xf16> loc(#loc58)
    tt.store %12, %13 : tensor<1x1x!tt.ptr<f16>> loc(#loc58)
    tt.return loc(#loc59)
  } loc(#loc)
} loc(#loc)
#loc2 = loc("./local_cache/gh/cghfemwp5je4gtzbsncc3ktqr4kitawxmdiwtkz7ekfqatqqwhde.py":22:28)
#loc3 = loc("./local_cache/gh/cghfemwp5je4gtzbsncc3ktqr4kitawxmdiwtkz7ekfqatqqwhde.py":25:27)
#loc4 = loc("./local_cache/gh/cghfemwp5je4gtzbsncc3ktqr4kitawxmdiwtkz7ekfqatqqwhde.py":25:37)
#loc5 = loc("./local_cache/gh/cghfemwp5je4gtzbsncc3ktqr4kitawxmdiwtkz7ekfqatqqwhde.py":30:40)
#loc6 = loc("./local_cache/gh/cghfemwp5je4gtzbsncc3ktqr4kitawxmdiwtkz7ekfqatqqwhde.py":31:31)
#loc7 = loc("./local_cache/gh/cghfemwp5je4gtzbsncc3ktqr4kitawxmdiwtkz7ekfqatqqwhde.py":32:29)
#loc8 = loc("./local_cache/gh/cghfemwp5je4gtzbsncc3ktqr4kitawxmdiwtkz7ekfqatqqwhde.py":36:44)
#loc9 = loc("./local_cache/gh/cghfemwp5je4gtzbsncc3ktqr4kitawxmdiwtkz7ekfqatqqwhde.py":36:39)
#loc10 = loc("./local_cache/gh/cghfemwp5je4gtzbsncc3ktqr4kitawxmdiwtkz7ekfqatqqwhde.py":23:23)
#loc11 = loc("./local_cache/gh/cghfemwp5je4gtzbsncc3ktqr4kitawxmdiwtkz7ekfqatqqwhde.py":36:34)
#loc12 = loc("./local_cache/gh/cghfemwp5je4gtzbsncc3ktqr4kitawxmdiwtkz7ekfqatqqwhde.py":36:51)
#loc13 = loc("./local_cache/gh/cghfemwp5je4gtzbsncc3ktqr4kitawxmdiwtkz7ekfqatqqwhde.py":36:105)
#loc14 = loc("./local_cache/gh/cghfemwp5je4gtzbsncc3ktqr4kitawxmdiwtkz7ekfqatqqwhde.py":37:34)
#loc15 = loc("./local_cache/gh/cghfemwp5je4gtzbsncc3ktqr4kitawxmdiwtkz7ekfqatqqwhde.py":37:51)
#loc16 = loc("./local_cache/gh/cghfemwp5je4gtzbsncc3ktqr4kitawxmdiwtkz7ekfqatqqwhde.py":37:105)
#loc17 = loc("./local_cache/gh/cghfemwp5je4gtzbsncc3ktqr4kitawxmdiwtkz7ekfqatqqwhde.py":38:34)
#loc18 = loc("./local_cache/gh/cghfemwp5je4gtzbsncc3ktqr4kitawxmdiwtkz7ekfqatqqwhde.py":38:51)
#loc19 = loc("./local_cache/gh/cghfemwp5je4gtzbsncc3ktqr4kitawxmdiwtkz7ekfqatqqwhde.py":38:105)
#loc20 = loc("./local_cache/gh/cghfemwp5je4gtzbsncc3ktqr4kitawxmdiwtkz7ekfqatqqwhde.py":39:34)
#loc21 = loc("./local_cache/gh/cghfemwp5je4gtzbsncc3ktqr4kitawxmdiwtkz7ekfqatqqwhde.py":39:51)
#loc22 = loc("./local_cache/gh/cghfemwp5je4gtzbsncc3ktqr4kitawxmdiwtkz7ekfqatqqwhde.py":39:105)
#loc23 = loc("./local_cache/gh/cghfemwp5je4gtzbsncc3ktqr4kitawxmdiwtkz7ekfqatqqwhde.py":40:34)
#loc24 = loc("./local_cache/gh/cghfemwp5je4gtzbsncc3ktqr4kitawxmdiwtkz7ekfqatqqwhde.py":40:41)
#loc25 = loc("./local_cache/gh/cghfemwp5je4gtzbsncc3ktqr4kitawxmdiwtkz7ekfqatqqwhde.py":41:35)
#loc26 = loc("./local_cache/gh/cghfemwp5je4gtzbsncc3ktqr4kitawxmdiwtkz7ekfqatqqwhde.py":41:52)
#loc27 = loc("./local_cache/gh/cghfemwp5je4gtzbsncc3ktqr4kitawxmdiwtkz7ekfqatqqwhde.py":41:106)
#loc28 = loc("./local_cache/gh/cghfemwp5je4gtzbsncc3ktqr4kitawxmdiwtkz7ekfqatqqwhde.py":42:35)
#loc29 = loc("./local_cache/gh/cghfemwp5je4gtzbsncc3ktqr4kitawxmdiwtkz7ekfqatqqwhde.py":42:52)
#loc30 = loc("./local_cache/gh/cghfemwp5je4gtzbsncc3ktqr4kitawxmdiwtkz7ekfqatqqwhde.py":42:106)
#loc31 = loc("./local_cache/gh/cghfemwp5je4gtzbsncc3ktqr4kitawxmdiwtkz7ekfqatqqwhde.py":43:35)
#loc32 = loc("./local_cache/gh/cghfemwp5je4gtzbsncc3ktqr4kitawxmdiwtkz7ekfqatqqwhde.py":43:52)
#loc33 = loc("./local_cache/gh/cghfemwp5je4gtzbsncc3ktqr4kitawxmdiwtkz7ekfqatqqwhde.py":43:106)
#loc34 = loc("./local_cache/gh/cghfemwp5je4gtzbsncc3ktqr4kitawxmdiwtkz7ekfqatqqwhde.py":44:35)
#loc35 = loc("./local_cache/gh/cghfemwp5je4gtzbsncc3ktqr4kitawxmdiwtkz7ekfqatqqwhde.py":44:42)
#loc36 = loc("./local_cache/gh/cghfemwp5je4gtzbsncc3ktqr4kitawxmdiwtkz7ekfqatqqwhde.py":45:22)
#loc37 = loc("./local_cache/gh/cghfemwp5je4gtzbsncc3ktqr4kitawxmdiwtkz7ekfqatqqwhde.py":46:22)
#loc38 = loc("./local_cache/gh/cghfemwp5je4gtzbsncc3ktqr4kitawxmdiwtkz7ekfqatqqwhde.py":48:22)
#loc39 = loc("./local_cache/gh/cghfemwp5je4gtzbsncc3ktqr4kitawxmdiwtkz7ekfqatqqwhde.py":50:23)
#loc40 = loc("./local_cache/gh/cghfemwp5je4gtzbsncc3ktqr4kitawxmdiwtkz7ekfqatqqwhde.py":52:25)
#loc41 = loc("./local_cache/gh/cghfemwp5je4gtzbsncc3ktqr4kitawxmdiwtkz7ekfqatqqwhde.py":53:42)
#loc42 = loc("./local_cache/gh/cghfemwp5je4gtzbsncc3ktqr4kitawxmdiwtkz7ekfqatqqwhde.py":54:24)
#loc43 = loc("./local_cache/gh/cghfemwp5je4gtzbsncc3ktqr4kitawxmdiwtkz7ekfqatqqwhde.py":55:24)
#loc44 = loc("./local_cache/gh/cghfemwp5je4gtzbsncc3ktqr4kitawxmdiwtkz7ekfqatqqwhde.py":57:24)
#loc45 = loc("./local_cache/gh/cghfemwp5je4gtzbsncc3ktqr4kitawxmdiwtkz7ekfqatqqwhde.py":59:24)
#loc46 = loc("./local_cache/gh/cghfemwp5je4gtzbsncc3ktqr4kitawxmdiwtkz7ekfqatqqwhde.py":61:25)
#loc47 = loc("./local_cache/gh/cghfemwp5je4gtzbsncc3ktqr4kitawxmdiwtkz7ekfqatqqwhde.py":62:42)
#loc48 = loc("./local_cache/gh/cghfemwp5je4gtzbsncc3ktqr4kitawxmdiwtkz7ekfqatqqwhde.py":62:8)
#loc49 = loc("/workspace/torch-compile-caching/.venv/lib/python3.11/site-packages/triton/language/standard.py":286:36)
#loc51 = loc("/workspace/torch-compile-caching/.venv/lib/python3.11/site-packages/triton/language/standard.py":256:15)
#loc52 = loc("./local_cache/gh/cghfemwp5je4gtzbsncc3ktqr4kitawxmdiwtkz7ekfqatqqwhde.py":63:30)
#loc54 = loc("./local_cache/gh/cghfemwp5je4gtzbsncc3ktqr4kitawxmdiwtkz7ekfqatqqwhde.py":64:30)
#loc55 = loc("./local_cache/gh/cghfemwp5je4gtzbsncc3ktqr4kitawxmdiwtkz7ekfqatqqwhde.py":65:25)
#loc56 = loc("./local_cache/gh/cghfemwp5je4gtzbsncc3ktqr4kitawxmdiwtkz7ekfqatqqwhde.py":65:37)
#loc57 = loc("./local_cache/gh/cghfemwp5je4gtzbsncc3ktqr4kitawxmdiwtkz7ekfqatqqwhde.py":66:25)
#loc58 = loc("./local_cache/gh/cghfemwp5je4gtzbsncc3ktqr4kitawxmdiwtkz7ekfqatqqwhde.py":66:37)
#loc59 = loc("./local_cache/gh/cghfemwp5je4gtzbsncc3ktqr4kitawxmdiwtkz7ekfqatqqwhde.py":66:4)
#loc60 = loc(fused[#loc9, #loc10])
#loc61 = loc(callsite(#loc49 at #loc50))
#loc63 = loc(callsite(#loc51 at #loc49))
#loc64 = loc(callsite(#loc49 at #loc53))
#loc66 = loc(callsite(#loc63 at #loc50))
#loc67 = loc(callsite(#loc63 at #loc53))
