#loc = loc("./local_cache/cp/ccpmvf6lgmnpforavvbrvwi4t5zoiosfy62jj2u37b4g5lsm5yib.py":18:0)
#loc1 = loc(unknown)
#loc22 = loc("./local_cache/cp/ccpmvf6lgmnpforavvbrvwi4t5zoiosfy62jj2u37b4g5lsm5yib.py":44:25)
#loc44 = loc(callsite(#loc1 at #loc22))
module {
  tt.func public @triton_red_fused__to_copy_add_mean_mul_pow_rsqrt_9(%arg0: !tt.ptr<f16> {tt.divisibility = 16 : i32} loc("./local_cache/cp/ccpmvf6lgmnpforavvbrvwi4t5zoiosfy62jj2u37b4g5lsm5yib.py":18:0), %arg1: !tt.ptr<f32> {tt.divisibility = 16 : i32} loc("./local_cache/cp/ccpmvf6lgmnpforavvbrvwi4t5zoiosfy62jj2u37b4g5lsm5yib.py":18:0), %arg2: !tt.ptr<f16> {tt.divisibility = 16 : i32} loc("./local_cache/cp/ccpmvf6lgmnpforavvbrvwi4t5zoiosfy62jj2u37b4g5lsm5yib.py":18:0), %arg3: !tt.ptr<f16> {tt.divisibility = 16 : i32} loc("./local_cache/cp/ccpmvf6lgmnpforavvbrvwi4t5zoiosfy62jj2u37b4g5lsm5yib.py":18:0), %arg4: !tt.ptr<f16> {tt.divisibility = 16 : i32} loc("./local_cache/cp/ccpmvf6lgmnpforavvbrvwi4t5zoiosfy62jj2u37b4g5lsm5yib.py":18:0), %arg5: i32 loc("./local_cache/cp/ccpmvf6lgmnpforavvbrvwi4t5zoiosfy62jj2u37b4g5lsm5yib.py":18:0), %arg6: i32 {tt.divisibility = 16 : i32} loc("./local_cache/cp/ccpmvf6lgmnpforavvbrvwi4t5zoiosfy62jj2u37b4g5lsm5yib.py":18:0)) attributes {noinline = false} {
    %c4096_i32 = arith.constant 4096 : i32 loc(#loc1)
    %cst = arith.constant dense<0.000000e+00> : tensor<1x4096xf16> loc(#loc1)
    %cst_0 = arith.constant dense<9.99999974E-6> : tensor<1x1xf32> loc(#loc1)
    %cst_1 = arith.constant dense<4.096000e+03> : tensor<1x1xf32> loc(#loc1)
    %cst_2 = arith.constant dense<4096> : tensor<1x4096xi32> loc(#loc1)
    %cst_3 = arith.constant dense<0.000000e+00> : tensor<1x4096xf32> loc(#loc1)
    %0 = tt.get_program_id x : i32 loc(#loc2)
    %1 = arith.cmpi slt, %0, %arg5 : i32 loc(#loc3)
    %2 = tt.splat %1 : i1 -> tensor<1x1xi1> loc(#loc3)
    %3 = tt.make_range {end = 4096 : i32, start = 0 : i32} : tensor<4096xi32> loc(#loc4)
    %4 = tt.expand_dims %3 {axis = 0 : i32} : tensor<4096xi32> -> tensor<1x4096xi32> loc(#loc5)
    %5 = arith.cmpi slt, %4, %cst_2 : tensor<1x4096xi32> loc(#loc6)
    %6 = arith.muli %0, %c4096_i32 : i32 loc(#loc7)
    %7 = tt.splat %6 : i32 -> tensor<1x4096xi32> loc(#loc41)
    %8 = arith.addi %4, %7 : tensor<1x4096xi32> loc(#loc8)
    %9 = tt.splat %arg2 : !tt.ptr<f16> -> tensor<1x4096x!tt.ptr<f16>> loc(#loc9)
    %10 = tt.addptr %9, %8 : tensor<1x4096x!tt.ptr<f16>>, tensor<1x4096xi32> loc(#loc9)
    %11 = tt.splat %1 : i1 -> tensor<1x4096xi1> loc(#loc42)
    %12 = arith.andi %5, %11 : tensor<1x4096xi1> loc(#loc10)
    %13 = tt.load %10, %12, %cst evictionPolicy = evict_first : tensor<1x4096x!tt.ptr<f16>> loc(#loc11)
    %14 = arith.extf %13 : tensor<1x4096xf16> to tensor<1x4096xf32> loc(#loc12)
    %15 = tt.splat %arg0 : !tt.ptr<f16> -> tensor<1x4096x!tt.ptr<f16>> loc(#loc13)
    %16 = tt.addptr %15, %8 : tensor<1x4096x!tt.ptr<f16>>, tensor<1x4096xi32> loc(#loc13)
    %17 = tt.load %16, %12, %cst evictionPolicy = evict_first : tensor<1x4096x!tt.ptr<f16>> loc(#loc14)
    %18 = arith.extf %17 : tensor<1x4096xf16> to tensor<1x4096xf32> loc(#loc15)
    %19 = arith.addf %14, %18 : tensor<1x4096xf32> loc(#loc16)
    %20 = arith.mulf %19, %19 : tensor<1x4096xf32> loc(#loc17)
    %21 = arith.addf %20, %cst_3 : tensor<1x4096xf32> loc(#loc18)
    %22 = arith.select %12, %21, %cst_3 : tensor<1x4096xi1>, tensor<1x4096xf32> loc(#loc19)
    %23 = arith.truncf %19 : tensor<1x4096xf32> to tensor<1x4096xf16> loc(#loc20)
    tt.store %16, %23, %12 : tensor<1x4096x!tt.ptr<f16>> loc(#loc20)
    %24 = "tt.reduce"(%22) <{axis = 1 : i32}> ({
    ^bb0(%arg7: f32 loc(callsite(#loc1 at #loc22)), %arg8: f32 loc(callsite(#loc1 at #loc22))):
      %43 = arith.addf %arg7, %arg8 : f32 loc(#loc46)
      tt.reduce.return %43 : f32 loc(#loc43)
    }) : (tensor<1x4096xf32>) -> tensor<1xf32> loc(#loc43)
    %25 = tt.expand_dims %24 {axis = 1 : i32} : tensor<1xf32> -> tensor<1x1xf32> loc(#loc24)
    %26 = arith.divf %25, %cst_1 : tensor<1x1xf32> loc(#loc25)
    %27 = arith.addf %26, %cst_0 : tensor<1x1xf32> loc(#loc26)
    %28 = tt.extern_elementwise %27 {libname = "", libpath = "", pure = true, symbol = "__nv_rsqrtf"} : (tensor<1x1xf32>) -> tensor<1x1xf32> loc(#loc27)
    gpu.barrier loc(#loc28)
    %29 = tt.addptr %arg1, %0 : !tt.ptr<f32>, i32 loc(#loc29)
    %30 = tt.splat %29 : !tt.ptr<f32> -> tensor<1x1x!tt.ptr<f32>> loc(#loc29)
    tt.store %30, %28, %2 : tensor<1x1x!tt.ptr<f32>> loc(#loc30)
    %31 = tt.splat %arg3 : !tt.ptr<f16> -> tensor<1x4096x!tt.ptr<f16>> loc(#loc31)
    %32 = tt.addptr %31, %4 : tensor<1x4096x!tt.ptr<f16>>, tensor<1x4096xi32> loc(#loc31)
    %33 = tt.load %32, %5, %cst evictionPolicy = evict_last : tensor<1x4096x!tt.ptr<f16>> loc(#loc32)
    %34 = arith.extf %33 : tensor<1x4096xf16> to tensor<1x4096xf32> loc(#loc33)
    %35 = tt.load %16, %12, %cst evictionPolicy = evict_first : tensor<1x4096x!tt.ptr<f16>> loc(#loc34)
    %36 = arith.extf %35 : tensor<1x4096xf16> to tensor<1x4096xf32> loc(#loc35)
    %37 = tt.broadcast %28 : tensor<1x1xf32> -> tensor<1x4096xf32> loc(#loc36)
    %38 = arith.mulf %36, %37 : tensor<1x4096xf32> loc(#loc36)
    %39 = arith.mulf %34, %38 : tensor<1x4096xf32> loc(#loc37)
    %40 = tt.splat %arg4 : !tt.ptr<f16> -> tensor<1x4096x!tt.ptr<f16>> loc(#loc38)
    %41 = tt.addptr %40, %8 : tensor<1x4096x!tt.ptr<f16>>, tensor<1x4096xi32> loc(#loc38)
    %42 = arith.truncf %39 : tensor<1x4096xf32> to tensor<1x4096xf16> loc(#loc39)
    tt.store %41, %42, %12 : tensor<1x4096x!tt.ptr<f16>> loc(#loc39)
    tt.return loc(#loc40)
  } loc(#loc)
} loc(#loc)
#loc2 = loc("./local_cache/cp/ccpmvf6lgmnpforavvbrvwi4t5zoiosfy62jj2u37b4g5lsm5yib.py":22:28)
#loc3 = loc("./local_cache/cp/ccpmvf6lgmnpforavvbrvwi4t5zoiosfy62jj2u37b4g5lsm5yib.py":24:21)
#loc4 = loc("./local_cache/cp/ccpmvf6lgmnpforavvbrvwi4t5zoiosfy62jj2u37b4g5lsm5yib.py":25:27)
#loc5 = loc("./local_cache/cp/ccpmvf6lgmnpforavvbrvwi4t5zoiosfy62jj2u37b4g5lsm5yib.py":25:37)
#loc6 = loc("./local_cache/cp/ccpmvf6lgmnpforavvbrvwi4t5zoiosfy62jj2u37b4g5lsm5yib.py":31:29)
#loc7 = loc("./local_cache/cp/ccpmvf6lgmnpforavvbrvwi4t5zoiosfy62jj2u37b4g5lsm5yib.py":35:46)
#loc8 = loc("./local_cache/cp/ccpmvf6lgmnpforavvbrvwi4t5zoiosfy62jj2u37b4g5lsm5yib.py":35:41)
#loc9 = loc("./local_cache/cp/ccpmvf6lgmnpforavvbrvwi4t5zoiosfy62jj2u37b4g5lsm5yib.py":35:34)
#loc10 = loc("./local_cache/cp/ccpmvf6lgmnpforavvbrvwi4t5zoiosfy62jj2u37b4g5lsm5yib.py":35:61)
#loc11 = loc("./local_cache/cp/ccpmvf6lgmnpforavvbrvwi4t5zoiosfy62jj2u37b4g5lsm5yib.py":35:51)
#loc12 = loc("./local_cache/cp/ccpmvf6lgmnpforavvbrvwi4t5zoiosfy62jj2u37b4g5lsm5yib.py":35:113)
#loc13 = loc("./local_cache/cp/ccpmvf6lgmnpforavvbrvwi4t5zoiosfy62jj2u37b4g5lsm5yib.py":36:38)
#loc14 = loc("./local_cache/cp/ccpmvf6lgmnpforavvbrvwi4t5zoiosfy62jj2u37b4g5lsm5yib.py":36:55)
#loc15 = loc("./local_cache/cp/ccpmvf6lgmnpforavvbrvwi4t5zoiosfy62jj2u37b4g5lsm5yib.py":36:117)
#loc16 = loc("./local_cache/cp/ccpmvf6lgmnpforavvbrvwi4t5zoiosfy62jj2u37b4g5lsm5yib.py":37:22)
#loc17 = loc("./local_cache/cp/ccpmvf6lgmnpforavvbrvwi4t5zoiosfy62jj2u37b4g5lsm5yib.py":39:22)
#loc18 = loc("./local_cache/cp/ccpmvf6lgmnpforavvbrvwi4t5zoiosfy62jj2u37b4g5lsm5yib.py":41:23)
#loc19 = loc("./local_cache/cp/ccpmvf6lgmnpforavvbrvwi4t5zoiosfy62jj2u37b4g5lsm5yib.py":42:48)
#loc20 = loc("./local_cache/cp/ccpmvf6lgmnpforavvbrvwi4t5zoiosfy62jj2u37b4g5lsm5yib.py":43:55)
#loc21 = loc("/workspace/torch-compile-caching/.venv/lib/python3.11/site-packages/triton/language/standard.py":286:36)
#loc23 = loc("/workspace/torch-compile-caching/.venv/lib/python3.11/site-packages/triton/language/standard.py":256:15)
#loc24 = loc("./local_cache/cp/ccpmvf6lgmnpforavvbrvwi4t5zoiosfy62jj2u37b4g5lsm5yib.py":44:28)
#loc25 = loc("./local_cache/cp/ccpmvf6lgmnpforavvbrvwi4t5zoiosfy62jj2u37b4g5lsm5yib.py":46:19)
#loc26 = loc("./local_cache/cp/ccpmvf6lgmnpforavvbrvwi4t5zoiosfy62jj2u37b4g5lsm5yib.py":48:19)
#loc27 = loc("./local_cache/cp/ccpmvf6lgmnpforavvbrvwi4t5zoiosfy62jj2u37b4g5lsm5yib.py":49:28)
#loc28 = loc("./local_cache/cp/ccpmvf6lgmnpforavvbrvwi4t5zoiosfy62jj2u37b4g5lsm5yib.py":50:4)
#loc29 = loc("./local_cache/cp/ccpmvf6lgmnpforavvbrvwi4t5zoiosfy62jj2u37b4g5lsm5yib.py":51:28)
#loc30 = loc("./local_cache/cp/ccpmvf6lgmnpforavvbrvwi4t5zoiosfy62jj2u37b4g5lsm5yib.py":51:40)
#loc31 = loc("./local_cache/cp/ccpmvf6lgmnpforavvbrvwi4t5zoiosfy62jj2u37b4g5lsm5yib.py":58:35)
#loc32 = loc("./local_cache/cp/ccpmvf6lgmnpforavvbrvwi4t5zoiosfy62jj2u37b4g5lsm5yib.py":58:42)
#loc33 = loc("./local_cache/cp/ccpmvf6lgmnpforavvbrvwi4t5zoiosfy62jj2u37b4g5lsm5yib.py":58:95)
#loc34 = loc("./local_cache/cp/ccpmvf6lgmnpforavvbrvwi4t5zoiosfy62jj2u37b4g5lsm5yib.py":59:56)
#loc35 = loc("./local_cache/cp/ccpmvf6lgmnpforavvbrvwi4t5zoiosfy62jj2u37b4g5lsm5yib.py":59:118)
#loc36 = loc("./local_cache/cp/ccpmvf6lgmnpforavvbrvwi4t5zoiosfy62jj2u37b4g5lsm5yib.py":61:24)
#loc37 = loc("./local_cache/cp/ccpmvf6lgmnpforavvbrvwi4t5zoiosfy62jj2u37b4g5lsm5yib.py":63:24)
#loc38 = loc("./local_cache/cp/ccpmvf6lgmnpforavvbrvwi4t5zoiosfy62jj2u37b4g5lsm5yib.py":64:29)
#loc39 = loc("./local_cache/cp/ccpmvf6lgmnpforavvbrvwi4t5zoiosfy62jj2u37b4g5lsm5yib.py":64:53)
#loc40 = loc("./local_cache/cp/ccpmvf6lgmnpforavvbrvwi4t5zoiosfy62jj2u37b4g5lsm5yib.py":52:4)
#loc41 = loc(fused[#loc8, #loc7])
#loc42 = loc(fused[#loc10, #loc3])
#loc43 = loc(callsite(#loc21 at #loc22))
#loc45 = loc(callsite(#loc23 at #loc21))
#loc46 = loc(callsite(#loc45 at #loc22))
