#loc = loc("./local_cache/ir/cirveghol7wjrq7zwkkgu3sphruzjhq4ru5zcvmudgaexdo5niag.py":18:0)
#loc1 = loc(unknown)
#loc29 = loc("./local_cache/ir/cirveghol7wjrq7zwkkgu3sphruzjhq4ru5zcvmudgaexdo5niag.py":46:25)
#loc58 = loc(callsite(#loc1 at #loc29))
module {
  tt.func public @triton_red_fused__to_copy_add_mean_mul_pow_rsqrt_8(%arg0: !tt.ptr<f16> {tt.divisibility = 16 : i32} loc("./local_cache/ir/cirveghol7wjrq7zwkkgu3sphruzjhq4ru5zcvmudgaexdo5niag.py":18:0), %arg1: !tt.ptr<f32> {tt.divisibility = 16 : i32} loc("./local_cache/ir/cirveghol7wjrq7zwkkgu3sphruzjhq4ru5zcvmudgaexdo5niag.py":18:0), %arg2: !tt.ptr<f16> {tt.divisibility = 16 : i32} loc("./local_cache/ir/cirveghol7wjrq7zwkkgu3sphruzjhq4ru5zcvmudgaexdo5niag.py":18:0), %arg3: !tt.ptr<f16> {tt.divisibility = 16 : i32} loc("./local_cache/ir/cirveghol7wjrq7zwkkgu3sphruzjhq4ru5zcvmudgaexdo5niag.py":18:0), %arg4: !tt.ptr<f16> {tt.divisibility = 16 : i32} loc("./local_cache/ir/cirveghol7wjrq7zwkkgu3sphruzjhq4ru5zcvmudgaexdo5niag.py":18:0), %arg5: !tt.ptr<f16> {tt.divisibility = 16 : i32} loc("./local_cache/ir/cirveghol7wjrq7zwkkgu3sphruzjhq4ru5zcvmudgaexdo5niag.py":18:0), %arg6: i32 loc("./local_cache/ir/cirveghol7wjrq7zwkkgu3sphruzjhq4ru5zcvmudgaexdo5niag.py":18:0), %arg7: i32 {tt.divisibility = 16 : i32} loc("./local_cache/ir/cirveghol7wjrq7zwkkgu3sphruzjhq4ru5zcvmudgaexdo5niag.py":18:0)) attributes {noinline = false} {
    %cst = arith.constant dense<0.000000e+00> : tensor<1x2048xf16> loc(#loc1)
    %c2048_i32 = arith.constant 2048 : i32 loc(#loc1)
    %c4096_i32 = arith.constant 4096 : i32 loc(#loc1)
    %c0_i32 = arith.constant 0 : i32 loc(#loc1)
    %cst_0 = arith.constant dense<9.99999974E-6> : tensor<1x1xf32> loc(#loc1)
    %cst_1 = arith.constant dense<4.096000e+03> : tensor<1x1xf32> loc(#loc1)
    %cst_2 = arith.constant dense<4096> : tensor<1x2048xi32> loc(#loc1)
    %cst_3 = arith.constant dense<0.000000e+00> : tensor<1x2048xf32> loc(#loc1)
    %0 = tt.get_program_id x : i32 loc(#loc2)
    %1 = arith.cmpi slt, %0, %arg6 : i32 loc(#loc3)
    %2 = tt.splat %1 : i1 -> tensor<1x1xi1> loc(#loc3)
    %3 = tt.make_range {end = 2048 : i32, start = 0 : i32} : tensor<2048xi32> loc(#loc4)
    %4 = tt.expand_dims %3 {axis = 0 : i32} : tensor<2048xi32> -> tensor<1x2048xi32> loc(#loc5)
    %5 = scf.for %arg8 = %c0_i32 to %c4096_i32 step %c2048_i32 iter_args(%arg9 = %cst_3) -> (tensor<1x2048xf32>)  : i32 {
      %13 = tt.splat %arg8 : i32 -> tensor<1x2048xi32> loc(#loc7)
      %14 = arith.addi %13, %4 : tensor<1x2048xi32> loc(#loc7)
      %15 = arith.cmpi slt, %14, %cst_2 : tensor<1x2048xi32> loc(#loc8)
      %16 = arith.muli %0, %c4096_i32 : i32 loc(#loc9)
      %17 = tt.splat %16 : i32 -> tensor<1x2048xi32> loc(#loc55)
      %18 = arith.addi %14, %17 : tensor<1x2048xi32> loc(#loc10)
      %19 = tt.splat %arg2 : !tt.ptr<f16> -> tensor<1x2048x!tt.ptr<f16>> loc(#loc11)
      %20 = tt.addptr %19, %18 : tensor<1x2048x!tt.ptr<f16>>, tensor<1x2048xi32> loc(#loc11)
      %21 = tt.splat %1 : i1 -> tensor<1x2048xi1> loc(#loc56)
      %22 = arith.andi %15, %21 : tensor<1x2048xi1> loc(#loc12)
      %23 = tt.load %20, %22, %cst evictionPolicy = evict_first : tensor<1x2048x!tt.ptr<f16>> loc(#loc13)
      %24 = arith.extf %23 : tensor<1x2048xf16> to tensor<1x2048xf32> loc(#loc14)
      %25 = tt.splat %arg3 : !tt.ptr<f16> -> tensor<1x2048x!tt.ptr<f16>> loc(#loc15)
      %26 = tt.addptr %25, %18 : tensor<1x2048x!tt.ptr<f16>>, tensor<1x2048xi32> loc(#loc15)
      %27 = tt.load %26, %22, %cst evictionPolicy = evict_first : tensor<1x2048x!tt.ptr<f16>> loc(#loc16)
      %28 = arith.extf %27 : tensor<1x2048xf16> to tensor<1x2048xf32> loc(#loc17)
      %29 = tt.splat %arg0 : !tt.ptr<f16> -> tensor<1x2048x!tt.ptr<f16>> loc(#loc18)
      %30 = tt.addptr %29, %18 : tensor<1x2048x!tt.ptr<f16>>, tensor<1x2048xi32> loc(#loc18)
      %31 = tt.load %30, %22, %cst evictionPolicy = evict_first : tensor<1x2048x!tt.ptr<f16>> loc(#loc19)
      %32 = arith.extf %31 : tensor<1x2048xf16> to tensor<1x2048xf32> loc(#loc20)
      %33 = arith.addf %24, %28 : tensor<1x2048xf32> loc(#loc21)
      %34 = arith.addf %33, %32 : tensor<1x2048xf32> loc(#loc22)
      %35 = arith.mulf %34, %34 : tensor<1x2048xf32> loc(#loc23)
      %36 = arith.addf %arg9, %35 : tensor<1x2048xf32> loc(#loc24)
      %37 = arith.select %22, %36, %arg9 : tensor<1x2048xi1>, tensor<1x2048xf32> loc(#loc25)
      %38 = arith.truncf %34 : tensor<1x2048xf32> to tensor<1x2048xf16> loc(#loc26)
      tt.store %30, %38, %22 : tensor<1x2048x!tt.ptr<f16>> loc(#loc26)
      scf.yield %37 : tensor<1x2048xf32> loc(#loc27)
    } loc(#loc6)
    %6 = "tt.reduce"(%5) <{axis = 1 : i32}> ({
    ^bb0(%arg8: f32 loc(callsite(#loc1 at #loc29)), %arg9: f32 loc(callsite(#loc1 at #loc29))):
      %13 = arith.addf %arg8, %arg9 : f32 loc(#loc62)
      tt.reduce.return %13 : f32 loc(#loc57)
    }) : (tensor<1x2048xf32>) -> tensor<1xf32> loc(#loc57)
    %7 = tt.expand_dims %6 {axis = 1 : i32} : tensor<1xf32> -> tensor<1x1xf32> loc(#loc31)
    %8 = arith.divf %7, %cst_1 : tensor<1x1xf32> loc(#loc32)
    %9 = arith.addf %8, %cst_0 : tensor<1x1xf32> loc(#loc33)
    %10 = tt.extern_elementwise %9 {libname = "", libpath = "", pure = true, symbol = "__nv_rsqrtf"} : (tensor<1x1xf32>) -> tensor<1x1xf32> loc(#loc34)
    gpu.barrier loc(#loc35)
    %11 = tt.addptr %arg1, %0 : !tt.ptr<f32>, i32 loc(#loc36)
    %12 = tt.splat %11 : !tt.ptr<f32> -> tensor<1x1x!tt.ptr<f32>> loc(#loc36)
    tt.store %12, %10, %2 : tensor<1x1x!tt.ptr<f32>> loc(#loc37)
    scf.for %arg8 = %c0_i32 to %c4096_i32 step %c2048_i32  : i32 {
      %13 = tt.splat %arg8 : i32 -> tensor<1x2048xi32> loc(#loc39)
      %14 = arith.addi %13, %4 : tensor<1x2048xi32> loc(#loc39)
      %15 = arith.cmpi slt, %14, %cst_2 : tensor<1x2048xi32> loc(#loc40)
      %16 = tt.splat %arg4 : !tt.ptr<f16> -> tensor<1x2048x!tt.ptr<f16>> loc(#loc41)
      %17 = tt.addptr %16, %14 : tensor<1x2048x!tt.ptr<f16>>, tensor<1x2048xi32> loc(#loc41)
      %18 = tt.load %17, %15, %cst evictionPolicy = evict_last : tensor<1x2048x!tt.ptr<f16>> loc(#loc42)
      %19 = arith.extf %18 : tensor<1x2048xf16> to tensor<1x2048xf32> loc(#loc43)
      %20 = arith.muli %0, %c4096_i32 : i32 loc(#loc44)
      %21 = tt.splat %20 : i32 -> tensor<1x2048xi32> loc(#loc60)
      %22 = arith.addi %14, %21 : tensor<1x2048xi32> loc(#loc45)
      %23 = tt.splat %arg0 : !tt.ptr<f16> -> tensor<1x2048x!tt.ptr<f16>> loc(#loc46)
      %24 = tt.addptr %23, %22 : tensor<1x2048x!tt.ptr<f16>>, tensor<1x2048xi32> loc(#loc46)
      %25 = tt.splat %1 : i1 -> tensor<1x2048xi1> loc(#loc61)
      %26 = arith.andi %15, %25 : tensor<1x2048xi1> loc(#loc47)
      %27 = tt.load %24, %26, %cst evictionPolicy = evict_first : tensor<1x2048x!tt.ptr<f16>> loc(#loc48)
      %28 = arith.extf %27 : tensor<1x2048xf16> to tensor<1x2048xf32> loc(#loc49)
      %29 = tt.broadcast %10 : tensor<1x1xf32> -> tensor<1x2048xf32> loc(#loc50)
      %30 = arith.mulf %28, %29 : tensor<1x2048xf32> loc(#loc50)
      %31 = arith.mulf %19, %30 : tensor<1x2048xf32> loc(#loc51)
      %32 = tt.splat %arg5 : !tt.ptr<f16> -> tensor<1x2048x!tt.ptr<f16>> loc(#loc52)
      %33 = tt.addptr %32, %22 : tensor<1x2048x!tt.ptr<f16>>, tensor<1x2048xi32> loc(#loc52)
      %34 = arith.truncf %31 : tensor<1x2048xf32> to tensor<1x2048xf16> loc(#loc53)
      tt.store %33, %34, %26 : tensor<1x2048x!tt.ptr<f16>> loc(#loc53)
    } loc(#loc38)
    tt.return loc(#loc54)
  } loc(#loc)
} loc(#loc)
#loc2 = loc("./local_cache/ir/cirveghol7wjrq7zwkkgu3sphruzjhq4ru5zcvmudgaexdo5niag.py":22:28)
#loc3 = loc("./local_cache/ir/cirveghol7wjrq7zwkkgu3sphruzjhq4ru5zcvmudgaexdo5niag.py":24:21)
#loc4 = loc("./local_cache/ir/cirveghol7wjrq7zwkkgu3sphruzjhq4ru5zcvmudgaexdo5niag.py":25:27)
#loc5 = loc("./local_cache/ir/cirveghol7wjrq7zwkkgu3sphruzjhq4ru5zcvmudgaexdo5niag.py":25:37)
#loc6 = loc("./local_cache/ir/cirveghol7wjrq7zwkkgu3sphruzjhq4ru5zcvmudgaexdo5niag.py":29:40)
#loc7 = loc("./local_cache/ir/cirveghol7wjrq7zwkkgu3sphruzjhq4ru5zcvmudgaexdo5niag.py":30:31)
#loc8 = loc("./local_cache/ir/cirveghol7wjrq7zwkkgu3sphruzjhq4ru5zcvmudgaexdo5niag.py":31:29)
#loc9 = loc("./local_cache/ir/cirveghol7wjrq7zwkkgu3sphruzjhq4ru5zcvmudgaexdo5niag.py":35:46)
#loc10 = loc("./local_cache/ir/cirveghol7wjrq7zwkkgu3sphruzjhq4ru5zcvmudgaexdo5niag.py":35:41)
#loc11 = loc("./local_cache/ir/cirveghol7wjrq7zwkkgu3sphruzjhq4ru5zcvmudgaexdo5niag.py":35:34)
#loc12 = loc("./local_cache/ir/cirveghol7wjrq7zwkkgu3sphruzjhq4ru5zcvmudgaexdo5niag.py":35:61)
#loc13 = loc("./local_cache/ir/cirveghol7wjrq7zwkkgu3sphruzjhq4ru5zcvmudgaexdo5niag.py":35:51)
#loc14 = loc("./local_cache/ir/cirveghol7wjrq7zwkkgu3sphruzjhq4ru5zcvmudgaexdo5niag.py":35:113)
#loc15 = loc("./local_cache/ir/cirveghol7wjrq7zwkkgu3sphruzjhq4ru5zcvmudgaexdo5niag.py":36:34)
#loc16 = loc("./local_cache/ir/cirveghol7wjrq7zwkkgu3sphruzjhq4ru5zcvmudgaexdo5niag.py":36:51)
#loc17 = loc("./local_cache/ir/cirveghol7wjrq7zwkkgu3sphruzjhq4ru5zcvmudgaexdo5niag.py":36:113)
#loc18 = loc("./local_cache/ir/cirveghol7wjrq7zwkkgu3sphruzjhq4ru5zcvmudgaexdo5niag.py":37:38)
#loc19 = loc("./local_cache/ir/cirveghol7wjrq7zwkkgu3sphruzjhq4ru5zcvmudgaexdo5niag.py":37:55)
#loc20 = loc("./local_cache/ir/cirveghol7wjrq7zwkkgu3sphruzjhq4ru5zcvmudgaexdo5niag.py":37:117)
#loc21 = loc("./local_cache/ir/cirveghol7wjrq7zwkkgu3sphruzjhq4ru5zcvmudgaexdo5niag.py":38:22)
#loc22 = loc("./local_cache/ir/cirveghol7wjrq7zwkkgu3sphruzjhq4ru5zcvmudgaexdo5niag.py":39:22)
#loc23 = loc("./local_cache/ir/cirveghol7wjrq7zwkkgu3sphruzjhq4ru5zcvmudgaexdo5niag.py":41:22)
#loc24 = loc("./local_cache/ir/cirveghol7wjrq7zwkkgu3sphruzjhq4ru5zcvmudgaexdo5niag.py":43:23)
#loc25 = loc("./local_cache/ir/cirveghol7wjrq7zwkkgu3sphruzjhq4ru5zcvmudgaexdo5niag.py":44:48)
#loc26 = loc("./local_cache/ir/cirveghol7wjrq7zwkkgu3sphruzjhq4ru5zcvmudgaexdo5niag.py":45:55)
#loc27 = loc("./local_cache/ir/cirveghol7wjrq7zwkkgu3sphruzjhq4ru5zcvmudgaexdo5niag.py":45:8)
#loc28 = loc("/workspace/torch-compile-caching/.venv/lib/python3.11/site-packages/triton/language/standard.py":286:36)
#loc30 = loc("/workspace/torch-compile-caching/.venv/lib/python3.11/site-packages/triton/language/standard.py":256:15)
#loc31 = loc("./local_cache/ir/cirveghol7wjrq7zwkkgu3sphruzjhq4ru5zcvmudgaexdo5niag.py":46:28)
#loc32 = loc("./local_cache/ir/cirveghol7wjrq7zwkkgu3sphruzjhq4ru5zcvmudgaexdo5niag.py":48:20)
#loc33 = loc("./local_cache/ir/cirveghol7wjrq7zwkkgu3sphruzjhq4ru5zcvmudgaexdo5niag.py":50:20)
#loc34 = loc("./local_cache/ir/cirveghol7wjrq7zwkkgu3sphruzjhq4ru5zcvmudgaexdo5niag.py":51:28)
#loc35 = loc("./local_cache/ir/cirveghol7wjrq7zwkkgu3sphruzjhq4ru5zcvmudgaexdo5niag.py":52:4)
#loc36 = loc("./local_cache/ir/cirveghol7wjrq7zwkkgu3sphruzjhq4ru5zcvmudgaexdo5niag.py":53:28)
#loc37 = loc("./local_cache/ir/cirveghol7wjrq7zwkkgu3sphruzjhq4ru5zcvmudgaexdo5niag.py":53:40)
#loc38 = loc("./local_cache/ir/cirveghol7wjrq7zwkkgu3sphruzjhq4ru5zcvmudgaexdo5niag.py":54:40)
#loc39 = loc("./local_cache/ir/cirveghol7wjrq7zwkkgu3sphruzjhq4ru5zcvmudgaexdo5niag.py":55:31)
#loc40 = loc("./local_cache/ir/cirveghol7wjrq7zwkkgu3sphruzjhq4ru5zcvmudgaexdo5niag.py":56:29)
#loc41 = loc("./local_cache/ir/cirveghol7wjrq7zwkkgu3sphruzjhq4ru5zcvmudgaexdo5niag.py":60:35)
#loc42 = loc("./local_cache/ir/cirveghol7wjrq7zwkkgu3sphruzjhq4ru5zcvmudgaexdo5niag.py":60:42)
#loc43 = loc("./local_cache/ir/cirveghol7wjrq7zwkkgu3sphruzjhq4ru5zcvmudgaexdo5niag.py":60:95)
#loc44 = loc("./local_cache/ir/cirveghol7wjrq7zwkkgu3sphruzjhq4ru5zcvmudgaexdo5niag.py":61:51)
#loc45 = loc("./local_cache/ir/cirveghol7wjrq7zwkkgu3sphruzjhq4ru5zcvmudgaexdo5niag.py":61:46)
#loc46 = loc("./local_cache/ir/cirveghol7wjrq7zwkkgu3sphruzjhq4ru5zcvmudgaexdo5niag.py":61:39)
#loc47 = loc("./local_cache/ir/cirveghol7wjrq7zwkkgu3sphruzjhq4ru5zcvmudgaexdo5niag.py":61:66)
#loc48 = loc("./local_cache/ir/cirveghol7wjrq7zwkkgu3sphruzjhq4ru5zcvmudgaexdo5niag.py":61:56)
#loc49 = loc("./local_cache/ir/cirveghol7wjrq7zwkkgu3sphruzjhq4ru5zcvmudgaexdo5niag.py":61:118)
#loc50 = loc("./local_cache/ir/cirveghol7wjrq7zwkkgu3sphruzjhq4ru5zcvmudgaexdo5niag.py":63:24)
#loc51 = loc("./local_cache/ir/cirveghol7wjrq7zwkkgu3sphruzjhq4ru5zcvmudgaexdo5niag.py":65:24)
#loc52 = loc("./local_cache/ir/cirveghol7wjrq7zwkkgu3sphruzjhq4ru5zcvmudgaexdo5niag.py":66:29)
#loc53 = loc("./local_cache/ir/cirveghol7wjrq7zwkkgu3sphruzjhq4ru5zcvmudgaexdo5niag.py":66:53)
#loc54 = loc("./local_cache/ir/cirveghol7wjrq7zwkkgu3sphruzjhq4ru5zcvmudgaexdo5niag.py":54:4)
#loc55 = loc(fused[#loc10, #loc9])
#loc56 = loc(fused[#loc12, #loc3])
#loc57 = loc(callsite(#loc28 at #loc29))
#loc59 = loc(callsite(#loc30 at #loc28))
#loc60 = loc(fused[#loc45, #loc44])
#loc61 = loc(fused[#loc47, #loc3])
#loc62 = loc(callsite(#loc59 at #loc29))
