#loc = loc("/tmp/torchinductor_root/bi/cbi73qafz4gvj757kgkspff5kwwdua2pb7minxgo4jni7rbdprx2.py":18:0)
module {
  tt.func public @triton_poi_fused_scalar_tensor_where_5(%arg0: !tt.ptr<i64> {tt.divisibility = 16 : i32} loc("/tmp/torchinductor_root/bi/cbi73qafz4gvj757kgkspff5kwwdua2pb7minxgo4jni7rbdprx2.py":18:0), %arg1: !tt.ptr<f16> {tt.divisibility = 16 : i32} loc("/tmp/torchinductor_root/bi/cbi73qafz4gvj757kgkspff5kwwdua2pb7minxgo4jni7rbdprx2.py":18:0), %arg2: i32 loc("/tmp/torchinductor_root/bi/cbi73qafz4gvj757kgkspff5kwwdua2pb7minxgo4jni7rbdprx2.py":18:0), %arg3: i32 loc("/tmp/torchinductor_root/bi/cbi73qafz4gvj757kgkspff5kwwdua2pb7minxgo4jni7rbdprx2.py":18:0), %arg4: i32 loc("/tmp/torchinductor_root/bi/cbi73qafz4gvj757kgkspff5kwwdua2pb7minxgo4jni7rbdprx2.py":18:0)) attributes {noinline = false} {
    %cst = arith.constant dense<0> : tensor<64xi64> loc(#loc1)
    %cst_0 = arith.constant dense<0xFF800000> : tensor<64xf32> loc(#loc1)
    %cst_1 = arith.constant dense<0.000000e+00> : tensor<64xf32> loc(#loc1)
    %cst_2 = arith.constant dense<true> : tensor<64xi1> loc(#loc1)
    %c64_i32 = arith.constant 64 : i32 loc(#loc1)
    %0 = tt.get_program_id x : i32 loc(#loc2)
    %1 = arith.muli %0, %c64_i32 : i32 loc(#loc3)
    %2 = tt.make_range {end = 64 : i32, start = 0 : i32} : tensor<64xi32> loc(#loc4)
    %3 = tt.splat %1 : i32 -> tensor<64xi32> loc(#loc5)
    %4 = arith.addi %3, %2 : tensor<64xi32> loc(#loc5)
    %5 = tt.splat %arg4 : i32 -> tensor<64xi32> loc(#loc6)
    %6 = arith.cmpi slt, %4, %5 : tensor<64xi32> loc(#loc6)
    %7 = tt.splat %arg2 : i32 -> tensor<64xi32> loc(#loc7)
    %8 = arith.remsi %4, %7 : tensor<64xi32> loc(#loc7)
    %9 = arith.divsi %4, %7 : tensor<64xi32> loc(#loc8)
    %10 = tt.splat %arg3 : i32 -> tensor<64xi32> loc(#loc9)
    %11 = arith.cmpi slt, %8, %10 : tensor<64xi32> loc(#loc9)
    %12 = arith.xori %6, %cst_2 : tensor<64xi1> loc(#loc10)
    %13 = arith.ori %11, %12 : tensor<64xi1> loc(#loc11)
    tt.assert %13, "index out of bounds: x0 < ks1" : tensor<64xi1> loc(#loc12)
    %14 = tt.splat %arg0 : !tt.ptr<i64> -> tensor<64x!tt.ptr<i64>> loc(#loc13)
    %15 = tt.addptr %14, %8 : tensor<64x!tt.ptr<i64>>, tensor<64xi32> loc(#loc13)
    %16 = tt.load %15, %6 evictionPolicy = evict_last : tensor<64x!tt.ptr<i64>> loc(#loc14)
    %17 = arith.cmpi sle, %8, %9 : tensor<64xi32> loc(#loc15)
    %18 = arith.cmpi ne, %16, %cst : tensor<64xi64> loc(#loc16)
    %19 = arith.andi %17, %18 : tensor<64xi1> loc(#loc17)
    %20 = arith.select %19, %cst_1, %cst_0 : tensor<64xi1>, tensor<64xf32> loc(#loc18)
    %21 = tt.splat %arg1 : !tt.ptr<f16> -> tensor<64x!tt.ptr<f16>> loc(#loc19)
    %22 = tt.addptr %21, %4 : tensor<64x!tt.ptr<f16>>, tensor<64xi32> loc(#loc19)
    %23 = arith.truncf %20 : tensor<64xf32> to tensor<64xf16> loc(#loc20)
    tt.store %22, %23, %6 : tensor<64x!tt.ptr<f16>> loc(#loc20)
    tt.return loc(#loc21)
  } loc(#loc)
} loc(#loc)
#loc1 = loc(unknown)
#loc2 = loc("/tmp/torchinductor_root/bi/cbi73qafz4gvj757kgkspff5kwwdua2pb7minxgo4jni7rbdprx2.py":19:28)
#loc3 = loc("/tmp/torchinductor_root/bi/cbi73qafz4gvj757kgkspff5kwwdua2pb7minxgo4jni7rbdprx2.py":19:33)
#loc4 = loc("/tmp/torchinductor_root/bi/cbi73qafz4gvj757kgkspff5kwwdua2pb7minxgo4jni7rbdprx2.py":20:36)
#loc5 = loc("/tmp/torchinductor_root/bi/cbi73qafz4gvj757kgkspff5kwwdua2pb7minxgo4jni7rbdprx2.py":20:23)
#loc6 = loc("/tmp/torchinductor_root/bi/cbi73qafz4gvj757kgkspff5kwwdua2pb7minxgo4jni7rbdprx2.py":21:21)
#loc7 = loc("/tmp/torchinductor_root/bi/cbi73qafz4gvj757kgkspff5kwwdua2pb7minxgo4jni7rbdprx2.py":22:19)
#loc8 = loc("/tmp/torchinductor_root/bi/cbi73qafz4gvj757kgkspff5kwwdua2pb7minxgo4jni7rbdprx2.py":23:19)
#loc9 = loc("/tmp/torchinductor_root/bi/cbi73qafz4gvj757kgkspff5kwwdua2pb7minxgo4jni7rbdprx2.py":25:27)
#loc10 = loc("/tmp/torchinductor_root/bi/cbi73qafz4gvj757kgkspff5kwwdua2pb7minxgo4jni7rbdprx2.py":25:36)
#loc11 = loc("/tmp/torchinductor_root/bi/cbi73qafz4gvj757kgkspff5kwwdua2pb7minxgo4jni7rbdprx2.py":25:34)
#loc12 = loc("/tmp/torchinductor_root/bi/cbi73qafz4gvj757kgkspff5kwwdua2pb7minxgo4jni7rbdprx2.py":25:44)
#loc13 = loc("/tmp/torchinductor_root/bi/cbi73qafz4gvj757kgkspff5kwwdua2pb7minxgo4jni7rbdprx2.py":26:30)
#loc14 = loc("/tmp/torchinductor_root/bi/cbi73qafz4gvj757kgkspff5kwwdua2pb7minxgo4jni7rbdprx2.py":26:35)
#loc15 = loc("/tmp/torchinductor_root/bi/cbi73qafz4gvj757kgkspff5kwwdua2pb7minxgo4jni7rbdprx2.py":29:19)
#loc16 = loc("/tmp/torchinductor_root/bi/cbi73qafz4gvj757kgkspff5kwwdua2pb7minxgo4jni7rbdprx2.py":32:20)
#loc17 = loc("/tmp/torchinductor_root/bi/cbi73qafz4gvj757kgkspff5kwwdua2pb7minxgo4jni7rbdprx2.py":33:18)
#loc18 = loc("/tmp/torchinductor_root/bi/cbi73qafz4gvj757kgkspff5kwwdua2pb7minxgo4jni7rbdprx2.py":36:33)
#loc19 = loc("/tmp/torchinductor_root/bi/cbi73qafz4gvj757kgkspff5kwwdua2pb7minxgo4jni7rbdprx2.py":37:25)
#loc20 = loc("/tmp/torchinductor_root/bi/cbi73qafz4gvj757kgkspff5kwwdua2pb7minxgo4jni7rbdprx2.py":37:37)
#loc21 = loc("/tmp/torchinductor_root/bi/cbi73qafz4gvj757kgkspff5kwwdua2pb7minxgo4jni7rbdprx2.py":37:4)
