#loc = loc("/tmp/torchinductor_root/x4/cx4jrcr7srhfpegblhxm3eej7eho6mlukfwcvg7yliegbq5shesd.py":18:0)
module {
  tt.func public @triton_poi_fused_add_cat_clone_mul_4(%arg0: !tt.ptr<f16> {tt.divisibility = 16 : i32} loc("/tmp/torchinductor_root/x4/cx4jrcr7srhfpegblhxm3eej7eho6mlukfwcvg7yliegbq5shesd.py":18:0), %arg1: !tt.ptr<f32> {tt.divisibility = 16 : i32} loc("/tmp/torchinductor_root/x4/cx4jrcr7srhfpegblhxm3eej7eho6mlukfwcvg7yliegbq5shesd.py":18:0), %arg2: !tt.ptr<f16> {tt.divisibility = 16 : i32} loc("/tmp/torchinductor_root/x4/cx4jrcr7srhfpegblhxm3eej7eho6mlukfwcvg7yliegbq5shesd.py":18:0), %arg3: i32 loc("/tmp/torchinductor_root/x4/cx4jrcr7srhfpegblhxm3eej7eho6mlukfwcvg7yliegbq5shesd.py":18:0), %arg4: i32 {tt.divisibility = 16 : i32} loc("/tmp/torchinductor_root/x4/cx4jrcr7srhfpegblhxm3eej7eho6mlukfwcvg7yliegbq5shesd.py":18:0)) attributes {noinline = false} {
    %cst = arith.constant dense<0.000000e+00> : tensor<2048xf16> loc(#loc1)
    %cst_0 = arith.constant dense<-64> : tensor<2048xi32> loc(#loc1)
    %cst_1 = arith.constant dense<0.000000e+00> : tensor<2048xf32> loc(#loc1)
    %cst_2 = arith.constant dense<64> : tensor<2048xi64> loc(#loc1)
    %cst_3 = arith.constant dense<64> : tensor<2048xi32> loc(#loc1)
    %cst_4 = arith.constant dense<32> : tensor<2048xi32> loc(#loc1)
    %cst_5 = arith.constant dense<4096> : tensor<2048xi32> loc(#loc1)
    %cst_6 = arith.constant dense<128> : tensor<2048xi32> loc(#loc1)
    %c128_i32 = arith.constant 128 : i32 loc(#loc1)
    %c2048_i32 = arith.constant 2048 : i32 loc(#loc1)
    %0 = tt.get_program_id x : i32 loc(#loc2)
    %1 = arith.muli %0, %c2048_i32 : i32 loc(#loc3)
    %2 = tt.make_range {end = 2048 : i32, start = 0 : i32} : tensor<2048xi32> loc(#loc4)
    %3 = tt.splat %1 : i32 -> tensor<2048xi32> loc(#loc5)
    %4 = arith.addi %3, %2 : tensor<2048xi32> loc(#loc5)
    %5 = arith.remsi %4, %cst_6 : tensor<2048xi32> loc(#loc6)
    %6 = arith.divsi %4, %cst_5 : tensor<2048xi32> loc(#loc7)
    %7 = arith.divsi %4, %cst_6 : tensor<2048xi32> loc(#loc8)
    %8 = arith.remsi %7, %cst_4 : tensor<2048xi32> loc(#loc9)
    %9 = tt.splat %arg0 : !tt.ptr<f16> -> tensor<2048x!tt.ptr<f16>> loc(#loc10)
    %10 = tt.addptr %9, %4 : tensor<2048x!tt.ptr<f16>>, tensor<2048xi32> loc(#loc10)
    %11 = tt.load %10 : tensor<2048x!tt.ptr<f16>> loc(#loc11)
    %12 = arith.extf %11 : tensor<2048xf16> to tensor<2048xf32> loc(#loc12)
    %13 = arith.remsi %5, %cst_3 : tensor<2048xi32> loc(#loc13)
    %14 = tt.splat %arg3 : i32 -> tensor<2048xi32> loc(#loc14)
    %15 = arith.muli %14, %13 : tensor<2048xi32> loc(#loc14)
    %16 = arith.addi %6, %15 : tensor<2048xi32> loc(#loc15)
    %17 = tt.splat %arg1 : !tt.ptr<f32> -> tensor<2048x!tt.ptr<f32>> loc(#loc16)
    %18 = tt.addptr %17, %16 : tensor<2048x!tt.ptr<f32>>, tensor<2048xi32> loc(#loc16)
    %19 = tt.load %18 evictionPolicy = evict_last : tensor<2048x!tt.ptr<f32>> loc(#loc17)
    %20 = math.cos %19 : tensor<2048xf32> loc(#loc18)
    %21 = arith.mulf %12, %20 : tensor<2048xf32> loc(#loc19)
    %22 = arith.extsi %5 : tensor<2048xi32> to tensor<2048xi64> loc(#loc20)
    %23 = arith.cmpi slt, %22, %cst_2 : tensor<2048xi64> loc(#loc20)
    %24 = arith.muli %7, %cst_6 : tensor<2048xi32> loc(#loc21)
    %25 = arith.addi %24, %cst_3 : tensor<2048xi32> loc(#loc22)
    %26 = arith.addi %25, %5 : tensor<2048xi32> loc(#loc23)
    %27 = tt.addptr %9, %26 : tensor<2048x!tt.ptr<f16>>, tensor<2048xi32> loc(#loc24)
    %28 = tt.load %27, %23, %cst evictionPolicy = evict_last : tensor<2048x!tt.ptr<f16>> loc(#loc25)
    %29 = arith.extf %28 : tensor<2048xf16> to tensor<2048xf32> loc(#loc26)
    %30 = arith.subf %cst_1, %29 : tensor<2048xf32> loc(#loc27)
    %31 = arith.cmpi sge, %22, %cst_2 : tensor<2048xi64> loc(#loc28)
    %32 = arith.addi %5, %cst_0 : tensor<2048xi32> loc(#loc29)
    %33 = arith.addi %24, %32 : tensor<2048xi32> loc(#loc30)
    %34 = tt.addptr %9, %33 : tensor<2048x!tt.ptr<f16>>, tensor<2048xi32> loc(#loc31)
    %35 = tt.load %34, %31, %cst evictionPolicy = evict_last : tensor<2048x!tt.ptr<f16>> loc(#loc32)
    %36 = arith.extf %35 : tensor<2048xf16> to tensor<2048xf32> loc(#loc33)
    %37 = arith.select %23, %30, %36 : tensor<2048xi1>, tensor<2048xf32> loc(#loc47)
    %38 = math.sin %19 : tensor<2048xf32> loc(#loc36)
    %39 = arith.mulf %37, %38 : tensor<2048xf32> loc(#loc37)
    %40 = arith.addf %21, %39 : tensor<2048xf32> loc(#loc38)
    %41 = arith.muli %6, %cst_6 : tensor<2048xi32> loc(#loc39)
    %42 = arith.addi %5, %41 : tensor<2048xi32> loc(#loc40)
    %43 = arith.muli %arg3, %c128_i32 : i32 loc(#loc41)
    %44 = tt.splat %43 : i32 -> tensor<2048xi32> loc(#loc42)
    %45 = arith.muli %44, %8 : tensor<2048xi32> loc(#loc42)
    %46 = arith.addi %42, %45 : tensor<2048xi32> loc(#loc43)
    %47 = tt.splat %arg2 : !tt.ptr<f16> -> tensor<2048x!tt.ptr<f16>> loc(#loc44)
    %48 = tt.addptr %47, %46 : tensor<2048x!tt.ptr<f16>>, tensor<2048xi32> loc(#loc44)
    %49 = arith.truncf %40 : tensor<2048xf32> to tensor<2048xf16> loc(#loc45)
    tt.store %48, %49 : tensor<2048x!tt.ptr<f16>> loc(#loc45)
    tt.return loc(#loc46)
  } loc(#loc)
} loc(#loc)
#loc1 = loc(unknown)
#loc2 = loc("/tmp/torchinductor_root/x4/cx4jrcr7srhfpegblhxm3eej7eho6mlukfwcvg7yliegbq5shesd.py":19:28)
#loc3 = loc("/tmp/torchinductor_root/x4/cx4jrcr7srhfpegblhxm3eej7eho6mlukfwcvg7yliegbq5shesd.py":19:33)
#loc4 = loc("/tmp/torchinductor_root/x4/cx4jrcr7srhfpegblhxm3eej7eho6mlukfwcvg7yliegbq5shesd.py":20:36)
#loc5 = loc("/tmp/torchinductor_root/x4/cx4jrcr7srhfpegblhxm3eej7eho6mlukfwcvg7yliegbq5shesd.py":20:23)
#loc6 = loc("/tmp/torchinductor_root/x4/cx4jrcr7srhfpegblhxm3eej7eho6mlukfwcvg7yliegbq5shesd.py":23:19)
#loc7 = loc("/tmp/torchinductor_root/x4/cx4jrcr7srhfpegblhxm3eej7eho6mlukfwcvg7yliegbq5shesd.py":24:19)
#loc8 = loc("/tmp/torchinductor_root/x4/cx4jrcr7srhfpegblhxm3eej7eho6mlukfwcvg7yliegbq5shesd.py":25:19)
#loc9 = loc("/tmp/torchinductor_root/x4/cx4jrcr7srhfpegblhxm3eej7eho6mlukfwcvg7yliegbq5shesd.py":26:28)
#loc10 = loc("/tmp/torchinductor_root/x4/cx4jrcr7srhfpegblhxm3eej7eho6mlukfwcvg7yliegbq5shesd.py":27:30)
#loc11 = loc("/tmp/torchinductor_root/x4/cx4jrcr7srhfpegblhxm3eej7eho6mlukfwcvg7yliegbq5shesd.py":27:35)
#loc12 = loc("/tmp/torchinductor_root/x4/cx4jrcr7srhfpegblhxm3eej7eho6mlukfwcvg7yliegbq5shesd.py":27:44)
#loc13 = loc("/tmp/torchinductor_root/x4/cx4jrcr7srhfpegblhxm3eej7eho6mlukfwcvg7yliegbq5shesd.py":28:46)
#loc14 = loc("/tmp/torchinductor_root/x4/cx4jrcr7srhfpegblhxm3eej7eho6mlukfwcvg7yliegbq5shesd.py":28:41)
#loc15 = loc("/tmp/torchinductor_root/x4/cx4jrcr7srhfpegblhxm3eej7eho6mlukfwcvg7yliegbq5shesd.py":28:35)
#loc16 = loc("/tmp/torchinductor_root/x4/cx4jrcr7srhfpegblhxm3eej7eho6mlukfwcvg7yliegbq5shesd.py":28:30)
#loc17 = loc("/tmp/torchinductor_root/x4/cx4jrcr7srhfpegblhxm3eej7eho6mlukfwcvg7yliegbq5shesd.py":28:53)
#loc18 = loc("/tmp/torchinductor_root/x4/cx4jrcr7srhfpegblhxm3eej7eho6mlukfwcvg7yliegbq5shesd.py":29:23)
#loc19 = loc("/tmp/torchinductor_root/x4/cx4jrcr7srhfpegblhxm3eej7eho6mlukfwcvg7yliegbq5shesd.py":33:18)
#loc20 = loc("/tmp/torchinductor_root/x4/cx4jrcr7srhfpegblhxm3eej7eho6mlukfwcvg7yliegbq5shesd.py":38:19)
#loc21 = loc("/tmp/torchinductor_root/x4/cx4jrcr7srhfpegblhxm3eej7eho6mlukfwcvg7yliegbq5shesd.py":39:40)
#loc22 = loc("/tmp/torchinductor_root/x4/cx4jrcr7srhfpegblhxm3eej7eho6mlukfwcvg7yliegbq5shesd.py":39:36)
#loc23 = loc("/tmp/torchinductor_root/x4/cx4jrcr7srhfpegblhxm3eej7eho6mlukfwcvg7yliegbq5shesd.py":39:46)
#loc24 = loc("/tmp/torchinductor_root/x4/cx4jrcr7srhfpegblhxm3eej7eho6mlukfwcvg7yliegbq5shesd.py":39:31)
#loc25 = loc("/tmp/torchinductor_root/x4/cx4jrcr7srhfpegblhxm3eej7eho6mlukfwcvg7yliegbq5shesd.py":39:52)
#loc26 = loc("/tmp/torchinductor_root/x4/cx4jrcr7srhfpegblhxm3eej7eho6mlukfwcvg7yliegbq5shesd.py":39:103)
#loc27 = loc("/tmp/torchinductor_root/x4/cx4jrcr7srhfpegblhxm3eej7eho6mlukfwcvg7yliegbq5shesd.py":40:13)
#loc28 = loc("/tmp/torchinductor_root/x4/cx4jrcr7srhfpegblhxm3eej7eho6mlukfwcvg7yliegbq5shesd.py":43:20)
#loc29 = loc("/tmp/torchinductor_root/x4/cx4jrcr7srhfpegblhxm3eej7eho6mlukfwcvg7yliegbq5shesd.py":46:49)
#loc30 = loc("/tmp/torchinductor_root/x4/cx4jrcr7srhfpegblhxm3eej7eho6mlukfwcvg7yliegbq5shesd.py":46:41)
#loc31 = loc("/tmp/torchinductor_root/x4/cx4jrcr7srhfpegblhxm3eej7eho6mlukfwcvg7yliegbq5shesd.py":46:31)
#loc32 = loc("/tmp/torchinductor_root/x4/cx4jrcr7srhfpegblhxm3eej7eho6mlukfwcvg7yliegbq5shesd.py":46:55)
#loc33 = loc("/tmp/torchinductor_root/x4/cx4jrcr7srhfpegblhxm3eej7eho6mlukfwcvg7yliegbq5shesd.py":46:106)
#loc34 = loc("/tmp/torchinductor_root/x4/cx4jrcr7srhfpegblhxm3eej7eho6mlukfwcvg7yliegbq5shesd.py":47:35)
#loc35 = loc("/tmp/torchinductor_root/x4/cx4jrcr7srhfpegblhxm3eej7eho6mlukfwcvg7yliegbq5shesd.py":42:35)
#loc36 = loc("/tmp/torchinductor_root/x4/cx4jrcr7srhfpegblhxm3eej7eho6mlukfwcvg7yliegbq5shesd.py":48:24)
#loc37 = loc("/tmp/torchinductor_root/x4/cx4jrcr7srhfpegblhxm3eej7eho6mlukfwcvg7yliegbq5shesd.py":51:20)
#loc38 = loc("/tmp/torchinductor_root/x4/cx4jrcr7srhfpegblhxm3eej7eho6mlukfwcvg7yliegbq5shesd.py":52:19)
#loc39 = loc("/tmp/torchinductor_root/x4/cx4jrcr7srhfpegblhxm3eej7eho6mlukfwcvg7yliegbq5shesd.py":53:34)
#loc40 = loc("/tmp/torchinductor_root/x4/cx4jrcr7srhfpegblhxm3eej7eho6mlukfwcvg7yliegbq5shesd.py":53:30)
#loc41 = loc("/tmp/torchinductor_root/x4/cx4jrcr7srhfpegblhxm3eej7eho6mlukfwcvg7yliegbq5shesd.py":53:43)
#loc42 = loc("/tmp/torchinductor_root/x4/cx4jrcr7srhfpegblhxm3eej7eho6mlukfwcvg7yliegbq5shesd.py":53:47)
#loc43 = loc("/tmp/torchinductor_root/x4/cx4jrcr7srhfpegblhxm3eej7eho6mlukfwcvg7yliegbq5shesd.py":53:39)
#loc44 = loc("/tmp/torchinductor_root/x4/cx4jrcr7srhfpegblhxm3eej7eho6mlukfwcvg7yliegbq5shesd.py":53:25)
#loc45 = loc("/tmp/torchinductor_root/x4/cx4jrcr7srhfpegblhxm3eej7eho6mlukfwcvg7yliegbq5shesd.py":53:59)
#loc46 = loc("/tmp/torchinductor_root/x4/cx4jrcr7srhfpegblhxm3eej7eho6mlukfwcvg7yliegbq5shesd.py":53:4)
#loc47 = loc(fused[#loc34, #loc35])
