#loc = loc("./local_cache/xb/cxbiz6a53yuzne7tuzqghtuipdavwtl2jp3relur3ksonmtcg44q.py":18:0)
#loc1 = loc(unknown)
#loc21 = loc("./local_cache/xb/cxbiz6a53yuzne7tuzqghtuipdavwtl2jp3relur3ksonmtcg44q.py":43:25)
#loc46 = loc(callsite(#loc1 at #loc21))
module {
  tt.func public @triton_red_fused__to_copy_add_mean_mul_pow_rsqrt_6(%arg0: !tt.ptr<f32> {tt.divisibility = 16 : i32} loc("./local_cache/xb/cxbiz6a53yuzne7tuzqghtuipdavwtl2jp3relur3ksonmtcg44q.py":18:0), %arg1: !tt.ptr<f16> {tt.divisibility = 16 : i32} loc("./local_cache/xb/cxbiz6a53yuzne7tuzqghtuipdavwtl2jp3relur3ksonmtcg44q.py":18:0), %arg2: !tt.ptr<f16> {tt.divisibility = 16 : i32} loc("./local_cache/xb/cxbiz6a53yuzne7tuzqghtuipdavwtl2jp3relur3ksonmtcg44q.py":18:0), %arg3: !tt.ptr<f16> {tt.divisibility = 16 : i32} loc("./local_cache/xb/cxbiz6a53yuzne7tuzqghtuipdavwtl2jp3relur3ksonmtcg44q.py":18:0), %arg4: !tt.ptr<f16> {tt.divisibility = 16 : i32} loc("./local_cache/xb/cxbiz6a53yuzne7tuzqghtuipdavwtl2jp3relur3ksonmtcg44q.py":18:0), %arg5: i32 loc("./local_cache/xb/cxbiz6a53yuzne7tuzqghtuipdavwtl2jp3relur3ksonmtcg44q.py":18:0), %arg6: i32 {tt.divisibility = 16 : i32} loc("./local_cache/xb/cxbiz6a53yuzne7tuzqghtuipdavwtl2jp3relur3ksonmtcg44q.py":18:0)) attributes {noinline = false} {
    %c4096_i32 = arith.constant 4096 : i32 loc(#loc1)
    %cst = arith.constant dense<0.000000e+00> : tensor<1x4096xf16> loc(#loc1)
    %cst_0 = arith.constant dense<9.99999974E-6> : tensor<1x1xf32> loc(#loc1)
    %cst_1 = arith.constant dense<4.096000e+03> : tensor<1x1xf32> loc(#loc1)
    %cst_2 = arith.constant dense<4096> : tensor<1x4096xi32> loc(#loc1)
    %cst_3 = arith.constant dense<0.000000e+00> : tensor<1x4096xf32> loc(#loc1)
    %0 = tt.get_program_id x : i32 loc(#loc2)
    %1 = arith.cmpi slt, %0, %arg5 : i32 loc(#loc3)
    %2 = tt.splat %1 : i1 -> tensor<1x1xi1> loc(#loc3)
    %3 = tt.make_range {end = 4096 : i32, start = 0 : i32} : tensor<4096xi32> loc(#loc4)
    %4 = tt.expand_dims %3 {axis = 0 : i32} : tensor<4096xi32> -> tensor<1x4096xi32> loc(#loc5)
    %5 = arith.cmpi slt, %4, %cst_2 : tensor<1x4096xi32> loc(#loc6)
    %6 = arith.muli %0, %c4096_i32 : i32 loc(#loc7)
    %7 = tt.splat %6 : i32 -> tensor<1x4096xi32> loc(#loc43)
    %8 = arith.addi %4, %7 : tensor<1x4096xi32> loc(#loc8)
    %9 = tt.splat %arg1 : !tt.ptr<f16> -> tensor<1x4096x!tt.ptr<f16>> loc(#loc9)
    %10 = tt.addptr %9, %8 : tensor<1x4096x!tt.ptr<f16>>, tensor<1x4096xi32> loc(#loc9)
    %11 = tt.splat %1 : i1 -> tensor<1x4096xi1> loc(#loc44)
    %12 = arith.andi %5, %11 : tensor<1x4096xi1> loc(#loc10)
    %13 = tt.load %10, %12, %cst evictionPolicy = evict_last : tensor<1x4096x!tt.ptr<f16>> loc(#loc11)
    %14 = arith.extf %13 : tensor<1x4096xf16> to tensor<1x4096xf32> loc(#loc12)
    %15 = tt.splat %arg2 : !tt.ptr<f16> -> tensor<1x4096x!tt.ptr<f16>> loc(#loc13)
    %16 = tt.addptr %15, %8 : tensor<1x4096x!tt.ptr<f16>>, tensor<1x4096xi32> loc(#loc13)
    %17 = tt.load %16, %12, %cst evictionPolicy = evict_last : tensor<1x4096x!tt.ptr<f16>> loc(#loc14)
    %18 = arith.extf %17 : tensor<1x4096xf16> to tensor<1x4096xf32> loc(#loc15)
    %19 = arith.addf %14, %18 : tensor<1x4096xf32> loc(#loc16)
    %20 = arith.mulf %19, %19 : tensor<1x4096xf32> loc(#loc17)
    %21 = arith.addf %20, %cst_3 : tensor<1x4096xf32> loc(#loc18)
    %22 = arith.select %12, %21, %cst_3 : tensor<1x4096xi1>, tensor<1x4096xf32> loc(#loc19)
    %23 = "tt.reduce"(%22) <{axis = 1 : i32}> ({
    ^bb0(%arg7: f32 loc(callsite(#loc1 at #loc21)), %arg8: f32 loc(callsite(#loc1 at #loc21))):
      %45 = arith.addf %arg7, %arg8 : f32 loc(#loc48)
      tt.reduce.return %45 : f32 loc(#loc45)
    }) : (tensor<1x4096xf32>) -> tensor<1xf32> loc(#loc45)
    %24 = tt.expand_dims %23 {axis = 1 : i32} : tensor<1xf32> -> tensor<1x1xf32> loc(#loc23)
    %25 = arith.divf %24, %cst_1 : tensor<1x1xf32> loc(#loc24)
    %26 = arith.addf %25, %cst_0 : tensor<1x1xf32> loc(#loc25)
    %27 = tt.extern_elementwise %26 {libname = "", libpath = "", pure = true, symbol = "__nv_rsqrtf"} : (tensor<1x1xf32>) -> tensor<1x1xf32> loc(#loc26)
    gpu.barrier loc(#loc27)
    %28 = tt.addptr %arg0, %0 : !tt.ptr<f32>, i32 loc(#loc28)
    %29 = tt.splat %28 : !tt.ptr<f32> -> tensor<1x1x!tt.ptr<f32>> loc(#loc28)
    tt.store %29, %27, %2 : tensor<1x1x!tt.ptr<f32>> loc(#loc29)
    %30 = tt.splat %arg3 : !tt.ptr<f16> -> tensor<1x4096x!tt.ptr<f16>> loc(#loc30)
    %31 = tt.addptr %30, %4 : tensor<1x4096x!tt.ptr<f16>>, tensor<1x4096xi32> loc(#loc30)
    %32 = tt.load %31, %5, %cst evictionPolicy = evict_last : tensor<1x4096x!tt.ptr<f16>> loc(#loc31)
    %33 = arith.extf %32 : tensor<1x4096xf16> to tensor<1x4096xf32> loc(#loc32)
    %34 = tt.load %10, %12, %cst evictionPolicy = evict_first : tensor<1x4096x!tt.ptr<f16>> loc(#loc33)
    %35 = arith.extf %34 : tensor<1x4096xf16> to tensor<1x4096xf32> loc(#loc34)
    %36 = tt.load %16, %12, %cst evictionPolicy = evict_first : tensor<1x4096x!tt.ptr<f16>> loc(#loc35)
    %37 = arith.extf %36 : tensor<1x4096xf16> to tensor<1x4096xf32> loc(#loc36)
    %38 = arith.addf %35, %37 : tensor<1x4096xf32> loc(#loc37)
    %39 = tt.broadcast %27 : tensor<1x1xf32> -> tensor<1x4096xf32> loc(#loc38)
    %40 = arith.mulf %38, %39 : tensor<1x4096xf32> loc(#loc38)
    %41 = arith.mulf %33, %40 : tensor<1x4096xf32> loc(#loc39)
    %42 = tt.splat %arg4 : !tt.ptr<f16> -> tensor<1x4096x!tt.ptr<f16>> loc(#loc40)
    %43 = tt.addptr %42, %8 : tensor<1x4096x!tt.ptr<f16>>, tensor<1x4096xi32> loc(#loc40)
    %44 = arith.truncf %41 : tensor<1x4096xf32> to tensor<1x4096xf16> loc(#loc41)
    tt.store %43, %44, %12 : tensor<1x4096x!tt.ptr<f16>> loc(#loc41)
    tt.return loc(#loc42)
  } loc(#loc)
} loc(#loc)
#loc2 = loc("./local_cache/xb/cxbiz6a53yuzne7tuzqghtuipdavwtl2jp3relur3ksonmtcg44q.py":22:28)
#loc3 = loc("./local_cache/xb/cxbiz6a53yuzne7tuzqghtuipdavwtl2jp3relur3ksonmtcg44q.py":24:21)
#loc4 = loc("./local_cache/xb/cxbiz6a53yuzne7tuzqghtuipdavwtl2jp3relur3ksonmtcg44q.py":25:27)
#loc5 = loc("./local_cache/xb/cxbiz6a53yuzne7tuzqghtuipdavwtl2jp3relur3ksonmtcg44q.py":25:37)
#loc6 = loc("./local_cache/xb/cxbiz6a53yuzne7tuzqghtuipdavwtl2jp3relur3ksonmtcg44q.py":31:29)
#loc7 = loc("./local_cache/xb/cxbiz6a53yuzne7tuzqghtuipdavwtl2jp3relur3ksonmtcg44q.py":35:46)
#loc8 = loc("./local_cache/xb/cxbiz6a53yuzne7tuzqghtuipdavwtl2jp3relur3ksonmtcg44q.py":35:41)
#loc9 = loc("./local_cache/xb/cxbiz6a53yuzne7tuzqghtuipdavwtl2jp3relur3ksonmtcg44q.py":35:34)
#loc10 = loc("./local_cache/xb/cxbiz6a53yuzne7tuzqghtuipdavwtl2jp3relur3ksonmtcg44q.py":35:61)
#loc11 = loc("./local_cache/xb/cxbiz6a53yuzne7tuzqghtuipdavwtl2jp3relur3ksonmtcg44q.py":35:51)
#loc12 = loc("./local_cache/xb/cxbiz6a53yuzne7tuzqghtuipdavwtl2jp3relur3ksonmtcg44q.py":35:112)
#loc13 = loc("./local_cache/xb/cxbiz6a53yuzne7tuzqghtuipdavwtl2jp3relur3ksonmtcg44q.py":36:34)
#loc14 = loc("./local_cache/xb/cxbiz6a53yuzne7tuzqghtuipdavwtl2jp3relur3ksonmtcg44q.py":36:51)
#loc15 = loc("./local_cache/xb/cxbiz6a53yuzne7tuzqghtuipdavwtl2jp3relur3ksonmtcg44q.py":36:112)
#loc16 = loc("./local_cache/xb/cxbiz6a53yuzne7tuzqghtuipdavwtl2jp3relur3ksonmtcg44q.py":37:22)
#loc17 = loc("./local_cache/xb/cxbiz6a53yuzne7tuzqghtuipdavwtl2jp3relur3ksonmtcg44q.py":39:22)
#loc18 = loc("./local_cache/xb/cxbiz6a53yuzne7tuzqghtuipdavwtl2jp3relur3ksonmtcg44q.py":41:23)
#loc19 = loc("./local_cache/xb/cxbiz6a53yuzne7tuzqghtuipdavwtl2jp3relur3ksonmtcg44q.py":42:48)
#loc20 = loc("/workspace/torch-compile-caching/.venv/lib/python3.11/site-packages/triton/language/standard.py":286:36)
#loc22 = loc("/workspace/torch-compile-caching/.venv/lib/python3.11/site-packages/triton/language/standard.py":256:15)
#loc23 = loc("./local_cache/xb/cxbiz6a53yuzne7tuzqghtuipdavwtl2jp3relur3ksonmtcg44q.py":43:28)
#loc24 = loc("./local_cache/xb/cxbiz6a53yuzne7tuzqghtuipdavwtl2jp3relur3ksonmtcg44q.py":45:19)
#loc25 = loc("./local_cache/xb/cxbiz6a53yuzne7tuzqghtuipdavwtl2jp3relur3ksonmtcg44q.py":47:19)
#loc26 = loc("./local_cache/xb/cxbiz6a53yuzne7tuzqghtuipdavwtl2jp3relur3ksonmtcg44q.py":48:28)
#loc27 = loc("./local_cache/xb/cxbiz6a53yuzne7tuzqghtuipdavwtl2jp3relur3ksonmtcg44q.py":49:4)
#loc28 = loc("./local_cache/xb/cxbiz6a53yuzne7tuzqghtuipdavwtl2jp3relur3ksonmtcg44q.py":50:28)
#loc29 = loc("./local_cache/xb/cxbiz6a53yuzne7tuzqghtuipdavwtl2jp3relur3ksonmtcg44q.py":50:40)
#loc30 = loc("./local_cache/xb/cxbiz6a53yuzne7tuzqghtuipdavwtl2jp3relur3ksonmtcg44q.py":57:35)
#loc31 = loc("./local_cache/xb/cxbiz6a53yuzne7tuzqghtuipdavwtl2jp3relur3ksonmtcg44q.py":57:42)
#loc32 = loc("./local_cache/xb/cxbiz6a53yuzne7tuzqghtuipdavwtl2jp3relur3ksonmtcg44q.py":57:95)
#loc33 = loc("./local_cache/xb/cxbiz6a53yuzne7tuzqghtuipdavwtl2jp3relur3ksonmtcg44q.py":58:52)
#loc34 = loc("./local_cache/xb/cxbiz6a53yuzne7tuzqghtuipdavwtl2jp3relur3ksonmtcg44q.py":58:114)
#loc35 = loc("./local_cache/xb/cxbiz6a53yuzne7tuzqghtuipdavwtl2jp3relur3ksonmtcg44q.py":59:52)
#loc36 = loc("./local_cache/xb/cxbiz6a53yuzne7tuzqghtuipdavwtl2jp3relur3ksonmtcg44q.py":59:114)
#loc37 = loc("./local_cache/xb/cxbiz6a53yuzne7tuzqghtuipdavwtl2jp3relur3ksonmtcg44q.py":60:24)
#loc38 = loc("./local_cache/xb/cxbiz6a53yuzne7tuzqghtuipdavwtl2jp3relur3ksonmtcg44q.py":62:24)
#loc39 = loc("./local_cache/xb/cxbiz6a53yuzne7tuzqghtuipdavwtl2jp3relur3ksonmtcg44q.py":64:24)
#loc40 = loc("./local_cache/xb/cxbiz6a53yuzne7tuzqghtuipdavwtl2jp3relur3ksonmtcg44q.py":65:29)
#loc41 = loc("./local_cache/xb/cxbiz6a53yuzne7tuzqghtuipdavwtl2jp3relur3ksonmtcg44q.py":65:53)
#loc42 = loc("./local_cache/xb/cxbiz6a53yuzne7tuzqghtuipdavwtl2jp3relur3ksonmtcg44q.py":51:4)
#loc43 = loc(fused[#loc8, #loc7])
#loc44 = loc(fused[#loc10, #loc3])
#loc45 = loc(callsite(#loc20 at #loc21))
#loc47 = loc(callsite(#loc22 at #loc20))
#loc48 = loc(callsite(#loc47 at #loc21))
