#loc = loc("./local_cache/dp/cdpmdjxtn76eoilzzn3auquxblbphkbtjfl7kawk25qsvgvr45be.py":18:0)
#loc1 = loc(unknown)
#loc25 = loc("./local_cache/dp/cdpmdjxtn76eoilzzn3auquxblbphkbtjfl7kawk25qsvgvr45be.py":45:25)
#loc33 = loc(callsite(#loc1 at #loc25))
module {
  tt.func public @triton_red_fused__to_copy_mul_sum_1(%arg0: !tt.ptr<f16> {tt.divisibility = 16 : i32} loc("./local_cache/dp/cdpmdjxtn76eoilzzn3auquxblbphkbtjfl7kawk25qsvgvr45be.py":18:0), %arg1: !tt.ptr<f16> {tt.divisibility = 16 : i32} loc("./local_cache/dp/cdpmdjxtn76eoilzzn3auquxblbphkbtjfl7kawk25qsvgvr45be.py":18:0), %arg2: !tt.ptr<f32> {tt.divisibility = 16 : i32} loc("./local_cache/dp/cdpmdjxtn76eoilzzn3auquxblbphkbtjfl7kawk25qsvgvr45be.py":18:0), %arg3: !tt.ptr<f16> {tt.divisibility = 16 : i32} loc("./local_cache/dp/cdpmdjxtn76eoilzzn3auquxblbphkbtjfl7kawk25qsvgvr45be.py":18:0), %arg4: i32 {tt.divisibility = 16 : i32} loc("./local_cache/dp/cdpmdjxtn76eoilzzn3auquxblbphkbtjfl7kawk25qsvgvr45be.py":18:0), %arg5: i32 loc("./local_cache/dp/cdpmdjxtn76eoilzzn3auquxblbphkbtjfl7kawk25qsvgvr45be.py":18:0)) attributes {noinline = false} {
    %cst = arith.constant dense<0.000000e+00> : tensor<1x4xf16> loc(#loc1)
    %c4_i32 = arith.constant 4 : i32 loc(#loc1)
    %c0_i32 = arith.constant 0 : i32 loc(#loc1)
    %cst_0 = arith.constant dense<4096> : tensor<1x4xi32> loc(#loc1)
    %cst_1 = arith.constant dense<0.000000e+00> : tensor<1x4xf32> loc(#loc1)
    %0 = tt.get_program_id x : i32 loc(#loc2)
    %1 = tt.make_range {end = 4 : i32, start = 0 : i32} : tensor<4xi32> loc(#loc3)
    %2 = tt.expand_dims %1 {axis = 0 : i32} : tensor<4xi32> -> tensor<1x4xi32> loc(#loc4)
    %3 = scf.for %arg6 = %c0_i32 to %arg5 step %c4_i32 iter_args(%arg7 = %cst_1) -> (tensor<1x4xf32>)  : i32 {
      %9 = tt.splat %arg6 : i32 -> tensor<1x4xi32> loc(#loc6)
      %10 = arith.addi %9, %2 : tensor<1x4xi32> loc(#loc6)
      %11 = tt.splat %arg5 : i32 -> tensor<1x4xi32> loc(#loc7)
      %12 = arith.cmpi slt, %10, %11 : tensor<1x4xi32> loc(#loc7)
      %13 = arith.muli %10, %cst_0 : tensor<1x4xi32> loc(#loc8)
      %14 = tt.splat %0 : i32 -> tensor<1x4xi32> loc(#loc31)
      %15 = arith.addi %14, %13 : tensor<1x4xi32> loc(#loc9)
      %16 = tt.splat %arg0 : !tt.ptr<f16> -> tensor<1x4x!tt.ptr<f16>> loc(#loc11)
      %17 = tt.addptr %16, %15 : tensor<1x4x!tt.ptr<f16>>, tensor<1x4xi32> loc(#loc11)
      %18 = tt.load %17, %12, %cst evictionPolicy = evict_first : tensor<1x4x!tt.ptr<f16>> loc(#loc12)
      %19 = arith.extf %18 : tensor<1x4xf16> to tensor<1x4xf32> loc(#loc13)
      %20 = tt.splat %arg1 : !tt.ptr<f16> -> tensor<1x4x!tt.ptr<f16>> loc(#loc14)
      %21 = tt.addptr %20, %15 : tensor<1x4x!tt.ptr<f16>>, tensor<1x4xi32> loc(#loc14)
      %22 = tt.load %21, %12, %cst evictionPolicy = evict_first : tensor<1x4x!tt.ptr<f16>> loc(#loc15)
      %23 = arith.extf %22 : tensor<1x4xf16> to tensor<1x4xf32> loc(#loc16)
      %24 = tt.splat %arg2 : !tt.ptr<f32> -> tensor<1x4x!tt.ptr<f32>> loc(#loc17)
      %25 = tt.addptr %24, %10 : tensor<1x4x!tt.ptr<f32>>, tensor<1x4xi32> loc(#loc17)
      %26 = tt.load %25, %12, %cst_1 evictionPolicy = evict_last : tensor<1x4x!tt.ptr<f32>> loc(#loc18)
      %27 = arith.mulf %23, %26 : tensor<1x4xf32> loc(#loc19)
      %28 = arith.mulf %19, %27 : tensor<1x4xf32> loc(#loc20)
      %29 = arith.addf %arg7, %28 : tensor<1x4xf32> loc(#loc21)
      %30 = arith.select %12, %29, %arg7 : tensor<1x4xi1>, tensor<1x4xf32> loc(#loc22)
      scf.yield %30 : tensor<1x4xf32> loc(#loc23)
    } loc(#loc5)
    %4 = "tt.reduce"(%3) <{axis = 1 : i32}> ({
    ^bb0(%arg6: f32 loc(callsite(#loc1 at #loc25)), %arg7: f32 loc(callsite(#loc1 at #loc25))):
      %9 = arith.addf %arg6, %arg7 : f32 loc(#loc35)
      tt.reduce.return %9 : f32 loc(#loc32)
    }) : (tensor<1x4xf32>) -> tensor<1xf32> loc(#loc32)
    %5 = tt.expand_dims %4 {axis = 1 : i32} : tensor<1xf32> -> tensor<1x1xf32> loc(#loc27)
    %6 = tt.addptr %arg3, %0 : !tt.ptr<f16>, i32 loc(#loc28)
    %7 = tt.splat %6 : !tt.ptr<f16> -> tensor<1x1x!tt.ptr<f16>> loc(#loc28)
    %8 = arith.truncf %5 : tensor<1x1xf32> to tensor<1x1xf16> loc(#loc29)
    tt.store %7, %8 : tensor<1x1x!tt.ptr<f16>> loc(#loc29)
    tt.return loc(#loc30)
  } loc(#loc)
} loc(#loc)
#loc2 = loc("./local_cache/dp/cdpmdjxtn76eoilzzn3auquxblbphkbtjfl7kawk25qsvgvr45be.py":22:28)
#loc3 = loc("./local_cache/dp/cdpmdjxtn76eoilzzn3auquxblbphkbtjfl7kawk25qsvgvr45be.py":25:27)
#loc4 = loc("./local_cache/dp/cdpmdjxtn76eoilzzn3auquxblbphkbtjfl7kawk25qsvgvr45be.py":25:37)
#loc5 = loc("./local_cache/dp/cdpmdjxtn76eoilzzn3auquxblbphkbtjfl7kawk25qsvgvr45be.py":29:40)
#loc6 = loc("./local_cache/dp/cdpmdjxtn76eoilzzn3auquxblbphkbtjfl7kawk25qsvgvr45be.py":30:31)
#loc7 = loc("./local_cache/dp/cdpmdjxtn76eoilzzn3auquxblbphkbtjfl7kawk25qsvgvr45be.py":31:29)
#loc8 = loc("./local_cache/dp/cdpmdjxtn76eoilzzn3auquxblbphkbtjfl7kawk25qsvgvr45be.py":35:44)
#loc9 = loc("./local_cache/dp/cdpmdjxtn76eoilzzn3auquxblbphkbtjfl7kawk25qsvgvr45be.py":35:39)
#loc10 = loc("./local_cache/dp/cdpmdjxtn76eoilzzn3auquxblbphkbtjfl7kawk25qsvgvr45be.py":23:23)
#loc11 = loc("./local_cache/dp/cdpmdjxtn76eoilzzn3auquxblbphkbtjfl7kawk25qsvgvr45be.py":35:34)
#loc12 = loc("./local_cache/dp/cdpmdjxtn76eoilzzn3auquxblbphkbtjfl7kawk25qsvgvr45be.py":35:51)
#loc13 = loc("./local_cache/dp/cdpmdjxtn76eoilzzn3auquxblbphkbtjfl7kawk25qsvgvr45be.py":35:105)
#loc14 = loc("./local_cache/dp/cdpmdjxtn76eoilzzn3auquxblbphkbtjfl7kawk25qsvgvr45be.py":36:34)
#loc15 = loc("./local_cache/dp/cdpmdjxtn76eoilzzn3auquxblbphkbtjfl7kawk25qsvgvr45be.py":36:51)
#loc16 = loc("./local_cache/dp/cdpmdjxtn76eoilzzn3auquxblbphkbtjfl7kawk25qsvgvr45be.py":36:105)
#loc17 = loc("./local_cache/dp/cdpmdjxtn76eoilzzn3auquxblbphkbtjfl7kawk25qsvgvr45be.py":37:34)
#loc18 = loc("./local_cache/dp/cdpmdjxtn76eoilzzn3auquxblbphkbtjfl7kawk25qsvgvr45be.py":37:41)
#loc19 = loc("./local_cache/dp/cdpmdjxtn76eoilzzn3auquxblbphkbtjfl7kawk25qsvgvr45be.py":39:22)
#loc20 = loc("./local_cache/dp/cdpmdjxtn76eoilzzn3auquxblbphkbtjfl7kawk25qsvgvr45be.py":41:22)
#loc21 = loc("./local_cache/dp/cdpmdjxtn76eoilzzn3auquxblbphkbtjfl7kawk25qsvgvr45be.py":43:23)
#loc22 = loc("./local_cache/dp/cdpmdjxtn76eoilzzn3auquxblbphkbtjfl7kawk25qsvgvr45be.py":44:40)
#loc23 = loc("./local_cache/dp/cdpmdjxtn76eoilzzn3auquxblbphkbtjfl7kawk25qsvgvr45be.py":44:8)
#loc24 = loc("/workspace/torch-compile-caching/.venv/lib/python3.11/site-packages/triton/language/standard.py":286:36)
#loc26 = loc("/workspace/torch-compile-caching/.venv/lib/python3.11/site-packages/triton/language/standard.py":256:15)
#loc27 = loc("./local_cache/dp/cdpmdjxtn76eoilzzn3auquxblbphkbtjfl7kawk25qsvgvr45be.py":45:28)
#loc28 = loc("./local_cache/dp/cdpmdjxtn76eoilzzn3auquxblbphkbtjfl7kawk25qsvgvr45be.py":46:25)
#loc29 = loc("./local_cache/dp/cdpmdjxtn76eoilzzn3auquxblbphkbtjfl7kawk25qsvgvr45be.py":46:36)
#loc30 = loc("./local_cache/dp/cdpmdjxtn76eoilzzn3auquxblbphkbtjfl7kawk25qsvgvr45be.py":46:4)
#loc31 = loc(fused[#loc9, #loc10])
#loc32 = loc(callsite(#loc24 at #loc25))
#loc34 = loc(callsite(#loc26 at #loc24))
#loc35 = loc(callsite(#loc34 at #loc25))
