#loc = loc("/tmp/torchinductor_root/cr/ccr6kpecjjvjczb635rxg7suvuumsc74vqgkqqcpdj2b5fxdchar.py":18:0)
#loc1 = loc(unknown)
#loc31 = loc("/tmp/torchinductor_root/cr/ccr6kpecjjvjczb635rxg7suvuumsc74vqgkqqcpdj2b5fxdchar.py":47:27)
#loc74 = loc(callsite(#loc1 at #loc31))
module {
  tt.func public @triton_red_fused__to_copy_add_div_mul_pow_sum_4(%arg0: !tt.ptr<f16> {tt.divisibility = 16 : i32} loc("/tmp/torchinductor_root/cr/ccr6kpecjjvjczb635rxg7suvuumsc74vqgkqqcpdj2b5fxdchar.py":18:0), %arg1: !tt.ptr<f16> {tt.divisibility = 16 : i32} loc("/tmp/torchinductor_root/cr/ccr6kpecjjvjczb635rxg7suvuumsc74vqgkqqcpdj2b5fxdchar.py":18:0), %arg2: !tt.ptr<f16> {tt.divisibility = 16 : i32} loc("/tmp/torchinductor_root/cr/ccr6kpecjjvjczb635rxg7suvuumsc74vqgkqqcpdj2b5fxdchar.py":18:0), %arg3: !tt.ptr<f16> {tt.divisibility = 16 : i32} loc("/tmp/torchinductor_root/cr/ccr6kpecjjvjczb635rxg7suvuumsc74vqgkqqcpdj2b5fxdchar.py":18:0), %arg4: !tt.ptr<f16> {tt.divisibility = 16 : i32} loc("/tmp/torchinductor_root/cr/ccr6kpecjjvjczb635rxg7suvuumsc74vqgkqqcpdj2b5fxdchar.py":18:0), %arg5: !tt.ptr<f32> {tt.divisibility = 16 : i32} loc("/tmp/torchinductor_root/cr/ccr6kpecjjvjczb635rxg7suvuumsc74vqgkqqcpdj2b5fxdchar.py":18:0), %arg6: i32 loc("/tmp/torchinductor_root/cr/ccr6kpecjjvjczb635rxg7suvuumsc74vqgkqqcpdj2b5fxdchar.py":18:0), %arg7: i32 {tt.divisibility = 16 : i32} loc("/tmp/torchinductor_root/cr/ccr6kpecjjvjczb635rxg7suvuumsc74vqgkqqcpdj2b5fxdchar.py":18:0)) attributes {noinline = false} {
    %cst = arith.constant dense<0.000000e+00> : tensor<1x2048xf16> loc(#loc1)
    %c2048_i32 = arith.constant 2048 : i32 loc(#loc1)
    %c4096_i32 = arith.constant 4096 : i32 loc(#loc1)
    %c0_i32 = arith.constant 0 : i32 loc(#loc1)
    %cst_0 = arith.constant dense<2.000000e+00> : tensor<1x2048xf32> loc(#loc1)
    %cst_1 = arith.constant dense<2.44140625E-4> : tensor<1x1xf32> loc(#loc1)
    %cst_2 = arith.constant dense<-5.000000e-01> : tensor<1x1xf32> loc(#loc1)
    %cst_3 = arith.constant dense<4096> : tensor<1x2048xi32> loc(#loc1)
    %cst_4 = arith.constant dense<0.000000e+00> : tensor<1x2048xf32> loc(#loc1)
    %0 = tt.get_program_id x : i32 loc(#loc2)
    %1 = arith.cmpi slt, %0, %arg6 : i32 loc(#loc3)
    %2 = tt.splat %1 : i1 -> tensor<1x1xi1> loc(#loc3)
    %3 = tt.make_range {end = 2048 : i32, start = 0 : i32} : tensor<2048xi32> loc(#loc4)
    %4 = tt.expand_dims %3 {axis = 0 : i32} : tensor<2048xi32> -> tensor<1x2048xi32> loc(#loc5)
    %5 = scf.for %arg8 = %c0_i32 to %c4096_i32 step %c2048_i32 iter_args(%arg9 = %cst_4) -> (tensor<1x2048xf32>)  : i32 {
      %11 = tt.splat %arg8 : i32 -> tensor<1x2048xi32> loc(#loc7)
      %12 = arith.addi %11, %4 : tensor<1x2048xi32> loc(#loc7)
      %13 = arith.cmpi slt, %12, %cst_3 : tensor<1x2048xi32> loc(#loc8)
      %14 = arith.muli %0, %c4096_i32 : i32 loc(#loc9)
      %15 = tt.splat %14 : i32 -> tensor<1x2048xi32> loc(#loc71)
      %16 = arith.addi %12, %15 : tensor<1x2048xi32> loc(#loc10)
      %17 = tt.splat %arg1 : !tt.ptr<f16> -> tensor<1x2048x!tt.ptr<f16>> loc(#loc11)
      %18 = tt.addptr %17, %16 : tensor<1x2048x!tt.ptr<f16>>, tensor<1x2048xi32> loc(#loc11)
      %19 = tt.splat %1 : i1 -> tensor<1x2048xi1> loc(#loc72)
      %20 = arith.andi %19, %13 : tensor<1x2048xi1> loc(#loc12)
      %21 = tt.load %18, %20, %cst evictionPolicy = evict_last : tensor<1x2048x!tt.ptr<f16>> loc(#loc13)
      %22 = arith.extf %21 : tensor<1x2048xf16> to tensor<1x2048xf32> loc(#loc14)
      %23 = tt.splat %arg2 : !tt.ptr<f16> -> tensor<1x2048x!tt.ptr<f16>> loc(#loc15)
      %24 = tt.addptr %23, %16 : tensor<1x2048x!tt.ptr<f16>>, tensor<1x2048xi32> loc(#loc15)
      %25 = tt.load %24, %20, %cst evictionPolicy = evict_last : tensor<1x2048x!tt.ptr<f16>> loc(#loc16)
      %26 = arith.extf %25 : tensor<1x2048xf16> to tensor<1x2048xf32> loc(#loc17)
      %27 = tt.splat %arg3 : !tt.ptr<f16> -> tensor<1x2048x!tt.ptr<f16>> loc(#loc18)
      %28 = tt.addptr %27, %12 : tensor<1x2048x!tt.ptr<f16>>, tensor<1x2048xi32> loc(#loc18)
      %29 = tt.load %28, %13, %cst evictionPolicy = evict_last : tensor<1x2048x!tt.ptr<f16>> loc(#loc19)
      %30 = arith.extf %29 : tensor<1x2048xf16> to tensor<1x2048xf32> loc(#loc20)
      %31 = tt.splat %arg4 : !tt.ptr<f16> -> tensor<1x2048x!tt.ptr<f16>> loc(#loc21)
      %32 = tt.addptr %31, %16 : tensor<1x2048x!tt.ptr<f16>>, tensor<1x2048xi32> loc(#loc21)
      %33 = tt.load %32, %20, %cst evictionPolicy = evict_last : tensor<1x2048x!tt.ptr<f16>> loc(#loc22)
      %34 = arith.extf %33 : tensor<1x2048xf16> to tensor<1x2048xf32> loc(#loc23)
      %35 = arith.addf %22, %26 : tensor<1x2048xf32> loc(#loc24)
      %36 = arith.mulf %35, %30 : tensor<1x2048xf32> loc(#loc25)
      %37 = arith.mulf %36, %34 : tensor<1x2048xf32> loc(#loc26)
      %38 = arith.addf %arg9, %37 : tensor<1x2048xf32> loc(#loc27)
      %39 = arith.select %20, %38, %arg9 : tensor<1x2048xi1>, tensor<1x2048xf32> loc(#loc28)
      scf.yield %39 : tensor<1x2048xf32> loc(#loc29)
    } loc(#loc6)
    %6 = "tt.reduce"(%5) <{axis = 1 : i32}> ({
    ^bb0(%arg8: f32 loc(callsite(#loc1 at #loc31)), %arg9: f32 loc(callsite(#loc1 at #loc31))):
      %11 = arith.addf %arg8, %arg9 : f32 loc(#loc78)
      tt.reduce.return %11 : f32 loc(#loc73)
    }) : (tensor<1x2048xf32>) -> tensor<1xf32> loc(#loc73)
    %7 = tt.expand_dims %6 {axis = 1 : i32} : tensor<1xf32> -> tensor<1x1xf32> loc(#loc33)
    %8 = tt.addptr %arg5, %0 : !tt.ptr<f32>, i32 loc(#loc34)
    %9 = tt.splat %8 : !tt.ptr<f32> -> tensor<1x1x!tt.ptr<f32>> loc(#loc34)
    %10 = tt.load %9, %2 evictionPolicy = evict_last : tensor<1x1x!tt.ptr<f32>> loc(#loc35)
    scf.for %arg8 = %c0_i32 to %c4096_i32 step %c2048_i32  : i32 {
      %11 = tt.splat %arg8 : i32 -> tensor<1x2048xi32> loc(#loc37)
      %12 = arith.addi %11, %4 : tensor<1x2048xi32> loc(#loc37)
      %13 = arith.cmpi slt, %12, %cst_3 : tensor<1x2048xi32> loc(#loc38)
      %14 = arith.muli %0, %c4096_i32 : i32 loc(#loc39)
      %15 = tt.splat %14 : i32 -> tensor<1x2048xi32> loc(#loc76)
      %16 = arith.addi %12, %15 : tensor<1x2048xi32> loc(#loc40)
      %17 = tt.splat %arg0 : !tt.ptr<f16> -> tensor<1x2048x!tt.ptr<f16>> loc(#loc41)
      %18 = tt.addptr %17, %16 : tensor<1x2048x!tt.ptr<f16>>, tensor<1x2048xi32> loc(#loc41)
      %19 = tt.splat %1 : i1 -> tensor<1x2048xi1> loc(#loc77)
      %20 = arith.andi %19, %13 : tensor<1x2048xi1> loc(#loc42)
      %21 = tt.load %18, %20, %cst evictionPolicy = evict_first : tensor<1x2048x!tt.ptr<f16>> loc(#loc43)
      %22 = arith.extf %21 : tensor<1x2048xf16> to tensor<1x2048xf32> loc(#loc44)
      %23 = tt.splat %arg1 : !tt.ptr<f16> -> tensor<1x2048x!tt.ptr<f16>> loc(#loc45)
      %24 = tt.addptr %23, %16 : tensor<1x2048x!tt.ptr<f16>>, tensor<1x2048xi32> loc(#loc45)
      %25 = tt.load %24, %20, %cst evictionPolicy = evict_first : tensor<1x2048x!tt.ptr<f16>> loc(#loc46)
      %26 = arith.extf %25 : tensor<1x2048xf16> to tensor<1x2048xf32> loc(#loc47)
      %27 = tt.splat %arg2 : !tt.ptr<f16> -> tensor<1x2048x!tt.ptr<f16>> loc(#loc48)
      %28 = tt.addptr %27, %16 : tensor<1x2048x!tt.ptr<f16>>, tensor<1x2048xi32> loc(#loc48)
      %29 = tt.load %28, %20, %cst evictionPolicy = evict_first : tensor<1x2048x!tt.ptr<f16>> loc(#loc49)
      %30 = arith.extf %29 : tensor<1x2048xf16> to tensor<1x2048xf32> loc(#loc50)
      %31 = tt.splat %arg3 : !tt.ptr<f16> -> tensor<1x2048x!tt.ptr<f16>> loc(#loc51)
      %32 = tt.addptr %31, %12 : tensor<1x2048x!tt.ptr<f16>>, tensor<1x2048xi32> loc(#loc51)
      %33 = tt.load %32, %13, %cst evictionPolicy = evict_last : tensor<1x2048x!tt.ptr<f16>> loc(#loc52)
      %34 = arith.extf %33 : tensor<1x2048xf16> to tensor<1x2048xf32> loc(#loc53)
      %35 = tt.splat %arg4 : !tt.ptr<f16> -> tensor<1x2048x!tt.ptr<f16>> loc(#loc54)
      %36 = tt.addptr %35, %16 : tensor<1x2048x!tt.ptr<f16>>, tensor<1x2048xi32> loc(#loc54)
      %37 = tt.load %36, %20, %cst evictionPolicy = evict_first : tensor<1x2048x!tt.ptr<f16>> loc(#loc55)
      %38 = arith.extf %37 : tensor<1x2048xf16> to tensor<1x2048xf32> loc(#loc56)
      %39 = arith.addf %26, %30 : tensor<1x2048xf32> loc(#loc57)
      %40 = arith.mulf %39, %34 : tensor<1x2048xf32> loc(#loc58)
      %41 = tt.broadcast %10 : tensor<1x1xf32> -> tensor<1x2048xf32> loc(#loc59)
      %42 = arith.mulf %40, %41 : tensor<1x2048xf32> loc(#loc59)
      %43 = arith.mulf %7, %cst_2 : tensor<1x1xf32> loc(#loc60)
      %44 = arith.mulf %10, %10 : tensor<1x1xf32> loc(#loc61)
      %45 = arith.mulf %44, %10 : tensor<1x1xf32> loc(#loc62)
      %46 = arith.mulf %43, %45 : tensor<1x1xf32> loc(#loc63)
      %47 = arith.mulf %46, %cst_1 : tensor<1x1xf32> loc(#loc64)
      %48 = arith.mulf %38, %cst_0 : tensor<1x2048xf32> loc(#loc65)
      %49 = tt.broadcast %47 : tensor<1x1xf32> -> tensor<1x2048xf32> loc(#loc66)
      %50 = arith.mulf %49, %48 : tensor<1x2048xf32> loc(#loc66)
      %51 = arith.addf %42, %50 : tensor<1x2048xf32> loc(#loc67)
      %52 = arith.addf %22, %51 : tensor<1x2048xf32> loc(#loc68)
      %53 = arith.truncf %52 : tensor<1x2048xf32> to tensor<1x2048xf16> loc(#loc69)
      tt.store %18, %53, %20 : tensor<1x2048x!tt.ptr<f16>> loc(#loc69)
    } loc(#loc36)
    tt.return loc(#loc70)
  } loc(#loc)
} loc(#loc)
#loc2 = loc("/tmp/torchinductor_root/cr/ccr6kpecjjvjczb635rxg7suvuumsc74vqgkqqcpdj2b5fxdchar.py":22:28)
#loc3 = loc("/tmp/torchinductor_root/cr/ccr6kpecjjvjczb635rxg7suvuumsc74vqgkqqcpdj2b5fxdchar.py":24:21)
#loc4 = loc("/tmp/torchinductor_root/cr/ccr6kpecjjvjczb635rxg7suvuumsc74vqgkqqcpdj2b5fxdchar.py":25:27)
#loc5 = loc("/tmp/torchinductor_root/cr/ccr6kpecjjvjczb635rxg7suvuumsc74vqgkqqcpdj2b5fxdchar.py":25:37)
#loc6 = loc("/tmp/torchinductor_root/cr/ccr6kpecjjvjczb635rxg7suvuumsc74vqgkqqcpdj2b5fxdchar.py":29:40)
#loc7 = loc("/tmp/torchinductor_root/cr/ccr6kpecjjvjczb635rxg7suvuumsc74vqgkqqcpdj2b5fxdchar.py":30:31)
#loc8 = loc("/tmp/torchinductor_root/cr/ccr6kpecjjvjczb635rxg7suvuumsc74vqgkqqcpdj2b5fxdchar.py":31:29)
#loc9 = loc("/tmp/torchinductor_root/cr/ccr6kpecjjvjczb635rxg7suvuumsc74vqgkqqcpdj2b5fxdchar.py":35:46)
#loc10 = loc("/tmp/torchinductor_root/cr/ccr6kpecjjvjczb635rxg7suvuumsc74vqgkqqcpdj2b5fxdchar.py":35:41)
#loc11 = loc("/tmp/torchinductor_root/cr/ccr6kpecjjvjczb635rxg7suvuumsc74vqgkqqcpdj2b5fxdchar.py":35:34)
#loc12 = loc("/tmp/torchinductor_root/cr/ccr6kpecjjvjczb635rxg7suvuumsc74vqgkqqcpdj2b5fxdchar.py":35:59)
#loc13 = loc("/tmp/torchinductor_root/cr/ccr6kpecjjvjczb635rxg7suvuumsc74vqgkqqcpdj2b5fxdchar.py":35:51)
#loc14 = loc("/tmp/torchinductor_root/cr/ccr6kpecjjvjczb635rxg7suvuumsc74vqgkqqcpdj2b5fxdchar.py":35:112)
#loc15 = loc("/tmp/torchinductor_root/cr/ccr6kpecjjvjczb635rxg7suvuumsc74vqgkqqcpdj2b5fxdchar.py":36:34)
#loc16 = loc("/tmp/torchinductor_root/cr/ccr6kpecjjvjczb635rxg7suvuumsc74vqgkqqcpdj2b5fxdchar.py":36:51)
#loc17 = loc("/tmp/torchinductor_root/cr/ccr6kpecjjvjczb635rxg7suvuumsc74vqgkqqcpdj2b5fxdchar.py":36:112)
#loc18 = loc("/tmp/torchinductor_root/cr/ccr6kpecjjvjczb635rxg7suvuumsc74vqgkqqcpdj2b5fxdchar.py":37:34)
#loc19 = loc("/tmp/torchinductor_root/cr/ccr6kpecjjvjczb635rxg7suvuumsc74vqgkqqcpdj2b5fxdchar.py":37:41)
#loc20 = loc("/tmp/torchinductor_root/cr/ccr6kpecjjvjczb635rxg7suvuumsc74vqgkqqcpdj2b5fxdchar.py":37:94)
#loc21 = loc("/tmp/torchinductor_root/cr/ccr6kpecjjvjczb635rxg7suvuumsc74vqgkqqcpdj2b5fxdchar.py":38:34)
#loc22 = loc("/tmp/torchinductor_root/cr/ccr6kpecjjvjczb635rxg7suvuumsc74vqgkqqcpdj2b5fxdchar.py":38:51)
#loc23 = loc("/tmp/torchinductor_root/cr/ccr6kpecjjvjczb635rxg7suvuumsc74vqgkqqcpdj2b5fxdchar.py":38:112)
#loc24 = loc("/tmp/torchinductor_root/cr/ccr6kpecjjvjczb635rxg7suvuumsc74vqgkqqcpdj2b5fxdchar.py":39:22)
#loc25 = loc("/tmp/torchinductor_root/cr/ccr6kpecjjvjczb635rxg7suvuumsc74vqgkqqcpdj2b5fxdchar.py":40:22)
#loc26 = loc("/tmp/torchinductor_root/cr/ccr6kpecjjvjczb635rxg7suvuumsc74vqgkqqcpdj2b5fxdchar.py":43:22)
#loc27 = loc("/tmp/torchinductor_root/cr/ccr6kpecjjvjczb635rxg7suvuumsc74vqgkqqcpdj2b5fxdchar.py":45:25)
#loc28 = loc("/tmp/torchinductor_root/cr/ccr6kpecjjvjczb635rxg7suvuumsc74vqgkqqcpdj2b5fxdchar.py":46:50)
#loc29 = loc("/tmp/torchinductor_root/cr/ccr6kpecjjvjczb635rxg7suvuumsc74vqgkqqcpdj2b5fxdchar.py":46:8)
#loc30 = loc("/workspace/torch-compile-caching/.venv/lib/python3.11/site-packages/triton/language/standard.py":286:36)
#loc32 = loc("/workspace/torch-compile-caching/.venv/lib/python3.11/site-packages/triton/language/standard.py":256:15)
#loc33 = loc("/tmp/torchinductor_root/cr/ccr6kpecjjvjczb635rxg7suvuumsc74vqgkqqcpdj2b5fxdchar.py":47:30)
#loc34 = loc("/tmp/torchinductor_root/cr/ccr6kpecjjvjczb635rxg7suvuumsc74vqgkqqcpdj2b5fxdchar.py":48:31)
#loc35 = loc("/tmp/torchinductor_root/cr/ccr6kpecjjvjczb635rxg7suvuumsc74vqgkqqcpdj2b5fxdchar.py":48:36)
#loc36 = loc("/tmp/torchinductor_root/cr/ccr6kpecjjvjczb635rxg7suvuumsc74vqgkqqcpdj2b5fxdchar.py":49:40)
#loc37 = loc("/tmp/torchinductor_root/cr/ccr6kpecjjvjczb635rxg7suvuumsc74vqgkqqcpdj2b5fxdchar.py":50:31)
#loc38 = loc("/tmp/torchinductor_root/cr/ccr6kpecjjvjczb635rxg7suvuumsc74vqgkqqcpdj2b5fxdchar.py":51:29)
#loc39 = loc("/tmp/torchinductor_root/cr/ccr6kpecjjvjczb635rxg7suvuumsc74vqgkqqcpdj2b5fxdchar.py":55:51)
#loc40 = loc("/tmp/torchinductor_root/cr/ccr6kpecjjvjczb635rxg7suvuumsc74vqgkqqcpdj2b5fxdchar.py":55:46)
#loc41 = loc("/tmp/torchinductor_root/cr/ccr6kpecjjvjczb635rxg7suvuumsc74vqgkqqcpdj2b5fxdchar.py":55:39)
#loc42 = loc("/tmp/torchinductor_root/cr/ccr6kpecjjvjczb635rxg7suvuumsc74vqgkqqcpdj2b5fxdchar.py":55:64)
#loc43 = loc("/tmp/torchinductor_root/cr/ccr6kpecjjvjczb635rxg7suvuumsc74vqgkqqcpdj2b5fxdchar.py":55:56)
#loc44 = loc("/tmp/torchinductor_root/cr/ccr6kpecjjvjczb635rxg7suvuumsc74vqgkqqcpdj2b5fxdchar.py":55:118)
#loc45 = loc("/tmp/torchinductor_root/cr/ccr6kpecjjvjczb635rxg7suvuumsc74vqgkqqcpdj2b5fxdchar.py":56:35)
#loc46 = loc("/tmp/torchinductor_root/cr/ccr6kpecjjvjczb635rxg7suvuumsc74vqgkqqcpdj2b5fxdchar.py":56:52)
#loc47 = loc("/tmp/torchinductor_root/cr/ccr6kpecjjvjczb635rxg7suvuumsc74vqgkqqcpdj2b5fxdchar.py":56:114)
#loc48 = loc("/tmp/torchinductor_root/cr/ccr6kpecjjvjczb635rxg7suvuumsc74vqgkqqcpdj2b5fxdchar.py":57:35)
#loc49 = loc("/tmp/torchinductor_root/cr/ccr6kpecjjvjczb635rxg7suvuumsc74vqgkqqcpdj2b5fxdchar.py":57:52)
#loc50 = loc("/tmp/torchinductor_root/cr/ccr6kpecjjvjczb635rxg7suvuumsc74vqgkqqcpdj2b5fxdchar.py":57:114)
#loc51 = loc("/tmp/torchinductor_root/cr/ccr6kpecjjvjczb635rxg7suvuumsc74vqgkqqcpdj2b5fxdchar.py":58:35)
#loc52 = loc("/tmp/torchinductor_root/cr/ccr6kpecjjvjczb635rxg7suvuumsc74vqgkqqcpdj2b5fxdchar.py":58:42)
#loc53 = loc("/tmp/torchinductor_root/cr/ccr6kpecjjvjczb635rxg7suvuumsc74vqgkqqcpdj2b5fxdchar.py":58:95)
#loc54 = loc("/tmp/torchinductor_root/cr/ccr6kpecjjvjczb635rxg7suvuumsc74vqgkqqcpdj2b5fxdchar.py":59:35)
#loc55 = loc("/tmp/torchinductor_root/cr/ccr6kpecjjvjczb635rxg7suvuumsc74vqgkqqcpdj2b5fxdchar.py":59:52)
#loc56 = loc("/tmp/torchinductor_root/cr/ccr6kpecjjvjczb635rxg7suvuumsc74vqgkqqcpdj2b5fxdchar.py":59:114)
#loc57 = loc("/tmp/torchinductor_root/cr/ccr6kpecjjvjczb635rxg7suvuumsc74vqgkqqcpdj2b5fxdchar.py":60:24)
#loc58 = loc("/tmp/torchinductor_root/cr/ccr6kpecjjvjczb635rxg7suvuumsc74vqgkqqcpdj2b5fxdchar.py":61:24)
#loc59 = loc("/tmp/torchinductor_root/cr/ccr6kpecjjvjczb635rxg7suvuumsc74vqgkqqcpdj2b5fxdchar.py":63:24)
#loc60 = loc("/tmp/torchinductor_root/cr/ccr6kpecjjvjczb635rxg7suvuumsc74vqgkqqcpdj2b5fxdchar.py":65:24)
#loc61 = loc("/tmp/torchinductor_root/cr/ccr6kpecjjvjczb635rxg7suvuumsc74vqgkqqcpdj2b5fxdchar.py":66:24)
#loc62 = loc("/tmp/torchinductor_root/cr/ccr6kpecjjvjczb635rxg7suvuumsc74vqgkqqcpdj2b5fxdchar.py":67:24)
#loc63 = loc("/tmp/torchinductor_root/cr/ccr6kpecjjvjczb635rxg7suvuumsc74vqgkqqcpdj2b5fxdchar.py":68:24)
#loc64 = loc("/tmp/torchinductor_root/cr/ccr6kpecjjvjczb635rxg7suvuumsc74vqgkqqcpdj2b5fxdchar.py":70:24)
#loc65 = loc("/tmp/torchinductor_root/cr/ccr6kpecjjvjczb635rxg7suvuumsc74vqgkqqcpdj2b5fxdchar.py":73:24)
#loc66 = loc("/tmp/torchinductor_root/cr/ccr6kpecjjvjczb635rxg7suvuumsc74vqgkqqcpdj2b5fxdchar.py":74:24)
#loc67 = loc("/tmp/torchinductor_root/cr/ccr6kpecjjvjczb635rxg7suvuumsc74vqgkqqcpdj2b5fxdchar.py":75:24)
#loc68 = loc("/tmp/torchinductor_root/cr/ccr6kpecjjvjczb635rxg7suvuumsc74vqgkqqcpdj2b5fxdchar.py":77:24)
#loc69 = loc("/tmp/torchinductor_root/cr/ccr6kpecjjvjczb635rxg7suvuumsc74vqgkqqcpdj2b5fxdchar.py":78:56)
#loc70 = loc("/tmp/torchinductor_root/cr/ccr6kpecjjvjczb635rxg7suvuumsc74vqgkqqcpdj2b5fxdchar.py":49:4)
#loc71 = loc(fused[#loc10, #loc9])
#loc72 = loc(fused[#loc12, #loc3])
#loc73 = loc(callsite(#loc30 at #loc31))
#loc75 = loc(callsite(#loc32 at #loc30))
#loc76 = loc(fused[#loc40, #loc39])
#loc77 = loc(fused[#loc42, #loc3])
#loc78 = loc(callsite(#loc75 at #loc31))
