#loc = loc("./local_cache/7p/c7pbg3l2pkvqtef7mnprrepoat4qlaxffimkbo2dg7te5trtgllm.py":18:0)
#loc1 = loc(unknown)
#loc35 = loc("./local_cache/7p/c7pbg3l2pkvqtef7mnprrepoat4qlaxffimkbo2dg7te5trtgllm.py":49:27)
#loc98 = loc(callsite(#loc1 at #loc35))
module {
  tt.func public @triton_red_fused__to_copy_add_div_embedding_dense_backward_mul_pow_sum_13(%arg0: !tt.ptr<f16> {tt.divisibility = 16 : i32} loc("./local_cache/7p/c7pbg3l2pkvqtef7mnprrepoat4qlaxffimkbo2dg7te5trtgllm.py":18:0), %arg1: !tt.ptr<f16> {tt.divisibility = 16 : i32} loc("./local_cache/7p/c7pbg3l2pkvqtef7mnprrepoat4qlaxffimkbo2dg7te5trtgllm.py":18:0), %arg2: !tt.ptr<f16> {tt.divisibility = 16 : i32} loc("./local_cache/7p/c7pbg3l2pkvqtef7mnprrepoat4qlaxffimkbo2dg7te5trtgllm.py":18:0), %arg3: !tt.ptr<f16> {tt.divisibility = 16 : i32} loc("./local_cache/7p/c7pbg3l2pkvqtef7mnprrepoat4qlaxffimkbo2dg7te5trtgllm.py":18:0), %arg4: !tt.ptr<f16> {tt.divisibility = 16 : i32} loc("./local_cache/7p/c7pbg3l2pkvqtef7mnprrepoat4qlaxffimkbo2dg7te5trtgllm.py":18:0), %arg5: !tt.ptr<i64> {tt.divisibility = 16 : i32} loc("./local_cache/7p/c7pbg3l2pkvqtef7mnprrepoat4qlaxffimkbo2dg7te5trtgllm.py":18:0), %arg6: !tt.ptr<f16> {tt.divisibility = 16 : i32} loc("./local_cache/7p/c7pbg3l2pkvqtef7mnprrepoat4qlaxffimkbo2dg7te5trtgllm.py":18:0), %arg7: !tt.ptr<f32> {tt.divisibility = 16 : i32} loc("./local_cache/7p/c7pbg3l2pkvqtef7mnprrepoat4qlaxffimkbo2dg7te5trtgllm.py":18:0), %arg8: !tt.ptr<f32> {tt.divisibility = 16 : i32} loc("./local_cache/7p/c7pbg3l2pkvqtef7mnprrepoat4qlaxffimkbo2dg7te5trtgllm.py":18:0), %arg9: i32 loc("./local_cache/7p/c7pbg3l2pkvqtef7mnprrepoat4qlaxffimkbo2dg7te5trtgllm.py":18:0), %arg10: i32 {tt.divisibility = 16 : i32} loc("./local_cache/7p/c7pbg3l2pkvqtef7mnprrepoat4qlaxffimkbo2dg7te5trtgllm.py":18:0)) attributes {noinline = false} {
    %cst = arith.constant dense<4096> : tensor<1x1xi64> loc(#loc1)
    %true = arith.constant true loc(#loc1)
    %cst_0 = arith.constant dense<128256> : tensor<1x1xi64> loc(#loc1)
    %cst_1 = arith.constant dense<0> : tensor<1x1xi64> loc(#loc1)
    %cst_2 = arith.constant dense<0.000000e+00> : tensor<1x2048xf16> loc(#loc1)
    %c2048_i32 = arith.constant 2048 : i32 loc(#loc1)
    %c4096_i32 = arith.constant 4096 : i32 loc(#loc1)
    %c0_i32 = arith.constant 0 : i32 loc(#loc1)
    %cst_3 = arith.constant dense<2.000000e+00> : tensor<1x2048xf32> loc(#loc1)
    %cst_4 = arith.constant dense<2.44140625E-4> : tensor<1x1xf32> loc(#loc1)
    %cst_5 = arith.constant dense<-5.000000e-01> : tensor<1x1xf32> loc(#loc1)
    %cst_6 = arith.constant dense<-1> : tensor<1x1xi64> loc(#loc1)
    %cst_7 = arith.constant dense<4096> : tensor<1x2048xi32> loc(#loc1)
    %cst_8 = arith.constant dense<0.000000e+00> : tensor<1x2048xf32> loc(#loc1)
    %0 = tt.get_program_id x : i32 loc(#loc2)
    %1 = arith.cmpi slt, %0, %arg9 : i32 loc(#loc3)
    %2 = tt.splat %1 : i1 -> tensor<1x1xi1> loc(#loc3)
    %3 = tt.make_range {end = 2048 : i32, start = 0 : i32} : tensor<2048xi32> loc(#loc4)
    %4 = tt.expand_dims %3 {axis = 0 : i32} : tensor<2048xi32> -> tensor<1x2048xi32> loc(#loc5)
    %5 = scf.for %arg11 = %c0_i32 to %c4096_i32 step %c2048_i32 iter_args(%arg12 = %cst_8) -> (tensor<1x2048xf32>)  : i32 {
      %14 = tt.splat %arg11 : i32 -> tensor<1x2048xi32> loc(#loc7)
      %15 = arith.addi %14, %4 : tensor<1x2048xi32> loc(#loc7)
      %16 = arith.cmpi slt, %15, %cst_7 : tensor<1x2048xi32> loc(#loc8)
      %17 = arith.muli %0, %c4096_i32 : i32 loc(#loc9)
      %18 = tt.splat %17 : i32 -> tensor<1x2048xi32> loc(#loc95)
      %19 = arith.addi %15, %18 : tensor<1x2048xi32> loc(#loc10)
      %20 = tt.splat %arg0 : !tt.ptr<f16> -> tensor<1x2048x!tt.ptr<f16>> loc(#loc11)
      %21 = tt.addptr %20, %19 : tensor<1x2048x!tt.ptr<f16>>, tensor<1x2048xi32> loc(#loc11)
      %22 = tt.splat %1 : i1 -> tensor<1x2048xi1> loc(#loc96)
      %23 = arith.andi %16, %22 : tensor<1x2048xi1> loc(#loc12)
      %24 = tt.load %21, %23, %cst_2 evictionPolicy = evict_last : tensor<1x2048x!tt.ptr<f16>> loc(#loc13)
      %25 = arith.extf %24 : tensor<1x2048xf16> to tensor<1x2048xf32> loc(#loc14)
      %26 = tt.splat %arg1 : !tt.ptr<f16> -> tensor<1x2048x!tt.ptr<f16>> loc(#loc15)
      %27 = tt.addptr %26, %19 : tensor<1x2048x!tt.ptr<f16>>, tensor<1x2048xi32> loc(#loc15)
      %28 = tt.load %27, %23, %cst_2 evictionPolicy = evict_last : tensor<1x2048x!tt.ptr<f16>> loc(#loc16)
      %29 = arith.extf %28 : tensor<1x2048xf16> to tensor<1x2048xf32> loc(#loc17)
      %30 = tt.splat %arg2 : !tt.ptr<f16> -> tensor<1x2048x!tt.ptr<f16>> loc(#loc18)
      %31 = tt.addptr %30, %19 : tensor<1x2048x!tt.ptr<f16>>, tensor<1x2048xi32> loc(#loc18)
      %32 = tt.load %31, %23, %cst_2 evictionPolicy = evict_last : tensor<1x2048x!tt.ptr<f16>> loc(#loc19)
      %33 = arith.extf %32 : tensor<1x2048xf16> to tensor<1x2048xf32> loc(#loc20)
      %34 = tt.splat %arg3 : !tt.ptr<f16> -> tensor<1x2048x!tt.ptr<f16>> loc(#loc21)
      %35 = tt.addptr %34, %15 : tensor<1x2048x!tt.ptr<f16>>, tensor<1x2048xi32> loc(#loc21)
      %36 = tt.load %35, %16, %cst_2 evictionPolicy = evict_last : tensor<1x2048x!tt.ptr<f16>> loc(#loc22)
      %37 = arith.extf %36 : tensor<1x2048xf16> to tensor<1x2048xf32> loc(#loc23)
      %38 = tt.splat %arg4 : !tt.ptr<f16> -> tensor<1x2048x!tt.ptr<f16>> loc(#loc24)
      %39 = tt.addptr %38, %19 : tensor<1x2048x!tt.ptr<f16>>, tensor<1x2048xi32> loc(#loc24)
      %40 = tt.load %39, %23, %cst_2 evictionPolicy = evict_last : tensor<1x2048x!tt.ptr<f16>> loc(#loc25)
      %41 = arith.extf %40 : tensor<1x2048xf16> to tensor<1x2048xf32> loc(#loc26)
      %42 = arith.addf %25, %29 : tensor<1x2048xf32> loc(#loc27)
      %43 = arith.addf %42, %33 : tensor<1x2048xf32> loc(#loc28)
      %44 = arith.mulf %43, %37 : tensor<1x2048xf32> loc(#loc29)
      %45 = arith.mulf %44, %41 : tensor<1x2048xf32> loc(#loc30)
      %46 = arith.addf %arg12, %45 : tensor<1x2048xf32> loc(#loc31)
      %47 = arith.select %23, %46, %arg12 : tensor<1x2048xi1>, tensor<1x2048xf32> loc(#loc32)
      scf.yield %47 : tensor<1x2048xf32> loc(#loc33)
    } loc(#loc6)
    %6 = "tt.reduce"(%5) <{axis = 1 : i32}> ({
    ^bb0(%arg11: f32 loc(callsite(#loc1 at #loc35)), %arg12: f32 loc(callsite(#loc1 at #loc35))):
      %14 = arith.addf %arg11, %arg12 : f32 loc(#loc102)
      tt.reduce.return %14 : f32 loc(#loc97)
    }) : (tensor<1x2048xf32>) -> tensor<1xf32> loc(#loc97)
    %7 = tt.expand_dims %6 {axis = 1 : i32} : tensor<1xf32> -> tensor<1x1xf32> loc(#loc37)
    %8 = tt.addptr %arg5, %0 : !tt.ptr<i64>, i32 loc(#loc38)
    %9 = tt.splat %8 : !tt.ptr<i64> -> tensor<1x1x!tt.ptr<i64>> loc(#loc38)
    %10 = tt.load %9, %2 evictionPolicy = evict_last : tensor<1x1x!tt.ptr<i64>> loc(#loc39)
    %11 = tt.addptr %arg7, %0 : !tt.ptr<f32>, i32 loc(#loc40)
    %12 = tt.splat %11 : !tt.ptr<f32> -> tensor<1x1x!tt.ptr<f32>> loc(#loc40)
    %13 = tt.load %12, %2 evictionPolicy = evict_last : tensor<1x1x!tt.ptr<f32>> loc(#loc41)
    scf.for %arg11 = %c0_i32 to %c4096_i32 step %c2048_i32  : i32 {
      %14 = tt.splat %arg11 : i32 -> tensor<1x2048xi32> loc(#loc43)
      %15 = arith.addi %14, %4 : tensor<1x2048xi32> loc(#loc43)
      %16 = arith.cmpi slt, %15, %cst_7 : tensor<1x2048xi32> loc(#loc44)
      %17 = arith.muli %0, %c4096_i32 : i32 loc(#loc45)
      %18 = tt.splat %17 : i32 -> tensor<1x2048xi32> loc(#loc100)
      %19 = arith.addi %15, %18 : tensor<1x2048xi32> loc(#loc46)
      %20 = tt.splat %arg6 : !tt.ptr<f16> -> tensor<1x2048x!tt.ptr<f16>> loc(#loc47)
      %21 = tt.addptr %20, %19 : tensor<1x2048x!tt.ptr<f16>>, tensor<1x2048xi32> loc(#loc47)
      %22 = tt.splat %1 : i1 -> tensor<1x2048xi1> loc(#loc101)
      %23 = arith.andi %16, %22 : tensor<1x2048xi1> loc(#loc48)
      %24 = tt.load %21, %23, %cst_2 evictionPolicy = evict_first : tensor<1x2048x!tt.ptr<f16>> loc(#loc49)
      %25 = arith.extf %24 : tensor<1x2048xf16> to tensor<1x2048xf32> loc(#loc50)
      %26 = tt.splat %arg0 : !tt.ptr<f16> -> tensor<1x2048x!tt.ptr<f16>> loc(#loc51)
      %27 = tt.addptr %26, %19 : tensor<1x2048x!tt.ptr<f16>>, tensor<1x2048xi32> loc(#loc51)
      %28 = tt.load %27, %23, %cst_2 evictionPolicy = evict_first : tensor<1x2048x!tt.ptr<f16>> loc(#loc52)
      %29 = arith.extf %28 : tensor<1x2048xf16> to tensor<1x2048xf32> loc(#loc53)
      %30 = tt.splat %arg1 : !tt.ptr<f16> -> tensor<1x2048x!tt.ptr<f16>> loc(#loc54)
      %31 = tt.addptr %30, %19 : tensor<1x2048x!tt.ptr<f16>>, tensor<1x2048xi32> loc(#loc54)
      %32 = tt.load %31, %23, %cst_2 evictionPolicy = evict_first : tensor<1x2048x!tt.ptr<f16>> loc(#loc55)
      %33 = arith.extf %32 : tensor<1x2048xf16> to tensor<1x2048xf32> loc(#loc56)
      %34 = tt.splat %arg2 : !tt.ptr<f16> -> tensor<1x2048x!tt.ptr<f16>> loc(#loc57)
      %35 = tt.addptr %34, %19 : tensor<1x2048x!tt.ptr<f16>>, tensor<1x2048xi32> loc(#loc57)
      %36 = tt.load %35, %23, %cst_2 evictionPolicy = evict_first : tensor<1x2048x!tt.ptr<f16>> loc(#loc58)
      %37 = arith.extf %36 : tensor<1x2048xf16> to tensor<1x2048xf32> loc(#loc59)
      %38 = tt.splat %arg3 : !tt.ptr<f16> -> tensor<1x2048x!tt.ptr<f16>> loc(#loc60)
      %39 = tt.addptr %38, %15 : tensor<1x2048x!tt.ptr<f16>>, tensor<1x2048xi32> loc(#loc60)
      %40 = tt.load %39, %16, %cst_2 evictionPolicy = evict_last : tensor<1x2048x!tt.ptr<f16>> loc(#loc61)
      %41 = arith.extf %40 : tensor<1x2048xf16> to tensor<1x2048xf32> loc(#loc62)
      %42 = tt.splat %arg4 : !tt.ptr<f16> -> tensor<1x2048x!tt.ptr<f16>> loc(#loc63)
      %43 = tt.addptr %42, %19 : tensor<1x2048x!tt.ptr<f16>>, tensor<1x2048xi32> loc(#loc63)
      %44 = tt.load %43, %23, %cst_2 evictionPolicy = evict_first : tensor<1x2048x!tt.ptr<f16>> loc(#loc64)
      %45 = arith.extf %44 : tensor<1x2048xf16> to tensor<1x2048xf32> loc(#loc65)
      %46 = arith.cmpi eq, %10, %cst_6 : tensor<1x1xi64> loc(#loc66)
      %47 = arith.addf %29, %33 : tensor<1x2048xf32> loc(#loc67)
      %48 = arith.addf %47, %37 : tensor<1x2048xf32> loc(#loc68)
      %49 = arith.mulf %48, %41 : tensor<1x2048xf32> loc(#loc69)
      %50 = tt.broadcast %13 : tensor<1x1xf32> -> tensor<1x2048xf32> loc(#loc70)
      %51 = arith.mulf %49, %50 : tensor<1x2048xf32> loc(#loc70)
      %52 = arith.mulf %7, %cst_5 : tensor<1x1xf32> loc(#loc71)
      %53 = arith.mulf %13, %13 : tensor<1x1xf32> loc(#loc72)
      %54 = arith.mulf %53, %13 : tensor<1x1xf32> loc(#loc73)
      %55 = arith.mulf %52, %54 : tensor<1x1xf32> loc(#loc74)
      %56 = arith.mulf %55, %cst_4 : tensor<1x1xf32> loc(#loc75)
      %57 = arith.mulf %45, %cst_3 : tensor<1x2048xf32> loc(#loc76)
      %58 = tt.broadcast %56 : tensor<1x1xf32> -> tensor<1x2048xf32> loc(#loc77)
      %59 = arith.mulf %58, %57 : tensor<1x2048xf32> loc(#loc77)
      %60 = arith.addf %51, %59 : tensor<1x2048xf32> loc(#loc78)
      %61 = arith.addf %25, %60 : tensor<1x2048xf32> loc(#loc79)
      %62 = tt.broadcast %46 : tensor<1x1xi1> -> tensor<1x2048xi1> loc(#loc80)
      %63 = arith.select %62, %cst_8, %61 : tensor<1x2048xi1>, tensor<1x2048xf32> loc(#loc80)
      %64 = arith.addi %10, %cst_0 : tensor<1x1xi64> loc(#loc81)
      %65 = arith.cmpi slt, %10, %cst_1 : tensor<1x1xi64> loc(#loc82)
      %66 = arith.select %65, %64, %10 : tensor<1x1xi1>, tensor<1x1xi64> loc(#loc83)
      %67 = arith.cmpi sge, %66, %cst_1 : tensor<1x1xi64> loc(#loc84)
      %68 = arith.cmpi slt, %66, %cst_0 : tensor<1x1xi64> loc(#loc85)
      %69 = arith.andi %67, %68 : tensor<1x1xi1> loc(#loc86)
      %70 = arith.xori %1, %true : i1 loc(#loc87)
      %71 = tt.splat %70 : i1 -> tensor<1x1xi1> loc(#loc87)
      %72 = arith.ori %69, %71 : tensor<1x1xi1> loc(#loc88)
      %73 = tt.broadcast %72 : tensor<1x1xi1> -> tensor<1x2048xi1> loc(#loc88)
      tt.assert %73, "index out of bounds: 0 <= tmp49 < 128256" : tensor<1x2048xi1> loc(#loc89)
      %74 = arith.muli %66, %cst : tensor<1x1xi64> loc(#loc90)
      %75 = tt.broadcast %74 : tensor<1x1xi64> -> tensor<1x2048xi64> loc(#loc90)
      %76 = arith.extsi %15 : tensor<1x2048xi32> to tensor<1x2048xi64> loc(#loc91)
      %77 = arith.addi %76, %75 : tensor<1x2048xi64> loc(#loc91)
      %78 = tt.splat %arg8 : !tt.ptr<f32> -> tensor<1x2048x!tt.ptr<f32>> loc(#loc92)
      %79 = tt.addptr %78, %77 : tensor<1x2048x!tt.ptr<f32>>, tensor<1x2048xi64> loc(#loc92)
      %80 = tt.atomic_rmw fadd, relaxed, gpu, %79, %63, %23 : (tensor<1x2048x!tt.ptr<f32>>, tensor<1x2048xf32>, tensor<1x2048xi1>) -> tensor<1x2048xf32> loc(#loc93)
    } loc(#loc42)
    tt.return loc(#loc94)
  } loc(#loc)
} loc(#loc)
#loc2 = loc("./local_cache/7p/c7pbg3l2pkvqtef7mnprrepoat4qlaxffimkbo2dg7te5trtgllm.py":22:28)
#loc3 = loc("./local_cache/7p/c7pbg3l2pkvqtef7mnprrepoat4qlaxffimkbo2dg7te5trtgllm.py":24:21)
#loc4 = loc("./local_cache/7p/c7pbg3l2pkvqtef7mnprrepoat4qlaxffimkbo2dg7te5trtgllm.py":25:27)
#loc5 = loc("./local_cache/7p/c7pbg3l2pkvqtef7mnprrepoat4qlaxffimkbo2dg7te5trtgllm.py":25:37)
#loc6 = loc("./local_cache/7p/c7pbg3l2pkvqtef7mnprrepoat4qlaxffimkbo2dg7te5trtgllm.py":29:40)
#loc7 = loc("./local_cache/7p/c7pbg3l2pkvqtef7mnprrepoat4qlaxffimkbo2dg7te5trtgllm.py":30:31)
#loc8 = loc("./local_cache/7p/c7pbg3l2pkvqtef7mnprrepoat4qlaxffimkbo2dg7te5trtgllm.py":31:29)
#loc9 = loc("./local_cache/7p/c7pbg3l2pkvqtef7mnprrepoat4qlaxffimkbo2dg7te5trtgllm.py":35:46)
#loc10 = loc("./local_cache/7p/c7pbg3l2pkvqtef7mnprrepoat4qlaxffimkbo2dg7te5trtgllm.py":35:41)
#loc11 = loc("./local_cache/7p/c7pbg3l2pkvqtef7mnprrepoat4qlaxffimkbo2dg7te5trtgllm.py":35:34)
#loc12 = loc("./local_cache/7p/c7pbg3l2pkvqtef7mnprrepoat4qlaxffimkbo2dg7te5trtgllm.py":35:61)
#loc13 = loc("./local_cache/7p/c7pbg3l2pkvqtef7mnprrepoat4qlaxffimkbo2dg7te5trtgllm.py":35:51)
#loc14 = loc("./local_cache/7p/c7pbg3l2pkvqtef7mnprrepoat4qlaxffimkbo2dg7te5trtgllm.py":35:112)
#loc15 = loc("./local_cache/7p/c7pbg3l2pkvqtef7mnprrepoat4qlaxffimkbo2dg7te5trtgllm.py":36:34)
#loc16 = loc("./local_cache/7p/c7pbg3l2pkvqtef7mnprrepoat4qlaxffimkbo2dg7te5trtgllm.py":36:51)
#loc17 = loc("./local_cache/7p/c7pbg3l2pkvqtef7mnprrepoat4qlaxffimkbo2dg7te5trtgllm.py":36:112)
#loc18 = loc("./local_cache/7p/c7pbg3l2pkvqtef7mnprrepoat4qlaxffimkbo2dg7te5trtgllm.py":37:34)
#loc19 = loc("./local_cache/7p/c7pbg3l2pkvqtef7mnprrepoat4qlaxffimkbo2dg7te5trtgllm.py":37:51)
#loc20 = loc("./local_cache/7p/c7pbg3l2pkvqtef7mnprrepoat4qlaxffimkbo2dg7te5trtgllm.py":37:112)
#loc21 = loc("./local_cache/7p/c7pbg3l2pkvqtef7mnprrepoat4qlaxffimkbo2dg7te5trtgllm.py":38:34)
#loc22 = loc("./local_cache/7p/c7pbg3l2pkvqtef7mnprrepoat4qlaxffimkbo2dg7te5trtgllm.py":38:41)
#loc23 = loc("./local_cache/7p/c7pbg3l2pkvqtef7mnprrepoat4qlaxffimkbo2dg7te5trtgllm.py":38:94)
#loc24 = loc("./local_cache/7p/c7pbg3l2pkvqtef7mnprrepoat4qlaxffimkbo2dg7te5trtgllm.py":39:34)
#loc25 = loc("./local_cache/7p/c7pbg3l2pkvqtef7mnprrepoat4qlaxffimkbo2dg7te5trtgllm.py":39:51)
#loc26 = loc("./local_cache/7p/c7pbg3l2pkvqtef7mnprrepoat4qlaxffimkbo2dg7te5trtgllm.py":39:112)
#loc27 = loc("./local_cache/7p/c7pbg3l2pkvqtef7mnprrepoat4qlaxffimkbo2dg7te5trtgllm.py":40:22)
#loc28 = loc("./local_cache/7p/c7pbg3l2pkvqtef7mnprrepoat4qlaxffimkbo2dg7te5trtgllm.py":41:22)
#loc29 = loc("./local_cache/7p/c7pbg3l2pkvqtef7mnprrepoat4qlaxffimkbo2dg7te5trtgllm.py":42:22)
#loc30 = loc("./local_cache/7p/c7pbg3l2pkvqtef7mnprrepoat4qlaxffimkbo2dg7te5trtgllm.py":45:23)
#loc31 = loc("./local_cache/7p/c7pbg3l2pkvqtef7mnprrepoat4qlaxffimkbo2dg7te5trtgllm.py":47:25)
#loc32 = loc("./local_cache/7p/c7pbg3l2pkvqtef7mnprrepoat4qlaxffimkbo2dg7te5trtgllm.py":48:50)
#loc33 = loc("./local_cache/7p/c7pbg3l2pkvqtef7mnprrepoat4qlaxffimkbo2dg7te5trtgllm.py":48:8)
#loc34 = loc("/workspace/torch-compile-caching/.venv/lib/python3.11/site-packages/triton/language/standard.py":286:36)
#loc36 = loc("/workspace/torch-compile-caching/.venv/lib/python3.11/site-packages/triton/language/standard.py":256:15)
#loc37 = loc("./local_cache/7p/c7pbg3l2pkvqtef7mnprrepoat4qlaxffimkbo2dg7te5trtgllm.py":49:30)
#loc38 = loc("./local_cache/7p/c7pbg3l2pkvqtef7mnprrepoat4qlaxffimkbo2dg7te5trtgllm.py":50:31)
#loc39 = loc("./local_cache/7p/c7pbg3l2pkvqtef7mnprrepoat4qlaxffimkbo2dg7te5trtgllm.py":50:36)
#loc40 = loc("./local_cache/7p/c7pbg3l2pkvqtef7mnprrepoat4qlaxffimkbo2dg7te5trtgllm.py":51:31)
#loc41 = loc("./local_cache/7p/c7pbg3l2pkvqtef7mnprrepoat4qlaxffimkbo2dg7te5trtgllm.py":51:36)
#loc42 = loc("./local_cache/7p/c7pbg3l2pkvqtef7mnprrepoat4qlaxffimkbo2dg7te5trtgllm.py":52:40)
#loc43 = loc("./local_cache/7p/c7pbg3l2pkvqtef7mnprrepoat4qlaxffimkbo2dg7te5trtgllm.py":53:31)
#loc44 = loc("./local_cache/7p/c7pbg3l2pkvqtef7mnprrepoat4qlaxffimkbo2dg7te5trtgllm.py":54:29)
#loc45 = loc("./local_cache/7p/c7pbg3l2pkvqtef7mnprrepoat4qlaxffimkbo2dg7te5trtgllm.py":58:47)
#loc46 = loc("./local_cache/7p/c7pbg3l2pkvqtef7mnprrepoat4qlaxffimkbo2dg7te5trtgllm.py":58:42)
#loc47 = loc("./local_cache/7p/c7pbg3l2pkvqtef7mnprrepoat4qlaxffimkbo2dg7te5trtgllm.py":58:35)
#loc48 = loc("./local_cache/7p/c7pbg3l2pkvqtef7mnprrepoat4qlaxffimkbo2dg7te5trtgllm.py":58:62)
#loc49 = loc("./local_cache/7p/c7pbg3l2pkvqtef7mnprrepoat4qlaxffimkbo2dg7te5trtgllm.py":58:52)
#loc50 = loc("./local_cache/7p/c7pbg3l2pkvqtef7mnprrepoat4qlaxffimkbo2dg7te5trtgllm.py":58:114)
#loc51 = loc("./local_cache/7p/c7pbg3l2pkvqtef7mnprrepoat4qlaxffimkbo2dg7te5trtgllm.py":59:35)
#loc52 = loc("./local_cache/7p/c7pbg3l2pkvqtef7mnprrepoat4qlaxffimkbo2dg7te5trtgllm.py":59:52)
#loc53 = loc("./local_cache/7p/c7pbg3l2pkvqtef7mnprrepoat4qlaxffimkbo2dg7te5trtgllm.py":59:114)
#loc54 = loc("./local_cache/7p/c7pbg3l2pkvqtef7mnprrepoat4qlaxffimkbo2dg7te5trtgllm.py":60:35)
#loc55 = loc("./local_cache/7p/c7pbg3l2pkvqtef7mnprrepoat4qlaxffimkbo2dg7te5trtgllm.py":60:52)
#loc56 = loc("./local_cache/7p/c7pbg3l2pkvqtef7mnprrepoat4qlaxffimkbo2dg7te5trtgllm.py":60:114)
#loc57 = loc("./local_cache/7p/c7pbg3l2pkvqtef7mnprrepoat4qlaxffimkbo2dg7te5trtgllm.py":61:35)
#loc58 = loc("./local_cache/7p/c7pbg3l2pkvqtef7mnprrepoat4qlaxffimkbo2dg7te5trtgllm.py":61:52)
#loc59 = loc("./local_cache/7p/c7pbg3l2pkvqtef7mnprrepoat4qlaxffimkbo2dg7te5trtgllm.py":61:114)
#loc60 = loc("./local_cache/7p/c7pbg3l2pkvqtef7mnprrepoat4qlaxffimkbo2dg7te5trtgllm.py":62:35)
#loc61 = loc("./local_cache/7p/c7pbg3l2pkvqtef7mnprrepoat4qlaxffimkbo2dg7te5trtgllm.py":62:42)
#loc62 = loc("./local_cache/7p/c7pbg3l2pkvqtef7mnprrepoat4qlaxffimkbo2dg7te5trtgllm.py":62:95)
#loc63 = loc("./local_cache/7p/c7pbg3l2pkvqtef7mnprrepoat4qlaxffimkbo2dg7te5trtgllm.py":63:35)
#loc64 = loc("./local_cache/7p/c7pbg3l2pkvqtef7mnprrepoat4qlaxffimkbo2dg7te5trtgllm.py":63:52)
#loc65 = loc("./local_cache/7p/c7pbg3l2pkvqtef7mnprrepoat4qlaxffimkbo2dg7te5trtgllm.py":63:114)
#loc66 = loc("./local_cache/7p/c7pbg3l2pkvqtef7mnprrepoat4qlaxffimkbo2dg7te5trtgllm.py":65:25)
#loc67 = loc("./local_cache/7p/c7pbg3l2pkvqtef7mnprrepoat4qlaxffimkbo2dg7te5trtgllm.py":66:24)
#loc68 = loc("./local_cache/7p/c7pbg3l2pkvqtef7mnprrepoat4qlaxffimkbo2dg7te5trtgllm.py":67:24)
#loc69 = loc("./local_cache/7p/c7pbg3l2pkvqtef7mnprrepoat4qlaxffimkbo2dg7te5trtgllm.py":68:24)
#loc70 = loc("./local_cache/7p/c7pbg3l2pkvqtef7mnprrepoat4qlaxffimkbo2dg7te5trtgllm.py":70:24)
#loc71 = loc("./local_cache/7p/c7pbg3l2pkvqtef7mnprrepoat4qlaxffimkbo2dg7te5trtgllm.py":72:24)
#loc72 = loc("./local_cache/7p/c7pbg3l2pkvqtef7mnprrepoat4qlaxffimkbo2dg7te5trtgllm.py":73:24)
#loc73 = loc("./local_cache/7p/c7pbg3l2pkvqtef7mnprrepoat4qlaxffimkbo2dg7te5trtgllm.py":74:24)
#loc74 = loc("./local_cache/7p/c7pbg3l2pkvqtef7mnprrepoat4qlaxffimkbo2dg7te5trtgllm.py":75:24)
#loc75 = loc("./local_cache/7p/c7pbg3l2pkvqtef7mnprrepoat4qlaxffimkbo2dg7te5trtgllm.py":77:24)
#loc76 = loc("./local_cache/7p/c7pbg3l2pkvqtef7mnprrepoat4qlaxffimkbo2dg7te5trtgllm.py":80:24)
#loc77 = loc("./local_cache/7p/c7pbg3l2pkvqtef7mnprrepoat4qlaxffimkbo2dg7te5trtgllm.py":81:24)
#loc78 = loc("./local_cache/7p/c7pbg3l2pkvqtef7mnprrepoat4qlaxffimkbo2dg7te5trtgllm.py":82:24)
#loc79 = loc("./local_cache/7p/c7pbg3l2pkvqtef7mnprrepoat4qlaxffimkbo2dg7te5trtgllm.py":84:24)
#loc80 = loc("./local_cache/7p/c7pbg3l2pkvqtef7mnprrepoat4qlaxffimkbo2dg7te5trtgllm.py":87:39)
#loc81 = loc("./local_cache/7p/c7pbg3l2pkvqtef7mnprrepoat4qlaxffimkbo2dg7te5trtgllm.py":89:24)
#loc82 = loc("./local_cache/7p/c7pbg3l2pkvqtef7mnprrepoat4qlaxffimkbo2dg7te5trtgllm.py":90:24)
#loc83 = loc("./local_cache/7p/c7pbg3l2pkvqtef7mnprrepoat4qlaxffimkbo2dg7te5trtgllm.py":91:39)
#loc84 = loc("./local_cache/7p/c7pbg3l2pkvqtef7mnprrepoat4qlaxffimkbo2dg7te5trtgllm.py":92:32)
#loc85 = loc("./local_cache/7p/c7pbg3l2pkvqtef7mnprrepoat4qlaxffimkbo2dg7te5trtgllm.py":92:50)
#loc86 = loc("./local_cache/7p/c7pbg3l2pkvqtef7mnprrepoat4qlaxffimkbo2dg7te5trtgllm.py":92:42)
#loc87 = loc("./local_cache/7p/c7pbg3l2pkvqtef7mnprrepoat4qlaxffimkbo2dg7te5trtgllm.py":92:63)
#loc88 = loc("./local_cache/7p/c7pbg3l2pkvqtef7mnprrepoat4qlaxffimkbo2dg7te5trtgllm.py":92:61)
#loc89 = loc("./local_cache/7p/c7pbg3l2pkvqtef7mnprrepoat4qlaxffimkbo2dg7te5trtgllm.py":92:71)
#loc90 = loc("./local_cache/7p/c7pbg3l2pkvqtef7mnprrepoat4qlaxffimkbo2dg7te5trtgllm.py":93:62)
#loc91 = loc("./local_cache/7p/c7pbg3l2pkvqtef7mnprrepoat4qlaxffimkbo2dg7te5trtgllm.py":93:57)
#loc92 = loc("./local_cache/7p/c7pbg3l2pkvqtef7mnprrepoat4qlaxffimkbo2dg7te5trtgllm.py":93:34)
#loc93 = loc("./local_cache/7p/c7pbg3l2pkvqtef7mnprrepoat4qlaxffimkbo2dg7te5trtgllm.py":93:98)
#loc94 = loc("./local_cache/7p/c7pbg3l2pkvqtef7mnprrepoat4qlaxffimkbo2dg7te5trtgllm.py":52:4)
#loc95 = loc(fused[#loc10, #loc9])
#loc96 = loc(fused[#loc12, #loc3])
#loc97 = loc(callsite(#loc34 at #loc35))
#loc99 = loc(callsite(#loc36 at #loc34))
#loc100 = loc(fused[#loc46, #loc45])
#loc101 = loc(fused[#loc48, #loc3])
#loc102 = loc(callsite(#loc99 at #loc35))
