#loc = loc("/tmp/torchinductor_root/6w/c6w7ysj4hzbjrc3ky2bllh4hizall6zebpysmidywv3kv2zvm2ex.py":18:0)
#loc1 = loc(unknown)
#loc26 = loc("/tmp/torchinductor_root/6w/c6w7ysj4hzbjrc3ky2bllh4hizall6zebpysmidywv3kv2zvm2ex.py":44:25)
#loc46 = loc(callsite(#loc1 at #loc26))
module {
  tt.func public @triton_red_fused__to_copy_add_mean_mul_pow_rsqrt_9(%arg0: !tt.ptr<f16> {tt.divisibility = 16 : i32} loc("/tmp/torchinductor_root/6w/c6w7ysj4hzbjrc3ky2bllh4hizall6zebpysmidywv3kv2zvm2ex.py":18:0), %arg1: !tt.ptr<f32> {tt.divisibility = 16 : i32} loc("/tmp/torchinductor_root/6w/c6w7ysj4hzbjrc3ky2bllh4hizall6zebpysmidywv3kv2zvm2ex.py":18:0), %arg2: !tt.ptr<f16> {tt.divisibility = 16 : i32} loc("/tmp/torchinductor_root/6w/c6w7ysj4hzbjrc3ky2bllh4hizall6zebpysmidywv3kv2zvm2ex.py":18:0), %arg3: !tt.ptr<f16> {tt.divisibility = 16 : i32} loc("/tmp/torchinductor_root/6w/c6w7ysj4hzbjrc3ky2bllh4hizall6zebpysmidywv3kv2zvm2ex.py":18:0), %arg4: !tt.ptr<f16> {tt.divisibility = 16 : i32} loc("/tmp/torchinductor_root/6w/c6w7ysj4hzbjrc3ky2bllh4hizall6zebpysmidywv3kv2zvm2ex.py":18:0), %arg5: i32 loc("/tmp/torchinductor_root/6w/c6w7ysj4hzbjrc3ky2bllh4hizall6zebpysmidywv3kv2zvm2ex.py":18:0), %arg6: i32 {tt.divisibility = 16 : i32} loc("/tmp/torchinductor_root/6w/c6w7ysj4hzbjrc3ky2bllh4hizall6zebpysmidywv3kv2zvm2ex.py":18:0)) attributes {noinline = false} {
    %cst = arith.constant dense<0.000000e+00> : tensor<1x4096xf16> loc(#loc1)
    %cst_0 = arith.constant dense<0.000000e+00> : tensor<2x4096xf16> loc(#loc1)
    %cst_1 = arith.constant dense<9.99999974E-6> : tensor<2x1xf32> loc(#loc1)
    %cst_2 = arith.constant dense<4.096000e+03> : tensor<2x1xf32> loc(#loc1)
    %cst_3 = arith.constant dense<4096> : tensor<2x1xi32> loc(#loc1)
    %cst_4 = arith.constant dense<4096> : tensor<1x4096xi32> loc(#loc1)
    %cst_5 = arith.constant dense<0.000000e+00> : tensor<2x4096xf32> loc(#loc1)
    %c2_i32 = arith.constant 2 : i32 loc(#loc1)
    %0 = tt.get_program_id x : i32 loc(#loc2)
    %1 = arith.muli %0, %c2_i32 : i32 loc(#loc3)
    %2 = tt.make_range {end = 2 : i32, start = 0 : i32} : tensor<2xi32> loc(#loc4)
    %3 = tt.expand_dims %2 {axis = 1 : i32} : tensor<2xi32> -> tensor<2x1xi32> loc(#loc5)
    %4 = tt.splat %1 : i32 -> tensor<2x1xi32> loc(#loc6)
    %5 = arith.addi %4, %3 : tensor<2x1xi32> loc(#loc6)
    %6 = tt.splat %arg5 : i32 -> tensor<2x1xi32> loc(#loc7)
    %7 = arith.cmpi slt, %5, %6 : tensor<2x1xi32> loc(#loc7)
    %8 = tt.make_range {end = 4096 : i32, start = 0 : i32} : tensor<4096xi32> loc(#loc8)
    %9 = tt.expand_dims %8 {axis = 0 : i32} : tensor<4096xi32> -> tensor<1x4096xi32> loc(#loc9)
    %10 = arith.cmpi slt, %9, %cst_4 : tensor<1x4096xi32> loc(#loc10)
    %11 = arith.muli %5, %cst_3 : tensor<2x1xi32> loc(#loc11)
    %12 = tt.broadcast %9 : tensor<1x4096xi32> -> tensor<2x4096xi32> loc(#loc12)
    %13 = tt.broadcast %11 : tensor<2x1xi32> -> tensor<2x4096xi32> loc(#loc12)
    %14 = arith.addi %12, %13 : tensor<2x4096xi32> loc(#loc12)
    %15 = tt.splat %arg2 : !tt.ptr<f16> -> tensor<2x4096x!tt.ptr<f16>> loc(#loc13)
    %16 = tt.addptr %15, %14 : tensor<2x4096x!tt.ptr<f16>>, tensor<2x4096xi32> loc(#loc13)
    %17 = tt.broadcast %7 : tensor<2x1xi1> -> tensor<2x4096xi1> loc(#loc14)
    %18 = tt.broadcast %10 : tensor<1x4096xi1> -> tensor<2x4096xi1> loc(#loc14)
    %19 = arith.andi %17, %18 : tensor<2x4096xi1> loc(#loc14)
    %20 = tt.load %16, %19, %cst_0 evictionPolicy = evict_first : tensor<2x4096x!tt.ptr<f16>> loc(#loc15)
    %21 = arith.extf %20 : tensor<2x4096xf16> to tensor<2x4096xf32> loc(#loc16)
    %22 = tt.splat %arg0 : !tt.ptr<f16> -> tensor<2x4096x!tt.ptr<f16>> loc(#loc17)
    %23 = tt.addptr %22, %14 : tensor<2x4096x!tt.ptr<f16>>, tensor<2x4096xi32> loc(#loc17)
    %24 = tt.load %23, %19, %cst_0 evictionPolicy = evict_first : tensor<2x4096x!tt.ptr<f16>> loc(#loc18)
    %25 = arith.extf %24 : tensor<2x4096xf16> to tensor<2x4096xf32> loc(#loc19)
    %26 = arith.addf %21, %25 : tensor<2x4096xf32> loc(#loc20)
    %27 = arith.mulf %26, %26 : tensor<2x4096xf32> loc(#loc21)
    %28 = arith.addf %27, %cst_5 : tensor<2x4096xf32> loc(#loc22)
    %29 = arith.select %19, %28, %cst_5 : tensor<2x4096xi1>, tensor<2x4096xf32> loc(#loc23)
    %30 = arith.truncf %26 : tensor<2x4096xf32> to tensor<2x4096xf16> loc(#loc24)
    tt.store %23, %30, %19 : tensor<2x4096x!tt.ptr<f16>> loc(#loc24)
    %31 = "tt.reduce"(%29) <{axis = 1 : i32}> ({
    ^bb0(%arg7: f32 loc(callsite(#loc1 at #loc26)), %arg8: f32 loc(callsite(#loc1 at #loc26))):
      %51 = arith.addf %arg7, %arg8 : f32 loc(#loc48)
      tt.reduce.return %51 : f32 loc(#loc45)
    }) : (tensor<2x4096xf32>) -> tensor<2xf32> loc(#loc45)
    %32 = tt.expand_dims %31 {axis = 1 : i32} : tensor<2xf32> -> tensor<2x1xf32> loc(#loc28)
    %33 = arith.divf %32, %cst_2 : tensor<2x1xf32> loc(#loc29)
    %34 = arith.addf %33, %cst_1 : tensor<2x1xf32> loc(#loc30)
    %35 = tt.extern_elementwise %34 {libname = "", libpath = "", pure = true, symbol = "__nv_rsqrtf"} : (tensor<2x1xf32>) -> tensor<2x1xf32> loc(#loc31)
    gpu.barrier loc(#loc32)
    %36 = tt.splat %arg1 : !tt.ptr<f32> -> tensor<2x1x!tt.ptr<f32>> loc(#loc33)
    %37 = tt.addptr %36, %5 : tensor<2x1x!tt.ptr<f32>>, tensor<2x1xi32> loc(#loc33)
    tt.store %37, %35, %7 : tensor<2x1x!tt.ptr<f32>> loc(#loc34)
    %38 = tt.splat %arg3 : !tt.ptr<f16> -> tensor<1x4096x!tt.ptr<f16>> loc(#loc35)
    %39 = tt.addptr %38, %9 : tensor<1x4096x!tt.ptr<f16>>, tensor<1x4096xi32> loc(#loc35)
    %40 = tt.load %39, %10, %cst evictionPolicy = evict_last : tensor<1x4096x!tt.ptr<f16>> loc(#loc36)
    %41 = arith.extf %40 : tensor<1x4096xf16> to tensor<1x4096xf32> loc(#loc37)
    %42 = tt.load %23, %19, %cst_0 evictionPolicy = evict_first : tensor<2x4096x!tt.ptr<f16>> loc(#loc38)
    %43 = arith.extf %42 : tensor<2x4096xf16> to tensor<2x4096xf32> loc(#loc39)
    %44 = tt.broadcast %35 : tensor<2x1xf32> -> tensor<2x4096xf32> loc(#loc40)
    %45 = arith.mulf %43, %44 : tensor<2x4096xf32> loc(#loc40)
    %46 = tt.broadcast %41 : tensor<1x4096xf32> -> tensor<2x4096xf32> loc(#loc41)
    %47 = arith.mulf %46, %45 : tensor<2x4096xf32> loc(#loc41)
    %48 = tt.splat %arg4 : !tt.ptr<f16> -> tensor<2x4096x!tt.ptr<f16>> loc(#loc42)
    %49 = tt.addptr %48, %14 : tensor<2x4096x!tt.ptr<f16>>, tensor<2x4096xi32> loc(#loc42)
    %50 = arith.truncf %47 : tensor<2x4096xf32> to tensor<2x4096xf16> loc(#loc43)
    tt.store %49, %50, %19 : tensor<2x4096x!tt.ptr<f16>> loc(#loc43)
    tt.return loc(#loc44)
  } loc(#loc)
} loc(#loc)
#loc2 = loc("/tmp/torchinductor_root/6w/c6w7ysj4hzbjrc3ky2bllh4hizall6zebpysmidywv3kv2zvm2ex.py":22:28)
#loc3 = loc("/tmp/torchinductor_root/6w/c6w7ysj4hzbjrc3ky2bllh4hizall6zebpysmidywv3kv2zvm2ex.py":22:33)
#loc4 = loc("/tmp/torchinductor_root/6w/c6w7ysj4hzbjrc3ky2bllh4hizall6zebpysmidywv3kv2zvm2ex.py":23:36)
#loc5 = loc("/tmp/torchinductor_root/6w/c6w7ysj4hzbjrc3ky2bllh4hizall6zebpysmidywv3kv2zvm2ex.py":23:44)
#loc6 = loc("/tmp/torchinductor_root/6w/c6w7ysj4hzbjrc3ky2bllh4hizall6zebpysmidywv3kv2zvm2ex.py":23:23)
#loc7 = loc("/tmp/torchinductor_root/6w/c6w7ysj4hzbjrc3ky2bllh4hizall6zebpysmidywv3kv2zvm2ex.py":24:21)
#loc8 = loc("/tmp/torchinductor_root/6w/c6w7ysj4hzbjrc3ky2bllh4hizall6zebpysmidywv3kv2zvm2ex.py":25:27)
#loc9 = loc("/tmp/torchinductor_root/6w/c6w7ysj4hzbjrc3ky2bllh4hizall6zebpysmidywv3kv2zvm2ex.py":25:37)
#loc10 = loc("/tmp/torchinductor_root/6w/c6w7ysj4hzbjrc3ky2bllh4hizall6zebpysmidywv3kv2zvm2ex.py":31:29)
#loc11 = loc("/tmp/torchinductor_root/6w/c6w7ysj4hzbjrc3ky2bllh4hizall6zebpysmidywv3kv2zvm2ex.py":35:46)
#loc12 = loc("/tmp/torchinductor_root/6w/c6w7ysj4hzbjrc3ky2bllh4hizall6zebpysmidywv3kv2zvm2ex.py":35:41)
#loc13 = loc("/tmp/torchinductor_root/6w/c6w7ysj4hzbjrc3ky2bllh4hizall6zebpysmidywv3kv2zvm2ex.py":35:34)
#loc14 = loc("/tmp/torchinductor_root/6w/c6w7ysj4hzbjrc3ky2bllh4hizall6zebpysmidywv3kv2zvm2ex.py":35:59)
#loc15 = loc("/tmp/torchinductor_root/6w/c6w7ysj4hzbjrc3ky2bllh4hizall6zebpysmidywv3kv2zvm2ex.py":35:51)
#loc16 = loc("/tmp/torchinductor_root/6w/c6w7ysj4hzbjrc3ky2bllh4hizall6zebpysmidywv3kv2zvm2ex.py":35:113)
#loc17 = loc("/tmp/torchinductor_root/6w/c6w7ysj4hzbjrc3ky2bllh4hizall6zebpysmidywv3kv2zvm2ex.py":36:38)
#loc18 = loc("/tmp/torchinductor_root/6w/c6w7ysj4hzbjrc3ky2bllh4hizall6zebpysmidywv3kv2zvm2ex.py":36:55)
#loc19 = loc("/tmp/torchinductor_root/6w/c6w7ysj4hzbjrc3ky2bllh4hizall6zebpysmidywv3kv2zvm2ex.py":36:117)
#loc20 = loc("/tmp/torchinductor_root/6w/c6w7ysj4hzbjrc3ky2bllh4hizall6zebpysmidywv3kv2zvm2ex.py":37:22)
#loc21 = loc("/tmp/torchinductor_root/6w/c6w7ysj4hzbjrc3ky2bllh4hizall6zebpysmidywv3kv2zvm2ex.py":39:22)
#loc22 = loc("/tmp/torchinductor_root/6w/c6w7ysj4hzbjrc3ky2bllh4hizall6zebpysmidywv3kv2zvm2ex.py":41:23)
#loc23 = loc("/tmp/torchinductor_root/6w/c6w7ysj4hzbjrc3ky2bllh4hizall6zebpysmidywv3kv2zvm2ex.py":42:48)
#loc24 = loc("/tmp/torchinductor_root/6w/c6w7ysj4hzbjrc3ky2bllh4hizall6zebpysmidywv3kv2zvm2ex.py":43:55)
#loc25 = loc("/workspace/torch-compile-caching/.venv/lib/python3.11/site-packages/triton/language/standard.py":286:36)
#loc27 = loc("/workspace/torch-compile-caching/.venv/lib/python3.11/site-packages/triton/language/standard.py":256:15)
#loc28 = loc("/tmp/torchinductor_root/6w/c6w7ysj4hzbjrc3ky2bllh4hizall6zebpysmidywv3kv2zvm2ex.py":44:28)
#loc29 = loc("/tmp/torchinductor_root/6w/c6w7ysj4hzbjrc3ky2bllh4hizall6zebpysmidywv3kv2zvm2ex.py":46:19)
#loc30 = loc("/tmp/torchinductor_root/6w/c6w7ysj4hzbjrc3ky2bllh4hizall6zebpysmidywv3kv2zvm2ex.py":48:19)
#loc31 = loc("/tmp/torchinductor_root/6w/c6w7ysj4hzbjrc3ky2bllh4hizall6zebpysmidywv3kv2zvm2ex.py":49:28)
#loc32 = loc("/tmp/torchinductor_root/6w/c6w7ysj4hzbjrc3ky2bllh4hizall6zebpysmidywv3kv2zvm2ex.py":50:4)
#loc33 = loc("/tmp/torchinductor_root/6w/c6w7ysj4hzbjrc3ky2bllh4hizall6zebpysmidywv3kv2zvm2ex.py":51:28)
#loc34 = loc("/tmp/torchinductor_root/6w/c6w7ysj4hzbjrc3ky2bllh4hizall6zebpysmidywv3kv2zvm2ex.py":51:40)
#loc35 = loc("/tmp/torchinductor_root/6w/c6w7ysj4hzbjrc3ky2bllh4hizall6zebpysmidywv3kv2zvm2ex.py":58:35)
#loc36 = loc("/tmp/torchinductor_root/6w/c6w7ysj4hzbjrc3ky2bllh4hizall6zebpysmidywv3kv2zvm2ex.py":58:42)
#loc37 = loc("/tmp/torchinductor_root/6w/c6w7ysj4hzbjrc3ky2bllh4hizall6zebpysmidywv3kv2zvm2ex.py":58:95)
#loc38 = loc("/tmp/torchinductor_root/6w/c6w7ysj4hzbjrc3ky2bllh4hizall6zebpysmidywv3kv2zvm2ex.py":59:56)
#loc39 = loc("/tmp/torchinductor_root/6w/c6w7ysj4hzbjrc3ky2bllh4hizall6zebpysmidywv3kv2zvm2ex.py":59:118)
#loc40 = loc("/tmp/torchinductor_root/6w/c6w7ysj4hzbjrc3ky2bllh4hizall6zebpysmidywv3kv2zvm2ex.py":61:24)
#loc41 = loc("/tmp/torchinductor_root/6w/c6w7ysj4hzbjrc3ky2bllh4hizall6zebpysmidywv3kv2zvm2ex.py":63:24)
#loc42 = loc("/tmp/torchinductor_root/6w/c6w7ysj4hzbjrc3ky2bllh4hizall6zebpysmidywv3kv2zvm2ex.py":64:29)
#loc43 = loc("/tmp/torchinductor_root/6w/c6w7ysj4hzbjrc3ky2bllh4hizall6zebpysmidywv3kv2zvm2ex.py":64:53)
#loc44 = loc("/tmp/torchinductor_root/6w/c6w7ysj4hzbjrc3ky2bllh4hizall6zebpysmidywv3kv2zvm2ex.py":52:4)
#loc45 = loc(callsite(#loc25 at #loc26))
#loc47 = loc(callsite(#loc27 at #loc25))
#loc48 = loc(callsite(#loc47 at #loc26))
