#loc = loc("./local_cache/xl/cxlrxrodwckhkjilnndnskbsphjhmrmsaul3vbslmse6b5ulvyvz.py":18:0)
module {
  tt.func public @triton_poi_fused_add_fill_mul_sigmoid_silu_sub_3(%arg0: !tt.ptr<f16> {tt.divisibility = 16 : i32} loc("./local_cache/xl/cxlrxrodwckhkjilnndnskbsphjhmrmsaul3vbslmse6b5ulvyvz.py":18:0), %arg1: !tt.ptr<f16> {tt.divisibility = 16 : i32} loc("./local_cache/xl/cxlrxrodwckhkjilnndnskbsphjhmrmsaul3vbslmse6b5ulvyvz.py":18:0), %arg2: !tt.ptr<f16> {tt.divisibility = 16 : i32} loc("./local_cache/xl/cxlrxrodwckhkjilnndnskbsphjhmrmsaul3vbslmse6b5ulvyvz.py":18:0), %arg3: !tt.ptr<f16> {tt.divisibility = 16 : i32} loc("./local_cache/xl/cxlrxrodwckhkjilnndnskbsphjhmrmsaul3vbslmse6b5ulvyvz.py":18:0), %arg4: i32 {tt.divisibility = 16 : i32} loc("./local_cache/xl/cxlrxrodwckhkjilnndnskbsphjhmrmsaul3vbslmse6b5ulvyvz.py":18:0)) attributes {noinline = false} {
    %cst = arith.constant dense<0.000000e+00> : tensor<1024xf32> loc(#loc1)
    %cst_0 = arith.constant dense<1.000000e+00> : tensor<1024xf32> loc(#loc1)
    %c1024_i32 = arith.constant 1024 : i32 loc(#loc1)
    %0 = tt.get_program_id x : i32 loc(#loc2)
    %1 = arith.muli %0, %c1024_i32 : i32 loc(#loc3)
    %2 = tt.make_range {end = 1024 : i32, start = 0 : i32} : tensor<1024xi32> loc(#loc4)
    %3 = tt.splat %1 : i32 -> tensor<1024xi32> loc(#loc5)
    %4 = arith.addi %3, %2 : tensor<1024xi32> loc(#loc5)
    %5 = tt.splat %arg4 : i32 -> tensor<1024xi32> loc(#loc6)
    %6 = arith.cmpi slt, %4, %5 : tensor<1024xi32> loc(#loc6)
    %7 = tt.splat %arg1 : !tt.ptr<f16> -> tensor<1024x!tt.ptr<f16>> loc(#loc7)
    %8 = tt.addptr %7, %4 : tensor<1024x!tt.ptr<f16>>, tensor<1024xi32> loc(#loc7)
    %9 = tt.load %8, %6 : tensor<1024x!tt.ptr<f16>> loc(#loc8)
    %10 = arith.extf %9 : tensor<1024xf16> to tensor<1024xf32> loc(#loc9)
    %11 = tt.splat %arg2 : !tt.ptr<f16> -> tensor<1024x!tt.ptr<f16>> loc(#loc10)
    %12 = tt.addptr %11, %4 : tensor<1024x!tt.ptr<f16>>, tensor<1024xi32> loc(#loc10)
    %13 = tt.load %12, %6 : tensor<1024x!tt.ptr<f16>> loc(#loc11)
    %14 = arith.extf %13 : tensor<1024xf16> to tensor<1024xf32> loc(#loc12)
    %15 = tt.splat %arg0 : !tt.ptr<f16> -> tensor<1024x!tt.ptr<f16>> loc(#loc13)
    %16 = tt.addptr %15, %4 : tensor<1024x!tt.ptr<f16>>, tensor<1024xi32> loc(#loc13)
    %17 = tt.load %16, %6 : tensor<1024x!tt.ptr<f16>> loc(#loc14)
    %18 = arith.extf %17 : tensor<1024xf16> to tensor<1024xf32> loc(#loc15)
    %19 = arith.subf %cst, %14 : tensor<1024xf32> loc(#loc33)
    %20 = math.exp %19 : tensor<1024xf32> loc(#loc34)
    %21 = arith.addf %20, %cst_0 : tensor<1024xf32> loc(#loc35)
    %22 = arith.divf %cst_0, %21 : tensor<1024xf32> loc(#loc36)
    %23 = arith.mulf %14, %22 : tensor<1024xf32> loc(#loc21)
    %24 = arith.mulf %10, %23 : tensor<1024xf32> loc(#loc22)
    %25 = arith.mulf %10, %18 : tensor<1024xf32> loc(#loc23)
    %26 = arith.subf %cst_0, %22 : tensor<1024xf32> loc(#loc24)
    %27 = arith.mulf %14, %26 : tensor<1024xf32> loc(#loc25)
    %28 = arith.addf %27, %cst_0 : tensor<1024xf32> loc(#loc26)
    %29 = arith.mulf %22, %28 : tensor<1024xf32> loc(#loc27)
    %30 = arith.mulf %25, %29 : tensor<1024xf32> loc(#loc28)
    %31 = tt.splat %arg3 : !tt.ptr<f16> -> tensor<1024x!tt.ptr<f16>> loc(#loc29)
    %32 = tt.addptr %31, %4 : tensor<1024x!tt.ptr<f16>>, tensor<1024xi32> loc(#loc29)
    %33 = arith.truncf %24 : tensor<1024xf32> to tensor<1024xf16> loc(#loc30)
    tt.store %32, %33, %6 : tensor<1024x!tt.ptr<f16>> loc(#loc30)
    %34 = arith.truncf %30 : tensor<1024xf32> to tensor<1024xf16> loc(#loc31)
    tt.store %16, %34, %6 : tensor<1024x!tt.ptr<f16>> loc(#loc31)
    tt.return loc(#loc32)
  } loc(#loc)
} loc(#loc)
#loc1 = loc(unknown)
#loc2 = loc("./local_cache/xl/cxlrxrodwckhkjilnndnskbsphjhmrmsaul3vbslmse6b5ulvyvz.py":19:28)
#loc3 = loc("./local_cache/xl/cxlrxrodwckhkjilnndnskbsphjhmrmsaul3vbslmse6b5ulvyvz.py":19:33)
#loc4 = loc("./local_cache/xl/cxlrxrodwckhkjilnndnskbsphjhmrmsaul3vbslmse6b5ulvyvz.py":20:36)
#loc5 = loc("./local_cache/xl/cxlrxrodwckhkjilnndnskbsphjhmrmsaul3vbslmse6b5ulvyvz.py":20:23)
#loc6 = loc("./local_cache/xl/cxlrxrodwckhkjilnndnskbsphjhmrmsaul3vbslmse6b5ulvyvz.py":21:21)
#loc7 = loc("./local_cache/xl/cxlrxrodwckhkjilnndnskbsphjhmrmsaul3vbslmse6b5ulvyvz.py":23:30)
#loc8 = loc("./local_cache/xl/cxlrxrodwckhkjilnndnskbsphjhmrmsaul3vbslmse6b5ulvyvz.py":23:35)
#loc9 = loc("./local_cache/xl/cxlrxrodwckhkjilnndnskbsphjhmrmsaul3vbslmse6b5ulvyvz.py":23:45)
#loc10 = loc("./local_cache/xl/cxlrxrodwckhkjilnndnskbsphjhmrmsaul3vbslmse6b5ulvyvz.py":24:30)
#loc11 = loc("./local_cache/xl/cxlrxrodwckhkjilnndnskbsphjhmrmsaul3vbslmse6b5ulvyvz.py":24:35)
#loc12 = loc("./local_cache/xl/cxlrxrodwckhkjilnndnskbsphjhmrmsaul3vbslmse6b5ulvyvz.py":24:45)
#loc13 = loc("./local_cache/xl/cxlrxrodwckhkjilnndnskbsphjhmrmsaul3vbslmse6b5ulvyvz.py":25:34)
#loc14 = loc("./local_cache/xl/cxlrxrodwckhkjilnndnskbsphjhmrmsaul3vbslmse6b5ulvyvz.py":25:39)
#loc15 = loc("./local_cache/xl/cxlrxrodwckhkjilnndnskbsphjhmrmsaul3vbslmse6b5ulvyvz.py":25:49)
#loc16 = loc("/workspace/torch-compile-caching/.venv/lib/python3.11/site-packages/triton/language/standard.py":47:30)
#loc17 = loc("./local_cache/xl/cxlrxrodwckhkjilnndnskbsphjhmrmsaul3vbslmse6b5ulvyvz.py":27:22)
#loc18 = loc("/workspace/torch-compile-caching/.venv/lib/python3.11/site-packages/triton/language/standard.py":47:29)
#loc19 = loc("/workspace/torch-compile-caching/.venv/lib/python3.11/site-packages/triton/language/standard.py":47:20)
#loc20 = loc("/workspace/torch-compile-caching/.venv/lib/python3.11/site-packages/triton/language/standard.py":47:16)
#loc21 = loc("./local_cache/xl/cxlrxrodwckhkjilnndnskbsphjhmrmsaul3vbslmse6b5ulvyvz.py":28:18)
#loc22 = loc("./local_cache/xl/cxlrxrodwckhkjilnndnskbsphjhmrmsaul3vbslmse6b5ulvyvz.py":30:18)
#loc23 = loc("./local_cache/xl/cxlrxrodwckhkjilnndnskbsphjhmrmsaul3vbslmse6b5ulvyvz.py":31:18)
#loc24 = loc("./local_cache/xl/cxlrxrodwckhkjilnndnskbsphjhmrmsaul3vbslmse6b5ulvyvz.py":34:20)
#loc25 = loc("./local_cache/xl/cxlrxrodwckhkjilnndnskbsphjhmrmsaul3vbslmse6b5ulvyvz.py":35:19)
#loc26 = loc("./local_cache/xl/cxlrxrodwckhkjilnndnskbsphjhmrmsaul3vbslmse6b5ulvyvz.py":36:20)
#loc27 = loc("./local_cache/xl/cxlrxrodwckhkjilnndnskbsphjhmrmsaul3vbslmse6b5ulvyvz.py":37:19)
#loc28 = loc("./local_cache/xl/cxlrxrodwckhkjilnndnskbsphjhmrmsaul3vbslmse6b5ulvyvz.py":38:19)
#loc29 = loc("./local_cache/xl/cxlrxrodwckhkjilnndnskbsphjhmrmsaul3vbslmse6b5ulvyvz.py":39:25)
#loc30 = loc("./local_cache/xl/cxlrxrodwckhkjilnndnskbsphjhmrmsaul3vbslmse6b5ulvyvz.py":39:36)
#loc31 = loc("./local_cache/xl/cxlrxrodwckhkjilnndnskbsphjhmrmsaul3vbslmse6b5ulvyvz.py":40:40)
#loc32 = loc("./local_cache/xl/cxlrxrodwckhkjilnndnskbsphjhmrmsaul3vbslmse6b5ulvyvz.py":40:4)
#loc33 = loc(callsite(#loc16 at #loc17))
#loc34 = loc(callsite(#loc18 at #loc17))
#loc35 = loc(callsite(#loc19 at #loc17))
#loc36 = loc(callsite(#loc20 at #loc17))
