#loc = loc("./local_cache/us/cusn5r4ftncl7gqsiixg3hw3ojcfuvaqdhezlxblwecnlckjkjne.py":18:0)
#loc1 = loc(unknown)
#loc35 = loc("./local_cache/us/cusn5r4ftncl7gqsiixg3hw3ojcfuvaqdhezlxblwecnlckjkjne.py":48:27)
#loc64 = loc(callsite(#loc1 at #loc35))
module {
  tt.func public @triton_red_fused__to_copy_add_embedding_mean_mul_pow_rsqrt_0(%arg0: !tt.ptr<f32> {tt.divisibility = 16 : i32} loc("./local_cache/us/cusn5r4ftncl7gqsiixg3hw3ojcfuvaqdhezlxblwecnlckjkjne.py":18:0), %arg1: !tt.ptr<i64> {tt.divisibility = 16 : i32} loc("./local_cache/us/cusn5r4ftncl7gqsiixg3hw3ojcfuvaqdhezlxblwecnlckjkjne.py":18:0), %arg2: !tt.ptr<f16> {tt.divisibility = 16 : i32} loc("./local_cache/us/cusn5r4ftncl7gqsiixg3hw3ojcfuvaqdhezlxblwecnlckjkjne.py":18:0), %arg3: !tt.ptr<f16> {tt.divisibility = 16 : i32} loc("./local_cache/us/cusn5r4ftncl7gqsiixg3hw3ojcfuvaqdhezlxblwecnlckjkjne.py":18:0), %arg4: !tt.ptr<f16> {tt.divisibility = 16 : i32} loc("./local_cache/us/cusn5r4ftncl7gqsiixg3hw3ojcfuvaqdhezlxblwecnlckjkjne.py":18:0), %arg5: !tt.ptr<f16> {tt.divisibility = 16 : i32} loc("./local_cache/us/cusn5r4ftncl7gqsiixg3hw3ojcfuvaqdhezlxblwecnlckjkjne.py":18:0), %arg6: i32 loc("./local_cache/us/cusn5r4ftncl7gqsiixg3hw3ojcfuvaqdhezlxblwecnlckjkjne.py":18:0), %arg7: i32 {tt.divisibility = 16 : i32} loc("./local_cache/us/cusn5r4ftncl7gqsiixg3hw3ojcfuvaqdhezlxblwecnlckjkjne.py":18:0)) attributes {noinline = false} {
    %cst = arith.constant dense<4096> : tensor<1x1xi64> loc(#loc1)
    %true = arith.constant true loc(#loc1)
    %cst_0 = arith.constant dense<128256> : tensor<1x1xi64> loc(#loc1)
    %cst_1 = arith.constant dense<0.000000e+00> : tensor<1x2048xf16> loc(#loc1)
    %cst_2 = arith.constant dense<0> : tensor<1x1xi64> loc(#loc1)
    %c2048_i32 = arith.constant 2048 : i32 loc(#loc1)
    %c4096_i32 = arith.constant 4096 : i32 loc(#loc1)
    %c0_i32 = arith.constant 0 : i32 loc(#loc1)
    %cst_3 = arith.constant dense<9.99999974E-6> : tensor<1x1xf32> loc(#loc1)
    %cst_4 = arith.constant dense<4.096000e+03> : tensor<1x1xf32> loc(#loc1)
    %cst_5 = arith.constant dense<4096> : tensor<1x2048xi32> loc(#loc1)
    %cst_6 = arith.constant dense<0.000000e+00> : tensor<1x2048xf32> loc(#loc1)
    %0 = tt.get_program_id x : i32 loc(#loc2)
    %1 = arith.cmpi slt, %0, %arg6 : i32 loc(#loc3)
    %2 = tt.splat %1 : i1 -> tensor<1x1xi1> loc(#loc3)
    %3 = tt.make_range {end = 2048 : i32, start = 0 : i32} : tensor<2048xi32> loc(#loc4)
    %4 = tt.expand_dims %3 {axis = 0 : i32} : tensor<2048xi32> -> tensor<1x2048xi32> loc(#loc5)
    %5 = tt.addptr %arg1, %0 : !tt.ptr<i64>, i32 loc(#loc6)
    %6 = tt.splat %5 : !tt.ptr<i64> -> tensor<1x1x!tt.ptr<i64>> loc(#loc6)
    %7 = tt.load %6, %2 evictionPolicy = evict_last : tensor<1x1x!tt.ptr<i64>> loc(#loc7)
    %8 = scf.for %arg8 = %c0_i32 to %c4096_i32 step %c2048_i32 iter_args(%arg9 = %cst_6) -> (tensor<1x2048xf32>)  : i32 {
      %16 = tt.splat %arg8 : i32 -> tensor<1x2048xi32> loc(#loc9)
      %17 = arith.addi %16, %4 : tensor<1x2048xi32> loc(#loc9)
      %18 = arith.cmpi slt, %17, %cst_5 : tensor<1x2048xi32> loc(#loc10)
      %19 = arith.addi %7, %cst_0 : tensor<1x1xi64> loc(#loc11)
      %20 = arith.cmpi slt, %7, %cst_2 : tensor<1x1xi64> loc(#loc12)
      %21 = arith.select %20, %19, %7 : tensor<1x1xi1>, tensor<1x1xi64> loc(#loc13)
      %22 = arith.cmpi sge, %21, %cst_2 : tensor<1x1xi64> loc(#loc14)
      %23 = arith.cmpi slt, %21, %cst_0 : tensor<1x1xi64> loc(#loc15)
      %24 = arith.andi %22, %23 : tensor<1x1xi1> loc(#loc16)
      %25 = arith.xori %1, %true : i1 loc(#loc17)
      %26 = tt.splat %25 : i1 -> tensor<1x1xi1> loc(#loc17)
      %27 = arith.ori %24, %26 : tensor<1x1xi1> loc(#loc18)
      %28 = tt.broadcast %27 : tensor<1x1xi1> -> tensor<1x2048xi1> loc(#loc18)
      tt.assert %28, "index out of bounds: 0 <= tmp4 < 128256" : tensor<1x2048xi1> loc(#loc19)
      %29 = arith.muli %21, %cst : tensor<1x1xi64> loc(#loc20)
      %30 = tt.broadcast %29 : tensor<1x1xi64> -> tensor<1x2048xi64> loc(#loc20)
      %31 = arith.extsi %17 : tensor<1x2048xi32> to tensor<1x2048xi64> loc(#loc21)
      %32 = arith.addi %31, %30 : tensor<1x2048xi64> loc(#loc21)
      %33 = tt.splat %arg2 : !tt.ptr<f16> -> tensor<1x2048x!tt.ptr<f16>> loc(#loc22)
      %34 = tt.addptr %33, %32 : tensor<1x2048x!tt.ptr<f16>>, tensor<1x2048xi64> loc(#loc22)
      %35 = tt.splat %1 : i1 -> tensor<1x2048xi1> loc(#loc61)
      %36 = arith.andi %18, %35 : tensor<1x2048xi1> loc(#loc23)
      %37 = tt.load %34, %36, %cst_1 evictionPolicy = evict_first : tensor<1x2048x!tt.ptr<f16>> loc(#loc24)
      %38 = arith.extf %37 : tensor<1x2048xf16> to tensor<1x2048xf32> loc(#loc25)
      %39 = arith.mulf %38, %38 : tensor<1x2048xf32> loc(#loc26)
      %40 = arith.addf %arg9, %39 : tensor<1x2048xf32> loc(#loc27)
      %41 = arith.select %36, %40, %arg9 : tensor<1x2048xi1>, tensor<1x2048xf32> loc(#loc28)
      %42 = arith.muli %0, %c4096_i32 : i32 loc(#loc29)
      %43 = tt.splat %42 : i32 -> tensor<1x2048xi32> loc(#loc62)
      %44 = arith.addi %17, %43 : tensor<1x2048xi32> loc(#loc30)
      %45 = tt.splat %arg4 : !tt.ptr<f16> -> tensor<1x2048x!tt.ptr<f16>> loc(#loc31)
      %46 = tt.addptr %45, %44 : tensor<1x2048x!tt.ptr<f16>>, tensor<1x2048xi32> loc(#loc31)
      %47 = arith.truncf %38 : tensor<1x2048xf32> to tensor<1x2048xf16> loc(#loc32)
      tt.store %46, %47, %36 : tensor<1x2048x!tt.ptr<f16>> loc(#loc32)
      scf.yield %41 : tensor<1x2048xf32> loc(#loc33)
    } loc(#loc8)
    %9 = "tt.reduce"(%8) <{axis = 1 : i32}> ({
    ^bb0(%arg8: f32 loc(callsite(#loc1 at #loc35)), %arg9: f32 loc(callsite(#loc1 at #loc35))):
      %16 = arith.addf %arg8, %arg9 : f32 loc(#loc68)
      tt.reduce.return %16 : f32 loc(#loc63)
    }) : (tensor<1x2048xf32>) -> tensor<1xf32> loc(#loc63)
    %10 = tt.expand_dims %9 {axis = 1 : i32} : tensor<1xf32> -> tensor<1x1xf32> loc(#loc37)
    %11 = arith.divf %10, %cst_4 : tensor<1x1xf32> loc(#loc38)
    %12 = arith.addf %11, %cst_3 : tensor<1x1xf32> loc(#loc39)
    %13 = tt.extern_elementwise %12 {libname = "", libpath = "", pure = true, symbol = "__nv_rsqrtf"} : (tensor<1x1xf32>) -> tensor<1x1xf32> loc(#loc40)
    gpu.barrier loc(#loc41)
    %14 = tt.addptr %arg0, %0 : !tt.ptr<f32>, i32 loc(#loc42)
    %15 = tt.splat %14 : !tt.ptr<f32> -> tensor<1x1x!tt.ptr<f32>> loc(#loc42)
    tt.store %15, %13, %2 : tensor<1x1x!tt.ptr<f32>> loc(#loc43)
    scf.for %arg8 = %c0_i32 to %c4096_i32 step %c2048_i32  : i32 {
      %16 = tt.splat %arg8 : i32 -> tensor<1x2048xi32> loc(#loc45)
      %17 = arith.addi %16, %4 : tensor<1x2048xi32> loc(#loc45)
      %18 = arith.cmpi slt, %17, %cst_5 : tensor<1x2048xi32> loc(#loc46)
      %19 = tt.splat %arg3 : !tt.ptr<f16> -> tensor<1x2048x!tt.ptr<f16>> loc(#loc47)
      %20 = tt.addptr %19, %17 : tensor<1x2048x!tt.ptr<f16>>, tensor<1x2048xi32> loc(#loc47)
      %21 = tt.load %20, %18, %cst_1 evictionPolicy = evict_last : tensor<1x2048x!tt.ptr<f16>> loc(#loc48)
      %22 = arith.extf %21 : tensor<1x2048xf16> to tensor<1x2048xf32> loc(#loc49)
      %23 = arith.muli %0, %c4096_i32 : i32 loc(#loc50)
      %24 = tt.splat %23 : i32 -> tensor<1x2048xi32> loc(#loc66)
      %25 = arith.addi %17, %24 : tensor<1x2048xi32> loc(#loc51)
      %26 = tt.splat %arg4 : !tt.ptr<f16> -> tensor<1x2048x!tt.ptr<f16>> loc(#loc52)
      %27 = tt.addptr %26, %25 : tensor<1x2048x!tt.ptr<f16>>, tensor<1x2048xi32> loc(#loc52)
      %28 = tt.splat %1 : i1 -> tensor<1x2048xi1> loc(#loc67)
      %29 = arith.andi %18, %28 : tensor<1x2048xi1> loc(#loc53)
      %30 = tt.load %27, %29, %cst_1 evictionPolicy = evict_first : tensor<1x2048x!tt.ptr<f16>> loc(#loc54)
      %31 = arith.extf %30 : tensor<1x2048xf16> to tensor<1x2048xf32> loc(#loc55)
      %32 = tt.broadcast %13 : tensor<1x1xf32> -> tensor<1x2048xf32> loc(#loc56)
      %33 = arith.mulf %31, %32 : tensor<1x2048xf32> loc(#loc56)
      %34 = arith.mulf %22, %33 : tensor<1x2048xf32> loc(#loc57)
      %35 = tt.splat %arg5 : !tt.ptr<f16> -> tensor<1x2048x!tt.ptr<f16>> loc(#loc58)
      %36 = tt.addptr %35, %25 : tensor<1x2048x!tt.ptr<f16>>, tensor<1x2048xi32> loc(#loc58)
      %37 = arith.truncf %34 : tensor<1x2048xf32> to tensor<1x2048xf16> loc(#loc59)
      tt.store %36, %37, %29 : tensor<1x2048x!tt.ptr<f16>> loc(#loc59)
    } loc(#loc44)
    tt.return loc(#loc60)
  } loc(#loc)
} loc(#loc)
#loc2 = loc("./local_cache/us/cusn5r4ftncl7gqsiixg3hw3ojcfuvaqdhezlxblwecnlckjkjne.py":22:28)
#loc3 = loc("./local_cache/us/cusn5r4ftncl7gqsiixg3hw3ojcfuvaqdhezlxblwecnlckjkjne.py":24:21)
#loc4 = loc("./local_cache/us/cusn5r4ftncl7gqsiixg3hw3ojcfuvaqdhezlxblwecnlckjkjne.py":25:27)
#loc5 = loc("./local_cache/us/cusn5r4ftncl7gqsiixg3hw3ojcfuvaqdhezlxblwecnlckjkjne.py":25:37)
#loc6 = loc("./local_cache/us/cusn5r4ftncl7gqsiixg3hw3ojcfuvaqdhezlxblwecnlckjkjne.py":28:30)
#loc7 = loc("./local_cache/us/cusn5r4ftncl7gqsiixg3hw3ojcfuvaqdhezlxblwecnlckjkjne.py":28:35)
#loc8 = loc("./local_cache/us/cusn5r4ftncl7gqsiixg3hw3ojcfuvaqdhezlxblwecnlckjkjne.py":30:40)
#loc9 = loc("./local_cache/us/cusn5r4ftncl7gqsiixg3hw3ojcfuvaqdhezlxblwecnlckjkjne.py":31:31)
#loc10 = loc("./local_cache/us/cusn5r4ftncl7gqsiixg3hw3ojcfuvaqdhezlxblwecnlckjkjne.py":32:29)
#loc11 = loc("./local_cache/us/cusn5r4ftncl7gqsiixg3hw3ojcfuvaqdhezlxblwecnlckjkjne.py":37:22)
#loc12 = loc("./local_cache/us/cusn5r4ftncl7gqsiixg3hw3ojcfuvaqdhezlxblwecnlckjkjne.py":38:22)
#loc13 = loc("./local_cache/us/cusn5r4ftncl7gqsiixg3hw3ojcfuvaqdhezlxblwecnlckjkjne.py":39:36)
#loc14 = loc("./local_cache/us/cusn5r4ftncl7gqsiixg3hw3ojcfuvaqdhezlxblwecnlckjkjne.py":40:32)
#loc15 = loc("./local_cache/us/cusn5r4ftncl7gqsiixg3hw3ojcfuvaqdhezlxblwecnlckjkjne.py":40:48)
#loc16 = loc("./local_cache/us/cusn5r4ftncl7gqsiixg3hw3ojcfuvaqdhezlxblwecnlckjkjne.py":40:41)
#loc17 = loc("./local_cache/us/cusn5r4ftncl7gqsiixg3hw3ojcfuvaqdhezlxblwecnlckjkjne.py":40:61)
#loc18 = loc("./local_cache/us/cusn5r4ftncl7gqsiixg3hw3ojcfuvaqdhezlxblwecnlckjkjne.py":40:59)
#loc19 = loc("./local_cache/us/cusn5r4ftncl7gqsiixg3hw3ojcfuvaqdhezlxblwecnlckjkjne.py":40:69)
#loc20 = loc("./local_cache/us/cusn5r4ftncl7gqsiixg3hw3ojcfuvaqdhezlxblwecnlckjkjne.py":41:46)
#loc21 = loc("./local_cache/us/cusn5r4ftncl7gqsiixg3hw3ojcfuvaqdhezlxblwecnlckjkjne.py":41:41)
#loc22 = loc("./local_cache/us/cusn5r4ftncl7gqsiixg3hw3ojcfuvaqdhezlxblwecnlckjkjne.py":41:34)
#loc23 = loc("./local_cache/us/cusn5r4ftncl7gqsiixg3hw3ojcfuvaqdhezlxblwecnlckjkjne.py":41:63)
#loc24 = loc("./local_cache/us/cusn5r4ftncl7gqsiixg3hw3ojcfuvaqdhezlxblwecnlckjkjne.py":41:53)
#loc25 = loc("./local_cache/us/cusn5r4ftncl7gqsiixg3hw3ojcfuvaqdhezlxblwecnlckjkjne.py":41:115)
#loc26 = loc("./local_cache/us/cusn5r4ftncl7gqsiixg3hw3ojcfuvaqdhezlxblwecnlckjkjne.py":43:22)
#loc27 = loc("./local_cache/us/cusn5r4ftncl7gqsiixg3hw3ojcfuvaqdhezlxblwecnlckjkjne.py":45:25)
#loc28 = loc("./local_cache/us/cusn5r4ftncl7gqsiixg3hw3ojcfuvaqdhezlxblwecnlckjkjne.py":46:50)
#loc29 = loc("./local_cache/us/cusn5r4ftncl7gqsiixg3hw3ojcfuvaqdhezlxblwecnlckjkjne.py":47:41)
#loc30 = loc("./local_cache/us/cusn5r4ftncl7gqsiixg3hw3ojcfuvaqdhezlxblwecnlckjkjne.py":47:36)
#loc31 = loc("./local_cache/us/cusn5r4ftncl7gqsiixg3hw3ojcfuvaqdhezlxblwecnlckjkjne.py":47:29)
#loc32 = loc("./local_cache/us/cusn5r4ftncl7gqsiixg3hw3ojcfuvaqdhezlxblwecnlckjkjne.py":47:52)
#loc33 = loc("./local_cache/us/cusn5r4ftncl7gqsiixg3hw3ojcfuvaqdhezlxblwecnlckjkjne.py":47:8)
#loc34 = loc("/workspace/torch-compile-caching/.venv/lib/python3.11/site-packages/triton/language/standard.py":286:36)
#loc36 = loc("/workspace/torch-compile-caching/.venv/lib/python3.11/site-packages/triton/language/standard.py":256:15)
#loc37 = loc("./local_cache/us/cusn5r4ftncl7gqsiixg3hw3ojcfuvaqdhezlxblwecnlckjkjne.py":48:30)
#loc38 = loc("./local_cache/us/cusn5r4ftncl7gqsiixg3hw3ojcfuvaqdhezlxblwecnlckjkjne.py":50:21)
#loc39 = loc("./local_cache/us/cusn5r4ftncl7gqsiixg3hw3ojcfuvaqdhezlxblwecnlckjkjne.py":52:20)
#loc40 = loc("./local_cache/us/cusn5r4ftncl7gqsiixg3hw3ojcfuvaqdhezlxblwecnlckjkjne.py":53:28)
#loc41 = loc("./local_cache/us/cusn5r4ftncl7gqsiixg3hw3ojcfuvaqdhezlxblwecnlckjkjne.py":54:4)
#loc42 = loc("./local_cache/us/cusn5r4ftncl7gqsiixg3hw3ojcfuvaqdhezlxblwecnlckjkjne.py":55:28)
#loc43 = loc("./local_cache/us/cusn5r4ftncl7gqsiixg3hw3ojcfuvaqdhezlxblwecnlckjkjne.py":55:40)
#loc44 = loc("./local_cache/us/cusn5r4ftncl7gqsiixg3hw3ojcfuvaqdhezlxblwecnlckjkjne.py":56:40)
#loc45 = loc("./local_cache/us/cusn5r4ftncl7gqsiixg3hw3ojcfuvaqdhezlxblwecnlckjkjne.py":57:31)
#loc46 = loc("./local_cache/us/cusn5r4ftncl7gqsiixg3hw3ojcfuvaqdhezlxblwecnlckjkjne.py":58:29)
#loc47 = loc("./local_cache/us/cusn5r4ftncl7gqsiixg3hw3ojcfuvaqdhezlxblwecnlckjkjne.py":62:35)
#loc48 = loc("./local_cache/us/cusn5r4ftncl7gqsiixg3hw3ojcfuvaqdhezlxblwecnlckjkjne.py":62:42)
#loc49 = loc("./local_cache/us/cusn5r4ftncl7gqsiixg3hw3ojcfuvaqdhezlxblwecnlckjkjne.py":62:95)
#loc50 = loc("./local_cache/us/cusn5r4ftncl7gqsiixg3hw3ojcfuvaqdhezlxblwecnlckjkjne.py":63:48)
#loc51 = loc("./local_cache/us/cusn5r4ftncl7gqsiixg3hw3ojcfuvaqdhezlxblwecnlckjkjne.py":63:43)
#loc52 = loc("./local_cache/us/cusn5r4ftncl7gqsiixg3hw3ojcfuvaqdhezlxblwecnlckjkjne.py":63:36)
#loc53 = loc("./local_cache/us/cusn5r4ftncl7gqsiixg3hw3ojcfuvaqdhezlxblwecnlckjkjne.py":63:63)
#loc54 = loc("./local_cache/us/cusn5r4ftncl7gqsiixg3hw3ojcfuvaqdhezlxblwecnlckjkjne.py":63:53)
#loc55 = loc("./local_cache/us/cusn5r4ftncl7gqsiixg3hw3ojcfuvaqdhezlxblwecnlckjkjne.py":63:115)
#loc56 = loc("./local_cache/us/cusn5r4ftncl7gqsiixg3hw3ojcfuvaqdhezlxblwecnlckjkjne.py":65:24)
#loc57 = loc("./local_cache/us/cusn5r4ftncl7gqsiixg3hw3ojcfuvaqdhezlxblwecnlckjkjne.py":67:24)
#loc58 = loc("./local_cache/us/cusn5r4ftncl7gqsiixg3hw3ojcfuvaqdhezlxblwecnlckjkjne.py":68:29)
#loc59 = loc("./local_cache/us/cusn5r4ftncl7gqsiixg3hw3ojcfuvaqdhezlxblwecnlckjkjne.py":68:53)
#loc60 = loc("./local_cache/us/cusn5r4ftncl7gqsiixg3hw3ojcfuvaqdhezlxblwecnlckjkjne.py":56:4)
#loc61 = loc(fused[#loc23, #loc3])
#loc62 = loc(fused[#loc30, #loc29])
#loc63 = loc(callsite(#loc34 at #loc35))
#loc65 = loc(callsite(#loc36 at #loc34))
#loc66 = loc(fused[#loc51, #loc50])
#loc67 = loc(fused[#loc53, #loc3])
#loc68 = loc(callsite(#loc65 at #loc35))
