#loc = loc("/tmp/torchinductor_root/ft/cftrsow5qcbxopniidi22t6ajsrwmzbq4o64dytrbucrl2gj2i5m.py":18:0)
#loc1 = loc(unknown)
#loc25 = loc("/tmp/torchinductor_root/ft/cftrsow5qcbxopniidi22t6ajsrwmzbq4o64dytrbucrl2gj2i5m.py":43:25)
#loc48 = loc(callsite(#loc1 at #loc25))
module {
  tt.func public @triton_red_fused__to_copy_add_mean_mul_pow_rsqrt_6(%arg0: !tt.ptr<f32> {tt.divisibility = 16 : i32} loc("/tmp/torchinductor_root/ft/cftrsow5qcbxopniidi22t6ajsrwmzbq4o64dytrbucrl2gj2i5m.py":18:0), %arg1: !tt.ptr<f16> {tt.divisibility = 16 : i32} loc("/tmp/torchinductor_root/ft/cftrsow5qcbxopniidi22t6ajsrwmzbq4o64dytrbucrl2gj2i5m.py":18:0), %arg2: !tt.ptr<f16> {tt.divisibility = 16 : i32} loc("/tmp/torchinductor_root/ft/cftrsow5qcbxopniidi22t6ajsrwmzbq4o64dytrbucrl2gj2i5m.py":18:0), %arg3: !tt.ptr<f16> {tt.divisibility = 16 : i32} loc("/tmp/torchinductor_root/ft/cftrsow5qcbxopniidi22t6ajsrwmzbq4o64dytrbucrl2gj2i5m.py":18:0), %arg4: !tt.ptr<f16> {tt.divisibility = 16 : i32} loc("/tmp/torchinductor_root/ft/cftrsow5qcbxopniidi22t6ajsrwmzbq4o64dytrbucrl2gj2i5m.py":18:0), %arg5: i32 loc("/tmp/torchinductor_root/ft/cftrsow5qcbxopniidi22t6ajsrwmzbq4o64dytrbucrl2gj2i5m.py":18:0), %arg6: i32 {tt.divisibility = 16 : i32} loc("/tmp/torchinductor_root/ft/cftrsow5qcbxopniidi22t6ajsrwmzbq4o64dytrbucrl2gj2i5m.py":18:0)) attributes {noinline = false} {
    %cst = arith.constant dense<0.000000e+00> : tensor<1x4096xf16> loc(#loc1)
    %cst_0 = arith.constant dense<0.000000e+00> : tensor<2x4096xf16> loc(#loc1)
    %cst_1 = arith.constant dense<9.99999974E-6> : tensor<2x1xf32> loc(#loc1)
    %cst_2 = arith.constant dense<4.096000e+03> : tensor<2x1xf32> loc(#loc1)
    %cst_3 = arith.constant dense<4096> : tensor<2x1xi32> loc(#loc1)
    %cst_4 = arith.constant dense<4096> : tensor<1x4096xi32> loc(#loc1)
    %cst_5 = arith.constant dense<0.000000e+00> : tensor<2x4096xf32> loc(#loc1)
    %c2_i32 = arith.constant 2 : i32 loc(#loc1)
    %0 = tt.get_program_id x : i32 loc(#loc2)
    %1 = arith.muli %0, %c2_i32 : i32 loc(#loc3)
    %2 = tt.make_range {end = 2 : i32, start = 0 : i32} : tensor<2xi32> loc(#loc4)
    %3 = tt.expand_dims %2 {axis = 1 : i32} : tensor<2xi32> -> tensor<2x1xi32> loc(#loc5)
    %4 = tt.splat %1 : i32 -> tensor<2x1xi32> loc(#loc6)
    %5 = arith.addi %4, %3 : tensor<2x1xi32> loc(#loc6)
    %6 = tt.splat %arg5 : i32 -> tensor<2x1xi32> loc(#loc7)
    %7 = arith.cmpi slt, %5, %6 : tensor<2x1xi32> loc(#loc7)
    %8 = tt.make_range {end = 4096 : i32, start = 0 : i32} : tensor<4096xi32> loc(#loc8)
    %9 = tt.expand_dims %8 {axis = 0 : i32} : tensor<4096xi32> -> tensor<1x4096xi32> loc(#loc9)
    %10 = arith.cmpi slt, %9, %cst_4 : tensor<1x4096xi32> loc(#loc10)
    %11 = arith.muli %5, %cst_3 : tensor<2x1xi32> loc(#loc11)
    %12 = tt.broadcast %9 : tensor<1x4096xi32> -> tensor<2x4096xi32> loc(#loc12)
    %13 = tt.broadcast %11 : tensor<2x1xi32> -> tensor<2x4096xi32> loc(#loc12)
    %14 = arith.addi %12, %13 : tensor<2x4096xi32> loc(#loc12)
    %15 = tt.splat %arg1 : !tt.ptr<f16> -> tensor<2x4096x!tt.ptr<f16>> loc(#loc13)
    %16 = tt.addptr %15, %14 : tensor<2x4096x!tt.ptr<f16>>, tensor<2x4096xi32> loc(#loc13)
    %17 = tt.broadcast %7 : tensor<2x1xi1> -> tensor<2x4096xi1> loc(#loc14)
    %18 = tt.broadcast %10 : tensor<1x4096xi1> -> tensor<2x4096xi1> loc(#loc14)
    %19 = arith.andi %17, %18 : tensor<2x4096xi1> loc(#loc14)
    %20 = tt.load %16, %19, %cst_0 evictionPolicy = evict_last : tensor<2x4096x!tt.ptr<f16>> loc(#loc15)
    %21 = arith.extf %20 : tensor<2x4096xf16> to tensor<2x4096xf32> loc(#loc16)
    %22 = tt.splat %arg2 : !tt.ptr<f16> -> tensor<2x4096x!tt.ptr<f16>> loc(#loc17)
    %23 = tt.addptr %22, %14 : tensor<2x4096x!tt.ptr<f16>>, tensor<2x4096xi32> loc(#loc17)
    %24 = tt.load %23, %19, %cst_0 evictionPolicy = evict_last : tensor<2x4096x!tt.ptr<f16>> loc(#loc18)
    %25 = arith.extf %24 : tensor<2x4096xf16> to tensor<2x4096xf32> loc(#loc19)
    %26 = arith.addf %21, %25 : tensor<2x4096xf32> loc(#loc20)
    %27 = arith.mulf %26, %26 : tensor<2x4096xf32> loc(#loc21)
    %28 = arith.addf %27, %cst_5 : tensor<2x4096xf32> loc(#loc22)
    %29 = arith.select %19, %28, %cst_5 : tensor<2x4096xi1>, tensor<2x4096xf32> loc(#loc23)
    %30 = "tt.reduce"(%29) <{axis = 1 : i32}> ({
    ^bb0(%arg7: f32 loc(callsite(#loc1 at #loc25)), %arg8: f32 loc(callsite(#loc1 at #loc25))):
      %53 = arith.addf %arg7, %arg8 : f32 loc(#loc50)
      tt.reduce.return %53 : f32 loc(#loc47)
    }) : (tensor<2x4096xf32>) -> tensor<2xf32> loc(#loc47)
    %31 = tt.expand_dims %30 {axis = 1 : i32} : tensor<2xf32> -> tensor<2x1xf32> loc(#loc27)
    %32 = arith.divf %31, %cst_2 : tensor<2x1xf32> loc(#loc28)
    %33 = arith.addf %32, %cst_1 : tensor<2x1xf32> loc(#loc29)
    %34 = tt.extern_elementwise %33 {libname = "", libpath = "", pure = true, symbol = "__nv_rsqrtf"} : (tensor<2x1xf32>) -> tensor<2x1xf32> loc(#loc30)
    gpu.barrier loc(#loc31)
    %35 = tt.splat %arg0 : !tt.ptr<f32> -> tensor<2x1x!tt.ptr<f32>> loc(#loc32)
    %36 = tt.addptr %35, %5 : tensor<2x1x!tt.ptr<f32>>, tensor<2x1xi32> loc(#loc32)
    tt.store %36, %34, %7 : tensor<2x1x!tt.ptr<f32>> loc(#loc33)
    %37 = tt.splat %arg3 : !tt.ptr<f16> -> tensor<1x4096x!tt.ptr<f16>> loc(#loc34)
    %38 = tt.addptr %37, %9 : tensor<1x4096x!tt.ptr<f16>>, tensor<1x4096xi32> loc(#loc34)
    %39 = tt.load %38, %10, %cst evictionPolicy = evict_last : tensor<1x4096x!tt.ptr<f16>> loc(#loc35)
    %40 = arith.extf %39 : tensor<1x4096xf16> to tensor<1x4096xf32> loc(#loc36)
    %41 = tt.load %16, %19, %cst_0 evictionPolicy = evict_first : tensor<2x4096x!tt.ptr<f16>> loc(#loc37)
    %42 = arith.extf %41 : tensor<2x4096xf16> to tensor<2x4096xf32> loc(#loc38)
    %43 = tt.load %23, %19, %cst_0 evictionPolicy = evict_first : tensor<2x4096x!tt.ptr<f16>> loc(#loc39)
    %44 = arith.extf %43 : tensor<2x4096xf16> to tensor<2x4096xf32> loc(#loc40)
    %45 = arith.addf %42, %44 : tensor<2x4096xf32> loc(#loc41)
    %46 = tt.broadcast %34 : tensor<2x1xf32> -> tensor<2x4096xf32> loc(#loc42)
    %47 = arith.mulf %45, %46 : tensor<2x4096xf32> loc(#loc42)
    %48 = tt.broadcast %40 : tensor<1x4096xf32> -> tensor<2x4096xf32> loc(#loc43)
    %49 = arith.mulf %48, %47 : tensor<2x4096xf32> loc(#loc43)
    %50 = tt.splat %arg4 : !tt.ptr<f16> -> tensor<2x4096x!tt.ptr<f16>> loc(#loc44)
    %51 = tt.addptr %50, %14 : tensor<2x4096x!tt.ptr<f16>>, tensor<2x4096xi32> loc(#loc44)
    %52 = arith.truncf %49 : tensor<2x4096xf32> to tensor<2x4096xf16> loc(#loc45)
    tt.store %51, %52, %19 : tensor<2x4096x!tt.ptr<f16>> loc(#loc45)
    tt.return loc(#loc46)
  } loc(#loc)
} loc(#loc)
#loc2 = loc("/tmp/torchinductor_root/ft/cftrsow5qcbxopniidi22t6ajsrwmzbq4o64dytrbucrl2gj2i5m.py":22:28)
#loc3 = loc("/tmp/torchinductor_root/ft/cftrsow5qcbxopniidi22t6ajsrwmzbq4o64dytrbucrl2gj2i5m.py":22:33)
#loc4 = loc("/tmp/torchinductor_root/ft/cftrsow5qcbxopniidi22t6ajsrwmzbq4o64dytrbucrl2gj2i5m.py":23:36)
#loc5 = loc("/tmp/torchinductor_root/ft/cftrsow5qcbxopniidi22t6ajsrwmzbq4o64dytrbucrl2gj2i5m.py":23:44)
#loc6 = loc("/tmp/torchinductor_root/ft/cftrsow5qcbxopniidi22t6ajsrwmzbq4o64dytrbucrl2gj2i5m.py":23:23)
#loc7 = loc("/tmp/torchinductor_root/ft/cftrsow5qcbxopniidi22t6ajsrwmzbq4o64dytrbucrl2gj2i5m.py":24:21)
#loc8 = loc("/tmp/torchinductor_root/ft/cftrsow5qcbxopniidi22t6ajsrwmzbq4o64dytrbucrl2gj2i5m.py":25:27)
#loc9 = loc("/tmp/torchinductor_root/ft/cftrsow5qcbxopniidi22t6ajsrwmzbq4o64dytrbucrl2gj2i5m.py":25:37)
#loc10 = loc("/tmp/torchinductor_root/ft/cftrsow5qcbxopniidi22t6ajsrwmzbq4o64dytrbucrl2gj2i5m.py":31:29)
#loc11 = loc("/tmp/torchinductor_root/ft/cftrsow5qcbxopniidi22t6ajsrwmzbq4o64dytrbucrl2gj2i5m.py":35:46)
#loc12 = loc("/tmp/torchinductor_root/ft/cftrsow5qcbxopniidi22t6ajsrwmzbq4o64dytrbucrl2gj2i5m.py":35:41)
#loc13 = loc("/tmp/torchinductor_root/ft/cftrsow5qcbxopniidi22t6ajsrwmzbq4o64dytrbucrl2gj2i5m.py":35:34)
#loc14 = loc("/tmp/torchinductor_root/ft/cftrsow5qcbxopniidi22t6ajsrwmzbq4o64dytrbucrl2gj2i5m.py":35:59)
#loc15 = loc("/tmp/torchinductor_root/ft/cftrsow5qcbxopniidi22t6ajsrwmzbq4o64dytrbucrl2gj2i5m.py":35:51)
#loc16 = loc("/tmp/torchinductor_root/ft/cftrsow5qcbxopniidi22t6ajsrwmzbq4o64dytrbucrl2gj2i5m.py":35:112)
#loc17 = loc("/tmp/torchinductor_root/ft/cftrsow5qcbxopniidi22t6ajsrwmzbq4o64dytrbucrl2gj2i5m.py":36:34)
#loc18 = loc("/tmp/torchinductor_root/ft/cftrsow5qcbxopniidi22t6ajsrwmzbq4o64dytrbucrl2gj2i5m.py":36:51)
#loc19 = loc("/tmp/torchinductor_root/ft/cftrsow5qcbxopniidi22t6ajsrwmzbq4o64dytrbucrl2gj2i5m.py":36:112)
#loc20 = loc("/tmp/torchinductor_root/ft/cftrsow5qcbxopniidi22t6ajsrwmzbq4o64dytrbucrl2gj2i5m.py":37:22)
#loc21 = loc("/tmp/torchinductor_root/ft/cftrsow5qcbxopniidi22t6ajsrwmzbq4o64dytrbucrl2gj2i5m.py":39:22)
#loc22 = loc("/tmp/torchinductor_root/ft/cftrsow5qcbxopniidi22t6ajsrwmzbq4o64dytrbucrl2gj2i5m.py":41:23)
#loc23 = loc("/tmp/torchinductor_root/ft/cftrsow5qcbxopniidi22t6ajsrwmzbq4o64dytrbucrl2gj2i5m.py":42:48)
#loc24 = loc("/workspace/torch-compile-caching/.venv/lib/python3.11/site-packages/triton/language/standard.py":286:36)
#loc26 = loc("/workspace/torch-compile-caching/.venv/lib/python3.11/site-packages/triton/language/standard.py":256:15)
#loc27 = loc("/tmp/torchinductor_root/ft/cftrsow5qcbxopniidi22t6ajsrwmzbq4o64dytrbucrl2gj2i5m.py":43:28)
#loc28 = loc("/tmp/torchinductor_root/ft/cftrsow5qcbxopniidi22t6ajsrwmzbq4o64dytrbucrl2gj2i5m.py":45:19)
#loc29 = loc("/tmp/torchinductor_root/ft/cftrsow5qcbxopniidi22t6ajsrwmzbq4o64dytrbucrl2gj2i5m.py":47:19)
#loc30 = loc("/tmp/torchinductor_root/ft/cftrsow5qcbxopniidi22t6ajsrwmzbq4o64dytrbucrl2gj2i5m.py":48:28)
#loc31 = loc("/tmp/torchinductor_root/ft/cftrsow5qcbxopniidi22t6ajsrwmzbq4o64dytrbucrl2gj2i5m.py":49:4)
#loc32 = loc("/tmp/torchinductor_root/ft/cftrsow5qcbxopniidi22t6ajsrwmzbq4o64dytrbucrl2gj2i5m.py":50:28)
#loc33 = loc("/tmp/torchinductor_root/ft/cftrsow5qcbxopniidi22t6ajsrwmzbq4o64dytrbucrl2gj2i5m.py":50:40)
#loc34 = loc("/tmp/torchinductor_root/ft/cftrsow5qcbxopniidi22t6ajsrwmzbq4o64dytrbucrl2gj2i5m.py":57:35)
#loc35 = loc("/tmp/torchinductor_root/ft/cftrsow5qcbxopniidi22t6ajsrwmzbq4o64dytrbucrl2gj2i5m.py":57:42)
#loc36 = loc("/tmp/torchinductor_root/ft/cftrsow5qcbxopniidi22t6ajsrwmzbq4o64dytrbucrl2gj2i5m.py":57:95)
#loc37 = loc("/tmp/torchinductor_root/ft/cftrsow5qcbxopniidi22t6ajsrwmzbq4o64dytrbucrl2gj2i5m.py":58:52)
#loc38 = loc("/tmp/torchinductor_root/ft/cftrsow5qcbxopniidi22t6ajsrwmzbq4o64dytrbucrl2gj2i5m.py":58:114)
#loc39 = loc("/tmp/torchinductor_root/ft/cftrsow5qcbxopniidi22t6ajsrwmzbq4o64dytrbucrl2gj2i5m.py":59:52)
#loc40 = loc("/tmp/torchinductor_root/ft/cftrsow5qcbxopniidi22t6ajsrwmzbq4o64dytrbucrl2gj2i5m.py":59:114)
#loc41 = loc("/tmp/torchinductor_root/ft/cftrsow5qcbxopniidi22t6ajsrwmzbq4o64dytrbucrl2gj2i5m.py":60:24)
#loc42 = loc("/tmp/torchinductor_root/ft/cftrsow5qcbxopniidi22t6ajsrwmzbq4o64dytrbucrl2gj2i5m.py":62:24)
#loc43 = loc("/tmp/torchinductor_root/ft/cftrsow5qcbxopniidi22t6ajsrwmzbq4o64dytrbucrl2gj2i5m.py":64:24)
#loc44 = loc("/tmp/torchinductor_root/ft/cftrsow5qcbxopniidi22t6ajsrwmzbq4o64dytrbucrl2gj2i5m.py":65:29)
#loc45 = loc("/tmp/torchinductor_root/ft/cftrsow5qcbxopniidi22t6ajsrwmzbq4o64dytrbucrl2gj2i5m.py":65:53)
#loc46 = loc("/tmp/torchinductor_root/ft/cftrsow5qcbxopniidi22t6ajsrwmzbq4o64dytrbucrl2gj2i5m.py":51:4)
#loc47 = loc(callsite(#loc24 at #loc25))
#loc49 = loc(callsite(#loc26 at #loc24))
#loc50 = loc(callsite(#loc49 at #loc25))
