#loc = loc("/tmp/torchinductor_root/cr/ccr6kpecjjvjczb635rxg7suvuumsc74vqgkqqcpdj2b5fxdchar.py":18:0)
#loc1 = loc(unknown)
#loc34 = loc("/tmp/torchinductor_root/cr/ccr6kpecjjvjczb635rxg7suvuumsc74vqgkqqcpdj2b5fxdchar.py":47:27)
#loc75 = loc(callsite(#loc1 at #loc34))
module {
  tt.func public @triton_red_fused__to_copy_add_div_mul_pow_sum_4(%arg0: !tt.ptr<f16> {tt.divisibility = 16 : i32} loc("/tmp/torchinductor_root/cr/ccr6kpecjjvjczb635rxg7suvuumsc74vqgkqqcpdj2b5fxdchar.py":18:0), %arg1: !tt.ptr<f16> {tt.divisibility = 16 : i32} loc("/tmp/torchinductor_root/cr/ccr6kpecjjvjczb635rxg7suvuumsc74vqgkqqcpdj2b5fxdchar.py":18:0), %arg2: !tt.ptr<f16> {tt.divisibility = 16 : i32} loc("/tmp/torchinductor_root/cr/ccr6kpecjjvjczb635rxg7suvuumsc74vqgkqqcpdj2b5fxdchar.py":18:0), %arg3: !tt.ptr<f16> {tt.divisibility = 16 : i32} loc("/tmp/torchinductor_root/cr/ccr6kpecjjvjczb635rxg7suvuumsc74vqgkqqcpdj2b5fxdchar.py":18:0), %arg4: !tt.ptr<f16> {tt.divisibility = 16 : i32} loc("/tmp/torchinductor_root/cr/ccr6kpecjjvjczb635rxg7suvuumsc74vqgkqqcpdj2b5fxdchar.py":18:0), %arg5: !tt.ptr<f32> {tt.divisibility = 16 : i32} loc("/tmp/torchinductor_root/cr/ccr6kpecjjvjczb635rxg7suvuumsc74vqgkqqcpdj2b5fxdchar.py":18:0), %arg6: i32 loc("/tmp/torchinductor_root/cr/ccr6kpecjjvjczb635rxg7suvuumsc74vqgkqqcpdj2b5fxdchar.py":18:0), %arg7: i32 {tt.divisibility = 16 : i32} loc("/tmp/torchinductor_root/cr/ccr6kpecjjvjczb635rxg7suvuumsc74vqgkqqcpdj2b5fxdchar.py":18:0)) attributes {noinline = false} {
    %cst = arith.constant dense<0.000000e+00> : tensor<1x4xf16> loc(#loc1)
    %cst_0 = arith.constant dense<0.000000e+00> : tensor<4x4xf16> loc(#loc1)
    %c4096_i32 = arith.constant 4096 : i32 loc(#loc1)
    %c0_i32 = arith.constant 0 : i32 loc(#loc1)
    %cst_1 = arith.constant dense<2.000000e+00> : tensor<4x4xf32> loc(#loc1)
    %cst_2 = arith.constant dense<2.44140625E-4> : tensor<4x1xf32> loc(#loc1)
    %cst_3 = arith.constant dense<-5.000000e-01> : tensor<4x1xf32> loc(#loc1)
    %cst_4 = arith.constant dense<4096> : tensor<4x1xi32> loc(#loc1)
    %cst_5 = arith.constant dense<4096> : tensor<1x4xi32> loc(#loc1)
    %cst_6 = arith.constant dense<0.000000e+00> : tensor<4x4xf32> loc(#loc1)
    %c4_i32 = arith.constant 4 : i32 loc(#loc1)
    %0 = tt.get_program_id x : i32 loc(#loc2)
    %1 = arith.muli %0, %c4_i32 : i32 loc(#loc3)
    %2 = tt.make_range {end = 4 : i32, start = 0 : i32} : tensor<4xi32> loc(#loc4)
    %3 = tt.expand_dims %2 {axis = 1 : i32} : tensor<4xi32> -> tensor<4x1xi32> loc(#loc5)
    %4 = tt.splat %1 : i32 -> tensor<4x1xi32> loc(#loc6)
    %5 = arith.addi %4, %3 : tensor<4x1xi32> loc(#loc6)
    %6 = tt.splat %arg6 : i32 -> tensor<4x1xi32> loc(#loc7)
    %7 = arith.cmpi slt, %5, %6 : tensor<4x1xi32> loc(#loc7)
    %8 = tt.expand_dims %2 {axis = 0 : i32} : tensor<4xi32> -> tensor<1x4xi32> loc(#loc8)
    %9 = scf.for %arg8 = %c0_i32 to %c4096_i32 step %c4_i32 iter_args(%arg9 = %cst_6) -> (tensor<4x4xf32>)  : i32 {
      %15 = tt.splat %arg8 : i32 -> tensor<1x4xi32> loc(#loc10)
      %16 = arith.addi %15, %8 : tensor<1x4xi32> loc(#loc10)
      %17 = arith.cmpi slt, %16, %cst_5 : tensor<1x4xi32> loc(#loc11)
      %18 = arith.muli %5, %cst_4 : tensor<4x1xi32> loc(#loc12)
      %19 = tt.broadcast %16 : tensor<1x4xi32> -> tensor<4x4xi32> loc(#loc13)
      %20 = tt.broadcast %18 : tensor<4x1xi32> -> tensor<4x4xi32> loc(#loc13)
      %21 = arith.addi %19, %20 : tensor<4x4xi32> loc(#loc13)
      %22 = tt.splat %arg1 : !tt.ptr<f16> -> tensor<4x4x!tt.ptr<f16>> loc(#loc14)
      %23 = tt.addptr %22, %21 : tensor<4x4x!tt.ptr<f16>>, tensor<4x4xi32> loc(#loc14)
      %24 = tt.broadcast %7 : tensor<4x1xi1> -> tensor<4x4xi1> loc(#loc15)
      %25 = tt.broadcast %17 : tensor<1x4xi1> -> tensor<4x4xi1> loc(#loc15)
      %26 = arith.andi %24, %25 : tensor<4x4xi1> loc(#loc15)
      %27 = tt.load %23, %26, %cst_0 evictionPolicy = evict_last : tensor<4x4x!tt.ptr<f16>> loc(#loc16)
      %28 = arith.extf %27 : tensor<4x4xf16> to tensor<4x4xf32> loc(#loc17)
      %29 = tt.splat %arg2 : !tt.ptr<f16> -> tensor<4x4x!tt.ptr<f16>> loc(#loc18)
      %30 = tt.addptr %29, %21 : tensor<4x4x!tt.ptr<f16>>, tensor<4x4xi32> loc(#loc18)
      %31 = tt.load %30, %26, %cst_0 evictionPolicy = evict_last : tensor<4x4x!tt.ptr<f16>> loc(#loc19)
      %32 = arith.extf %31 : tensor<4x4xf16> to tensor<4x4xf32> loc(#loc20)
      %33 = tt.splat %arg3 : !tt.ptr<f16> -> tensor<1x4x!tt.ptr<f16>> loc(#loc21)
      %34 = tt.addptr %33, %16 : tensor<1x4x!tt.ptr<f16>>, tensor<1x4xi32> loc(#loc21)
      %35 = tt.load %34, %17, %cst evictionPolicy = evict_last : tensor<1x4x!tt.ptr<f16>> loc(#loc22)
      %36 = arith.extf %35 : tensor<1x4xf16> to tensor<1x4xf32> loc(#loc23)
      %37 = tt.splat %arg4 : !tt.ptr<f16> -> tensor<4x4x!tt.ptr<f16>> loc(#loc24)
      %38 = tt.addptr %37, %21 : tensor<4x4x!tt.ptr<f16>>, tensor<4x4xi32> loc(#loc24)
      %39 = tt.load %38, %26, %cst_0 evictionPolicy = evict_last : tensor<4x4x!tt.ptr<f16>> loc(#loc25)
      %40 = arith.extf %39 : tensor<4x4xf16> to tensor<4x4xf32> loc(#loc26)
      %41 = arith.addf %28, %32 : tensor<4x4xf32> loc(#loc27)
      %42 = tt.broadcast %36 : tensor<1x4xf32> -> tensor<4x4xf32> loc(#loc28)
      %43 = arith.mulf %41, %42 : tensor<4x4xf32> loc(#loc28)
      %44 = arith.mulf %43, %40 : tensor<4x4xf32> loc(#loc29)
      %45 = arith.addf %arg9, %44 : tensor<4x4xf32> loc(#loc30)
      %46 = arith.select %26, %45, %arg9 : tensor<4x4xi1>, tensor<4x4xf32> loc(#loc31)
      scf.yield %46 : tensor<4x4xf32> loc(#loc32)
    } loc(#loc9)
    %10 = "tt.reduce"(%9) <{axis = 1 : i32}> ({
    ^bb0(%arg8: f32 loc(callsite(#loc1 at #loc34)), %arg9: f32 loc(callsite(#loc1 at #loc34))):
      %15 = arith.addf %arg8, %arg9 : f32 loc(#loc77)
      tt.reduce.return %15 : f32 loc(#loc74)
    }) : (tensor<4x4xf32>) -> tensor<4xf32> loc(#loc74)
    %11 = tt.expand_dims %10 {axis = 1 : i32} : tensor<4xf32> -> tensor<4x1xf32> loc(#loc36)
    %12 = tt.splat %arg5 : !tt.ptr<f32> -> tensor<4x1x!tt.ptr<f32>> loc(#loc37)
    %13 = tt.addptr %12, %5 : tensor<4x1x!tt.ptr<f32>>, tensor<4x1xi32> loc(#loc37)
    %14 = tt.load %13, %7 evictionPolicy = evict_last : tensor<4x1x!tt.ptr<f32>> loc(#loc38)
    scf.for %arg8 = %c0_i32 to %c4096_i32 step %c4_i32  : i32 {
      %15 = tt.splat %arg8 : i32 -> tensor<1x4xi32> loc(#loc40)
      %16 = arith.addi %15, %8 : tensor<1x4xi32> loc(#loc40)
      %17 = arith.cmpi slt, %16, %cst_5 : tensor<1x4xi32> loc(#loc41)
      %18 = arith.muli %5, %cst_4 : tensor<4x1xi32> loc(#loc42)
      %19 = tt.broadcast %16 : tensor<1x4xi32> -> tensor<4x4xi32> loc(#loc43)
      %20 = tt.broadcast %18 : tensor<4x1xi32> -> tensor<4x4xi32> loc(#loc43)
      %21 = arith.addi %19, %20 : tensor<4x4xi32> loc(#loc43)
      %22 = tt.splat %arg0 : !tt.ptr<f16> -> tensor<4x4x!tt.ptr<f16>> loc(#loc44)
      %23 = tt.addptr %22, %21 : tensor<4x4x!tt.ptr<f16>>, tensor<4x4xi32> loc(#loc44)
      %24 = tt.broadcast %7 : tensor<4x1xi1> -> tensor<4x4xi1> loc(#loc45)
      %25 = tt.broadcast %17 : tensor<1x4xi1> -> tensor<4x4xi1> loc(#loc45)
      %26 = arith.andi %24, %25 : tensor<4x4xi1> loc(#loc45)
      %27 = tt.load %23, %26, %cst_0 evictionPolicy = evict_first : tensor<4x4x!tt.ptr<f16>> loc(#loc46)
      %28 = arith.extf %27 : tensor<4x4xf16> to tensor<4x4xf32> loc(#loc47)
      %29 = tt.splat %arg1 : !tt.ptr<f16> -> tensor<4x4x!tt.ptr<f16>> loc(#loc48)
      %30 = tt.addptr %29, %21 : tensor<4x4x!tt.ptr<f16>>, tensor<4x4xi32> loc(#loc48)
      %31 = tt.load %30, %26, %cst_0 evictionPolicy = evict_first : tensor<4x4x!tt.ptr<f16>> loc(#loc49)
      %32 = arith.extf %31 : tensor<4x4xf16> to tensor<4x4xf32> loc(#loc50)
      %33 = tt.splat %arg2 : !tt.ptr<f16> -> tensor<4x4x!tt.ptr<f16>> loc(#loc51)
      %34 = tt.addptr %33, %21 : tensor<4x4x!tt.ptr<f16>>, tensor<4x4xi32> loc(#loc51)
      %35 = tt.load %34, %26, %cst_0 evictionPolicy = evict_first : tensor<4x4x!tt.ptr<f16>> loc(#loc52)
      %36 = arith.extf %35 : tensor<4x4xf16> to tensor<4x4xf32> loc(#loc53)
      %37 = tt.splat %arg3 : !tt.ptr<f16> -> tensor<1x4x!tt.ptr<f16>> loc(#loc54)
      %38 = tt.addptr %37, %16 : tensor<1x4x!tt.ptr<f16>>, tensor<1x4xi32> loc(#loc54)
      %39 = tt.load %38, %17, %cst evictionPolicy = evict_last : tensor<1x4x!tt.ptr<f16>> loc(#loc55)
      %40 = arith.extf %39 : tensor<1x4xf16> to tensor<1x4xf32> loc(#loc56)
      %41 = tt.splat %arg4 : !tt.ptr<f16> -> tensor<4x4x!tt.ptr<f16>> loc(#loc57)
      %42 = tt.addptr %41, %21 : tensor<4x4x!tt.ptr<f16>>, tensor<4x4xi32> loc(#loc57)
      %43 = tt.load %42, %26, %cst_0 evictionPolicy = evict_first : tensor<4x4x!tt.ptr<f16>> loc(#loc58)
      %44 = arith.extf %43 : tensor<4x4xf16> to tensor<4x4xf32> loc(#loc59)
      %45 = arith.addf %32, %36 : tensor<4x4xf32> loc(#loc60)
      %46 = tt.broadcast %40 : tensor<1x4xf32> -> tensor<4x4xf32> loc(#loc61)
      %47 = arith.mulf %45, %46 : tensor<4x4xf32> loc(#loc61)
      %48 = tt.broadcast %14 : tensor<4x1xf32> -> tensor<4x4xf32> loc(#loc62)
      %49 = arith.mulf %47, %48 : tensor<4x4xf32> loc(#loc62)
      %50 = arith.mulf %11, %cst_3 : tensor<4x1xf32> loc(#loc63)
      %51 = arith.mulf %14, %14 : tensor<4x1xf32> loc(#loc64)
      %52 = arith.mulf %51, %14 : tensor<4x1xf32> loc(#loc65)
      %53 = arith.mulf %50, %52 : tensor<4x1xf32> loc(#loc66)
      %54 = arith.mulf %53, %cst_2 : tensor<4x1xf32> loc(#loc67)
      %55 = arith.mulf %44, %cst_1 : tensor<4x4xf32> loc(#loc68)
      %56 = tt.broadcast %54 : tensor<4x1xf32> -> tensor<4x4xf32> loc(#loc69)
      %57 = arith.mulf %56, %55 : tensor<4x4xf32> loc(#loc69)
      %58 = arith.addf %49, %57 : tensor<4x4xf32> loc(#loc70)
      %59 = arith.addf %28, %58 : tensor<4x4xf32> loc(#loc71)
      %60 = arith.truncf %59 : tensor<4x4xf32> to tensor<4x4xf16> loc(#loc72)
      tt.store %23, %60, %26 : tensor<4x4x!tt.ptr<f16>> loc(#loc72)
    } loc(#loc39)
    tt.return loc(#loc73)
  } loc(#loc)
} loc(#loc)
#loc2 = loc("/tmp/torchinductor_root/cr/ccr6kpecjjvjczb635rxg7suvuumsc74vqgkqqcpdj2b5fxdchar.py":22:28)
#loc3 = loc("/tmp/torchinductor_root/cr/ccr6kpecjjvjczb635rxg7suvuumsc74vqgkqqcpdj2b5fxdchar.py":22:33)
#loc4 = loc("/tmp/torchinductor_root/cr/ccr6kpecjjvjczb635rxg7suvuumsc74vqgkqqcpdj2b5fxdchar.py":23:36)
#loc5 = loc("/tmp/torchinductor_root/cr/ccr6kpecjjvjczb635rxg7suvuumsc74vqgkqqcpdj2b5fxdchar.py":23:44)
#loc6 = loc("/tmp/torchinductor_root/cr/ccr6kpecjjvjczb635rxg7suvuumsc74vqgkqqcpdj2b5fxdchar.py":23:23)
#loc7 = loc("/tmp/torchinductor_root/cr/ccr6kpecjjvjczb635rxg7suvuumsc74vqgkqqcpdj2b5fxdchar.py":24:21)
#loc8 = loc("/tmp/torchinductor_root/cr/ccr6kpecjjvjczb635rxg7suvuumsc74vqgkqqcpdj2b5fxdchar.py":25:37)
#loc9 = loc("/tmp/torchinductor_root/cr/ccr6kpecjjvjczb635rxg7suvuumsc74vqgkqqcpdj2b5fxdchar.py":29:40)
#loc10 = loc("/tmp/torchinductor_root/cr/ccr6kpecjjvjczb635rxg7suvuumsc74vqgkqqcpdj2b5fxdchar.py":30:31)
#loc11 = loc("/tmp/torchinductor_root/cr/ccr6kpecjjvjczb635rxg7suvuumsc74vqgkqqcpdj2b5fxdchar.py":31:29)
#loc12 = loc("/tmp/torchinductor_root/cr/ccr6kpecjjvjczb635rxg7suvuumsc74vqgkqqcpdj2b5fxdchar.py":35:46)
#loc13 = loc("/tmp/torchinductor_root/cr/ccr6kpecjjvjczb635rxg7suvuumsc74vqgkqqcpdj2b5fxdchar.py":35:41)
#loc14 = loc("/tmp/torchinductor_root/cr/ccr6kpecjjvjczb635rxg7suvuumsc74vqgkqqcpdj2b5fxdchar.py":35:34)
#loc15 = loc("/tmp/torchinductor_root/cr/ccr6kpecjjvjczb635rxg7suvuumsc74vqgkqqcpdj2b5fxdchar.py":35:59)
#loc16 = loc("/tmp/torchinductor_root/cr/ccr6kpecjjvjczb635rxg7suvuumsc74vqgkqqcpdj2b5fxdchar.py":35:51)
#loc17 = loc("/tmp/torchinductor_root/cr/ccr6kpecjjvjczb635rxg7suvuumsc74vqgkqqcpdj2b5fxdchar.py":35:112)
#loc18 = loc("/tmp/torchinductor_root/cr/ccr6kpecjjvjczb635rxg7suvuumsc74vqgkqqcpdj2b5fxdchar.py":36:34)
#loc19 = loc("/tmp/torchinductor_root/cr/ccr6kpecjjvjczb635rxg7suvuumsc74vqgkqqcpdj2b5fxdchar.py":36:51)
#loc20 = loc("/tmp/torchinductor_root/cr/ccr6kpecjjvjczb635rxg7suvuumsc74vqgkqqcpdj2b5fxdchar.py":36:112)
#loc21 = loc("/tmp/torchinductor_root/cr/ccr6kpecjjvjczb635rxg7suvuumsc74vqgkqqcpdj2b5fxdchar.py":37:34)
#loc22 = loc("/tmp/torchinductor_root/cr/ccr6kpecjjvjczb635rxg7suvuumsc74vqgkqqcpdj2b5fxdchar.py":37:41)
#loc23 = loc("/tmp/torchinductor_root/cr/ccr6kpecjjvjczb635rxg7suvuumsc74vqgkqqcpdj2b5fxdchar.py":37:94)
#loc24 = loc("/tmp/torchinductor_root/cr/ccr6kpecjjvjczb635rxg7suvuumsc74vqgkqqcpdj2b5fxdchar.py":38:34)
#loc25 = loc("/tmp/torchinductor_root/cr/ccr6kpecjjvjczb635rxg7suvuumsc74vqgkqqcpdj2b5fxdchar.py":38:51)
#loc26 = loc("/tmp/torchinductor_root/cr/ccr6kpecjjvjczb635rxg7suvuumsc74vqgkqqcpdj2b5fxdchar.py":38:112)
#loc27 = loc("/tmp/torchinductor_root/cr/ccr6kpecjjvjczb635rxg7suvuumsc74vqgkqqcpdj2b5fxdchar.py":39:22)
#loc28 = loc("/tmp/torchinductor_root/cr/ccr6kpecjjvjczb635rxg7suvuumsc74vqgkqqcpdj2b5fxdchar.py":40:22)
#loc29 = loc("/tmp/torchinductor_root/cr/ccr6kpecjjvjczb635rxg7suvuumsc74vqgkqqcpdj2b5fxdchar.py":43:22)
#loc30 = loc("/tmp/torchinductor_root/cr/ccr6kpecjjvjczb635rxg7suvuumsc74vqgkqqcpdj2b5fxdchar.py":45:25)
#loc31 = loc("/tmp/torchinductor_root/cr/ccr6kpecjjvjczb635rxg7suvuumsc74vqgkqqcpdj2b5fxdchar.py":46:50)
#loc32 = loc("/tmp/torchinductor_root/cr/ccr6kpecjjvjczb635rxg7suvuumsc74vqgkqqcpdj2b5fxdchar.py":46:8)
#loc33 = loc("/workspace/torch-compile-caching/.venv/lib/python3.11/site-packages/triton/language/standard.py":286:36)
#loc35 = loc("/workspace/torch-compile-caching/.venv/lib/python3.11/site-packages/triton/language/standard.py":256:15)
#loc36 = loc("/tmp/torchinductor_root/cr/ccr6kpecjjvjczb635rxg7suvuumsc74vqgkqqcpdj2b5fxdchar.py":47:30)
#loc37 = loc("/tmp/torchinductor_root/cr/ccr6kpecjjvjczb635rxg7suvuumsc74vqgkqqcpdj2b5fxdchar.py":48:31)
#loc38 = loc("/tmp/torchinductor_root/cr/ccr6kpecjjvjczb635rxg7suvuumsc74vqgkqqcpdj2b5fxdchar.py":48:36)
#loc39 = loc("/tmp/torchinductor_root/cr/ccr6kpecjjvjczb635rxg7suvuumsc74vqgkqqcpdj2b5fxdchar.py":49:40)
#loc40 = loc("/tmp/torchinductor_root/cr/ccr6kpecjjvjczb635rxg7suvuumsc74vqgkqqcpdj2b5fxdchar.py":50:31)
#loc41 = loc("/tmp/torchinductor_root/cr/ccr6kpecjjvjczb635rxg7suvuumsc74vqgkqqcpdj2b5fxdchar.py":51:29)
#loc42 = loc("/tmp/torchinductor_root/cr/ccr6kpecjjvjczb635rxg7suvuumsc74vqgkqqcpdj2b5fxdchar.py":55:51)
#loc43 = loc("/tmp/torchinductor_root/cr/ccr6kpecjjvjczb635rxg7suvuumsc74vqgkqqcpdj2b5fxdchar.py":55:46)
#loc44 = loc("/tmp/torchinductor_root/cr/ccr6kpecjjvjczb635rxg7suvuumsc74vqgkqqcpdj2b5fxdchar.py":55:39)
#loc45 = loc("/tmp/torchinductor_root/cr/ccr6kpecjjvjczb635rxg7suvuumsc74vqgkqqcpdj2b5fxdchar.py":55:64)
#loc46 = loc("/tmp/torchinductor_root/cr/ccr6kpecjjvjczb635rxg7suvuumsc74vqgkqqcpdj2b5fxdchar.py":55:56)
#loc47 = loc("/tmp/torchinductor_root/cr/ccr6kpecjjvjczb635rxg7suvuumsc74vqgkqqcpdj2b5fxdchar.py":55:118)
#loc48 = loc("/tmp/torchinductor_root/cr/ccr6kpecjjvjczb635rxg7suvuumsc74vqgkqqcpdj2b5fxdchar.py":56:35)
#loc49 = loc("/tmp/torchinductor_root/cr/ccr6kpecjjvjczb635rxg7suvuumsc74vqgkqqcpdj2b5fxdchar.py":56:52)
#loc50 = loc("/tmp/torchinductor_root/cr/ccr6kpecjjvjczb635rxg7suvuumsc74vqgkqqcpdj2b5fxdchar.py":56:114)
#loc51 = loc("/tmp/torchinductor_root/cr/ccr6kpecjjvjczb635rxg7suvuumsc74vqgkqqcpdj2b5fxdchar.py":57:35)
#loc52 = loc("/tmp/torchinductor_root/cr/ccr6kpecjjvjczb635rxg7suvuumsc74vqgkqqcpdj2b5fxdchar.py":57:52)
#loc53 = loc("/tmp/torchinductor_root/cr/ccr6kpecjjvjczb635rxg7suvuumsc74vqgkqqcpdj2b5fxdchar.py":57:114)
#loc54 = loc("/tmp/torchinductor_root/cr/ccr6kpecjjvjczb635rxg7suvuumsc74vqgkqqcpdj2b5fxdchar.py":58:35)
#loc55 = loc("/tmp/torchinductor_root/cr/ccr6kpecjjvjczb635rxg7suvuumsc74vqgkqqcpdj2b5fxdchar.py":58:42)
#loc56 = loc("/tmp/torchinductor_root/cr/ccr6kpecjjvjczb635rxg7suvuumsc74vqgkqqcpdj2b5fxdchar.py":58:95)
#loc57 = loc("/tmp/torchinductor_root/cr/ccr6kpecjjvjczb635rxg7suvuumsc74vqgkqqcpdj2b5fxdchar.py":59:35)
#loc58 = loc("/tmp/torchinductor_root/cr/ccr6kpecjjvjczb635rxg7suvuumsc74vqgkqqcpdj2b5fxdchar.py":59:52)
#loc59 = loc("/tmp/torchinductor_root/cr/ccr6kpecjjvjczb635rxg7suvuumsc74vqgkqqcpdj2b5fxdchar.py":59:114)
#loc60 = loc("/tmp/torchinductor_root/cr/ccr6kpecjjvjczb635rxg7suvuumsc74vqgkqqcpdj2b5fxdchar.py":60:24)
#loc61 = loc("/tmp/torchinductor_root/cr/ccr6kpecjjvjczb635rxg7suvuumsc74vqgkqqcpdj2b5fxdchar.py":61:24)
#loc62 = loc("/tmp/torchinductor_root/cr/ccr6kpecjjvjczb635rxg7suvuumsc74vqgkqqcpdj2b5fxdchar.py":63:24)
#loc63 = loc("/tmp/torchinductor_root/cr/ccr6kpecjjvjczb635rxg7suvuumsc74vqgkqqcpdj2b5fxdchar.py":65:24)
#loc64 = loc("/tmp/torchinductor_root/cr/ccr6kpecjjvjczb635rxg7suvuumsc74vqgkqqcpdj2b5fxdchar.py":66:24)
#loc65 = loc("/tmp/torchinductor_root/cr/ccr6kpecjjvjczb635rxg7suvuumsc74vqgkqqcpdj2b5fxdchar.py":67:24)
#loc66 = loc("/tmp/torchinductor_root/cr/ccr6kpecjjvjczb635rxg7suvuumsc74vqgkqqcpdj2b5fxdchar.py":68:24)
#loc67 = loc("/tmp/torchinductor_root/cr/ccr6kpecjjvjczb635rxg7suvuumsc74vqgkqqcpdj2b5fxdchar.py":70:24)
#loc68 = loc("/tmp/torchinductor_root/cr/ccr6kpecjjvjczb635rxg7suvuumsc74vqgkqqcpdj2b5fxdchar.py":73:24)
#loc69 = loc("/tmp/torchinductor_root/cr/ccr6kpecjjvjczb635rxg7suvuumsc74vqgkqqcpdj2b5fxdchar.py":74:24)
#loc70 = loc("/tmp/torchinductor_root/cr/ccr6kpecjjvjczb635rxg7suvuumsc74vqgkqqcpdj2b5fxdchar.py":75:24)
#loc71 = loc("/tmp/torchinductor_root/cr/ccr6kpecjjvjczb635rxg7suvuumsc74vqgkqqcpdj2b5fxdchar.py":77:24)
#loc72 = loc("/tmp/torchinductor_root/cr/ccr6kpecjjvjczb635rxg7suvuumsc74vqgkqqcpdj2b5fxdchar.py":78:56)
#loc73 = loc("/tmp/torchinductor_root/cr/ccr6kpecjjvjczb635rxg7suvuumsc74vqgkqqcpdj2b5fxdchar.py":49:4)
#loc74 = loc(callsite(#loc33 at #loc34))
#loc76 = loc(callsite(#loc35 at #loc33))
#loc77 = loc(callsite(#loc76 at #loc34))
