#loc = loc("/tmp/torchinductor_root/rb/crbdf4vyauezdx6iqixg755sryxnoi3oifqxkxdy34s3u2w7snkb.py":18:0)
#loc1 = loc(unknown)
#loc31 = loc("/tmp/torchinductor_root/rb/crbdf4vyauezdx6iqixg755sryxnoi3oifqxkxdy34s3u2w7snkb.py":47:27)
#loc38 = loc(callsite(#loc1 at #loc31))
module {
  tt.func public @triton_red_fused__to_copy_add_mul_sum_5(%arg0: !tt.ptr<f16> {tt.divisibility = 16 : i32} loc("/tmp/torchinductor_root/rb/crbdf4vyauezdx6iqixg755sryxnoi3oifqxkxdy34s3u2w7snkb.py":18:0), %arg1: !tt.ptr<f16> {tt.divisibility = 16 : i32} loc("/tmp/torchinductor_root/rb/crbdf4vyauezdx6iqixg755sryxnoi3oifqxkxdy34s3u2w7snkb.py":18:0), %arg2: !tt.ptr<f16> {tt.divisibility = 16 : i32} loc("/tmp/torchinductor_root/rb/crbdf4vyauezdx6iqixg755sryxnoi3oifqxkxdy34s3u2w7snkb.py":18:0), %arg3: !tt.ptr<f32> {tt.divisibility = 16 : i32} loc("/tmp/torchinductor_root/rb/crbdf4vyauezdx6iqixg755sryxnoi3oifqxkxdy34s3u2w7snkb.py":18:0), %arg4: !tt.ptr<f16> {tt.divisibility = 16 : i32} loc("/tmp/torchinductor_root/rb/crbdf4vyauezdx6iqixg755sryxnoi3oifqxkxdy34s3u2w7snkb.py":18:0), %arg5: i32 {tt.divisibility = 16 : i32} loc("/tmp/torchinductor_root/rb/crbdf4vyauezdx6iqixg755sryxnoi3oifqxkxdy34s3u2w7snkb.py":18:0), %arg6: i32 loc("/tmp/torchinductor_root/rb/crbdf4vyauezdx6iqixg755sryxnoi3oifqxkxdy34s3u2w7snkb.py":18:0)) attributes {noinline = false} {
    %cst = arith.constant dense<0.000000e+00> : tensor<64x64xf16> loc(#loc1)
    %c0_i32 = arith.constant 0 : i32 loc(#loc1)
    %cst_0 = arith.constant dense<0.000000e+00> : tensor<1x64xf32> loc(#loc1)
    %cst_1 = arith.constant dense<4096> : tensor<1x64xi32> loc(#loc1)
    %cst_2 = arith.constant dense<0.000000e+00> : tensor<64x64xf32> loc(#loc1)
    %c64_i32 = arith.constant 64 : i32 loc(#loc1)
    %0 = tt.get_program_id x : i32 loc(#loc2)
    %1 = arith.muli %0, %c64_i32 : i32 loc(#loc3)
    %2 = tt.make_range {end = 64 : i32, start = 0 : i32} : tensor<64xi32> loc(#loc4)
    %3 = tt.expand_dims %2 {axis = 1 : i32} : tensor<64xi32> -> tensor<64x1xi32> loc(#loc5)
    %4 = tt.splat %1 : i32 -> tensor<64x1xi32> loc(#loc6)
    %5 = arith.addi %4, %3 : tensor<64x1xi32> loc(#loc6)
    %6 = tt.expand_dims %2 {axis = 0 : i32} : tensor<64xi32> -> tensor<1x64xi32> loc(#loc7)
    %7 = scf.for %arg7 = %c0_i32 to %arg6 step %c64_i32 iter_args(%arg8 = %cst_2) -> (tensor<64x64xf32>)  : i32 {
      %13 = tt.splat %arg7 : i32 -> tensor<1x64xi32> loc(#loc9)
      %14 = arith.addi %13, %6 : tensor<1x64xi32> loc(#loc9)
      %15 = tt.splat %arg6 : i32 -> tensor<1x64xi32> loc(#loc10)
      %16 = arith.cmpi slt, %14, %15 : tensor<1x64xi32> loc(#loc10)
      %17 = arith.muli %14, %cst_1 : tensor<1x64xi32> loc(#loc11)
      %18 = tt.broadcast %5 : tensor<64x1xi32> -> tensor<64x64xi32> loc(#loc12)
      %19 = tt.broadcast %17 : tensor<1x64xi32> -> tensor<64x64xi32> loc(#loc12)
      %20 = arith.addi %18, %19 : tensor<64x64xi32> loc(#loc12)
      %21 = tt.splat %arg0 : !tt.ptr<f16> -> tensor<64x64x!tt.ptr<f16>> loc(#loc13)
      %22 = tt.addptr %21, %20 : tensor<64x64x!tt.ptr<f16>>, tensor<64x64xi32> loc(#loc13)
      %23 = tt.broadcast %16 : tensor<1x64xi1> -> tensor<64x64xi1> loc(#loc14)
      %24 = tt.load %22, %23, %cst evictionPolicy = evict_first : tensor<64x64x!tt.ptr<f16>> loc(#loc14)
      %25 = arith.extf %24 : tensor<64x64xf16> to tensor<64x64xf32> loc(#loc15)
      %26 = tt.splat %arg1 : !tt.ptr<f16> -> tensor<64x64x!tt.ptr<f16>> loc(#loc16)
      %27 = tt.addptr %26, %20 : tensor<64x64x!tt.ptr<f16>>, tensor<64x64xi32> loc(#loc16)
      %28 = tt.load %27, %23, %cst evictionPolicy = evict_first : tensor<64x64x!tt.ptr<f16>> loc(#loc17)
      %29 = arith.extf %28 : tensor<64x64xf16> to tensor<64x64xf32> loc(#loc18)
      %30 = tt.splat %arg2 : !tt.ptr<f16> -> tensor<64x64x!tt.ptr<f16>> loc(#loc19)
      %31 = tt.addptr %30, %20 : tensor<64x64x!tt.ptr<f16>>, tensor<64x64xi32> loc(#loc19)
      %32 = tt.load %31, %23, %cst evictionPolicy = evict_first : tensor<64x64x!tt.ptr<f16>> loc(#loc20)
      %33 = arith.extf %32 : tensor<64x64xf16> to tensor<64x64xf32> loc(#loc21)
      %34 = tt.splat %arg3 : !tt.ptr<f32> -> tensor<1x64x!tt.ptr<f32>> loc(#loc22)
      %35 = tt.addptr %34, %14 : tensor<1x64x!tt.ptr<f32>>, tensor<1x64xi32> loc(#loc22)
      %36 = tt.load %35, %16, %cst_0 evictionPolicy = evict_last : tensor<1x64x!tt.ptr<f32>> loc(#loc23)
      %37 = arith.addf %25, %29 : tensor<64x64xf32> loc(#loc24)
      %38 = tt.broadcast %36 : tensor<1x64xf32> -> tensor<64x64xf32> loc(#loc25)
      %39 = arith.mulf %33, %38 : tensor<64x64xf32> loc(#loc25)
      %40 = arith.mulf %37, %39 : tensor<64x64xf32> loc(#loc26)
      %41 = arith.addf %arg8, %40 : tensor<64x64xf32> loc(#loc27)
      %42 = arith.select %23, %41, %arg8 : tensor<64x64xi1>, tensor<64x64xf32> loc(#loc28)
      scf.yield %42 : tensor<64x64xf32> loc(#loc29)
    } loc(#loc8)
    %8 = "tt.reduce"(%7) <{axis = 1 : i32}> ({
    ^bb0(%arg7: f32 loc(callsite(#loc1 at #loc31)), %arg8: f32 loc(callsite(#loc1 at #loc31))):
      %13 = arith.addf %arg7, %arg8 : f32 loc(#loc40)
      tt.reduce.return %13 : f32 loc(#loc37)
    }) : (tensor<64x64xf32>) -> tensor<64xf32> loc(#loc37)
    %9 = tt.expand_dims %8 {axis = 1 : i32} : tensor<64xf32> -> tensor<64x1xf32> loc(#loc33)
    %10 = tt.splat %arg4 : !tt.ptr<f16> -> tensor<64x1x!tt.ptr<f16>> loc(#loc34)
    %11 = tt.addptr %10, %5 : tensor<64x1x!tt.ptr<f16>>, tensor<64x1xi32> loc(#loc34)
    %12 = arith.truncf %9 : tensor<64x1xf32> to tensor<64x1xf16> loc(#loc35)
    tt.store %11, %12 : tensor<64x1x!tt.ptr<f16>> loc(#loc35)
    tt.return loc(#loc36)
  } loc(#loc)
} loc(#loc)
#loc2 = loc("/tmp/torchinductor_root/rb/crbdf4vyauezdx6iqixg755sryxnoi3oifqxkxdy34s3u2w7snkb.py":22:28)
#loc3 = loc("/tmp/torchinductor_root/rb/crbdf4vyauezdx6iqixg755sryxnoi3oifqxkxdy34s3u2w7snkb.py":22:33)
#loc4 = loc("/tmp/torchinductor_root/rb/crbdf4vyauezdx6iqixg755sryxnoi3oifqxkxdy34s3u2w7snkb.py":23:36)
#loc5 = loc("/tmp/torchinductor_root/rb/crbdf4vyauezdx6iqixg755sryxnoi3oifqxkxdy34s3u2w7snkb.py":23:44)
#loc6 = loc("/tmp/torchinductor_root/rb/crbdf4vyauezdx6iqixg755sryxnoi3oifqxkxdy34s3u2w7snkb.py":23:23)
#loc7 = loc("/tmp/torchinductor_root/rb/crbdf4vyauezdx6iqixg755sryxnoi3oifqxkxdy34s3u2w7snkb.py":25:37)
#loc8 = loc("/tmp/torchinductor_root/rb/crbdf4vyauezdx6iqixg755sryxnoi3oifqxkxdy34s3u2w7snkb.py":29:40)
#loc9 = loc("/tmp/torchinductor_root/rb/crbdf4vyauezdx6iqixg755sryxnoi3oifqxkxdy34s3u2w7snkb.py":30:31)
#loc10 = loc("/tmp/torchinductor_root/rb/crbdf4vyauezdx6iqixg755sryxnoi3oifqxkxdy34s3u2w7snkb.py":31:29)
#loc11 = loc("/tmp/torchinductor_root/rb/crbdf4vyauezdx6iqixg755sryxnoi3oifqxkxdy34s3u2w7snkb.py":35:44)
#loc12 = loc("/tmp/torchinductor_root/rb/crbdf4vyauezdx6iqixg755sryxnoi3oifqxkxdy34s3u2w7snkb.py":35:39)
#loc13 = loc("/tmp/torchinductor_root/rb/crbdf4vyauezdx6iqixg755sryxnoi3oifqxkxdy34s3u2w7snkb.py":35:34)
#loc14 = loc("/tmp/torchinductor_root/rb/crbdf4vyauezdx6iqixg755sryxnoi3oifqxkxdy34s3u2w7snkb.py":35:51)
#loc15 = loc("/tmp/torchinductor_root/rb/crbdf4vyauezdx6iqixg755sryxnoi3oifqxkxdy34s3u2w7snkb.py":35:105)
#loc16 = loc("/tmp/torchinductor_root/rb/crbdf4vyauezdx6iqixg755sryxnoi3oifqxkxdy34s3u2w7snkb.py":36:34)
#loc17 = loc("/tmp/torchinductor_root/rb/crbdf4vyauezdx6iqixg755sryxnoi3oifqxkxdy34s3u2w7snkb.py":36:51)
#loc18 = loc("/tmp/torchinductor_root/rb/crbdf4vyauezdx6iqixg755sryxnoi3oifqxkxdy34s3u2w7snkb.py":36:105)
#loc19 = loc("/tmp/torchinductor_root/rb/crbdf4vyauezdx6iqixg755sryxnoi3oifqxkxdy34s3u2w7snkb.py":37:34)
#loc20 = loc("/tmp/torchinductor_root/rb/crbdf4vyauezdx6iqixg755sryxnoi3oifqxkxdy34s3u2w7snkb.py":37:51)
#loc21 = loc("/tmp/torchinductor_root/rb/crbdf4vyauezdx6iqixg755sryxnoi3oifqxkxdy34s3u2w7snkb.py":37:105)
#loc22 = loc("/tmp/torchinductor_root/rb/crbdf4vyauezdx6iqixg755sryxnoi3oifqxkxdy34s3u2w7snkb.py":38:34)
#loc23 = loc("/tmp/torchinductor_root/rb/crbdf4vyauezdx6iqixg755sryxnoi3oifqxkxdy34s3u2w7snkb.py":38:41)
#loc24 = loc("/tmp/torchinductor_root/rb/crbdf4vyauezdx6iqixg755sryxnoi3oifqxkxdy34s3u2w7snkb.py":39:22)
#loc25 = loc("/tmp/torchinductor_root/rb/crbdf4vyauezdx6iqixg755sryxnoi3oifqxkxdy34s3u2w7snkb.py":41:22)
#loc26 = loc("/tmp/torchinductor_root/rb/crbdf4vyauezdx6iqixg755sryxnoi3oifqxkxdy34s3u2w7snkb.py":43:22)
#loc27 = loc("/tmp/torchinductor_root/rb/crbdf4vyauezdx6iqixg755sryxnoi3oifqxkxdy34s3u2w7snkb.py":45:25)
#loc28 = loc("/tmp/torchinductor_root/rb/crbdf4vyauezdx6iqixg755sryxnoi3oifqxkxdy34s3u2w7snkb.py":46:42)
#loc29 = loc("/tmp/torchinductor_root/rb/crbdf4vyauezdx6iqixg755sryxnoi3oifqxkxdy34s3u2w7snkb.py":46:8)
#loc30 = loc("/workspace/torch-compile-caching/.venv/lib/python3.11/site-packages/triton/language/standard.py":286:36)
#loc32 = loc("/workspace/torch-compile-caching/.venv/lib/python3.11/site-packages/triton/language/standard.py":256:15)
#loc33 = loc("/tmp/torchinductor_root/rb/crbdf4vyauezdx6iqixg755sryxnoi3oifqxkxdy34s3u2w7snkb.py":47:30)
#loc34 = loc("/tmp/torchinductor_root/rb/crbdf4vyauezdx6iqixg755sryxnoi3oifqxkxdy34s3u2w7snkb.py":48:25)
#loc35 = loc("/tmp/torchinductor_root/rb/crbdf4vyauezdx6iqixg755sryxnoi3oifqxkxdy34s3u2w7snkb.py":48:37)
#loc36 = loc("/tmp/torchinductor_root/rb/crbdf4vyauezdx6iqixg755sryxnoi3oifqxkxdy34s3u2w7snkb.py":48:4)
#loc37 = loc(callsite(#loc30 at #loc31))
#loc39 = loc(callsite(#loc32 at #loc30))
#loc40 = loc(callsite(#loc39 at #loc31))
