#loc = loc("./local_cache/3k/c3kp3uisolqkxpkp44yxtd4m4gm5tvzfgnb4pfz7r37cv7lkmwh5.py":18:0)
#loc1 = loc(unknown)
#loc39 = loc("./local_cache/3k/c3kp3uisolqkxpkp44yxtd4m4gm5tvzfgnb4pfz7r37cv7lkmwh5.py":48:27)
#loc66 = loc(callsite(#loc1 at #loc39))
module {
  tt.func public @triton_red_fused__to_copy_add_embedding_mean_mul_pow_rsqrt_0(%arg0: !tt.ptr<f32> {tt.divisibility = 16 : i32} loc("./local_cache/3k/c3kp3uisolqkxpkp44yxtd4m4gm5tvzfgnb4pfz7r37cv7lkmwh5.py":18:0), %arg1: !tt.ptr<i64> {tt.divisibility = 16 : i32} loc("./local_cache/3k/c3kp3uisolqkxpkp44yxtd4m4gm5tvzfgnb4pfz7r37cv7lkmwh5.py":18:0), %arg2: !tt.ptr<f16> {tt.divisibility = 16 : i32} loc("./local_cache/3k/c3kp3uisolqkxpkp44yxtd4m4gm5tvzfgnb4pfz7r37cv7lkmwh5.py":18:0), %arg3: !tt.ptr<f16> {tt.divisibility = 16 : i32} loc("./local_cache/3k/c3kp3uisolqkxpkp44yxtd4m4gm5tvzfgnb4pfz7r37cv7lkmwh5.py":18:0), %arg4: !tt.ptr<f16> {tt.divisibility = 16 : i32} loc("./local_cache/3k/c3kp3uisolqkxpkp44yxtd4m4gm5tvzfgnb4pfz7r37cv7lkmwh5.py":18:0), %arg5: !tt.ptr<f16> {tt.divisibility = 16 : i32} loc("./local_cache/3k/c3kp3uisolqkxpkp44yxtd4m4gm5tvzfgnb4pfz7r37cv7lkmwh5.py":18:0), %arg6: i32 loc("./local_cache/3k/c3kp3uisolqkxpkp44yxtd4m4gm5tvzfgnb4pfz7r37cv7lkmwh5.py":18:0), %arg7: i32 {tt.divisibility = 16 : i32} loc("./local_cache/3k/c3kp3uisolqkxpkp44yxtd4m4gm5tvzfgnb4pfz7r37cv7lkmwh5.py":18:0)) attributes {noinline = false} {
    %cst = arith.constant dense<4096> : tensor<64x1xi64> loc(#loc1)
    %cst_0 = arith.constant dense<128256> : tensor<64x1xi64> loc(#loc1)
    %cst_1 = arith.constant dense<0.000000e+00> : tensor<1x8xf16> loc(#loc1)
    %cst_2 = arith.constant dense<0.000000e+00> : tensor<64x8xf16> loc(#loc1)
    %cst_3 = arith.constant dense<0> : tensor<64x1xi64> loc(#loc1)
    %c8_i32 = arith.constant 8 : i32 loc(#loc1)
    %c4096_i32 = arith.constant 4096 : i32 loc(#loc1)
    %c0_i32 = arith.constant 0 : i32 loc(#loc1)
    %cst_4 = arith.constant dense<9.99999974E-6> : tensor<64x1xf32> loc(#loc1)
    %cst_5 = arith.constant dense<4.096000e+03> : tensor<64x1xf32> loc(#loc1)
    %cst_6 = arith.constant dense<4096> : tensor<64x1xi32> loc(#loc1)
    %cst_7 = arith.constant dense<true> : tensor<64x1xi1> loc(#loc1)
    %cst_8 = arith.constant dense<4096> : tensor<1x8xi32> loc(#loc1)
    %cst_9 = arith.constant dense<0.000000e+00> : tensor<64x8xf32> loc(#loc1)
    %c64_i32 = arith.constant 64 : i32 loc(#loc1)
    %0 = tt.get_program_id x : i32 loc(#loc2)
    %1 = arith.muli %0, %c64_i32 : i32 loc(#loc3)
    %2 = tt.make_range {end = 64 : i32, start = 0 : i32} : tensor<64xi32> loc(#loc4)
    %3 = tt.expand_dims %2 {axis = 1 : i32} : tensor<64xi32> -> tensor<64x1xi32> loc(#loc5)
    %4 = tt.splat %1 : i32 -> tensor<64x1xi32> loc(#loc6)
    %5 = arith.addi %4, %3 : tensor<64x1xi32> loc(#loc6)
    %6 = tt.splat %arg6 : i32 -> tensor<64x1xi32> loc(#loc7)
    %7 = arith.cmpi slt, %5, %6 : tensor<64x1xi32> loc(#loc7)
    %8 = tt.make_range {end = 8 : i32, start = 0 : i32} : tensor<8xi32> loc(#loc8)
    %9 = tt.expand_dims %8 {axis = 0 : i32} : tensor<8xi32> -> tensor<1x8xi32> loc(#loc9)
    %10 = tt.splat %arg1 : !tt.ptr<i64> -> tensor<64x1x!tt.ptr<i64>> loc(#loc10)
    %11 = tt.addptr %10, %5 : tensor<64x1x!tt.ptr<i64>>, tensor<64x1xi32> loc(#loc10)
    %12 = tt.load %11, %7 evictionPolicy = evict_last : tensor<64x1x!tt.ptr<i64>> loc(#loc11)
    %13 = scf.for %arg8 = %c0_i32 to %c4096_i32 step %c8_i32 iter_args(%arg9 = %cst_9) -> (tensor<64x8xf32>)  : i32 {
      %21 = tt.splat %arg8 : i32 -> tensor<1x8xi32> loc(#loc13)
      %22 = arith.addi %21, %9 : tensor<1x8xi32> loc(#loc13)
      %23 = arith.cmpi slt, %22, %cst_8 : tensor<1x8xi32> loc(#loc14)
      %24 = arith.addi %12, %cst_0 : tensor<64x1xi64> loc(#loc15)
      %25 = arith.cmpi slt, %12, %cst_3 : tensor<64x1xi64> loc(#loc16)
      %26 = arith.select %25, %24, %12 : tensor<64x1xi1>, tensor<64x1xi64> loc(#loc17)
      %27 = arith.cmpi sge, %26, %cst_3 : tensor<64x1xi64> loc(#loc18)
      %28 = arith.cmpi slt, %26, %cst_0 : tensor<64x1xi64> loc(#loc19)
      %29 = arith.andi %27, %28 : tensor<64x1xi1> loc(#loc20)
      %30 = arith.xori %7, %cst_7 : tensor<64x1xi1> loc(#loc21)
      %31 = arith.ori %29, %30 : tensor<64x1xi1> loc(#loc22)
      %32 = tt.broadcast %31 : tensor<64x1xi1> -> tensor<64x8xi1> loc(#loc22)
      tt.assert %32, "index out of bounds: 0 <= tmp4 < 128256" : tensor<64x8xi1> loc(#loc23)
      %33 = arith.muli %26, %cst : tensor<64x1xi64> loc(#loc24)
      %34 = tt.broadcast %33 : tensor<64x1xi64> -> tensor<64x8xi64> loc(#loc24)
      %35 = arith.extsi %22 : tensor<1x8xi32> to tensor<1x8xi64> loc(#loc25)
      %36 = tt.broadcast %35 : tensor<1x8xi64> -> tensor<64x8xi64> loc(#loc25)
      %37 = arith.addi %36, %34 : tensor<64x8xi64> loc(#loc25)
      %38 = tt.splat %arg2 : !tt.ptr<f16> -> tensor<64x8x!tt.ptr<f16>> loc(#loc26)
      %39 = tt.addptr %38, %37 : tensor<64x8x!tt.ptr<f16>>, tensor<64x8xi64> loc(#loc26)
      %40 = tt.broadcast %7 : tensor<64x1xi1> -> tensor<64x8xi1> loc(#loc27)
      %41 = tt.broadcast %23 : tensor<1x8xi1> -> tensor<64x8xi1> loc(#loc27)
      %42 = arith.andi %40, %41 : tensor<64x8xi1> loc(#loc27)
      %43 = tt.load %39, %42, %cst_2 evictionPolicy = evict_first : tensor<64x8x!tt.ptr<f16>> loc(#loc28)
      %44 = arith.extf %43 : tensor<64x8xf16> to tensor<64x8xf32> loc(#loc29)
      %45 = arith.mulf %44, %44 : tensor<64x8xf32> loc(#loc30)
      %46 = arith.addf %arg9, %45 : tensor<64x8xf32> loc(#loc31)
      %47 = arith.select %42, %46, %arg9 : tensor<64x8xi1>, tensor<64x8xf32> loc(#loc32)
      %48 = arith.muli %5, %cst_6 : tensor<64x1xi32> loc(#loc33)
      %49 = tt.broadcast %22 : tensor<1x8xi32> -> tensor<64x8xi32> loc(#loc34)
      %50 = tt.broadcast %48 : tensor<64x1xi32> -> tensor<64x8xi32> loc(#loc34)
      %51 = arith.addi %49, %50 : tensor<64x8xi32> loc(#loc34)
      %52 = tt.splat %arg4 : !tt.ptr<f16> -> tensor<64x8x!tt.ptr<f16>> loc(#loc35)
      %53 = tt.addptr %52, %51 : tensor<64x8x!tt.ptr<f16>>, tensor<64x8xi32> loc(#loc35)
      %54 = arith.truncf %44 : tensor<64x8xf32> to tensor<64x8xf16> loc(#loc36)
      tt.store %53, %54, %42 : tensor<64x8x!tt.ptr<f16>> loc(#loc36)
      scf.yield %47 : tensor<64x8xf32> loc(#loc37)
    } loc(#loc12)
    %14 = "tt.reduce"(%13) <{axis = 1 : i32}> ({
    ^bb0(%arg8: f32 loc(callsite(#loc1 at #loc39)), %arg9: f32 loc(callsite(#loc1 at #loc39))):
      %21 = arith.addf %arg8, %arg9 : f32 loc(#loc68)
      tt.reduce.return %21 : f32 loc(#loc65)
    }) : (tensor<64x8xf32>) -> tensor<64xf32> loc(#loc65)
    %15 = tt.expand_dims %14 {axis = 1 : i32} : tensor<64xf32> -> tensor<64x1xf32> loc(#loc41)
    %16 = arith.divf %15, %cst_5 : tensor<64x1xf32> loc(#loc42)
    %17 = arith.addf %16, %cst_4 : tensor<64x1xf32> loc(#loc43)
    %18 = tt.extern_elementwise %17 {libname = "", libpath = "", pure = true, symbol = "__nv_rsqrtf"} : (tensor<64x1xf32>) -> tensor<64x1xf32> loc(#loc44)
    gpu.barrier loc(#loc45)
    %19 = tt.splat %arg0 : !tt.ptr<f32> -> tensor<64x1x!tt.ptr<f32>> loc(#loc46)
    %20 = tt.addptr %19, %5 : tensor<64x1x!tt.ptr<f32>>, tensor<64x1xi32> loc(#loc46)
    tt.store %20, %18, %7 : tensor<64x1x!tt.ptr<f32>> loc(#loc47)
    scf.for %arg8 = %c0_i32 to %c4096_i32 step %c8_i32  : i32 {
      %21 = tt.splat %arg8 : i32 -> tensor<1x8xi32> loc(#loc49)
      %22 = arith.addi %21, %9 : tensor<1x8xi32> loc(#loc49)
      %23 = arith.cmpi slt, %22, %cst_8 : tensor<1x8xi32> loc(#loc50)
      %24 = tt.splat %arg3 : !tt.ptr<f16> -> tensor<1x8x!tt.ptr<f16>> loc(#loc51)
      %25 = tt.addptr %24, %22 : tensor<1x8x!tt.ptr<f16>>, tensor<1x8xi32> loc(#loc51)
      %26 = tt.load %25, %23, %cst_1 evictionPolicy = evict_last : tensor<1x8x!tt.ptr<f16>> loc(#loc52)
      %27 = arith.extf %26 : tensor<1x8xf16> to tensor<1x8xf32> loc(#loc53)
      %28 = arith.muli %5, %cst_6 : tensor<64x1xi32> loc(#loc54)
      %29 = tt.broadcast %22 : tensor<1x8xi32> -> tensor<64x8xi32> loc(#loc55)
      %30 = tt.broadcast %28 : tensor<64x1xi32> -> tensor<64x8xi32> loc(#loc55)
      %31 = arith.addi %29, %30 : tensor<64x8xi32> loc(#loc55)
      %32 = tt.splat %arg4 : !tt.ptr<f16> -> tensor<64x8x!tt.ptr<f16>> loc(#loc56)
      %33 = tt.addptr %32, %31 : tensor<64x8x!tt.ptr<f16>>, tensor<64x8xi32> loc(#loc56)
      %34 = tt.broadcast %7 : tensor<64x1xi1> -> tensor<64x8xi1> loc(#loc57)
      %35 = tt.broadcast %23 : tensor<1x8xi1> -> tensor<64x8xi1> loc(#loc57)
      %36 = arith.andi %34, %35 : tensor<64x8xi1> loc(#loc57)
      %37 = tt.load %33, %36, %cst_2 evictionPolicy = evict_first : tensor<64x8x!tt.ptr<f16>> loc(#loc58)
      %38 = arith.extf %37 : tensor<64x8xf16> to tensor<64x8xf32> loc(#loc59)
      %39 = tt.broadcast %18 : tensor<64x1xf32> -> tensor<64x8xf32> loc(#loc60)
      %40 = arith.mulf %38, %39 : tensor<64x8xf32> loc(#loc60)
      %41 = tt.broadcast %27 : tensor<1x8xf32> -> tensor<64x8xf32> loc(#loc61)
      %42 = arith.mulf %41, %40 : tensor<64x8xf32> loc(#loc61)
      %43 = tt.splat %arg5 : !tt.ptr<f16> -> tensor<64x8x!tt.ptr<f16>> loc(#loc62)
      %44 = tt.addptr %43, %31 : tensor<64x8x!tt.ptr<f16>>, tensor<64x8xi32> loc(#loc62)
      %45 = arith.truncf %42 : tensor<64x8xf32> to tensor<64x8xf16> loc(#loc63)
      tt.store %44, %45, %36 : tensor<64x8x!tt.ptr<f16>> loc(#loc63)
    } loc(#loc48)
    tt.return loc(#loc64)
  } loc(#loc)
} loc(#loc)
#loc2 = loc("./local_cache/3k/c3kp3uisolqkxpkp44yxtd4m4gm5tvzfgnb4pfz7r37cv7lkmwh5.py":22:28)
#loc3 = loc("./local_cache/3k/c3kp3uisolqkxpkp44yxtd4m4gm5tvzfgnb4pfz7r37cv7lkmwh5.py":22:33)
#loc4 = loc("./local_cache/3k/c3kp3uisolqkxpkp44yxtd4m4gm5tvzfgnb4pfz7r37cv7lkmwh5.py":23:36)
#loc5 = loc("./local_cache/3k/c3kp3uisolqkxpkp44yxtd4m4gm5tvzfgnb4pfz7r37cv7lkmwh5.py":23:44)
#loc6 = loc("./local_cache/3k/c3kp3uisolqkxpkp44yxtd4m4gm5tvzfgnb4pfz7r37cv7lkmwh5.py":23:23)
#loc7 = loc("./local_cache/3k/c3kp3uisolqkxpkp44yxtd4m4gm5tvzfgnb4pfz7r37cv7lkmwh5.py":24:21)
#loc8 = loc("./local_cache/3k/c3kp3uisolqkxpkp44yxtd4m4gm5tvzfgnb4pfz7r37cv7lkmwh5.py":25:27)
#loc9 = loc("./local_cache/3k/c3kp3uisolqkxpkp44yxtd4m4gm5tvzfgnb4pfz7r37cv7lkmwh5.py":25:37)
#loc10 = loc("./local_cache/3k/c3kp3uisolqkxpkp44yxtd4m4gm5tvzfgnb4pfz7r37cv7lkmwh5.py":28:30)
#loc11 = loc("./local_cache/3k/c3kp3uisolqkxpkp44yxtd4m4gm5tvzfgnb4pfz7r37cv7lkmwh5.py":28:35)
#loc12 = loc("./local_cache/3k/c3kp3uisolqkxpkp44yxtd4m4gm5tvzfgnb4pfz7r37cv7lkmwh5.py":30:40)
#loc13 = loc("./local_cache/3k/c3kp3uisolqkxpkp44yxtd4m4gm5tvzfgnb4pfz7r37cv7lkmwh5.py":31:31)
#loc14 = loc("./local_cache/3k/c3kp3uisolqkxpkp44yxtd4m4gm5tvzfgnb4pfz7r37cv7lkmwh5.py":32:29)
#loc15 = loc("./local_cache/3k/c3kp3uisolqkxpkp44yxtd4m4gm5tvzfgnb4pfz7r37cv7lkmwh5.py":37:22)
#loc16 = loc("./local_cache/3k/c3kp3uisolqkxpkp44yxtd4m4gm5tvzfgnb4pfz7r37cv7lkmwh5.py":38:22)
#loc17 = loc("./local_cache/3k/c3kp3uisolqkxpkp44yxtd4m4gm5tvzfgnb4pfz7r37cv7lkmwh5.py":39:36)
#loc18 = loc("./local_cache/3k/c3kp3uisolqkxpkp44yxtd4m4gm5tvzfgnb4pfz7r37cv7lkmwh5.py":40:32)
#loc19 = loc("./local_cache/3k/c3kp3uisolqkxpkp44yxtd4m4gm5tvzfgnb4pfz7r37cv7lkmwh5.py":40:48)
#loc20 = loc("./local_cache/3k/c3kp3uisolqkxpkp44yxtd4m4gm5tvzfgnb4pfz7r37cv7lkmwh5.py":40:41)
#loc21 = loc("./local_cache/3k/c3kp3uisolqkxpkp44yxtd4m4gm5tvzfgnb4pfz7r37cv7lkmwh5.py":40:61)
#loc22 = loc("./local_cache/3k/c3kp3uisolqkxpkp44yxtd4m4gm5tvzfgnb4pfz7r37cv7lkmwh5.py":40:59)
#loc23 = loc("./local_cache/3k/c3kp3uisolqkxpkp44yxtd4m4gm5tvzfgnb4pfz7r37cv7lkmwh5.py":40:69)
#loc24 = loc("./local_cache/3k/c3kp3uisolqkxpkp44yxtd4m4gm5tvzfgnb4pfz7r37cv7lkmwh5.py":41:46)
#loc25 = loc("./local_cache/3k/c3kp3uisolqkxpkp44yxtd4m4gm5tvzfgnb4pfz7r37cv7lkmwh5.py":41:41)
#loc26 = loc("./local_cache/3k/c3kp3uisolqkxpkp44yxtd4m4gm5tvzfgnb4pfz7r37cv7lkmwh5.py":41:34)
#loc27 = loc("./local_cache/3k/c3kp3uisolqkxpkp44yxtd4m4gm5tvzfgnb4pfz7r37cv7lkmwh5.py":41:61)
#loc28 = loc("./local_cache/3k/c3kp3uisolqkxpkp44yxtd4m4gm5tvzfgnb4pfz7r37cv7lkmwh5.py":41:53)
#loc29 = loc("./local_cache/3k/c3kp3uisolqkxpkp44yxtd4m4gm5tvzfgnb4pfz7r37cv7lkmwh5.py":41:115)
#loc30 = loc("./local_cache/3k/c3kp3uisolqkxpkp44yxtd4m4gm5tvzfgnb4pfz7r37cv7lkmwh5.py":43:22)
#loc31 = loc("./local_cache/3k/c3kp3uisolqkxpkp44yxtd4m4gm5tvzfgnb4pfz7r37cv7lkmwh5.py":45:25)
#loc32 = loc("./local_cache/3k/c3kp3uisolqkxpkp44yxtd4m4gm5tvzfgnb4pfz7r37cv7lkmwh5.py":46:50)
#loc33 = loc("./local_cache/3k/c3kp3uisolqkxpkp44yxtd4m4gm5tvzfgnb4pfz7r37cv7lkmwh5.py":47:41)
#loc34 = loc("./local_cache/3k/c3kp3uisolqkxpkp44yxtd4m4gm5tvzfgnb4pfz7r37cv7lkmwh5.py":47:36)
#loc35 = loc("./local_cache/3k/c3kp3uisolqkxpkp44yxtd4m4gm5tvzfgnb4pfz7r37cv7lkmwh5.py":47:29)
#loc36 = loc("./local_cache/3k/c3kp3uisolqkxpkp44yxtd4m4gm5tvzfgnb4pfz7r37cv7lkmwh5.py":47:52)
#loc37 = loc("./local_cache/3k/c3kp3uisolqkxpkp44yxtd4m4gm5tvzfgnb4pfz7r37cv7lkmwh5.py":47:8)
#loc38 = loc("/workspace/torch-compile-caching/.venv/lib/python3.11/site-packages/triton/language/standard.py":286:36)
#loc40 = loc("/workspace/torch-compile-caching/.venv/lib/python3.11/site-packages/triton/language/standard.py":256:15)
#loc41 = loc("./local_cache/3k/c3kp3uisolqkxpkp44yxtd4m4gm5tvzfgnb4pfz7r37cv7lkmwh5.py":48:30)
#loc42 = loc("./local_cache/3k/c3kp3uisolqkxpkp44yxtd4m4gm5tvzfgnb4pfz7r37cv7lkmwh5.py":50:21)
#loc43 = loc("./local_cache/3k/c3kp3uisolqkxpkp44yxtd4m4gm5tvzfgnb4pfz7r37cv7lkmwh5.py":52:20)
#loc44 = loc("./local_cache/3k/c3kp3uisolqkxpkp44yxtd4m4gm5tvzfgnb4pfz7r37cv7lkmwh5.py":53:28)
#loc45 = loc("./local_cache/3k/c3kp3uisolqkxpkp44yxtd4m4gm5tvzfgnb4pfz7r37cv7lkmwh5.py":54:4)
#loc46 = loc("./local_cache/3k/c3kp3uisolqkxpkp44yxtd4m4gm5tvzfgnb4pfz7r37cv7lkmwh5.py":55:28)
#loc47 = loc("./local_cache/3k/c3kp3uisolqkxpkp44yxtd4m4gm5tvzfgnb4pfz7r37cv7lkmwh5.py":55:40)
#loc48 = loc("./local_cache/3k/c3kp3uisolqkxpkp44yxtd4m4gm5tvzfgnb4pfz7r37cv7lkmwh5.py":56:40)
#loc49 = loc("./local_cache/3k/c3kp3uisolqkxpkp44yxtd4m4gm5tvzfgnb4pfz7r37cv7lkmwh5.py":57:31)
#loc50 = loc("./local_cache/3k/c3kp3uisolqkxpkp44yxtd4m4gm5tvzfgnb4pfz7r37cv7lkmwh5.py":58:29)
#loc51 = loc("./local_cache/3k/c3kp3uisolqkxpkp44yxtd4m4gm5tvzfgnb4pfz7r37cv7lkmwh5.py":62:35)
#loc52 = loc("./local_cache/3k/c3kp3uisolqkxpkp44yxtd4m4gm5tvzfgnb4pfz7r37cv7lkmwh5.py":62:42)
#loc53 = loc("./local_cache/3k/c3kp3uisolqkxpkp44yxtd4m4gm5tvzfgnb4pfz7r37cv7lkmwh5.py":62:95)
#loc54 = loc("./local_cache/3k/c3kp3uisolqkxpkp44yxtd4m4gm5tvzfgnb4pfz7r37cv7lkmwh5.py":63:48)
#loc55 = loc("./local_cache/3k/c3kp3uisolqkxpkp44yxtd4m4gm5tvzfgnb4pfz7r37cv7lkmwh5.py":63:43)
#loc56 = loc("./local_cache/3k/c3kp3uisolqkxpkp44yxtd4m4gm5tvzfgnb4pfz7r37cv7lkmwh5.py":63:36)
#loc57 = loc("./local_cache/3k/c3kp3uisolqkxpkp44yxtd4m4gm5tvzfgnb4pfz7r37cv7lkmwh5.py":63:61)
#loc58 = loc("./local_cache/3k/c3kp3uisolqkxpkp44yxtd4m4gm5tvzfgnb4pfz7r37cv7lkmwh5.py":63:53)
#loc59 = loc("./local_cache/3k/c3kp3uisolqkxpkp44yxtd4m4gm5tvzfgnb4pfz7r37cv7lkmwh5.py":63:115)
#loc60 = loc("./local_cache/3k/c3kp3uisolqkxpkp44yxtd4m4gm5tvzfgnb4pfz7r37cv7lkmwh5.py":65:24)
#loc61 = loc("./local_cache/3k/c3kp3uisolqkxpkp44yxtd4m4gm5tvzfgnb4pfz7r37cv7lkmwh5.py":67:24)
#loc62 = loc("./local_cache/3k/c3kp3uisolqkxpkp44yxtd4m4gm5tvzfgnb4pfz7r37cv7lkmwh5.py":68:29)
#loc63 = loc("./local_cache/3k/c3kp3uisolqkxpkp44yxtd4m4gm5tvzfgnb4pfz7r37cv7lkmwh5.py":68:53)
#loc64 = loc("./local_cache/3k/c3kp3uisolqkxpkp44yxtd4m4gm5tvzfgnb4pfz7r37cv7lkmwh5.py":56:4)
#loc65 = loc(callsite(#loc38 at #loc39))
#loc67 = loc(callsite(#loc40 at #loc38))
#loc68 = loc(callsite(#loc67 at #loc39))
