#loc = loc("./local_cache/ir/cirveghol7wjrq7zwkkgu3sphruzjhq4ru5zcvmudgaexdo5niag.py":18:0)
#loc1 = loc(unknown)
#loc33 = loc("./local_cache/ir/cirveghol7wjrq7zwkkgu3sphruzjhq4ru5zcvmudgaexdo5niag.py":46:25)
#loc60 = loc(callsite(#loc1 at #loc33))
module {
  tt.func public @triton_red_fused__to_copy_add_mean_mul_pow_rsqrt_8(%arg0: !tt.ptr<f16> {tt.divisibility = 16 : i32} loc("./local_cache/ir/cirveghol7wjrq7zwkkgu3sphruzjhq4ru5zcvmudgaexdo5niag.py":18:0), %arg1: !tt.ptr<f32> {tt.divisibility = 16 : i32} loc("./local_cache/ir/cirveghol7wjrq7zwkkgu3sphruzjhq4ru5zcvmudgaexdo5niag.py":18:0), %arg2: !tt.ptr<f16> {tt.divisibility = 16 : i32} loc("./local_cache/ir/cirveghol7wjrq7zwkkgu3sphruzjhq4ru5zcvmudgaexdo5niag.py":18:0), %arg3: !tt.ptr<f16> {tt.divisibility = 16 : i32} loc("./local_cache/ir/cirveghol7wjrq7zwkkgu3sphruzjhq4ru5zcvmudgaexdo5niag.py":18:0), %arg4: !tt.ptr<f16> {tt.divisibility = 16 : i32} loc("./local_cache/ir/cirveghol7wjrq7zwkkgu3sphruzjhq4ru5zcvmudgaexdo5niag.py":18:0), %arg5: !tt.ptr<f16> {tt.divisibility = 16 : i32} loc("./local_cache/ir/cirveghol7wjrq7zwkkgu3sphruzjhq4ru5zcvmudgaexdo5niag.py":18:0), %arg6: i32 loc("./local_cache/ir/cirveghol7wjrq7zwkkgu3sphruzjhq4ru5zcvmudgaexdo5niag.py":18:0), %arg7: i32 {tt.divisibility = 16 : i32} loc("./local_cache/ir/cirveghol7wjrq7zwkkgu3sphruzjhq4ru5zcvmudgaexdo5niag.py":18:0)) attributes {noinline = false} {
    %cst = arith.constant dense<0.000000e+00> : tensor<1x8xf16> loc(#loc1)
    %cst_0 = arith.constant dense<0.000000e+00> : tensor<4x8xf16> loc(#loc1)
    %c8_i32 = arith.constant 8 : i32 loc(#loc1)
    %c4096_i32 = arith.constant 4096 : i32 loc(#loc1)
    %c0_i32 = arith.constant 0 : i32 loc(#loc1)
    %cst_1 = arith.constant dense<9.99999974E-6> : tensor<4x1xf32> loc(#loc1)
    %cst_2 = arith.constant dense<4.096000e+03> : tensor<4x1xf32> loc(#loc1)
    %cst_3 = arith.constant dense<4096> : tensor<4x1xi32> loc(#loc1)
    %cst_4 = arith.constant dense<4096> : tensor<1x8xi32> loc(#loc1)
    %cst_5 = arith.constant dense<0.000000e+00> : tensor<4x8xf32> loc(#loc1)
    %c4_i32 = arith.constant 4 : i32 loc(#loc1)
    %0 = tt.get_program_id x : i32 loc(#loc2)
    %1 = arith.muli %0, %c4_i32 : i32 loc(#loc3)
    %2 = tt.make_range {end = 4 : i32, start = 0 : i32} : tensor<4xi32> loc(#loc4)
    %3 = tt.expand_dims %2 {axis = 1 : i32} : tensor<4xi32> -> tensor<4x1xi32> loc(#loc5)
    %4 = tt.splat %1 : i32 -> tensor<4x1xi32> loc(#loc6)
    %5 = arith.addi %4, %3 : tensor<4x1xi32> loc(#loc6)
    %6 = tt.splat %arg6 : i32 -> tensor<4x1xi32> loc(#loc7)
    %7 = arith.cmpi slt, %5, %6 : tensor<4x1xi32> loc(#loc7)
    %8 = tt.make_range {end = 8 : i32, start = 0 : i32} : tensor<8xi32> loc(#loc8)
    %9 = tt.expand_dims %8 {axis = 0 : i32} : tensor<8xi32> -> tensor<1x8xi32> loc(#loc9)
    %10 = scf.for %arg8 = %c0_i32 to %c4096_i32 step %c8_i32 iter_args(%arg9 = %cst_5) -> (tensor<4x8xf32>)  : i32 {
      %18 = tt.splat %arg8 : i32 -> tensor<1x8xi32> loc(#loc11)
      %19 = arith.addi %18, %9 : tensor<1x8xi32> loc(#loc11)
      %20 = arith.cmpi slt, %19, %cst_4 : tensor<1x8xi32> loc(#loc12)
      %21 = arith.muli %5, %cst_3 : tensor<4x1xi32> loc(#loc13)
      %22 = tt.broadcast %19 : tensor<1x8xi32> -> tensor<4x8xi32> loc(#loc14)
      %23 = tt.broadcast %21 : tensor<4x1xi32> -> tensor<4x8xi32> loc(#loc14)
      %24 = arith.addi %22, %23 : tensor<4x8xi32> loc(#loc14)
      %25 = tt.splat %arg2 : !tt.ptr<f16> -> tensor<4x8x!tt.ptr<f16>> loc(#loc15)
      %26 = tt.addptr %25, %24 : tensor<4x8x!tt.ptr<f16>>, tensor<4x8xi32> loc(#loc15)
      %27 = tt.broadcast %20 : tensor<1x8xi1> -> tensor<4x8xi1> loc(#loc16)
      %28 = tt.broadcast %7 : tensor<4x1xi1> -> tensor<4x8xi1> loc(#loc16)
      %29 = arith.andi %27, %28 : tensor<4x8xi1> loc(#loc16)
      %30 = tt.load %26, %29, %cst_0 evictionPolicy = evict_first : tensor<4x8x!tt.ptr<f16>> loc(#loc17)
      %31 = arith.extf %30 : tensor<4x8xf16> to tensor<4x8xf32> loc(#loc18)
      %32 = tt.splat %arg3 : !tt.ptr<f16> -> tensor<4x8x!tt.ptr<f16>> loc(#loc19)
      %33 = tt.addptr %32, %24 : tensor<4x8x!tt.ptr<f16>>, tensor<4x8xi32> loc(#loc19)
      %34 = tt.load %33, %29, %cst_0 evictionPolicy = evict_first : tensor<4x8x!tt.ptr<f16>> loc(#loc20)
      %35 = arith.extf %34 : tensor<4x8xf16> to tensor<4x8xf32> loc(#loc21)
      %36 = tt.splat %arg0 : !tt.ptr<f16> -> tensor<4x8x!tt.ptr<f16>> loc(#loc22)
      %37 = tt.addptr %36, %24 : tensor<4x8x!tt.ptr<f16>>, tensor<4x8xi32> loc(#loc22)
      %38 = tt.load %37, %29, %cst_0 evictionPolicy = evict_first : tensor<4x8x!tt.ptr<f16>> loc(#loc23)
      %39 = arith.extf %38 : tensor<4x8xf16> to tensor<4x8xf32> loc(#loc24)
      %40 = arith.addf %31, %35 : tensor<4x8xf32> loc(#loc25)
      %41 = arith.addf %40, %39 : tensor<4x8xf32> loc(#loc26)
      %42 = arith.mulf %41, %41 : tensor<4x8xf32> loc(#loc27)
      %43 = arith.addf %arg9, %42 : tensor<4x8xf32> loc(#loc28)
      %44 = arith.select %29, %43, %arg9 : tensor<4x8xi1>, tensor<4x8xf32> loc(#loc29)
      %45 = arith.truncf %41 : tensor<4x8xf32> to tensor<4x8xf16> loc(#loc30)
      tt.store %37, %45, %29 : tensor<4x8x!tt.ptr<f16>> loc(#loc30)
      scf.yield %44 : tensor<4x8xf32> loc(#loc31)
    } loc(#loc10)
    %11 = "tt.reduce"(%10) <{axis = 1 : i32}> ({
    ^bb0(%arg8: f32 loc(callsite(#loc1 at #loc33)), %arg9: f32 loc(callsite(#loc1 at #loc33))):
      %18 = arith.addf %arg8, %arg9 : f32 loc(#loc62)
      tt.reduce.return %18 : f32 loc(#loc59)
    }) : (tensor<4x8xf32>) -> tensor<4xf32> loc(#loc59)
    %12 = tt.expand_dims %11 {axis = 1 : i32} : tensor<4xf32> -> tensor<4x1xf32> loc(#loc35)
    %13 = arith.divf %12, %cst_2 : tensor<4x1xf32> loc(#loc36)
    %14 = arith.addf %13, %cst_1 : tensor<4x1xf32> loc(#loc37)
    %15 = tt.extern_elementwise %14 {libname = "", libpath = "", pure = true, symbol = "__nv_rsqrtf"} : (tensor<4x1xf32>) -> tensor<4x1xf32> loc(#loc38)
    gpu.barrier loc(#loc39)
    %16 = tt.splat %arg1 : !tt.ptr<f32> -> tensor<4x1x!tt.ptr<f32>> loc(#loc40)
    %17 = tt.addptr %16, %5 : tensor<4x1x!tt.ptr<f32>>, tensor<4x1xi32> loc(#loc40)
    tt.store %17, %15, %7 : tensor<4x1x!tt.ptr<f32>> loc(#loc41)
    scf.for %arg8 = %c0_i32 to %c4096_i32 step %c8_i32  : i32 {
      %18 = tt.splat %arg8 : i32 -> tensor<1x8xi32> loc(#loc43)
      %19 = arith.addi %18, %9 : tensor<1x8xi32> loc(#loc43)
      %20 = arith.cmpi slt, %19, %cst_4 : tensor<1x8xi32> loc(#loc44)
      %21 = tt.splat %arg4 : !tt.ptr<f16> -> tensor<1x8x!tt.ptr<f16>> loc(#loc45)
      %22 = tt.addptr %21, %19 : tensor<1x8x!tt.ptr<f16>>, tensor<1x8xi32> loc(#loc45)
      %23 = tt.load %22, %20, %cst evictionPolicy = evict_last : tensor<1x8x!tt.ptr<f16>> loc(#loc46)
      %24 = arith.extf %23 : tensor<1x8xf16> to tensor<1x8xf32> loc(#loc47)
      %25 = arith.muli %5, %cst_3 : tensor<4x1xi32> loc(#loc48)
      %26 = tt.broadcast %19 : tensor<1x8xi32> -> tensor<4x8xi32> loc(#loc49)
      %27 = tt.broadcast %25 : tensor<4x1xi32> -> tensor<4x8xi32> loc(#loc49)
      %28 = arith.addi %26, %27 : tensor<4x8xi32> loc(#loc49)
      %29 = tt.splat %arg0 : !tt.ptr<f16> -> tensor<4x8x!tt.ptr<f16>> loc(#loc50)
      %30 = tt.addptr %29, %28 : tensor<4x8x!tt.ptr<f16>>, tensor<4x8xi32> loc(#loc50)
      %31 = tt.broadcast %20 : tensor<1x8xi1> -> tensor<4x8xi1> loc(#loc51)
      %32 = tt.broadcast %7 : tensor<4x1xi1> -> tensor<4x8xi1> loc(#loc51)
      %33 = arith.andi %31, %32 : tensor<4x8xi1> loc(#loc51)
      %34 = tt.load %30, %33, %cst_0 evictionPolicy = evict_first : tensor<4x8x!tt.ptr<f16>> loc(#loc52)
      %35 = arith.extf %34 : tensor<4x8xf16> to tensor<4x8xf32> loc(#loc53)
      %36 = tt.broadcast %15 : tensor<4x1xf32> -> tensor<4x8xf32> loc(#loc54)
      %37 = arith.mulf %35, %36 : tensor<4x8xf32> loc(#loc54)
      %38 = tt.broadcast %24 : tensor<1x8xf32> -> tensor<4x8xf32> loc(#loc55)
      %39 = arith.mulf %38, %37 : tensor<4x8xf32> loc(#loc55)
      %40 = tt.splat %arg5 : !tt.ptr<f16> -> tensor<4x8x!tt.ptr<f16>> loc(#loc56)
      %41 = tt.addptr %40, %28 : tensor<4x8x!tt.ptr<f16>>, tensor<4x8xi32> loc(#loc56)
      %42 = arith.truncf %39 : tensor<4x8xf32> to tensor<4x8xf16> loc(#loc57)
      tt.store %41, %42, %33 : tensor<4x8x!tt.ptr<f16>> loc(#loc57)
    } loc(#loc42)
    tt.return loc(#loc58)
  } loc(#loc)
} loc(#loc)
#loc2 = loc("./local_cache/ir/cirveghol7wjrq7zwkkgu3sphruzjhq4ru5zcvmudgaexdo5niag.py":22:28)
#loc3 = loc("./local_cache/ir/cirveghol7wjrq7zwkkgu3sphruzjhq4ru5zcvmudgaexdo5niag.py":22:33)
#loc4 = loc("./local_cache/ir/cirveghol7wjrq7zwkkgu3sphruzjhq4ru5zcvmudgaexdo5niag.py":23:36)
#loc5 = loc("./local_cache/ir/cirveghol7wjrq7zwkkgu3sphruzjhq4ru5zcvmudgaexdo5niag.py":23:44)
#loc6 = loc("./local_cache/ir/cirveghol7wjrq7zwkkgu3sphruzjhq4ru5zcvmudgaexdo5niag.py":23:23)
#loc7 = loc("./local_cache/ir/cirveghol7wjrq7zwkkgu3sphruzjhq4ru5zcvmudgaexdo5niag.py":24:21)
#loc8 = loc("./local_cache/ir/cirveghol7wjrq7zwkkgu3sphruzjhq4ru5zcvmudgaexdo5niag.py":25:27)
#loc9 = loc("./local_cache/ir/cirveghol7wjrq7zwkkgu3sphruzjhq4ru5zcvmudgaexdo5niag.py":25:37)
#loc10 = loc("./local_cache/ir/cirveghol7wjrq7zwkkgu3sphruzjhq4ru5zcvmudgaexdo5niag.py":29:40)
#loc11 = loc("./local_cache/ir/cirveghol7wjrq7zwkkgu3sphruzjhq4ru5zcvmudgaexdo5niag.py":30:31)
#loc12 = loc("./local_cache/ir/cirveghol7wjrq7zwkkgu3sphruzjhq4ru5zcvmudgaexdo5niag.py":31:29)
#loc13 = loc("./local_cache/ir/cirveghol7wjrq7zwkkgu3sphruzjhq4ru5zcvmudgaexdo5niag.py":35:46)
#loc14 = loc("./local_cache/ir/cirveghol7wjrq7zwkkgu3sphruzjhq4ru5zcvmudgaexdo5niag.py":35:41)
#loc15 = loc("./local_cache/ir/cirveghol7wjrq7zwkkgu3sphruzjhq4ru5zcvmudgaexdo5niag.py":35:34)
#loc16 = loc("./local_cache/ir/cirveghol7wjrq7zwkkgu3sphruzjhq4ru5zcvmudgaexdo5niag.py":35:61)
#loc17 = loc("./local_cache/ir/cirveghol7wjrq7zwkkgu3sphruzjhq4ru5zcvmudgaexdo5niag.py":35:51)
#loc18 = loc("./local_cache/ir/cirveghol7wjrq7zwkkgu3sphruzjhq4ru5zcvmudgaexdo5niag.py":35:113)
#loc19 = loc("./local_cache/ir/cirveghol7wjrq7zwkkgu3sphruzjhq4ru5zcvmudgaexdo5niag.py":36:34)
#loc20 = loc("./local_cache/ir/cirveghol7wjrq7zwkkgu3sphruzjhq4ru5zcvmudgaexdo5niag.py":36:51)
#loc21 = loc("./local_cache/ir/cirveghol7wjrq7zwkkgu3sphruzjhq4ru5zcvmudgaexdo5niag.py":36:113)
#loc22 = loc("./local_cache/ir/cirveghol7wjrq7zwkkgu3sphruzjhq4ru5zcvmudgaexdo5niag.py":37:38)
#loc23 = loc("./local_cache/ir/cirveghol7wjrq7zwkkgu3sphruzjhq4ru5zcvmudgaexdo5niag.py":37:55)
#loc24 = loc("./local_cache/ir/cirveghol7wjrq7zwkkgu3sphruzjhq4ru5zcvmudgaexdo5niag.py":37:117)
#loc25 = loc("./local_cache/ir/cirveghol7wjrq7zwkkgu3sphruzjhq4ru5zcvmudgaexdo5niag.py":38:22)
#loc26 = loc("./local_cache/ir/cirveghol7wjrq7zwkkgu3sphruzjhq4ru5zcvmudgaexdo5niag.py":39:22)
#loc27 = loc("./local_cache/ir/cirveghol7wjrq7zwkkgu3sphruzjhq4ru5zcvmudgaexdo5niag.py":41:22)
#loc28 = loc("./local_cache/ir/cirveghol7wjrq7zwkkgu3sphruzjhq4ru5zcvmudgaexdo5niag.py":43:23)
#loc29 = loc("./local_cache/ir/cirveghol7wjrq7zwkkgu3sphruzjhq4ru5zcvmudgaexdo5niag.py":44:48)
#loc30 = loc("./local_cache/ir/cirveghol7wjrq7zwkkgu3sphruzjhq4ru5zcvmudgaexdo5niag.py":45:55)
#loc31 = loc("./local_cache/ir/cirveghol7wjrq7zwkkgu3sphruzjhq4ru5zcvmudgaexdo5niag.py":45:8)
#loc32 = loc("/workspace/torch-compile-caching/.venv/lib/python3.11/site-packages/triton/language/standard.py":286:36)
#loc34 = loc("/workspace/torch-compile-caching/.venv/lib/python3.11/site-packages/triton/language/standard.py":256:15)
#loc35 = loc("./local_cache/ir/cirveghol7wjrq7zwkkgu3sphruzjhq4ru5zcvmudgaexdo5niag.py":46:28)
#loc36 = loc("./local_cache/ir/cirveghol7wjrq7zwkkgu3sphruzjhq4ru5zcvmudgaexdo5niag.py":48:20)
#loc37 = loc("./local_cache/ir/cirveghol7wjrq7zwkkgu3sphruzjhq4ru5zcvmudgaexdo5niag.py":50:20)
#loc38 = loc("./local_cache/ir/cirveghol7wjrq7zwkkgu3sphruzjhq4ru5zcvmudgaexdo5niag.py":51:28)
#loc39 = loc("./local_cache/ir/cirveghol7wjrq7zwkkgu3sphruzjhq4ru5zcvmudgaexdo5niag.py":52:4)
#loc40 = loc("./local_cache/ir/cirveghol7wjrq7zwkkgu3sphruzjhq4ru5zcvmudgaexdo5niag.py":53:28)
#loc41 = loc("./local_cache/ir/cirveghol7wjrq7zwkkgu3sphruzjhq4ru5zcvmudgaexdo5niag.py":53:40)
#loc42 = loc("./local_cache/ir/cirveghol7wjrq7zwkkgu3sphruzjhq4ru5zcvmudgaexdo5niag.py":54:40)
#loc43 = loc("./local_cache/ir/cirveghol7wjrq7zwkkgu3sphruzjhq4ru5zcvmudgaexdo5niag.py":55:31)
#loc44 = loc("./local_cache/ir/cirveghol7wjrq7zwkkgu3sphruzjhq4ru5zcvmudgaexdo5niag.py":56:29)
#loc45 = loc("./local_cache/ir/cirveghol7wjrq7zwkkgu3sphruzjhq4ru5zcvmudgaexdo5niag.py":60:35)
#loc46 = loc("./local_cache/ir/cirveghol7wjrq7zwkkgu3sphruzjhq4ru5zcvmudgaexdo5niag.py":60:42)
#loc47 = loc("./local_cache/ir/cirveghol7wjrq7zwkkgu3sphruzjhq4ru5zcvmudgaexdo5niag.py":60:95)
#loc48 = loc("./local_cache/ir/cirveghol7wjrq7zwkkgu3sphruzjhq4ru5zcvmudgaexdo5niag.py":61:51)
#loc49 = loc("./local_cache/ir/cirveghol7wjrq7zwkkgu3sphruzjhq4ru5zcvmudgaexdo5niag.py":61:46)
#loc50 = loc("./local_cache/ir/cirveghol7wjrq7zwkkgu3sphruzjhq4ru5zcvmudgaexdo5niag.py":61:39)
#loc51 = loc("./local_cache/ir/cirveghol7wjrq7zwkkgu3sphruzjhq4ru5zcvmudgaexdo5niag.py":61:66)
#loc52 = loc("./local_cache/ir/cirveghol7wjrq7zwkkgu3sphruzjhq4ru5zcvmudgaexdo5niag.py":61:56)
#loc53 = loc("./local_cache/ir/cirveghol7wjrq7zwkkgu3sphruzjhq4ru5zcvmudgaexdo5niag.py":61:118)
#loc54 = loc("./local_cache/ir/cirveghol7wjrq7zwkkgu3sphruzjhq4ru5zcvmudgaexdo5niag.py":63:24)
#loc55 = loc("./local_cache/ir/cirveghol7wjrq7zwkkgu3sphruzjhq4ru5zcvmudgaexdo5niag.py":65:24)
#loc56 = loc("./local_cache/ir/cirveghol7wjrq7zwkkgu3sphruzjhq4ru5zcvmudgaexdo5niag.py":66:29)
#loc57 = loc("./local_cache/ir/cirveghol7wjrq7zwkkgu3sphruzjhq4ru5zcvmudgaexdo5niag.py":66:53)
#loc58 = loc("./local_cache/ir/cirveghol7wjrq7zwkkgu3sphruzjhq4ru5zcvmudgaexdo5niag.py":54:4)
#loc59 = loc(callsite(#loc32 at #loc33))
#loc61 = loc(callsite(#loc34 at #loc32))
#loc62 = loc(callsite(#loc61 at #loc33))
