#loc = loc("/tmp/torchinductor_root/gb/cgbztvfhheweq52nxjalsu4azzntobt3zuoh4y4ngzxoiat5z4gn.py":18:0)
module {
  tt.func public @triton_poi_fused_clone_3(%arg0: !tt.ptr<f16> {tt.divisibility = 16 : i32} loc("/tmp/torchinductor_root/gb/cgbztvfhheweq52nxjalsu4azzntobt3zuoh4y4ngzxoiat5z4gn.py":18:0), %arg1: !tt.ptr<f16> {tt.divisibility = 16 : i32} loc("/tmp/torchinductor_root/gb/cgbztvfhheweq52nxjalsu4azzntobt3zuoh4y4ngzxoiat5z4gn.py":18:0), %arg2: i32 loc("/tmp/torchinductor_root/gb/cgbztvfhheweq52nxjalsu4azzntobt3zuoh4y4ngzxoiat5z4gn.py":18:0), %arg3: i32 {tt.divisibility = 16 : i32} loc("/tmp/torchinductor_root/gb/cgbztvfhheweq52nxjalsu4azzntobt3zuoh4y4ngzxoiat5z4gn.py":18:0), %arg4: i32 {tt.divisibility = 16 : i32} loc("/tmp/torchinductor_root/gb/cgbztvfhheweq52nxjalsu4azzntobt3zuoh4y4ngzxoiat5z4gn.py":18:0)) attributes {noinline = false} {
    %cst = arith.constant dense<1024> : tensor<512xi32> loc(#loc1)
    %cst_0 = arith.constant dense<128> : tensor<512xi32> loc(#loc1)
    %c512_i32 = arith.constant 512 : i32 loc(#loc1)
    %0 = tt.get_program_id x : i32 loc(#loc2)
    %1 = arith.muli %0, %c512_i32 : i32 loc(#loc3)
    %2 = tt.make_range {end = 512 : i32, start = 0 : i32} : tensor<512xi32> loc(#loc4)
    %3 = tt.splat %1 : i32 -> tensor<512xi32> loc(#loc5)
    %4 = arith.addi %3, %2 : tensor<512xi32> loc(#loc5)
    %5 = arith.remsi %4, %cst_0 : tensor<512xi32> loc(#loc6)
    %6 = arith.divsi %4, %cst_0 : tensor<512xi32> loc(#loc7)
    %7 = tt.splat %arg2 : i32 -> tensor<512xi32> loc(#loc8)
    %8 = arith.remsi %6, %7 : tensor<512xi32> loc(#loc8)
    %9 = tt.splat %arg3 : i32 -> tensor<512xi32> loc(#loc9)
    %10 = arith.divsi %4, %9 : tensor<512xi32> loc(#loc9)
    %11 = arith.muli %10, %cst_0 : tensor<512xi32> loc(#loc10)
    %12 = arith.addi %5, %11 : tensor<512xi32> loc(#loc11)
    %13 = arith.muli %8, %cst : tensor<512xi32> loc(#loc12)
    %14 = arith.addi %12, %13 : tensor<512xi32> loc(#loc13)
    %15 = tt.splat %arg0 : !tt.ptr<f16> -> tensor<512x!tt.ptr<f16>> loc(#loc14)
    %16 = tt.addptr %15, %14 : tensor<512x!tt.ptr<f16>>, tensor<512xi32> loc(#loc14)
    %17 = tt.load %16 evictionPolicy = evict_last : tensor<512x!tt.ptr<f16>> loc(#loc15)
    %18 = arith.extf %17 : tensor<512xf16> to tensor<512xf32> loc(#loc16)
    %19 = tt.splat %arg1 : !tt.ptr<f16> -> tensor<512x!tt.ptr<f16>> loc(#loc17)
    %20 = tt.addptr %19, %4 : tensor<512x!tt.ptr<f16>>, tensor<512xi32> loc(#loc17)
    %21 = arith.truncf %18 : tensor<512xf32> to tensor<512xf16> loc(#loc18)
    tt.store %20, %21 : tensor<512x!tt.ptr<f16>> loc(#loc18)
    tt.return loc(#loc19)
  } loc(#loc)
} loc(#loc)
#loc1 = loc(unknown)
#loc2 = loc("/tmp/torchinductor_root/gb/cgbztvfhheweq52nxjalsu4azzntobt3zuoh4y4ngzxoiat5z4gn.py":19:28)
#loc3 = loc("/tmp/torchinductor_root/gb/cgbztvfhheweq52nxjalsu4azzntobt3zuoh4y4ngzxoiat5z4gn.py":19:33)
#loc4 = loc("/tmp/torchinductor_root/gb/cgbztvfhheweq52nxjalsu4azzntobt3zuoh4y4ngzxoiat5z4gn.py":20:36)
#loc5 = loc("/tmp/torchinductor_root/gb/cgbztvfhheweq52nxjalsu4azzntobt3zuoh4y4ngzxoiat5z4gn.py":20:23)
#loc6 = loc("/tmp/torchinductor_root/gb/cgbztvfhheweq52nxjalsu4azzntobt3zuoh4y4ngzxoiat5z4gn.py":22:19)
#loc7 = loc("/tmp/torchinductor_root/gb/cgbztvfhheweq52nxjalsu4azzntobt3zuoh4y4ngzxoiat5z4gn.py":23:21)
#loc8 = loc("/tmp/torchinductor_root/gb/cgbztvfhheweq52nxjalsu4azzntobt3zuoh4y4ngzxoiat5z4gn.py":23:28)
#loc9 = loc("/tmp/torchinductor_root/gb/cgbztvfhheweq52nxjalsu4azzntobt3zuoh4y4ngzxoiat5z4gn.py":24:19)
#loc10 = loc("/tmp/torchinductor_root/gb/cgbztvfhheweq52nxjalsu4azzntobt3zuoh4y4ngzxoiat5z4gn.py":26:39)
#loc11 = loc("/tmp/torchinductor_root/gb/cgbztvfhheweq52nxjalsu4azzntobt3zuoh4y4ngzxoiat5z4gn.py":26:35)
#loc12 = loc("/tmp/torchinductor_root/gb/cgbztvfhheweq52nxjalsu4azzntobt3zuoh4y4ngzxoiat5z4gn.py":26:49)
#loc13 = loc("/tmp/torchinductor_root/gb/cgbztvfhheweq52nxjalsu4azzntobt3zuoh4y4ngzxoiat5z4gn.py":26:44)
#loc14 = loc("/tmp/torchinductor_root/gb/cgbztvfhheweq52nxjalsu4azzntobt3zuoh4y4ngzxoiat5z4gn.py":26:30)
#loc15 = loc("/tmp/torchinductor_root/gb/cgbztvfhheweq52nxjalsu4azzntobt3zuoh4y4ngzxoiat5z4gn.py":26:54)
#loc16 = loc("/tmp/torchinductor_root/gb/cgbztvfhheweq52nxjalsu4azzntobt3zuoh4y4ngzxoiat5z4gn.py":26:93)
#loc17 = loc("/tmp/torchinductor_root/gb/cgbztvfhheweq52nxjalsu4azzntobt3zuoh4y4ngzxoiat5z4gn.py":27:25)
#loc18 = loc("/tmp/torchinductor_root/gb/cgbztvfhheweq52nxjalsu4azzntobt3zuoh4y4ngzxoiat5z4gn.py":27:36)
#loc19 = loc("/tmp/torchinductor_root/gb/cgbztvfhheweq52nxjalsu4azzntobt3zuoh4y4ngzxoiat5z4gn.py":27:4)
