#loc = loc("./local_cache/m2/cm2digt4hcus2fxymbfdumzjafjngblhe2d6qijkeeihhspgjvlp.py":18:0)
#loc1 = loc(unknown)
#loc31 = loc("./local_cache/m2/cm2digt4hcus2fxymbfdumzjafjngblhe2d6qijkeeihhspgjvlp.py":45:25)
#loc64 = loc(callsite(#loc1 at #loc31))
module {
  tt.func public @triton_red_fused__to_copy_add_div_mul_pow_sum_2(%arg0: !tt.ptr<f16> {tt.divisibility = 16 : i32} loc("./local_cache/m2/cm2digt4hcus2fxymbfdumzjafjngblhe2d6qijkeeihhspgjvlp.py":18:0), %arg1: !tt.ptr<f16> {tt.divisibility = 16 : i32} loc("./local_cache/m2/cm2digt4hcus2fxymbfdumzjafjngblhe2d6qijkeeihhspgjvlp.py":18:0), %arg2: !tt.ptr<f16> {tt.divisibility = 16 : i32} loc("./local_cache/m2/cm2digt4hcus2fxymbfdumzjafjngblhe2d6qijkeeihhspgjvlp.py":18:0), %arg3: !tt.ptr<f32> {tt.divisibility = 16 : i32} loc("./local_cache/m2/cm2digt4hcus2fxymbfdumzjafjngblhe2d6qijkeeihhspgjvlp.py":18:0), %arg4: i32 loc("./local_cache/m2/cm2digt4hcus2fxymbfdumzjafjngblhe2d6qijkeeihhspgjvlp.py":18:0), %arg5: i32 {tt.divisibility = 16 : i32} loc("./local_cache/m2/cm2digt4hcus2fxymbfdumzjafjngblhe2d6qijkeeihhspgjvlp.py":18:0)) attributes {noinline = false} {
    %cst = arith.constant dense<0.000000e+00> : tensor<1x8xf16> loc(#loc1)
    %cst_0 = arith.constant dense<0.000000e+00> : tensor<4x8xf16> loc(#loc1)
    %c8_i32 = arith.constant 8 : i32 loc(#loc1)
    %c4096_i32 = arith.constant 4096 : i32 loc(#loc1)
    %c0_i32 = arith.constant 0 : i32 loc(#loc1)
    %cst_1 = arith.constant dense<2.000000e+00> : tensor<4x8xf32> loc(#loc1)
    %cst_2 = arith.constant dense<2.44140625E-4> : tensor<4x1xf32> loc(#loc1)
    %cst_3 = arith.constant dense<-5.000000e-01> : tensor<4x1xf32> loc(#loc1)
    %cst_4 = arith.constant dense<4096> : tensor<4x1xi32> loc(#loc1)
    %cst_5 = arith.constant dense<4096> : tensor<1x8xi32> loc(#loc1)
    %cst_6 = arith.constant dense<0.000000e+00> : tensor<4x8xf32> loc(#loc1)
    %c4_i32 = arith.constant 4 : i32 loc(#loc1)
    %0 = tt.get_program_id x : i32 loc(#loc2)
    %1 = arith.muli %0, %c4_i32 : i32 loc(#loc3)
    %2 = tt.make_range {end = 4 : i32, start = 0 : i32} : tensor<4xi32> loc(#loc4)
    %3 = tt.expand_dims %2 {axis = 1 : i32} : tensor<4xi32> -> tensor<4x1xi32> loc(#loc5)
    %4 = tt.splat %1 : i32 -> tensor<4x1xi32> loc(#loc6)
    %5 = arith.addi %4, %3 : tensor<4x1xi32> loc(#loc6)
    %6 = tt.splat %arg4 : i32 -> tensor<4x1xi32> loc(#loc7)
    %7 = arith.cmpi slt, %5, %6 : tensor<4x1xi32> loc(#loc7)
    %8 = tt.make_range {end = 8 : i32, start = 0 : i32} : tensor<8xi32> loc(#loc8)
    %9 = tt.expand_dims %8 {axis = 0 : i32} : tensor<8xi32> -> tensor<1x8xi32> loc(#loc9)
    %10 = scf.for %arg6 = %c0_i32 to %c4096_i32 step %c8_i32 iter_args(%arg7 = %cst_6) -> (tensor<4x8xf32>)  : i32 {
      %16 = tt.splat %arg6 : i32 -> tensor<1x8xi32> loc(#loc11)
      %17 = arith.addi %16, %9 : tensor<1x8xi32> loc(#loc11)
      %18 = arith.cmpi slt, %17, %cst_5 : tensor<1x8xi32> loc(#loc12)
      %19 = arith.muli %5, %cst_4 : tensor<4x1xi32> loc(#loc13)
      %20 = tt.broadcast %17 : tensor<1x8xi32> -> tensor<4x8xi32> loc(#loc14)
      %21 = tt.broadcast %19 : tensor<4x1xi32> -> tensor<4x8xi32> loc(#loc14)
      %22 = arith.addi %20, %21 : tensor<4x8xi32> loc(#loc14)
      %23 = tt.splat %arg0 : !tt.ptr<f16> -> tensor<4x8x!tt.ptr<f16>> loc(#loc15)
      %24 = tt.addptr %23, %22 : tensor<4x8x!tt.ptr<f16>>, tensor<4x8xi32> loc(#loc15)
      %25 = tt.broadcast %18 : tensor<1x8xi1> -> tensor<4x8xi1> loc(#loc16)
      %26 = tt.broadcast %7 : tensor<4x1xi1> -> tensor<4x8xi1> loc(#loc16)
      %27 = arith.andi %25, %26 : tensor<4x8xi1> loc(#loc16)
      %28 = tt.load %24, %27, %cst_0 evictionPolicy = evict_last : tensor<4x8x!tt.ptr<f16>> loc(#loc17)
      %29 = arith.extf %28 : tensor<4x8xf16> to tensor<4x8xf32> loc(#loc18)
      %30 = tt.splat %arg1 : !tt.ptr<f16> -> tensor<1x8x!tt.ptr<f16>> loc(#loc19)
      %31 = tt.addptr %30, %17 : tensor<1x8x!tt.ptr<f16>>, tensor<1x8xi32> loc(#loc19)
      %32 = tt.load %31, %18, %cst evictionPolicy = evict_last : tensor<1x8x!tt.ptr<f16>> loc(#loc20)
      %33 = arith.extf %32 : tensor<1x8xf16> to tensor<1x8xf32> loc(#loc21)
      %34 = tt.splat %arg2 : !tt.ptr<f16> -> tensor<4x8x!tt.ptr<f16>> loc(#loc22)
      %35 = tt.addptr %34, %22 : tensor<4x8x!tt.ptr<f16>>, tensor<4x8xi32> loc(#loc22)
      %36 = tt.load %35, %27, %cst_0 evictionPolicy = evict_last : tensor<4x8x!tt.ptr<f16>> loc(#loc23)
      %37 = arith.extf %36 : tensor<4x8xf16> to tensor<4x8xf32> loc(#loc24)
      %38 = tt.broadcast %33 : tensor<1x8xf32> -> tensor<4x8xf32> loc(#loc25)
      %39 = arith.mulf %29, %38 : tensor<4x8xf32> loc(#loc25)
      %40 = arith.mulf %39, %37 : tensor<4x8xf32> loc(#loc26)
      %41 = arith.addf %arg7, %40 : tensor<4x8xf32> loc(#loc27)
      %42 = arith.select %27, %41, %arg7 : tensor<4x8xi1>, tensor<4x8xf32> loc(#loc28)
      scf.yield %42 : tensor<4x8xf32> loc(#loc29)
    } loc(#loc10)
    %11 = "tt.reduce"(%10) <{axis = 1 : i32}> ({
    ^bb0(%arg6: f32 loc(callsite(#loc1 at #loc31)), %arg7: f32 loc(callsite(#loc1 at #loc31))):
      %16 = arith.addf %arg6, %arg7 : f32 loc(#loc66)
      tt.reduce.return %16 : f32 loc(#loc63)
    }) : (tensor<4x8xf32>) -> tensor<4xf32> loc(#loc63)
    %12 = tt.expand_dims %11 {axis = 1 : i32} : tensor<4xf32> -> tensor<4x1xf32> loc(#loc33)
    %13 = tt.splat %arg3 : !tt.ptr<f32> -> tensor<4x1x!tt.ptr<f32>> loc(#loc34)
    %14 = tt.addptr %13, %5 : tensor<4x1x!tt.ptr<f32>>, tensor<4x1xi32> loc(#loc34)
    %15 = tt.load %14, %7 evictionPolicy = evict_last : tensor<4x1x!tt.ptr<f32>> loc(#loc35)
    scf.for %arg6 = %c0_i32 to %c4096_i32 step %c8_i32  : i32 {
      %16 = tt.splat %arg6 : i32 -> tensor<1x8xi32> loc(#loc37)
      %17 = arith.addi %16, %9 : tensor<1x8xi32> loc(#loc37)
      %18 = arith.cmpi slt, %17, %cst_5 : tensor<1x8xi32> loc(#loc38)
      %19 = arith.muli %5, %cst_4 : tensor<4x1xi32> loc(#loc39)
      %20 = tt.broadcast %17 : tensor<1x8xi32> -> tensor<4x8xi32> loc(#loc40)
      %21 = tt.broadcast %19 : tensor<4x1xi32> -> tensor<4x8xi32> loc(#loc40)
      %22 = arith.addi %20, %21 : tensor<4x8xi32> loc(#loc40)
      %23 = tt.splat %arg0 : !tt.ptr<f16> -> tensor<4x8x!tt.ptr<f16>> loc(#loc41)
      %24 = tt.addptr %23, %22 : tensor<4x8x!tt.ptr<f16>>, tensor<4x8xi32> loc(#loc41)
      %25 = tt.broadcast %18 : tensor<1x8xi1> -> tensor<4x8xi1> loc(#loc42)
      %26 = tt.broadcast %7 : tensor<4x1xi1> -> tensor<4x8xi1> loc(#loc42)
      %27 = arith.andi %25, %26 : tensor<4x8xi1> loc(#loc42)
      %28 = tt.load %24, %27, %cst_0 evictionPolicy = evict_first : tensor<4x8x!tt.ptr<f16>> loc(#loc43)
      %29 = arith.extf %28 : tensor<4x8xf16> to tensor<4x8xf32> loc(#loc44)
      %30 = tt.splat %arg1 : !tt.ptr<f16> -> tensor<1x8x!tt.ptr<f16>> loc(#loc45)
      %31 = tt.addptr %30, %17 : tensor<1x8x!tt.ptr<f16>>, tensor<1x8xi32> loc(#loc45)
      %32 = tt.load %31, %18, %cst evictionPolicy = evict_last : tensor<1x8x!tt.ptr<f16>> loc(#loc46)
      %33 = arith.extf %32 : tensor<1x8xf16> to tensor<1x8xf32> loc(#loc47)
      %34 = tt.splat %arg2 : !tt.ptr<f16> -> tensor<4x8x!tt.ptr<f16>> loc(#loc48)
      %35 = tt.addptr %34, %22 : tensor<4x8x!tt.ptr<f16>>, tensor<4x8xi32> loc(#loc48)
      %36 = tt.load %35, %27, %cst_0 evictionPolicy = evict_first : tensor<4x8x!tt.ptr<f16>> loc(#loc49)
      %37 = arith.extf %36 : tensor<4x8xf16> to tensor<4x8xf32> loc(#loc50)
      %38 = tt.broadcast %33 : tensor<1x8xf32> -> tensor<4x8xf32> loc(#loc51)
      %39 = arith.mulf %29, %38 : tensor<4x8xf32> loc(#loc51)
      %40 = tt.broadcast %15 : tensor<4x1xf32> -> tensor<4x8xf32> loc(#loc52)
      %41 = arith.mulf %39, %40 : tensor<4x8xf32> loc(#loc52)
      %42 = arith.mulf %12, %cst_3 : tensor<4x1xf32> loc(#loc53)
      %43 = arith.mulf %15, %15 : tensor<4x1xf32> loc(#loc54)
      %44 = arith.mulf %43, %15 : tensor<4x1xf32> loc(#loc55)
      %45 = arith.mulf %42, %44 : tensor<4x1xf32> loc(#loc56)
      %46 = arith.mulf %45, %cst_2 : tensor<4x1xf32> loc(#loc57)
      %47 = arith.mulf %37, %cst_1 : tensor<4x8xf32> loc(#loc58)
      %48 = tt.broadcast %46 : tensor<4x1xf32> -> tensor<4x8xf32> loc(#loc59)
      %49 = arith.mulf %48, %47 : tensor<4x8xf32> loc(#loc59)
      %50 = arith.addf %41, %49 : tensor<4x8xf32> loc(#loc60)
      %51 = arith.truncf %50 : tensor<4x8xf32> to tensor<4x8xf16> loc(#loc61)
      tt.store %24, %51, %27 : tensor<4x8x!tt.ptr<f16>> loc(#loc61)
    } loc(#loc36)
    tt.return loc(#loc62)
  } loc(#loc)
} loc(#loc)
#loc2 = loc("./local_cache/m2/cm2digt4hcus2fxymbfdumzjafjngblhe2d6qijkeeihhspgjvlp.py":22:28)
#loc3 = loc("./local_cache/m2/cm2digt4hcus2fxymbfdumzjafjngblhe2d6qijkeeihhspgjvlp.py":22:33)
#loc4 = loc("./local_cache/m2/cm2digt4hcus2fxymbfdumzjafjngblhe2d6qijkeeihhspgjvlp.py":23:36)
#loc5 = loc("./local_cache/m2/cm2digt4hcus2fxymbfdumzjafjngblhe2d6qijkeeihhspgjvlp.py":23:44)
#loc6 = loc("./local_cache/m2/cm2digt4hcus2fxymbfdumzjafjngblhe2d6qijkeeihhspgjvlp.py":23:23)
#loc7 = loc("./local_cache/m2/cm2digt4hcus2fxymbfdumzjafjngblhe2d6qijkeeihhspgjvlp.py":24:21)
#loc8 = loc("./local_cache/m2/cm2digt4hcus2fxymbfdumzjafjngblhe2d6qijkeeihhspgjvlp.py":25:27)
#loc9 = loc("./local_cache/m2/cm2digt4hcus2fxymbfdumzjafjngblhe2d6qijkeeihhspgjvlp.py":25:37)
#loc10 = loc("./local_cache/m2/cm2digt4hcus2fxymbfdumzjafjngblhe2d6qijkeeihhspgjvlp.py":29:40)
#loc11 = loc("./local_cache/m2/cm2digt4hcus2fxymbfdumzjafjngblhe2d6qijkeeihhspgjvlp.py":30:31)
#loc12 = loc("./local_cache/m2/cm2digt4hcus2fxymbfdumzjafjngblhe2d6qijkeeihhspgjvlp.py":31:29)
#loc13 = loc("./local_cache/m2/cm2digt4hcus2fxymbfdumzjafjngblhe2d6qijkeeihhspgjvlp.py":35:50)
#loc14 = loc("./local_cache/m2/cm2digt4hcus2fxymbfdumzjafjngblhe2d6qijkeeihhspgjvlp.py":35:45)
#loc15 = loc("./local_cache/m2/cm2digt4hcus2fxymbfdumzjafjngblhe2d6qijkeeihhspgjvlp.py":35:38)
#loc16 = loc("./local_cache/m2/cm2digt4hcus2fxymbfdumzjafjngblhe2d6qijkeeihhspgjvlp.py":35:65)
#loc17 = loc("./local_cache/m2/cm2digt4hcus2fxymbfdumzjafjngblhe2d6qijkeeihhspgjvlp.py":35:55)
#loc18 = loc("./local_cache/m2/cm2digt4hcus2fxymbfdumzjafjngblhe2d6qijkeeihhspgjvlp.py":35:116)
#loc19 = loc("./local_cache/m2/cm2digt4hcus2fxymbfdumzjafjngblhe2d6qijkeeihhspgjvlp.py":36:34)
#loc20 = loc("./local_cache/m2/cm2digt4hcus2fxymbfdumzjafjngblhe2d6qijkeeihhspgjvlp.py":36:41)
#loc21 = loc("./local_cache/m2/cm2digt4hcus2fxymbfdumzjafjngblhe2d6qijkeeihhspgjvlp.py":36:94)
#loc22 = loc("./local_cache/m2/cm2digt4hcus2fxymbfdumzjafjngblhe2d6qijkeeihhspgjvlp.py":37:34)
#loc23 = loc("./local_cache/m2/cm2digt4hcus2fxymbfdumzjafjngblhe2d6qijkeeihhspgjvlp.py":37:51)
#loc24 = loc("./local_cache/m2/cm2digt4hcus2fxymbfdumzjafjngblhe2d6qijkeeihhspgjvlp.py":37:112)
#loc25 = loc("./local_cache/m2/cm2digt4hcus2fxymbfdumzjafjngblhe2d6qijkeeihhspgjvlp.py":38:22)
#loc26 = loc("./local_cache/m2/cm2digt4hcus2fxymbfdumzjafjngblhe2d6qijkeeihhspgjvlp.py":41:22)
#loc27 = loc("./local_cache/m2/cm2digt4hcus2fxymbfdumzjafjngblhe2d6qijkeeihhspgjvlp.py":43:23)
#loc28 = loc("./local_cache/m2/cm2digt4hcus2fxymbfdumzjafjngblhe2d6qijkeeihhspgjvlp.py":44:48)
#loc29 = loc("./local_cache/m2/cm2digt4hcus2fxymbfdumzjafjngblhe2d6qijkeeihhspgjvlp.py":44:8)
#loc30 = loc("/workspace/torch-compile-caching/.venv/lib/python3.11/site-packages/triton/language/standard.py":286:36)
#loc32 = loc("/workspace/torch-compile-caching/.venv/lib/python3.11/site-packages/triton/language/standard.py":256:15)
#loc33 = loc("./local_cache/m2/cm2digt4hcus2fxymbfdumzjafjngblhe2d6qijkeeihhspgjvlp.py":45:28)
#loc34 = loc("./local_cache/m2/cm2digt4hcus2fxymbfdumzjafjngblhe2d6qijkeeihhspgjvlp.py":46:31)
#loc35 = loc("./local_cache/m2/cm2digt4hcus2fxymbfdumzjafjngblhe2d6qijkeeihhspgjvlp.py":46:36)
#loc36 = loc("./local_cache/m2/cm2digt4hcus2fxymbfdumzjafjngblhe2d6qijkeeihhspgjvlp.py":47:40)
#loc37 = loc("./local_cache/m2/cm2digt4hcus2fxymbfdumzjafjngblhe2d6qijkeeihhspgjvlp.py":48:31)
#loc38 = loc("./local_cache/m2/cm2digt4hcus2fxymbfdumzjafjngblhe2d6qijkeeihhspgjvlp.py":49:29)
#loc39 = loc("./local_cache/m2/cm2digt4hcus2fxymbfdumzjafjngblhe2d6qijkeeihhspgjvlp.py":53:51)
#loc40 = loc("./local_cache/m2/cm2digt4hcus2fxymbfdumzjafjngblhe2d6qijkeeihhspgjvlp.py":53:46)
#loc41 = loc("./local_cache/m2/cm2digt4hcus2fxymbfdumzjafjngblhe2d6qijkeeihhspgjvlp.py":53:39)
#loc42 = loc("./local_cache/m2/cm2digt4hcus2fxymbfdumzjafjngblhe2d6qijkeeihhspgjvlp.py":53:66)
#loc43 = loc("./local_cache/m2/cm2digt4hcus2fxymbfdumzjafjngblhe2d6qijkeeihhspgjvlp.py":53:56)
#loc44 = loc("./local_cache/m2/cm2digt4hcus2fxymbfdumzjafjngblhe2d6qijkeeihhspgjvlp.py":53:118)
#loc45 = loc("./local_cache/m2/cm2digt4hcus2fxymbfdumzjafjngblhe2d6qijkeeihhspgjvlp.py":54:35)
#loc46 = loc("./local_cache/m2/cm2digt4hcus2fxymbfdumzjafjngblhe2d6qijkeeihhspgjvlp.py":54:42)
#loc47 = loc("./local_cache/m2/cm2digt4hcus2fxymbfdumzjafjngblhe2d6qijkeeihhspgjvlp.py":54:95)
#loc48 = loc("./local_cache/m2/cm2digt4hcus2fxymbfdumzjafjngblhe2d6qijkeeihhspgjvlp.py":55:35)
#loc49 = loc("./local_cache/m2/cm2digt4hcus2fxymbfdumzjafjngblhe2d6qijkeeihhspgjvlp.py":55:52)
#loc50 = loc("./local_cache/m2/cm2digt4hcus2fxymbfdumzjafjngblhe2d6qijkeeihhspgjvlp.py":55:114)
#loc51 = loc("./local_cache/m2/cm2digt4hcus2fxymbfdumzjafjngblhe2d6qijkeeihhspgjvlp.py":56:24)
#loc52 = loc("./local_cache/m2/cm2digt4hcus2fxymbfdumzjafjngblhe2d6qijkeeihhspgjvlp.py":58:24)
#loc53 = loc("./local_cache/m2/cm2digt4hcus2fxymbfdumzjafjngblhe2d6qijkeeihhspgjvlp.py":60:23)
#loc54 = loc("./local_cache/m2/cm2digt4hcus2fxymbfdumzjafjngblhe2d6qijkeeihhspgjvlp.py":61:24)
#loc55 = loc("./local_cache/m2/cm2digt4hcus2fxymbfdumzjafjngblhe2d6qijkeeihhspgjvlp.py":62:24)
#loc56 = loc("./local_cache/m2/cm2digt4hcus2fxymbfdumzjafjngblhe2d6qijkeeihhspgjvlp.py":63:24)
#loc57 = loc("./local_cache/m2/cm2digt4hcus2fxymbfdumzjafjngblhe2d6qijkeeihhspgjvlp.py":65:24)
#loc58 = loc("./local_cache/m2/cm2digt4hcus2fxymbfdumzjafjngblhe2d6qijkeeihhspgjvlp.py":68:24)
#loc59 = loc("./local_cache/m2/cm2digt4hcus2fxymbfdumzjafjngblhe2d6qijkeeihhspgjvlp.py":69:24)
#loc60 = loc("./local_cache/m2/cm2digt4hcus2fxymbfdumzjafjngblhe2d6qijkeeihhspgjvlp.py":70:24)
#loc61 = loc("./local_cache/m2/cm2digt4hcus2fxymbfdumzjafjngblhe2d6qijkeeihhspgjvlp.py":72:56)
#loc62 = loc("./local_cache/m2/cm2digt4hcus2fxymbfdumzjafjngblhe2d6qijkeeihhspgjvlp.py":47:4)
#loc63 = loc(callsite(#loc30 at #loc31))
#loc65 = loc(callsite(#loc32 at #loc30))
#loc66 = loc(callsite(#loc65 at #loc31))
