#loc = loc("./local_cache/cp/ccpmvf6lgmnpforavvbrvwi4t5zoiosfy62jj2u37b4g5lsm5yib.py":18:0)
#loc1 = loc(unknown)
#loc25 = loc("./local_cache/cp/ccpmvf6lgmnpforavvbrvwi4t5zoiosfy62jj2u37b4g5lsm5yib.py":44:25)
#loc54 = loc(callsite(#loc1 at #loc25))
module {
  tt.func public @triton_red_fused__to_copy_add_mean_mul_pow_rsqrt_9(%arg0: !tt.ptr<f16> {tt.divisibility = 16 : i32} loc("./local_cache/cp/ccpmvf6lgmnpforavvbrvwi4t5zoiosfy62jj2u37b4g5lsm5yib.py":18:0), %arg1: !tt.ptr<f32> {tt.divisibility = 16 : i32} loc("./local_cache/cp/ccpmvf6lgmnpforavvbrvwi4t5zoiosfy62jj2u37b4g5lsm5yib.py":18:0), %arg2: !tt.ptr<f16> {tt.divisibility = 16 : i32} loc("./local_cache/cp/ccpmvf6lgmnpforavvbrvwi4t5zoiosfy62jj2u37b4g5lsm5yib.py":18:0), %arg3: !tt.ptr<f16> {tt.divisibility = 16 : i32} loc("./local_cache/cp/ccpmvf6lgmnpforavvbrvwi4t5zoiosfy62jj2u37b4g5lsm5yib.py":18:0), %arg4: !tt.ptr<f16> {tt.divisibility = 16 : i32} loc("./local_cache/cp/ccpmvf6lgmnpforavvbrvwi4t5zoiosfy62jj2u37b4g5lsm5yib.py":18:0), %arg5: i32 loc("./local_cache/cp/ccpmvf6lgmnpforavvbrvwi4t5zoiosfy62jj2u37b4g5lsm5yib.py":18:0), %arg6: i32 {tt.divisibility = 16 : i32} loc("./local_cache/cp/ccpmvf6lgmnpforavvbrvwi4t5zoiosfy62jj2u37b4g5lsm5yib.py":18:0)) attributes {noinline = false} {
    %cst = arith.constant dense<0.000000e+00> : tensor<1x2048xf16> loc(#loc1)
    %c2048_i32 = arith.constant 2048 : i32 loc(#loc1)
    %c4096_i32 = arith.constant 4096 : i32 loc(#loc1)
    %c0_i32 = arith.constant 0 : i32 loc(#loc1)
    %cst_0 = arith.constant dense<9.99999974E-6> : tensor<1x1xf32> loc(#loc1)
    %cst_1 = arith.constant dense<4.096000e+03> : tensor<1x1xf32> loc(#loc1)
    %cst_2 = arith.constant dense<4096> : tensor<1x2048xi32> loc(#loc1)
    %cst_3 = arith.constant dense<0.000000e+00> : tensor<1x2048xf32> loc(#loc1)
    %0 = tt.get_program_id x : i32 loc(#loc2)
    %1 = arith.cmpi slt, %0, %arg5 : i32 loc(#loc3)
    %2 = tt.splat %1 : i1 -> tensor<1x1xi1> loc(#loc3)
    %3 = tt.make_range {end = 2048 : i32, start = 0 : i32} : tensor<2048xi32> loc(#loc4)
    %4 = tt.expand_dims %3 {axis = 0 : i32} : tensor<2048xi32> -> tensor<1x2048xi32> loc(#loc5)
    %5 = scf.for %arg7 = %c0_i32 to %c4096_i32 step %c2048_i32 iter_args(%arg8 = %cst_3) -> (tensor<1x2048xf32>)  : i32 {
      %13 = tt.splat %arg7 : i32 -> tensor<1x2048xi32> loc(#loc7)
      %14 = arith.addi %13, %4 : tensor<1x2048xi32> loc(#loc7)
      %15 = arith.cmpi slt, %14, %cst_2 : tensor<1x2048xi32> loc(#loc8)
      %16 = arith.muli %0, %c4096_i32 : i32 loc(#loc9)
      %17 = tt.splat %16 : i32 -> tensor<1x2048xi32> loc(#loc51)
      %18 = arith.addi %14, %17 : tensor<1x2048xi32> loc(#loc10)
      %19 = tt.splat %arg2 : !tt.ptr<f16> -> tensor<1x2048x!tt.ptr<f16>> loc(#loc11)
      %20 = tt.addptr %19, %18 : tensor<1x2048x!tt.ptr<f16>>, tensor<1x2048xi32> loc(#loc11)
      %21 = tt.splat %1 : i1 -> tensor<1x2048xi1> loc(#loc52)
      %22 = arith.andi %15, %21 : tensor<1x2048xi1> loc(#loc12)
      %23 = tt.load %20, %22, %cst evictionPolicy = evict_first : tensor<1x2048x!tt.ptr<f16>> loc(#loc13)
      %24 = arith.extf %23 : tensor<1x2048xf16> to tensor<1x2048xf32> loc(#loc14)
      %25 = tt.splat %arg0 : !tt.ptr<f16> -> tensor<1x2048x!tt.ptr<f16>> loc(#loc15)
      %26 = tt.addptr %25, %18 : tensor<1x2048x!tt.ptr<f16>>, tensor<1x2048xi32> loc(#loc15)
      %27 = tt.load %26, %22, %cst evictionPolicy = evict_first : tensor<1x2048x!tt.ptr<f16>> loc(#loc16)
      %28 = arith.extf %27 : tensor<1x2048xf16> to tensor<1x2048xf32> loc(#loc17)
      %29 = arith.addf %24, %28 : tensor<1x2048xf32> loc(#loc18)
      %30 = arith.mulf %29, %29 : tensor<1x2048xf32> loc(#loc19)
      %31 = arith.addf %arg8, %30 : tensor<1x2048xf32> loc(#loc20)
      %32 = arith.select %22, %31, %arg8 : tensor<1x2048xi1>, tensor<1x2048xf32> loc(#loc21)
      %33 = arith.truncf %29 : tensor<1x2048xf32> to tensor<1x2048xf16> loc(#loc22)
      tt.store %26, %33, %22 : tensor<1x2048x!tt.ptr<f16>> loc(#loc22)
      scf.yield %32 : tensor<1x2048xf32> loc(#loc23)
    } loc(#loc6)
    %6 = "tt.reduce"(%5) <{axis = 1 : i32}> ({
    ^bb0(%arg7: f32 loc(callsite(#loc1 at #loc25)), %arg8: f32 loc(callsite(#loc1 at #loc25))):
      %13 = arith.addf %arg7, %arg8 : f32 loc(#loc58)
      tt.reduce.return %13 : f32 loc(#loc53)
    }) : (tensor<1x2048xf32>) -> tensor<1xf32> loc(#loc53)
    %7 = tt.expand_dims %6 {axis = 1 : i32} : tensor<1xf32> -> tensor<1x1xf32> loc(#loc27)
    %8 = arith.divf %7, %cst_1 : tensor<1x1xf32> loc(#loc28)
    %9 = arith.addf %8, %cst_0 : tensor<1x1xf32> loc(#loc29)
    %10 = tt.extern_elementwise %9 {libname = "", libpath = "", pure = true, symbol = "__nv_rsqrtf"} : (tensor<1x1xf32>) -> tensor<1x1xf32> loc(#loc30)
    gpu.barrier loc(#loc31)
    %11 = tt.addptr %arg1, %0 : !tt.ptr<f32>, i32 loc(#loc32)
    %12 = tt.splat %11 : !tt.ptr<f32> -> tensor<1x1x!tt.ptr<f32>> loc(#loc32)
    tt.store %12, %10, %2 : tensor<1x1x!tt.ptr<f32>> loc(#loc33)
    scf.for %arg7 = %c0_i32 to %c4096_i32 step %c2048_i32  : i32 {
      %13 = tt.splat %arg7 : i32 -> tensor<1x2048xi32> loc(#loc35)
      %14 = arith.addi %13, %4 : tensor<1x2048xi32> loc(#loc35)
      %15 = arith.cmpi slt, %14, %cst_2 : tensor<1x2048xi32> loc(#loc36)
      %16 = tt.splat %arg3 : !tt.ptr<f16> -> tensor<1x2048x!tt.ptr<f16>> loc(#loc37)
      %17 = tt.addptr %16, %14 : tensor<1x2048x!tt.ptr<f16>>, tensor<1x2048xi32> loc(#loc37)
      %18 = tt.load %17, %15, %cst evictionPolicy = evict_last : tensor<1x2048x!tt.ptr<f16>> loc(#loc38)
      %19 = arith.extf %18 : tensor<1x2048xf16> to tensor<1x2048xf32> loc(#loc39)
      %20 = arith.muli %0, %c4096_i32 : i32 loc(#loc40)
      %21 = tt.splat %20 : i32 -> tensor<1x2048xi32> loc(#loc56)
      %22 = arith.addi %14, %21 : tensor<1x2048xi32> loc(#loc41)
      %23 = tt.splat %arg0 : !tt.ptr<f16> -> tensor<1x2048x!tt.ptr<f16>> loc(#loc42)
      %24 = tt.addptr %23, %22 : tensor<1x2048x!tt.ptr<f16>>, tensor<1x2048xi32> loc(#loc42)
      %25 = tt.splat %1 : i1 -> tensor<1x2048xi1> loc(#loc57)
      %26 = arith.andi %15, %25 : tensor<1x2048xi1> loc(#loc43)
      %27 = tt.load %24, %26, %cst evictionPolicy = evict_first : tensor<1x2048x!tt.ptr<f16>> loc(#loc44)
      %28 = arith.extf %27 : tensor<1x2048xf16> to tensor<1x2048xf32> loc(#loc45)
      %29 = tt.broadcast %10 : tensor<1x1xf32> -> tensor<1x2048xf32> loc(#loc46)
      %30 = arith.mulf %28, %29 : tensor<1x2048xf32> loc(#loc46)
      %31 = arith.mulf %19, %30 : tensor<1x2048xf32> loc(#loc47)
      %32 = tt.splat %arg4 : !tt.ptr<f16> -> tensor<1x2048x!tt.ptr<f16>> loc(#loc48)
      %33 = tt.addptr %32, %22 : tensor<1x2048x!tt.ptr<f16>>, tensor<1x2048xi32> loc(#loc48)
      %34 = arith.truncf %31 : tensor<1x2048xf32> to tensor<1x2048xf16> loc(#loc49)
      tt.store %33, %34, %26 : tensor<1x2048x!tt.ptr<f16>> loc(#loc49)
    } loc(#loc34)
    tt.return loc(#loc50)
  } loc(#loc)
} loc(#loc)
#loc2 = loc("./local_cache/cp/ccpmvf6lgmnpforavvbrvwi4t5zoiosfy62jj2u37b4g5lsm5yib.py":22:28)
#loc3 = loc("./local_cache/cp/ccpmvf6lgmnpforavvbrvwi4t5zoiosfy62jj2u37b4g5lsm5yib.py":24:21)
#loc4 = loc("./local_cache/cp/ccpmvf6lgmnpforavvbrvwi4t5zoiosfy62jj2u37b4g5lsm5yib.py":25:27)
#loc5 = loc("./local_cache/cp/ccpmvf6lgmnpforavvbrvwi4t5zoiosfy62jj2u37b4g5lsm5yib.py":25:37)
#loc6 = loc("./local_cache/cp/ccpmvf6lgmnpforavvbrvwi4t5zoiosfy62jj2u37b4g5lsm5yib.py":29:40)
#loc7 = loc("./local_cache/cp/ccpmvf6lgmnpforavvbrvwi4t5zoiosfy62jj2u37b4g5lsm5yib.py":30:31)
#loc8 = loc("./local_cache/cp/ccpmvf6lgmnpforavvbrvwi4t5zoiosfy62jj2u37b4g5lsm5yib.py":31:29)
#loc9 = loc("./local_cache/cp/ccpmvf6lgmnpforavvbrvwi4t5zoiosfy62jj2u37b4g5lsm5yib.py":35:46)
#loc10 = loc("./local_cache/cp/ccpmvf6lgmnpforavvbrvwi4t5zoiosfy62jj2u37b4g5lsm5yib.py":35:41)
#loc11 = loc("./local_cache/cp/ccpmvf6lgmnpforavvbrvwi4t5zoiosfy62jj2u37b4g5lsm5yib.py":35:34)
#loc12 = loc("./local_cache/cp/ccpmvf6lgmnpforavvbrvwi4t5zoiosfy62jj2u37b4g5lsm5yib.py":35:61)
#loc13 = loc("./local_cache/cp/ccpmvf6lgmnpforavvbrvwi4t5zoiosfy62jj2u37b4g5lsm5yib.py":35:51)
#loc14 = loc("./local_cache/cp/ccpmvf6lgmnpforavvbrvwi4t5zoiosfy62jj2u37b4g5lsm5yib.py":35:113)
#loc15 = loc("./local_cache/cp/ccpmvf6lgmnpforavvbrvwi4t5zoiosfy62jj2u37b4g5lsm5yib.py":36:38)
#loc16 = loc("./local_cache/cp/ccpmvf6lgmnpforavvbrvwi4t5zoiosfy62jj2u37b4g5lsm5yib.py":36:55)
#loc17 = loc("./local_cache/cp/ccpmvf6lgmnpforavvbrvwi4t5zoiosfy62jj2u37b4g5lsm5yib.py":36:117)
#loc18 = loc("./local_cache/cp/ccpmvf6lgmnpforavvbrvwi4t5zoiosfy62jj2u37b4g5lsm5yib.py":37:22)
#loc19 = loc("./local_cache/cp/ccpmvf6lgmnpforavvbrvwi4t5zoiosfy62jj2u37b4g5lsm5yib.py":39:22)
#loc20 = loc("./local_cache/cp/ccpmvf6lgmnpforavvbrvwi4t5zoiosfy62jj2u37b4g5lsm5yib.py":41:23)
#loc21 = loc("./local_cache/cp/ccpmvf6lgmnpforavvbrvwi4t5zoiosfy62jj2u37b4g5lsm5yib.py":42:48)
#loc22 = loc("./local_cache/cp/ccpmvf6lgmnpforavvbrvwi4t5zoiosfy62jj2u37b4g5lsm5yib.py":43:55)
#loc23 = loc("./local_cache/cp/ccpmvf6lgmnpforavvbrvwi4t5zoiosfy62jj2u37b4g5lsm5yib.py":43:8)
#loc24 = loc("/workspace/torch-compile-caching/.venv/lib/python3.11/site-packages/triton/language/standard.py":286:36)
#loc26 = loc("/workspace/torch-compile-caching/.venv/lib/python3.11/site-packages/triton/language/standard.py":256:15)
#loc27 = loc("./local_cache/cp/ccpmvf6lgmnpforavvbrvwi4t5zoiosfy62jj2u37b4g5lsm5yib.py":44:28)
#loc28 = loc("./local_cache/cp/ccpmvf6lgmnpforavvbrvwi4t5zoiosfy62jj2u37b4g5lsm5yib.py":46:19)
#loc29 = loc("./local_cache/cp/ccpmvf6lgmnpforavvbrvwi4t5zoiosfy62jj2u37b4g5lsm5yib.py":48:19)
#loc30 = loc("./local_cache/cp/ccpmvf6lgmnpforavvbrvwi4t5zoiosfy62jj2u37b4g5lsm5yib.py":49:28)
#loc31 = loc("./local_cache/cp/ccpmvf6lgmnpforavvbrvwi4t5zoiosfy62jj2u37b4g5lsm5yib.py":50:4)
#loc32 = loc("./local_cache/cp/ccpmvf6lgmnpforavvbrvwi4t5zoiosfy62jj2u37b4g5lsm5yib.py":51:28)
#loc33 = loc("./local_cache/cp/ccpmvf6lgmnpforavvbrvwi4t5zoiosfy62jj2u37b4g5lsm5yib.py":51:40)
#loc34 = loc("./local_cache/cp/ccpmvf6lgmnpforavvbrvwi4t5zoiosfy62jj2u37b4g5lsm5yib.py":52:40)
#loc35 = loc("./local_cache/cp/ccpmvf6lgmnpforavvbrvwi4t5zoiosfy62jj2u37b4g5lsm5yib.py":53:31)
#loc36 = loc("./local_cache/cp/ccpmvf6lgmnpforavvbrvwi4t5zoiosfy62jj2u37b4g5lsm5yib.py":54:29)
#loc37 = loc("./local_cache/cp/ccpmvf6lgmnpforavvbrvwi4t5zoiosfy62jj2u37b4g5lsm5yib.py":58:35)
#loc38 = loc("./local_cache/cp/ccpmvf6lgmnpforavvbrvwi4t5zoiosfy62jj2u37b4g5lsm5yib.py":58:42)
#loc39 = loc("./local_cache/cp/ccpmvf6lgmnpforavvbrvwi4t5zoiosfy62jj2u37b4g5lsm5yib.py":58:95)
#loc40 = loc("./local_cache/cp/ccpmvf6lgmnpforavvbrvwi4t5zoiosfy62jj2u37b4g5lsm5yib.py":59:51)
#loc41 = loc("./local_cache/cp/ccpmvf6lgmnpforavvbrvwi4t5zoiosfy62jj2u37b4g5lsm5yib.py":59:46)
#loc42 = loc("./local_cache/cp/ccpmvf6lgmnpforavvbrvwi4t5zoiosfy62jj2u37b4g5lsm5yib.py":59:39)
#loc43 = loc("./local_cache/cp/ccpmvf6lgmnpforavvbrvwi4t5zoiosfy62jj2u37b4g5lsm5yib.py":59:66)
#loc44 = loc("./local_cache/cp/ccpmvf6lgmnpforavvbrvwi4t5zoiosfy62jj2u37b4g5lsm5yib.py":59:56)
#loc45 = loc("./local_cache/cp/ccpmvf6lgmnpforavvbrvwi4t5zoiosfy62jj2u37b4g5lsm5yib.py":59:118)
#loc46 = loc("./local_cache/cp/ccpmvf6lgmnpforavvbrvwi4t5zoiosfy62jj2u37b4g5lsm5yib.py":61:24)
#loc47 = loc("./local_cache/cp/ccpmvf6lgmnpforavvbrvwi4t5zoiosfy62jj2u37b4g5lsm5yib.py":63:24)
#loc48 = loc("./local_cache/cp/ccpmvf6lgmnpforavvbrvwi4t5zoiosfy62jj2u37b4g5lsm5yib.py":64:29)
#loc49 = loc("./local_cache/cp/ccpmvf6lgmnpforavvbrvwi4t5zoiosfy62jj2u37b4g5lsm5yib.py":64:53)
#loc50 = loc("./local_cache/cp/ccpmvf6lgmnpforavvbrvwi4t5zoiosfy62jj2u37b4g5lsm5yib.py":52:4)
#loc51 = loc(fused[#loc10, #loc9])
#loc52 = loc(fused[#loc12, #loc3])
#loc53 = loc(callsite(#loc24 at #loc25))
#loc55 = loc(callsite(#loc26 at #loc24))
#loc56 = loc(fused[#loc41, #loc40])
#loc57 = loc(fused[#loc43, #loc3])
#loc58 = loc(callsite(#loc55 at #loc25))
