#loc = loc("./local_cache/tr/ctrdaubodzs5bsh5lodmk3ijrrhhh6yee4zoghuc4e5tatvr6jr7.py":18:0)
module {
  tt.func public @triton_poi_fused_clone_6(%arg0: !tt.ptr<f16> {tt.divisibility = 16 : i32} loc("./local_cache/tr/ctrdaubodzs5bsh5lodmk3ijrrhhh6yee4zoghuc4e5tatvr6jr7.py":18:0), %arg1: !tt.ptr<f32> {tt.divisibility = 16 : i32} loc("./local_cache/tr/ctrdaubodzs5bsh5lodmk3ijrrhhh6yee4zoghuc4e5tatvr6jr7.py":18:0), %arg2: !tt.ptr<f16> {tt.divisibility = 16 : i32} loc("./local_cache/tr/ctrdaubodzs5bsh5lodmk3ijrrhhh6yee4zoghuc4e5tatvr6jr7.py":18:0), %arg3: i32 loc("./local_cache/tr/ctrdaubodzs5bsh5lodmk3ijrrhhh6yee4zoghuc4e5tatvr6jr7.py":18:0), %arg4: i32 {tt.divisibility = 16 : i32} loc("./local_cache/tr/ctrdaubodzs5bsh5lodmk3ijrrhhh6yee4zoghuc4e5tatvr6jr7.py":18:0)) attributes {noinline = false} {
    %cst = arith.constant dense<0.000000e+00> : tensor<128xf16> loc(#loc1)
    %cst_0 = arith.constant dense<0.000000e+00> : tensor<128xf32> loc(#loc1)
    %cst_1 = arith.constant dense<-64> : tensor<128xi32> loc(#loc1)
    %cst_2 = arith.constant dense<64> : tensor<128xi64> loc(#loc1)
    %cst_3 = arith.constant dense<64> : tensor<128xi32> loc(#loc1)
    %cst_4 = arith.constant dense<4096> : tensor<128xi32> loc(#loc1)
    %cst_5 = arith.constant dense<128> : tensor<128xi32> loc(#loc1)
    %c128_i32 = arith.constant 128 : i32 loc(#loc1)
    %0 = tt.get_program_id x : i32 loc(#loc2)
    %1 = arith.muli %0, %c128_i32 : i32 loc(#loc3)
    %2 = tt.make_range {end = 128 : i32, start = 0 : i32} : tensor<128xi32> loc(#loc4)
    %3 = tt.splat %1 : i32 -> tensor<128xi32> loc(#loc5)
    %4 = arith.addi %3, %2 : tensor<128xi32> loc(#loc5)
    %5 = arith.remsi %4, %cst_5 : tensor<128xi32> loc(#loc6)
    %6 = arith.divsi %4, %cst_4 : tensor<128xi32> loc(#loc7)
    %7 = tt.splat %arg0 : !tt.ptr<f16> -> tensor<128x!tt.ptr<f16>> loc(#loc8)
    %8 = tt.addptr %7, %4 : tensor<128x!tt.ptr<f16>>, tensor<128xi32> loc(#loc8)
    %9 = tt.load %8 : tensor<128x!tt.ptr<f16>> loc(#loc9)
    %10 = arith.extf %9 : tensor<128xf16> to tensor<128xf32> loc(#loc10)
    %11 = arith.remsi %5, %cst_3 : tensor<128xi32> loc(#loc11)
    %12 = tt.splat %arg3 : i32 -> tensor<128xi32> loc(#loc12)
    %13 = arith.muli %12, %11 : tensor<128xi32> loc(#loc12)
    %14 = arith.addi %6, %13 : tensor<128xi32> loc(#loc13)
    %15 = tt.splat %arg1 : !tt.ptr<f32> -> tensor<128x!tt.ptr<f32>> loc(#loc14)
    %16 = tt.addptr %15, %14 : tensor<128x!tt.ptr<f32>>, tensor<128xi32> loc(#loc14)
    %17 = tt.load %16 evictionPolicy = evict_last : tensor<128x!tt.ptr<f32>> loc(#loc15)
    %18 = arith.extsi %5 : tensor<128xi32> to tensor<128xi64> loc(#loc16)
    %19 = arith.cmpi sge, %18, %cst_2 : tensor<128xi64> loc(#loc16)
    %20 = arith.addi %4, %cst_1 : tensor<128xi32> loc(#loc17)
    %21 = tt.addptr %7, %20 : tensor<128x!tt.ptr<f16>>, tensor<128xi32> loc(#loc18)
    %22 = tt.load %21, %19, %cst : tensor<128x!tt.ptr<f16>> loc(#loc19)
    %23 = arith.extf %22 : tensor<128xf16> to tensor<128xf32> loc(#loc20)
    %24 = tt.load %16, %19, %cst_0 evictionPolicy = evict_last : tensor<128x!tt.ptr<f32>> loc(#loc21)
    %25 = math.sin %24 : tensor<128xf32> loc(#loc22)
    %26 = arith.mulf %23, %25 : tensor<128xf32> loc(#loc23)
    %27 = arith.subf %cst_0, %26 : tensor<128xf32> loc(#loc24)
    %28 = arith.select %19, %27, %cst_0 : tensor<128xi1>, tensor<128xf32> loc(#loc44)
    %29 = arith.cmpi slt, %18, %cst_2 : tensor<128xi64> loc(#loc27)
    %30 = arith.addi %4, %cst_3 : tensor<128xi32> loc(#loc28)
    %31 = tt.addptr %7, %30 : tensor<128x!tt.ptr<f16>>, tensor<128xi32> loc(#loc29)
    %32 = tt.load %31, %29, %cst : tensor<128x!tt.ptr<f16>> loc(#loc30)
    %33 = arith.extf %32 : tensor<128xf16> to tensor<128xf32> loc(#loc31)
    %34 = tt.load %16, %29, %cst_0 evictionPolicy = evict_last : tensor<128x!tt.ptr<f32>> loc(#loc32)
    %35 = math.sin %34 : tensor<128xf32> loc(#loc33)
    %36 = arith.mulf %33, %35 : tensor<128xf32> loc(#loc34)
    %37 = arith.select %29, %36, %cst_0 : tensor<128xi1>, tensor<128xf32> loc(#loc45)
    %38 = arith.addf %28, %37 : tensor<128xf32> loc(#loc37)
    %39 = math.cos %17 : tensor<128xf32> loc(#loc38)
    %40 = arith.mulf %10, %39 : tensor<128xf32> loc(#loc39)
    %41 = arith.addf %38, %40 : tensor<128xf32> loc(#loc40)
    %42 = tt.splat %arg2 : !tt.ptr<f16> -> tensor<128x!tt.ptr<f16>> loc(#loc41)
    %43 = tt.addptr %42, %4 : tensor<128x!tt.ptr<f16>>, tensor<128xi32> loc(#loc41)
    %44 = arith.truncf %41 : tensor<128xf32> to tensor<128xf16> loc(#loc42)
    tt.store %43, %44 : tensor<128x!tt.ptr<f16>> loc(#loc42)
    tt.return loc(#loc43)
  } loc(#loc)
} loc(#loc)
#loc1 = loc(unknown)
#loc2 = loc("./local_cache/tr/ctrdaubodzs5bsh5lodmk3ijrrhhh6yee4zoghuc4e5tatvr6jr7.py":19:28)
#loc3 = loc("./local_cache/tr/ctrdaubodzs5bsh5lodmk3ijrrhhh6yee4zoghuc4e5tatvr6jr7.py":19:33)
#loc4 = loc("./local_cache/tr/ctrdaubodzs5bsh5lodmk3ijrrhhh6yee4zoghuc4e5tatvr6jr7.py":20:36)
#loc5 = loc("./local_cache/tr/ctrdaubodzs5bsh5lodmk3ijrrhhh6yee4zoghuc4e5tatvr6jr7.py":20:23)
#loc6 = loc("./local_cache/tr/ctrdaubodzs5bsh5lodmk3ijrrhhh6yee4zoghuc4e5tatvr6jr7.py":22:19)
#loc7 = loc("./local_cache/tr/ctrdaubodzs5bsh5lodmk3ijrrhhh6yee4zoghuc4e5tatvr6jr7.py":24:19)
#loc8 = loc("./local_cache/tr/ctrdaubodzs5bsh5lodmk3ijrrhhh6yee4zoghuc4e5tatvr6jr7.py":25:31)
#loc9 = loc("./local_cache/tr/ctrdaubodzs5bsh5lodmk3ijrrhhh6yee4zoghuc4e5tatvr6jr7.py":25:36)
#loc10 = loc("./local_cache/tr/ctrdaubodzs5bsh5lodmk3ijrrhhh6yee4zoghuc4e5tatvr6jr7.py":25:45)
#loc11 = loc("./local_cache/tr/ctrdaubodzs5bsh5lodmk3ijrrhhh6yee4zoghuc4e5tatvr6jr7.py":26:47)
#loc12 = loc("./local_cache/tr/ctrdaubodzs5bsh5lodmk3ijrrhhh6yee4zoghuc4e5tatvr6jr7.py":26:42)
#loc13 = loc("./local_cache/tr/ctrdaubodzs5bsh5lodmk3ijrrhhh6yee4zoghuc4e5tatvr6jr7.py":26:36)
#loc14 = loc("./local_cache/tr/ctrdaubodzs5bsh5lodmk3ijrrhhh6yee4zoghuc4e5tatvr6jr7.py":26:31)
#loc15 = loc("./local_cache/tr/ctrdaubodzs5bsh5lodmk3ijrrhhh6yee4zoghuc4e5tatvr6jr7.py":26:54)
#loc16 = loc("./local_cache/tr/ctrdaubodzs5bsh5lodmk3ijrrhhh6yee4zoghuc4e5tatvr6jr7.py":29:19)
#loc17 = loc("./local_cache/tr/ctrdaubodzs5bsh5lodmk3ijrrhhh6yee4zoghuc4e5tatvr6jr7.py":30:38)
#loc18 = loc("./local_cache/tr/ctrdaubodzs5bsh5lodmk3ijrrhhh6yee4zoghuc4e5tatvr6jr7.py":30:30)
#loc19 = loc("./local_cache/tr/ctrdaubodzs5bsh5lodmk3ijrrhhh6yee4zoghuc4e5tatvr6jr7.py":30:43)
#loc20 = loc("./local_cache/tr/ctrdaubodzs5bsh5lodmk3ijrrhhh6yee4zoghuc4e5tatvr6jr7.py":30:63)
#loc21 = loc("./local_cache/tr/ctrdaubodzs5bsh5lodmk3ijrrhhh6yee4zoghuc4e5tatvr6jr7.py":31:53)
#loc22 = loc("./local_cache/tr/ctrdaubodzs5bsh5lodmk3ijrrhhh6yee4zoghuc4e5tatvr6jr7.py":32:23)
#loc23 = loc("./local_cache/tr/ctrdaubodzs5bsh5lodmk3ijrrhhh6yee4zoghuc4e5tatvr6jr7.py":36:18)
#loc24 = loc("./local_cache/tr/ctrdaubodzs5bsh5lodmk3ijrrhhh6yee4zoghuc4e5tatvr6jr7.py":37:13)
#loc25 = loc("./local_cache/tr/ctrdaubodzs5bsh5lodmk3ijrrhhh6yee4zoghuc4e5tatvr6jr7.py":41:34)
#loc26 = loc("./local_cache/tr/ctrdaubodzs5bsh5lodmk3ijrrhhh6yee4zoghuc4e5tatvr6jr7.py":39:34)
#loc27 = loc("./local_cache/tr/ctrdaubodzs5bsh5lodmk3ijrrhhh6yee4zoghuc4e5tatvr6jr7.py":42:19)
#loc28 = loc("./local_cache/tr/ctrdaubodzs5bsh5lodmk3ijrrhhh6yee4zoghuc4e5tatvr6jr7.py":43:36)
#loc29 = loc("./local_cache/tr/ctrdaubodzs5bsh5lodmk3ijrrhhh6yee4zoghuc4e5tatvr6jr7.py":43:31)
#loc30 = loc("./local_cache/tr/ctrdaubodzs5bsh5lodmk3ijrrhhh6yee4zoghuc4e5tatvr6jr7.py":43:41)
#loc31 = loc("./local_cache/tr/ctrdaubodzs5bsh5lodmk3ijrrhhh6yee4zoghuc4e5tatvr6jr7.py":43:62)
#loc32 = loc("./local_cache/tr/ctrdaubodzs5bsh5lodmk3ijrrhhh6yee4zoghuc4e5tatvr6jr7.py":44:54)
#loc33 = loc("./local_cache/tr/ctrdaubodzs5bsh5lodmk3ijrrhhh6yee4zoghuc4e5tatvr6jr7.py":45:24)
#loc34 = loc("./local_cache/tr/ctrdaubodzs5bsh5lodmk3ijrrhhh6yee4zoghuc4e5tatvr6jr7.py":49:20)
#loc35 = loc("./local_cache/tr/ctrdaubodzs5bsh5lodmk3ijrrhhh6yee4zoghuc4e5tatvr6jr7.py":52:35)
#loc36 = loc("./local_cache/tr/ctrdaubodzs5bsh5lodmk3ijrrhhh6yee4zoghuc4e5tatvr6jr7.py":51:35)
#loc37 = loc("./local_cache/tr/ctrdaubodzs5bsh5lodmk3ijrrhhh6yee4zoghuc4e5tatvr6jr7.py":53:20)
#loc38 = loc("./local_cache/tr/ctrdaubodzs5bsh5lodmk3ijrrhhh6yee4zoghuc4e5tatvr6jr7.py":54:24)
#loc39 = loc("./local_cache/tr/ctrdaubodzs5bsh5lodmk3ijrrhhh6yee4zoghuc4e5tatvr6jr7.py":58:20)
#loc40 = loc("./local_cache/tr/ctrdaubodzs5bsh5lodmk3ijrrhhh6yee4zoghuc4e5tatvr6jr7.py":59:20)
#loc41 = loc("./local_cache/tr/ctrdaubodzs5bsh5lodmk3ijrrhhh6yee4zoghuc4e5tatvr6jr7.py":60:25)
#loc42 = loc("./local_cache/tr/ctrdaubodzs5bsh5lodmk3ijrrhhh6yee4zoghuc4e5tatvr6jr7.py":60:37)
#loc43 = loc("./local_cache/tr/ctrdaubodzs5bsh5lodmk3ijrrhhh6yee4zoghuc4e5tatvr6jr7.py":60:4)
#loc44 = loc(fused[#loc25, #loc26])
#loc45 = loc(fused[#loc35, #loc36])
