#loc = loc("/tmp/torchinductor_root/gh/cghfemwp5je4gtzbsncc3ktqr4kitawxmdiwtkz7ekfqatqqwhde.py":18:0)
#loc1 = loc(unknown)
#loc53 = loc("/tmp/torchinductor_root/gh/cghfemwp5je4gtzbsncc3ktqr4kitawxmdiwtkz7ekfqatqqwhde.py":63:27)
#loc56 = loc("/tmp/torchinductor_root/gh/cghfemwp5je4gtzbsncc3ktqr4kitawxmdiwtkz7ekfqatqqwhde.py":64:27)
#loc64 = loc(callsite(#loc1 at #loc53))
#loc67 = loc(callsite(#loc1 at #loc56))
module {
  tt.func public @triton_red_fused__to_copy_add_mul_sum_14(%arg0: !tt.ptr<f16> {tt.divisibility = 16 : i32} loc("/tmp/torchinductor_root/gh/cghfemwp5je4gtzbsncc3ktqr4kitawxmdiwtkz7ekfqatqqwhde.py":18:0), %arg1: !tt.ptr<f16> {tt.divisibility = 16 : i32} loc("/tmp/torchinductor_root/gh/cghfemwp5je4gtzbsncc3ktqr4kitawxmdiwtkz7ekfqatqqwhde.py":18:0), %arg2: !tt.ptr<f16> {tt.divisibility = 16 : i32} loc("/tmp/torchinductor_root/gh/cghfemwp5je4gtzbsncc3ktqr4kitawxmdiwtkz7ekfqatqqwhde.py":18:0), %arg3: !tt.ptr<f16> {tt.divisibility = 16 : i32} loc("/tmp/torchinductor_root/gh/cghfemwp5je4gtzbsncc3ktqr4kitawxmdiwtkz7ekfqatqqwhde.py":18:0), %arg4: !tt.ptr<f32> {tt.divisibility = 16 : i32} loc("/tmp/torchinductor_root/gh/cghfemwp5je4gtzbsncc3ktqr4kitawxmdiwtkz7ekfqatqqwhde.py":18:0), %arg5: !tt.ptr<f16> {tt.divisibility = 16 : i32} loc("/tmp/torchinductor_root/gh/cghfemwp5je4gtzbsncc3ktqr4kitawxmdiwtkz7ekfqatqqwhde.py":18:0), %arg6: !tt.ptr<f16> {tt.divisibility = 16 : i32} loc("/tmp/torchinductor_root/gh/cghfemwp5je4gtzbsncc3ktqr4kitawxmdiwtkz7ekfqatqqwhde.py":18:0), %arg7: !tt.ptr<f16> {tt.divisibility = 16 : i32} loc("/tmp/torchinductor_root/gh/cghfemwp5je4gtzbsncc3ktqr4kitawxmdiwtkz7ekfqatqqwhde.py":18:0), %arg8: !tt.ptr<f32> {tt.divisibility = 16 : i32} loc("/tmp/torchinductor_root/gh/cghfemwp5je4gtzbsncc3ktqr4kitawxmdiwtkz7ekfqatqqwhde.py":18:0), %arg9: !tt.ptr<f16> {tt.divisibility = 16 : i32} loc("/tmp/torchinductor_root/gh/cghfemwp5je4gtzbsncc3ktqr4kitawxmdiwtkz7ekfqatqqwhde.py":18:0), %arg10: !tt.ptr<f16> {tt.divisibility = 16 : i32} loc("/tmp/torchinductor_root/gh/cghfemwp5je4gtzbsncc3ktqr4kitawxmdiwtkz7ekfqatqqwhde.py":18:0), %arg11: i32 {tt.divisibility = 16 : i32} loc("/tmp/torchinductor_root/gh/cghfemwp5je4gtzbsncc3ktqr4kitawxmdiwtkz7ekfqatqqwhde.py":18:0), %arg12: i32 loc("/tmp/torchinductor_root/gh/cghfemwp5je4gtzbsncc3ktqr4kitawxmdiwtkz7ekfqatqqwhde.py":18:0)) attributes {noinline = false} {
    %cst = arith.constant dense<0.000000e+00> : tensor<8x4xf16> loc(#loc1)
    %c4_i32 = arith.constant 4 : i32 loc(#loc1)
    %c0_i32 = arith.constant 0 : i32 loc(#loc1)
    %cst_0 = arith.constant dense<0.000000e+00> : tensor<1x4xf32> loc(#loc1)
    %cst_1 = arith.constant dense<4096> : tensor<1x4xi32> loc(#loc1)
    %cst_2 = arith.constant dense<0.000000e+00> : tensor<8x4xf32> loc(#loc1)
    %c8_i32 = arith.constant 8 : i32 loc(#loc1)
    %0 = tt.get_program_id x : i32 loc(#loc2)
    %1 = arith.muli %0, %c8_i32 : i32 loc(#loc3)
    %2 = tt.make_range {end = 8 : i32, start = 0 : i32} : tensor<8xi32> loc(#loc4)
    %3 = tt.expand_dims %2 {axis = 1 : i32} : tensor<8xi32> -> tensor<8x1xi32> loc(#loc5)
    %4 = tt.splat %1 : i32 -> tensor<8x1xi32> loc(#loc6)
    %5 = arith.addi %4, %3 : tensor<8x1xi32> loc(#loc6)
    %6 = tt.make_range {end = 4 : i32, start = 0 : i32} : tensor<4xi32> loc(#loc7)
    %7 = tt.expand_dims %6 {axis = 0 : i32} : tensor<4xi32> -> tensor<1x4xi32> loc(#loc8)
    %8:2 = scf.for %arg13 = %c0_i32 to %arg12 step %c4_i32 iter_args(%arg14 = %cst_2, %arg15 = %cst_2) -> (tensor<8x4xf32>, tensor<8x4xf32>)  : i32 {
      %19 = tt.splat %arg13 : i32 -> tensor<1x4xi32> loc(#loc10)
      %20 = arith.addi %19, %7 : tensor<1x4xi32> loc(#loc10)
      %21 = tt.splat %arg12 : i32 -> tensor<1x4xi32> loc(#loc11)
      %22 = arith.cmpi slt, %20, %21 : tensor<1x4xi32> loc(#loc11)
      %23 = arith.muli %20, %cst_1 : tensor<1x4xi32> loc(#loc12)
      %24 = tt.broadcast %5 : tensor<8x1xi32> -> tensor<8x4xi32> loc(#loc13)
      %25 = tt.broadcast %23 : tensor<1x4xi32> -> tensor<8x4xi32> loc(#loc13)
      %26 = arith.addi %24, %25 : tensor<8x4xi32> loc(#loc13)
      %27 = tt.splat %arg0 : !tt.ptr<f16> -> tensor<8x4x!tt.ptr<f16>> loc(#loc14)
      %28 = tt.addptr %27, %26 : tensor<8x4x!tt.ptr<f16>>, tensor<8x4xi32> loc(#loc14)
      %29 = tt.broadcast %22 : tensor<1x4xi1> -> tensor<8x4xi1> loc(#loc15)
      %30 = tt.load %28, %29, %cst evictionPolicy = evict_first : tensor<8x4x!tt.ptr<f16>> loc(#loc15)
      %31 = arith.extf %30 : tensor<8x4xf16> to tensor<8x4xf32> loc(#loc16)
      %32 = tt.splat %arg1 : !tt.ptr<f16> -> tensor<8x4x!tt.ptr<f16>> loc(#loc17)
      %33 = tt.addptr %32, %26 : tensor<8x4x!tt.ptr<f16>>, tensor<8x4xi32> loc(#loc17)
      %34 = tt.load %33, %29, %cst evictionPolicy = evict_first : tensor<8x4x!tt.ptr<f16>> loc(#loc18)
      %35 = arith.extf %34 : tensor<8x4xf16> to tensor<8x4xf32> loc(#loc19)
      %36 = tt.splat %arg2 : !tt.ptr<f16> -> tensor<8x4x!tt.ptr<f16>> loc(#loc20)
      %37 = tt.addptr %36, %26 : tensor<8x4x!tt.ptr<f16>>, tensor<8x4xi32> loc(#loc20)
      %38 = tt.load %37, %29, %cst evictionPolicy = evict_first : tensor<8x4x!tt.ptr<f16>> loc(#loc21)
      %39 = arith.extf %38 : tensor<8x4xf16> to tensor<8x4xf32> loc(#loc22)
      %40 = tt.splat %arg3 : !tt.ptr<f16> -> tensor<8x4x!tt.ptr<f16>> loc(#loc23)
      %41 = tt.addptr %40, %26 : tensor<8x4x!tt.ptr<f16>>, tensor<8x4xi32> loc(#loc23)
      %42 = tt.load %41, %29, %cst evictionPolicy = evict_first : tensor<8x4x!tt.ptr<f16>> loc(#loc24)
      %43 = arith.extf %42 : tensor<8x4xf16> to tensor<8x4xf32> loc(#loc25)
      %44 = tt.splat %arg4 : !tt.ptr<f32> -> tensor<1x4x!tt.ptr<f32>> loc(#loc26)
      %45 = tt.addptr %44, %20 : tensor<1x4x!tt.ptr<f32>>, tensor<1x4xi32> loc(#loc26)
      %46 = tt.load %45, %22, %cst_0 evictionPolicy = evict_last : tensor<1x4x!tt.ptr<f32>> loc(#loc27)
      %47 = tt.splat %arg5 : !tt.ptr<f16> -> tensor<8x4x!tt.ptr<f16>> loc(#loc28)
      %48 = tt.addptr %47, %26 : tensor<8x4x!tt.ptr<f16>>, tensor<8x4xi32> loc(#loc28)
      %49 = tt.load %48, %29, %cst evictionPolicy = evict_first : tensor<8x4x!tt.ptr<f16>> loc(#loc29)
      %50 = arith.extf %49 : tensor<8x4xf16> to tensor<8x4xf32> loc(#loc30)
      %51 = tt.splat %arg6 : !tt.ptr<f16> -> tensor<8x4x!tt.ptr<f16>> loc(#loc31)
      %52 = tt.addptr %51, %26 : tensor<8x4x!tt.ptr<f16>>, tensor<8x4xi32> loc(#loc31)
      %53 = tt.load %52, %29, %cst evictionPolicy = evict_first : tensor<8x4x!tt.ptr<f16>> loc(#loc32)
      %54 = arith.extf %53 : tensor<8x4xf16> to tensor<8x4xf32> loc(#loc33)
      %55 = tt.splat %arg7 : !tt.ptr<f16> -> tensor<8x4x!tt.ptr<f16>> loc(#loc34)
      %56 = tt.addptr %55, %26 : tensor<8x4x!tt.ptr<f16>>, tensor<8x4xi32> loc(#loc34)
      %57 = tt.load %56, %29, %cst evictionPolicy = evict_first : tensor<8x4x!tt.ptr<f16>> loc(#loc35)
      %58 = arith.extf %57 : tensor<8x4xf16> to tensor<8x4xf32> loc(#loc36)
      %59 = tt.splat %arg8 : !tt.ptr<f32> -> tensor<1x4x!tt.ptr<f32>> loc(#loc37)
      %60 = tt.addptr %59, %20 : tensor<1x4x!tt.ptr<f32>>, tensor<1x4xi32> loc(#loc37)
      %61 = tt.load %60, %22, %cst_0 evictionPolicy = evict_last : tensor<1x4x!tt.ptr<f32>> loc(#loc38)
      %62 = arith.addf %31, %35 : tensor<8x4xf32> loc(#loc39)
      %63 = arith.addf %39, %43 : tensor<8x4xf32> loc(#loc40)
      %64 = tt.broadcast %46 : tensor<1x4xf32> -> tensor<8x4xf32> loc(#loc41)
      %65 = arith.mulf %63, %64 : tensor<8x4xf32> loc(#loc41)
      %66 = arith.mulf %62, %65 : tensor<8x4xf32> loc(#loc42)
      %67 = arith.addf %arg14, %66 : tensor<8x4xf32> loc(#loc43)
      %68 = arith.select %29, %67, %arg14 : tensor<8x4xi1>, tensor<8x4xf32> loc(#loc44)
      %69 = arith.addf %50, %54 : tensor<8x4xf32> loc(#loc45)
      %70 = arith.addf %69, %58 : tensor<8x4xf32> loc(#loc46)
      %71 = tt.broadcast %61 : tensor<1x4xf32> -> tensor<8x4xf32> loc(#loc47)
      %72 = arith.mulf %39, %71 : tensor<8x4xf32> loc(#loc47)
      %73 = arith.mulf %70, %72 : tensor<8x4xf32> loc(#loc48)
      %74 = arith.addf %arg15, %73 : tensor<8x4xf32> loc(#loc49)
      %75 = arith.select %29, %74, %arg15 : tensor<8x4xi1>, tensor<8x4xf32> loc(#loc50)
      scf.yield %68, %75 : tensor<8x4xf32>, tensor<8x4xf32> loc(#loc51)
    } loc(#loc9)
    %9 = "tt.reduce"(%8#0) <{axis = 1 : i32}> ({
    ^bb0(%arg13: f32 loc(callsite(#loc1 at #loc53)), %arg14: f32 loc(callsite(#loc1 at #loc53))):
      %19 = arith.addf %arg13, %arg14 : f32 loc(#loc68)
      tt.reduce.return %19 : f32 loc(#loc63)
    }) : (tensor<8x4xf32>) -> tensor<8xf32> loc(#loc63)
    %10 = tt.expand_dims %9 {axis = 1 : i32} : tensor<8xf32> -> tensor<8x1xf32> loc(#loc55)
    %11 = "tt.reduce"(%8#1) <{axis = 1 : i32}> ({
    ^bb0(%arg13: f32 loc(callsite(#loc1 at #loc56)), %arg14: f32 loc(callsite(#loc1 at #loc56))):
      %19 = arith.addf %arg13, %arg14 : f32 loc(#loc69)
      tt.reduce.return %19 : f32 loc(#loc66)
    }) : (tensor<8x4xf32>) -> tensor<8xf32> loc(#loc66)
    %12 = tt.expand_dims %11 {axis = 1 : i32} : tensor<8xf32> -> tensor<8x1xf32> loc(#loc57)
    %13 = tt.splat %arg9 : !tt.ptr<f16> -> tensor<8x1x!tt.ptr<f16>> loc(#loc58)
    %14 = tt.addptr %13, %5 : tensor<8x1x!tt.ptr<f16>>, tensor<8x1xi32> loc(#loc58)
    %15 = arith.truncf %10 : tensor<8x1xf32> to tensor<8x1xf16> loc(#loc59)
    tt.store %14, %15 : tensor<8x1x!tt.ptr<f16>> loc(#loc59)
    %16 = tt.splat %arg10 : !tt.ptr<f16> -> tensor<8x1x!tt.ptr<f16>> loc(#loc60)
    %17 = tt.addptr %16, %5 : tensor<8x1x!tt.ptr<f16>>, tensor<8x1xi32> loc(#loc60)
    %18 = arith.truncf %12 : tensor<8x1xf32> to tensor<8x1xf16> loc(#loc61)
    tt.store %17, %18 : tensor<8x1x!tt.ptr<f16>> loc(#loc61)
    tt.return loc(#loc62)
  } loc(#loc)
} loc(#loc)
#loc2 = loc("/tmp/torchinductor_root/gh/cghfemwp5je4gtzbsncc3ktqr4kitawxmdiwtkz7ekfqatqqwhde.py":22:28)
#loc3 = loc("/tmp/torchinductor_root/gh/cghfemwp5je4gtzbsncc3ktqr4kitawxmdiwtkz7ekfqatqqwhde.py":22:33)
#loc4 = loc("/tmp/torchinductor_root/gh/cghfemwp5je4gtzbsncc3ktqr4kitawxmdiwtkz7ekfqatqqwhde.py":23:36)
#loc5 = loc("/tmp/torchinductor_root/gh/cghfemwp5je4gtzbsncc3ktqr4kitawxmdiwtkz7ekfqatqqwhde.py":23:44)
#loc6 = loc("/tmp/torchinductor_root/gh/cghfemwp5je4gtzbsncc3ktqr4kitawxmdiwtkz7ekfqatqqwhde.py":23:23)
#loc7 = loc("/tmp/torchinductor_root/gh/cghfemwp5je4gtzbsncc3ktqr4kitawxmdiwtkz7ekfqatqqwhde.py":25:27)
#loc8 = loc("/tmp/torchinductor_root/gh/cghfemwp5je4gtzbsncc3ktqr4kitawxmdiwtkz7ekfqatqqwhde.py":25:37)
#loc9 = loc("/tmp/torchinductor_root/gh/cghfemwp5je4gtzbsncc3ktqr4kitawxmdiwtkz7ekfqatqqwhde.py":30:40)
#loc10 = loc("/tmp/torchinductor_root/gh/cghfemwp5je4gtzbsncc3ktqr4kitawxmdiwtkz7ekfqatqqwhde.py":31:31)
#loc11 = loc("/tmp/torchinductor_root/gh/cghfemwp5je4gtzbsncc3ktqr4kitawxmdiwtkz7ekfqatqqwhde.py":32:29)
#loc12 = loc("/tmp/torchinductor_root/gh/cghfemwp5je4gtzbsncc3ktqr4kitawxmdiwtkz7ekfqatqqwhde.py":36:44)
#loc13 = loc("/tmp/torchinductor_root/gh/cghfemwp5je4gtzbsncc3ktqr4kitawxmdiwtkz7ekfqatqqwhde.py":36:39)
#loc14 = loc("/tmp/torchinductor_root/gh/cghfemwp5je4gtzbsncc3ktqr4kitawxmdiwtkz7ekfqatqqwhde.py":36:34)
#loc15 = loc("/tmp/torchinductor_root/gh/cghfemwp5je4gtzbsncc3ktqr4kitawxmdiwtkz7ekfqatqqwhde.py":36:51)
#loc16 = loc("/tmp/torchinductor_root/gh/cghfemwp5je4gtzbsncc3ktqr4kitawxmdiwtkz7ekfqatqqwhde.py":36:105)
#loc17 = loc("/tmp/torchinductor_root/gh/cghfemwp5je4gtzbsncc3ktqr4kitawxmdiwtkz7ekfqatqqwhde.py":37:34)
#loc18 = loc("/tmp/torchinductor_root/gh/cghfemwp5je4gtzbsncc3ktqr4kitawxmdiwtkz7ekfqatqqwhde.py":37:51)
#loc19 = loc("/tmp/torchinductor_root/gh/cghfemwp5je4gtzbsncc3ktqr4kitawxmdiwtkz7ekfqatqqwhde.py":37:105)
#loc20 = loc("/tmp/torchinductor_root/gh/cghfemwp5je4gtzbsncc3ktqr4kitawxmdiwtkz7ekfqatqqwhde.py":38:34)
#loc21 = loc("/tmp/torchinductor_root/gh/cghfemwp5je4gtzbsncc3ktqr4kitawxmdiwtkz7ekfqatqqwhde.py":38:51)
#loc22 = loc("/tmp/torchinductor_root/gh/cghfemwp5je4gtzbsncc3ktqr4kitawxmdiwtkz7ekfqatqqwhde.py":38:105)
#loc23 = loc("/tmp/torchinductor_root/gh/cghfemwp5je4gtzbsncc3ktqr4kitawxmdiwtkz7ekfqatqqwhde.py":39:34)
#loc24 = loc("/tmp/torchinductor_root/gh/cghfemwp5je4gtzbsncc3ktqr4kitawxmdiwtkz7ekfqatqqwhde.py":39:51)
#loc25 = loc("/tmp/torchinductor_root/gh/cghfemwp5je4gtzbsncc3ktqr4kitawxmdiwtkz7ekfqatqqwhde.py":39:105)
#loc26 = loc("/tmp/torchinductor_root/gh/cghfemwp5je4gtzbsncc3ktqr4kitawxmdiwtkz7ekfqatqqwhde.py":40:34)
#loc27 = loc("/tmp/torchinductor_root/gh/cghfemwp5je4gtzbsncc3ktqr4kitawxmdiwtkz7ekfqatqqwhde.py":40:41)
#loc28 = loc("/tmp/torchinductor_root/gh/cghfemwp5je4gtzbsncc3ktqr4kitawxmdiwtkz7ekfqatqqwhde.py":41:35)
#loc29 = loc("/tmp/torchinductor_root/gh/cghfemwp5je4gtzbsncc3ktqr4kitawxmdiwtkz7ekfqatqqwhde.py":41:52)
#loc30 = loc("/tmp/torchinductor_root/gh/cghfemwp5je4gtzbsncc3ktqr4kitawxmdiwtkz7ekfqatqqwhde.py":41:106)
#loc31 = loc("/tmp/torchinductor_root/gh/cghfemwp5je4gtzbsncc3ktqr4kitawxmdiwtkz7ekfqatqqwhde.py":42:35)
#loc32 = loc("/tmp/torchinductor_root/gh/cghfemwp5je4gtzbsncc3ktqr4kitawxmdiwtkz7ekfqatqqwhde.py":42:52)
#loc33 = loc("/tmp/torchinductor_root/gh/cghfemwp5je4gtzbsncc3ktqr4kitawxmdiwtkz7ekfqatqqwhde.py":42:106)
#loc34 = loc("/tmp/torchinductor_root/gh/cghfemwp5je4gtzbsncc3ktqr4kitawxmdiwtkz7ekfqatqqwhde.py":43:35)
#loc35 = loc("/tmp/torchinductor_root/gh/cghfemwp5je4gtzbsncc3ktqr4kitawxmdiwtkz7ekfqatqqwhde.py":43:52)
#loc36 = loc("/tmp/torchinductor_root/gh/cghfemwp5je4gtzbsncc3ktqr4kitawxmdiwtkz7ekfqatqqwhde.py":43:106)
#loc37 = loc("/tmp/torchinductor_root/gh/cghfemwp5je4gtzbsncc3ktqr4kitawxmdiwtkz7ekfqatqqwhde.py":44:35)
#loc38 = loc("/tmp/torchinductor_root/gh/cghfemwp5je4gtzbsncc3ktqr4kitawxmdiwtkz7ekfqatqqwhde.py":44:42)
#loc39 = loc("/tmp/torchinductor_root/gh/cghfemwp5je4gtzbsncc3ktqr4kitawxmdiwtkz7ekfqatqqwhde.py":45:22)
#loc40 = loc("/tmp/torchinductor_root/gh/cghfemwp5je4gtzbsncc3ktqr4kitawxmdiwtkz7ekfqatqqwhde.py":46:22)
#loc41 = loc("/tmp/torchinductor_root/gh/cghfemwp5je4gtzbsncc3ktqr4kitawxmdiwtkz7ekfqatqqwhde.py":48:22)
#loc42 = loc("/tmp/torchinductor_root/gh/cghfemwp5je4gtzbsncc3ktqr4kitawxmdiwtkz7ekfqatqqwhde.py":50:23)
#loc43 = loc("/tmp/torchinductor_root/gh/cghfemwp5je4gtzbsncc3ktqr4kitawxmdiwtkz7ekfqatqqwhde.py":52:25)
#loc44 = loc("/tmp/torchinductor_root/gh/cghfemwp5je4gtzbsncc3ktqr4kitawxmdiwtkz7ekfqatqqwhde.py":53:42)
#loc45 = loc("/tmp/torchinductor_root/gh/cghfemwp5je4gtzbsncc3ktqr4kitawxmdiwtkz7ekfqatqqwhde.py":54:24)
#loc46 = loc("/tmp/torchinductor_root/gh/cghfemwp5je4gtzbsncc3ktqr4kitawxmdiwtkz7ekfqatqqwhde.py":55:24)
#loc47 = loc("/tmp/torchinductor_root/gh/cghfemwp5je4gtzbsncc3ktqr4kitawxmdiwtkz7ekfqatqqwhde.py":57:24)
#loc48 = loc("/tmp/torchinductor_root/gh/cghfemwp5je4gtzbsncc3ktqr4kitawxmdiwtkz7ekfqatqqwhde.py":59:24)
#loc49 = loc("/tmp/torchinductor_root/gh/cghfemwp5je4gtzbsncc3ktqr4kitawxmdiwtkz7ekfqatqqwhde.py":61:25)
#loc50 = loc("/tmp/torchinductor_root/gh/cghfemwp5je4gtzbsncc3ktqr4kitawxmdiwtkz7ekfqatqqwhde.py":62:42)
#loc51 = loc("/tmp/torchinductor_root/gh/cghfemwp5je4gtzbsncc3ktqr4kitawxmdiwtkz7ekfqatqqwhde.py":62:8)
#loc52 = loc("/workspace/torch-compile-caching/.venv/lib/python3.11/site-packages/triton/language/standard.py":286:36)
#loc54 = loc("/workspace/torch-compile-caching/.venv/lib/python3.11/site-packages/triton/language/standard.py":256:15)
#loc55 = loc("/tmp/torchinductor_root/gh/cghfemwp5je4gtzbsncc3ktqr4kitawxmdiwtkz7ekfqatqqwhde.py":63:30)
#loc57 = loc("/tmp/torchinductor_root/gh/cghfemwp5je4gtzbsncc3ktqr4kitawxmdiwtkz7ekfqatqqwhde.py":64:30)
#loc58 = loc("/tmp/torchinductor_root/gh/cghfemwp5je4gtzbsncc3ktqr4kitawxmdiwtkz7ekfqatqqwhde.py":65:25)
#loc59 = loc("/tmp/torchinductor_root/gh/cghfemwp5je4gtzbsncc3ktqr4kitawxmdiwtkz7ekfqatqqwhde.py":65:37)
#loc60 = loc("/tmp/torchinductor_root/gh/cghfemwp5je4gtzbsncc3ktqr4kitawxmdiwtkz7ekfqatqqwhde.py":66:25)
#loc61 = loc("/tmp/torchinductor_root/gh/cghfemwp5je4gtzbsncc3ktqr4kitawxmdiwtkz7ekfqatqqwhde.py":66:37)
#loc62 = loc("/tmp/torchinductor_root/gh/cghfemwp5je4gtzbsncc3ktqr4kitawxmdiwtkz7ekfqatqqwhde.py":66:4)
#loc63 = loc(callsite(#loc52 at #loc53))
#loc65 = loc(callsite(#loc54 at #loc52))
#loc66 = loc(callsite(#loc52 at #loc56))
#loc68 = loc(callsite(#loc65 at #loc53))
#loc69 = loc(callsite(#loc65 at #loc56))
